models/GRU_VAD/training_checkpoints/tiny_vad_epoch_018_f1_0.9456.pth (torch, 17826 bytes, 9 tensors)

pre.weight f4 [48, 1, 3]
-0.064924866 0.21649922 -0.6274174 -0.44203874 -0.29816 0.026092293 0.12501994 0.61377466
0.18797761 0.12315489 -0.22758316 -0.21004935 -0.5941902 -0.43598887 -0.31411245 -0.03390139
0.18663889 0.20344223 -0.37988332 -0.23228063 0.1967575 0.39044967 -0.27610204 0.23551697
-0.12595369 0.027141826 0.5223083 -0.463045 -0.28172332 -0.07826743 -0.22014548 0.49544904
-0.39294657 -0.16433246 -0.29715312 -0.45617098 -0.3635241 0.47030005 0.24406567 0.3120052
0.05753077 -0.29442996 0.16480601 -0.48641303 -0.3630129 -0.33396494 0.32474363 0.27317828
-0.36033845 -0.11096573 0.27365333 0.54828805 0.20856227 0.05172599 0.33671433 -0.38884374
0.06966153 -0.33953875 -0.30927268 -0.17783669 0.19190861 0.15593497 -0.42587316 0.13913642
0.28509822 -0.10390958 0.077686615 0.19353803 0.40701213 0.5809634 -0.42731735 -0.22804168
0.081806906 0.57160884 1.0530887 0.81398135 0.66914755 0.40263557 -0.095763184 -0.29128405
-0.7674653 0.12394549 0.7167143 -0.77541494 0.1412974 -0.22238557 0.14529957 -0.10279176
0.5574945 -0.25363183 0.23549311 0.16270532 0.47505063 -0.022309648 -0.7511809 -0.23687074
0.44276917 0.558916 -0.60714626 0.0830729 0.8661181 0.3228083 -0.1698739 -0.0511606
-0.88751227 0.16142556 -0.6819737 -0.09506694 0.30005142 0.24217303 -0.11227522 0.15088028
-0.41694304 0.5585386 0.20122294 -0.6828415 -0.36696893 0.124290824 0.5817019 -0.18333454
0.37496543 0.18750308 -0.571784 -0.019825943 -0.8980379 -0.037782706 -0.16233602 -0.57754266
-0.096034296 -0.46560013 -0.2749768 -0.07558714 -0.39096776 -0.27304482 0.1682705 -0.34902045
-0.29005116 -0.60799176 0.10755337 0.20768864 0.81664497 0.70961744 1.0522575 0.56873786
00000000: 54f7 84bd f9b1 5d3e 6d9e 20bf e752 e2be
00000010: 6da8 98be 81bf d53c 3a05 003e 5620 1d3f
00000020: 347d 403e a238 fc3d 8f0b 69be 2d17 57be
00000030: d91c 18bf ef39 dfbe 59d3 a0be 2fdc 0abd
00000040: 441e 3f3e 2953 503e 1180 c2be f9da 6dbe
00000050: cc7a 493e 05e9 c73e 3f5d 8dbe 5c2b 713e
00000060: 01fa 00be 8958 de3c ffb5 053f 3c14 edbe
00000070: 0a3e 90be ad4a a0bd d16d 61be 7fab fd3e
00000080: 4b30 c9be c546 28be 7424 98be 3e8f e9be
00000090: d51f babe 2bcb f03e 5aec 793e 25bf 9f3e
000000a0: 62a5 6b3d 86bf 96be e8c2 283e 210b f9be
000000b0: d4dc b9be 74fd aabe cc44 a63e 06de 8b3e
000000c0: 487e b8be 0042 e3bd 4a1c 8c3e 9b5c 0c3f
000000d0: 5991 553e a2de 533d d265 ac3e 8716 c7be
000000e0: b4aa 8e3d 06d8 adbe fd58 9ebe d21a 36be
000000f0: b183 443e 6bad 1f3e 0c0c dabe c779 0e3e
00000100: 65f8 913e 8cce d4bd 291a 9f3d d52e 463e
00000110: e563 d03e 04ba 143f 57c9 dabe c283 69be
00000120: 618a a73d f554 123f 9ccb 863f 1561 503f
00000130: 414d 2b3f 4026 ce3e 7d1f c4bd 2f23 95be
00000140: 9b78 44bf 22d7 fd3d 977a 373f 9881 46bf
00000150: 44b0 103e 0bb9 63be 69c9 143e 7c84 d2bd
00000160: f6b7 0e3f 08dc 81be 1b25 713e 399c 263e
00000170: d639 f33e b9c2 b6bc 644d 40bf 3e8e 72be
00000180: a4b2 e23e 1e15 0f3f f06d 1bbf 2022 aa3d
00000190: eab9 5d3f 2147 a53e 6cf3 2dbe c78d 51bd
000001a0: 0134 63bf be4c 253e d495 2ebf 75b2 c2bd
000001b0: 57a0 993e 35fc 773e 8df0 e5bd 5c80 1a3e
000001c0: 8f79 d5be 63fc 0e3f 630d 4e3e b3ce 2ebf
000001d0: 5ae3 bbbe 308c fe3d 6aea 143f 0dbc 3bbe
000001e0: 78fb bf3e cf00 403e 7060 12bf 046a a2bc
000001f0: d0e5 65bf 0ac2 1abd 6a3b 26be d6d9 13bf
00000200: a1ad c4bd 2463 eebe c2c9 8cbe 6ecd 9abd
00000210: ed2c c8be 88cc 8bbe 1a4f 2c3e cfb2 b2be
00000220: 9681 94be 59a5 1bbf f144 dc3d 55ac 543e
00000230: a50f 513f 7da9 353f 60b0 863f ce98 113f

pre.bias f4 [48]
-0.5747861 -0.4257525 0.55419075 -0.042098865 -0.22226635 -0.5173136 -0.5607615 -0.59343404
-0.059058033 0.29830772 0.296815 -0.5787157 0.3240029 -0.5689473 -0.13876213 -0.30418292
-0.10533288 -0.06890168 -0.52304465 -0.4637517 -0.07156257 0.0038761015 -0.25390938 0.19706453
-0.58943355 0.009540531 0.53492385 -0.15725367 0.68682384 0.27419442 -0.54338145 0.56677306
-0.12602453 -0.31033728 0.50192124 -0.72424054 0.3299236 -0.17325039 0.48019704 0.25026873
0.4065702 0.28987584 -0.19910787 -0.109594576 -0.637722 0.38130778 0.6564114 0.43274122
00000000: 2f25 13bf 3bfc d9be 72df 0d3f dc6f 2cbd
00000010: ca99 63be aa6e 04bf 118e 0fbf 4beb 17bf
00000020: d6e6 71bd cabb 983e 23f8 973e b626 14bf
00000030: b5e3 a53e 88a6 11bf a917 0ebe ddbd 9bbe
00000040: c4b8 d7bd 531c 8dbd 41e6 05bf dd70 edbe
00000050: 668f 92bd 3106 7e3b 6900 82be 49cb 493e
00000060: 1ee5 16bf e34f 1c3c c5f0 083f 1b07 21be
00000070: b0d3 2f3f 3663 8c3e 0c1b 0bbf 0a18 113f
00000080: 930c 01be 87e4 9ebe e97d 003f d467 39bf
00000090: bfeb a83e 8d68 31be 63dc f53e 3923 803e
000000a0: f829 d03e 9b6a 943e efe2 4bbe 1f73 e0bd
000000b0: c041 23bf c63a c33e 940a 283f 4290 dd3e

norm.weight f4 [48]
1.2455064 1.0988452 1.1972588 1.0771246 1.0628123 0.91934115 1.0046846 1.0066695
1.0473292 0.9538769 1.0177206 0.96081686 0.99626124 1.1553944 0.9564023 0.9566018
1.0515708 0.97126454 0.9822038 0.96163684 1.1412046 0.9665041 1.0881444 1.1466066
1.236724 1.2261772 1.144318 1.1789186 1.1541977 1.0943565 1.041741 1.2471341
1.2036698 1.1528745 1.1678396 1.2166829 1.1642244 1.0151232 1.1314772 1.2349713
1.1868111 1.2340198 1.1054039 1.0790948 1.1458372 1.3129553 1.2064489 1.2227403
00000000: c16c 9f3f f6a6 8c3f c73f 993f 38df 893f
00000010: 3c0a 883f f159 6b3f 8199 803f 8cda 803f
00000020: e20e 863f 4731 743f ab44 823f 18f8 753f
00000030: fa0a 7f3f f7e3 933f c8d6 743f dbe3 743f
00000040: df99 863f cba4 783f b571 7b3f d52d 763f
00000050: fe12 923f d06c 773f 5148 8b3f 01c4 923f
00000060: f94c 9e3f 60f3 9c3f 0379 923f cee6 963f
00000070: c0bc 933f e013 8c3f c557 853f 17a2 9f3f
00000080: da11 9a3f 6491 933f c57b 953f 44bc 9b3f
00000090: 4e05 953f 8fef 813f 3fd4 903f 8a13 9e3f
000000a0: 6de9 973f 5cf4 9d3f e07d 8d3f c71f 8a3f
000000b0: cbaa 923f eb0e a83f eb6c 9a3f c182 9c3f

norm.bias f4 [48]
-0.02069648 0.005974071 0.047089145 -0.026181089 0.020951968 0.01995534 -0.0019102517 -0.0009372003
0.03162432 -0.0037905227 -0.036444396 0.018006068 0.006809925 0.00022140601 -0.05148534 -0.013692509
0.049024075 0.021177614 0.04382541 -0.033179045 0.021624258 0.017080482 -0.049299315 -0.013957095
-0.0135370195 0.033908464 -0.033377454 0.07407057 -0.005407177 0.039082155 0.018045936 0.026760679
-0.0255156 0.005977646 0.012362446 -0.060607076 0.09824478 -0.0029263105 -0.006451227 0.036796022
0.01746415 0.0013516924 0.00536594 0.027217587 -0.013332058 0.00678205 0.0100006135 -0.03566153
00000000: aa8b a9bc 24c2 c33b 8ce0 403d b979 d6bc
00000010: 76a3 ab3c 6279 a33c 6961 faba 73ae 75ba
00000020: 8188 013d 6b6a 78bb b846 15bd 7681 933c
00000030: cb25 df3b 3929 6839 4be2 52bd 8c56 60bc
00000040: 78cd 483d ad7c ad3c 4682 333d c0e6 07bd
00000050: 5b25 b13c 5eec 8b3c 14ee 49bd 4dac 64bc
00000060: 60ca 5dbc 9ae3 0a3d ccb6 08bd 50b2 973d
00000070: b02e b1bb 9c14 203d 12d5 933c 3639 db3c
00000080: 1706 d1bc 21e0 c33b db8b 4a3c 203f 78bd
00000090: 8f34 c93d 58c7 3fbb d064 d3bb 6db7 163d
000000a0: fa10 8f3c 452b b13a c4d4 af3b 6bf7 de3c
000000b0: b46e 5abc f53b de3b 9dd9 233c d311 12bd

gru.weight_ih_l0 f4 [48, 48]
0.103595644 0.19978485 -0.24099173 -0.16432929 -0.16542627 0.07207226 -0.10500537 -0.021381272
0.045464784 0.15845738 -0.13772859 -0.13721883 -0.19713785 0.1330778 -0.06547624 0.21642323
0.13605401 0.028526356 -0.043736327 -0.04069137 0.14122482 -0.100868024 -0.028660135 0.076719165
-0.27842695 -0.38186306 0.27283552 -0.20763141 0.08420415 0.180571 0.02295913 0.088862844
-0.2808513 0.013110896 -0.1050638 -0.1258663 -0.06970946 -0.10187861 0.09188696 0.1626133
0.06900951 0.3075414 0.066073164 -0.23061225 0.069593355 0.0097076595 -0.09468813 -0.029142493
0.57163835 0.5511095 -0.33513537 0.14277445 0.26992634 -0.34560964 0.27707192 -0.2733941
-0.060329437 0.01794857 -0.11875192 0.034903787 0.20076312 -0.15787643 -0.12922467 -0.12753528
-0.2650702 0.10005189 -0.17522335 -0.18852273 -0.08566962 0.13983615 0.14053923 0.15052904
-0.050992686 -0.2624543 -0.26071143 0.10090824 0.20226245 0.06985097 -0.17197326 -0.2345655
-0.15273237 0.014325988 -0.14910106 -0.35290787 0.12743995 -0.22427922 -0.10424659 -0.041881334
-0.013290426 -0.30316487 -0.38710752 0.02532934 -0.047176126 0.2784352 -0.10537611 0.017117096
-0.124540865 -0.05245088 -0.093427956 0.07196677 0.06609295 -0.009888514 -0.047644664 -0.1669927
0.14877674 -0.15739886 0.1271483 -0.06627164 -0.14960083 0.009810893 -0.112367034 0.041587185
0.11806607 -0.20391262 0.037246335 0.12268297 0.13380545 -0.04810876 -0.25142294 -0.04214694
0.046868425 -0.045173097 0.11203891 0.13896246 -0.08763674 0.023866707 0.08291799 0.049920797
0.16432406 0.06738657 -0.18083517 -0.011312781 0.25719664 0.19051954 0.18427804 0.0791708
0.14668207 -0.057046562 -0.23334901 -0.20090498 0.21685696 0.20393273 -0.13655263 0.11048895
0.2327702 0.33313772 0.09266341 0.27148414 0.0068507744 -0.1187835 0.28580487 0.109418266
-0.19331932 0.2653189 0.13651964 0.17978016 -0.23653388 0.04150395 -0.027624477 0.13978586
-0.001416714 0.043883525 0.03375479 0.16209354 -0.100724764 0.06868713 -0.24791215 0.07612225
-0.17484963 -0.29811558 -0.24878956 0.15465303 0.14904384 0.2985838 0.1650819 -0.2285404
-0.30777746 -0.065120555 -0.16930982 0.10878763 -0.14479788 -0.17021498 -0.24014536 -0.16365469
0.21638925 0.22742344 0.15217234 0.17298222 0.18970567 -0.040456537 0.106620796 0.19411926
0.12229945 0.28104308 0.14842026 0.06845802 -0.18844226 0.20760284 0.05186042 0.00010184092
0.020324366 -0.23424943 -0.2060741 0.09419209 0.23979513 -0.019224219 -0.16387463 0.26473936
0.14803597 0.071010366 -0.1132675 0.22360137 0.11181464 -0.23583479 0.17574406 0.21465327
-0.03331919 0.5747182 -0.1447042 0.10259062 0.21945047 0.11765089 -0.091302186 -0.12343589
-0.00931298 0.075108655 -0.0583334 0.17662078 0.15464693 -0.11702533 -0.049689345 0.29023373
0.21305493 -0.11366098 -0.034094527 -0.16977452 -0.07784796 0.15686435 -0.20898083 0.09868261
0.48982328 0.31674358 -0.46400014 0.21046273 0.34449756 -0.41011 0.39300948 -0.35341597
-0.31662723 -0.10556384 -0.042705756 0.33143318 -0.37211382 0.105377905 0.005404647 -0.03989529
00000000: f429 d43d 6694 4c3e 89c6 76be f045 28be
00000010: 8165 29be 9f9a 933d 0e0d d7bd c727 afbc
00000020: 4839 3a3d a742 223e b908 0dbe 1883 0cbe
00000030: 81de 49be 8c45 083e 6818 86bd 0d9e 5d3e
00000040: be51 0b3e 1bb0 e93c dd24 33bd feab 26bd
00000050: 3d9d 103e e593 cebd a9c8 eabc f01e 9d3d
00000060: fa8d 8ebe 8e83 c3be 19b1 8b3e 549d 54be
00000070: 3a73 ac3d 9be7 383e c914 bc3c b9fd b53d
00000080: becb 8fbe 15cf 563c b12b d7bd 18e3 00be
00000090: d5c3 8ebd bca5 d0bd 3b2f bc3d 1a84 263e
000000a0: dc54 8d3d 1176 9d3e 5e51 873d 9e25 6cbe
000000b0: f686 8e3d e00c 1f3c daeb c1bd 3dbc eebc
000000c0: e456 123f 8315 0d3f dd96 abbe 7733 123e
000000d0: c933 8a3e bff3 b0be 5fdc 8d3e 50fa 8bbe
000000e0: 001c 77bd e108 933c 3534 f3bd 46f7 0e3d
000000f0: d994 4d3e 5caa 21be 7953 04be 9c98 02be
00000100: 48b7 87be 01e8 cc3d c06d 33be 1a0c 41be
00000110: 8e73 afbd 3531 0f3e 84e9 0f3e 4924 1a3e
00000120: b5dd 50bd 6960 86be f87b 85be fba8 ce3d
00000130: e31d 4f3e 060e 8f3d c219 30be f031 70be
00000140: e065 1cbe 8cb7 6a3c f3ad 18be 57b0 b4be
00000150: 9e7f 023e 74a9 65be 3c7f d5bd c38b 2bbd
00000160: 16c0 59bc 6d38 9bbe f532 c6be 7a7f cf3c
00000170: c13b 41bd 0f8f 8e3e 6ecf d7bd 2739 8c3c
00000180: 480f ffbd bcd6 56bd 2857 bfbd 5063 933d
00000190: be5b 873d 6f03 22bc 0d27 43bd 2200 2bbe
000001a0: ee58 183e 2b2d 21be 2a33 023e 6db9 87bd
000001b0: f630 19be debd 203c b020 e6bd 5357 2a3d
000001c0: a0cc f13d 78ce 50be 9d8f 183d 3541 fb3d
000001d0: 4c04 093e b10d 45bd 82ba 80be 45a2 2cbd
000001e0: 1bf9 3f3d 6d07 39bd a874 e53d 2d4c 0e3e
000001f0: e47a b3bd 1d84 c33c e8d0 a93d c079 4c3d
00000200: 9144 283e f801 8a3d db2c 39be 3e59 39bc
00000210: 47af 833e 8e17 433e 62b3 3c3e 4d24 a23d
00000220: d333 163e a8a9 69bd 0bf3 6ebe 09ba 4dbe
00000230: c00f 5e3e bed3 503e 74d4 0bbe 0848 e23d
00000240: 505b 6e3e 0791 aa3e 50c6 bd3d f8ff 8a3e
00000250: 767c e03b c344 f3bd 0455 923e af16 e03d
00000260: 80f5 45be e1d7 873e cecb 0b3e 4a18 383e
00000270: f035 72be 0c00 2a3d ba4c e2bc 0624 0f3e
00000280: 09b1 b9ba 36bf 333d 7642 0a3d d9fb 253e
00000290: c948 cebd d7ab 8c3d afdc 7dbe fbe5 9b3d
000002a0: c80b 33be 9ba2 98be b1c2 7ebe 5d5d 1e3e
000002b0: f39e 183e fadf 983e 3b0b 293e 7f06 6abe
000002c0: 0295 9dbe ed5d 85bd 8e5f 2dbe 0dcc de3d
000002d0: e545 14be d64c 2ebe aae8 75be 1895 27be
000002e0: 2595 5d3e b1e1 683e 11d3 1b3e 4022 313e
000002f0: 3442 423e c1b5 25bd 015c da3d 33c7 463e
00000300: 2278 fa3d e1e4 8f3e 7bfb 173e b833 8c3d
00000310: 02f7 40be d795 543e 976b 543d 6d93 d538
00000320: 497f a63c 15df 6fbe 1705 53be c8e7 c03d
00000330: db8c 753e 1c7c 9dbc c0ce 27be eb8b 873e
00000340: be96 173e e26d 913d cbf8 e7bd c2f7 643e
00000350: 13ff e43d ad7e 71be 40f6 333e 11ce 5b3e
00000360: b479 08bd bb20 133f 562d 14be 081b d23d
00000370: a0b7 603e f3f2 f03d a4fc babd f5cb fcbd
00000380: 7895 18bc 91d2 993d 01ef 6ebd 14dc 343e
00000390: c45b 1e3e faaa efbd 0e87 4bbd 8499 943e
000003a0: 122b 5a3e 16c7 e8bd b4a6 0bbd 5fd9 2dbe
000003b0: c06e 9fbd 0ca1 203e 12ff 55be 1c1a ca3d
000003c0: 1eca fa3e 372c a23e 6d91 edbe 8b83 573e
000003d0: fc61 b03e f0f9 d1be 8a38 c93e f0f2 b4be
000003e0: f71c a2be db31 d8bd 3bec 2ebd 9cb1 a93e
000003f0: b485 bebe 5fd0 d73d 7719 b13b 3e69 23bd

gru.weight_hh_l0 f4 [48, 16]
-0.057616703 0.1362356 -0.26009122 -0.15337904 -0.070556946 0.09266963 -0.40959215 0.052700553
-0.11913726 -0.13012752 0.13401322 0.030433295 -0.31557223 -0.16348238 0.1046521 0.24499251
0.15027672 0.19201724 -0.29518455 -0.19626565 -0.030544406 -0.17638624 -0.050196696 -0.10542722
0.011808816 0.25257736 -0.17835969 -0.19043736 0.06798209 -0.3877842 0.12344122 -0.09723383
-0.08653462 0.033194307 0.06619693 -0.14908756 0.025645858 0.20873347 0.25077888 -0.2260704
-0.14937547 0.040573128 0.037807632 -0.2298758 -0.20741272 -0.19466709 -0.14944696 -0.12259821
-0.10526056 -0.19630633 -0.030661905 0.09243408 -0.13463427 0.07330137 -0.09511764 0.16276953
-0.15209734 0.012311138 0.21108691 0.25439885 -0.2823536 -0.0661135 -0.0027721557 -0.04682273
-0.3520153 -0.28206912 0.12424005 -0.40777922 -0.23357685 -0.04996084 -0.5784325 -0.2634071
0.06338841 -0.25343573 0.41238225 -0.48573855 0.015557767 -0.4275949 0.37728807 0.14436261
-0.15693925 0.08359182 -0.12713337 -0.18163687 -0.35908416 0.19850966 -0.23006143 0.06604456
0.040323254 0.15871777 0.22018635 0.18216477 -0.29182693 -0.0039862636 0.14525603 0.34117937
-0.3375246 -0.15889062 -0.28675002 0.08578187 0.06717778 0.20761469 0.018978963 0.1971463
0.4633704 -0.13629134 -0.13875057 -0.22367553 -0.25428194 -0.24604264 0.12073875 -0.109322034
-0.031811826 0.11500311 -0.2743714 -0.36488548 -0.2905168 0.0035268762 -0.7952156 -0.23609504
-0.33345464 0.14548743 0.2850367 0.14345038 0.09253353 -0.7741712 0.13875146 0.32485837
0.17743337 0.01137658 0.12742779 -0.37951392 0.10137008 0.39434904 -0.20476511 0.2210407
-0.17044267 0.22660026 -0.122182846 0.58671623 -0.18443944 0.3430355 -0.19897792 -0.089940295
-0.3394249 -0.20112257 0.018267147 0.0037766062 -0.047578976 0.060987152 0.17864695 -0.10303832
0.123156555 -0.18735705 0.33605552 -0.14528173 0.22295079 -0.25062534 0.2705532 -0.061578095
-0.3577798 -0.24294427 0.030627271 -0.19877137 -0.60694385 0.05815049 -0.34419355 -0.1709948
0.25622034 0.20789102 0.22447562 -0.5047548 -0.25845295 -0.7627059 0.44557115 0.2730189
-0.30103922 -0.11820737 -0.3398948 0.042515438 0.0022072066 0.07896729 -0.20369573 0.07439461
-0.19776817 -0.23042189 -0.0049863644 -0.007273313 -0.36055118 -0.16633044 -0.039841317 0.15939322
0.17267555 -0.00260317 0.2933246 0.0088179065 -0.079064086 -0.05417858 0.23562223 0.04218608
0.17798334 -0.048374515 0.026926732 0.18515268 0.10859933 0.029722594 0.00045451426 -0.20293391
-0.3752816 -0.16613178 -0.09596804 0.17718774 0.10271751 0.17912336 -0.23600265 -0.27566454
-0.19988807 -0.08553298 -0.0708416 -0.37226114 -0.21701129 -0.297437 0.07670125 -0.095085196
-0.24161786 0.13748482 -0.120970055 0.19630574 -0.12609655 0.057208434 -0.05499108 -0.24339883
-0.15392695 0.016576013 0.07661604 -0.27062878 0.098367676 -0.015231164 -0.02813221 -0.15800855
-0.45696414 -0.36035293 0.30623847 0.2586006 -0.13539721 -0.21477573 0.15597269 -0.24627258
0.143809 -0.15376613 -0.087323196 -0.32694608 0.058016106 0.09973976 0.18804571 -0.10263473
00000000: 7eff 6bbd 5881 0b3e ad2a 85be 650f 1dbe
00000010: 2980 90bd 93c9 bd3d 10b6 d1be 89dc 573d
00000020: 3cfe f3bd 2640 05be c33a 093e 3f4f f93c
00000030: af92 a1be ed67 27be d753 d63d 51df 7a3e
00000040: 24e2 193e 2ba0 443e 6e22 97be ddf9 48be
00000050: 4338 fabc 989e 34be 0d9b 4dbd 3aea d7bd
00000060: c479 413c d251 813e eca3 36be 0302 43be
00000070: 323a 8b3d a78b c6be c0ce fc3d 8822 c7bd
00000080: 1039 b1bd c1f6 073d 4292 873d 69aa 18be
00000090: 4317 d23c 3abe 553e 1766 803e 007f 67be
000000a0: e2f5 18be 0230 263d 2ddc 1a3d 9064 6bbe
000000b0: 0064 54be cf56 47be a008 19be c514 fbbd
000000c0: d992 d7bd 8704 49be ad2e fbbc 144e bd3d
000000d0: 91dd 09be 071f 963d 0acd c2bd 0ead 263e
000000e0: 68bf 1bbe a8b4 493c 2b27 583e 9140 823e
000000f0: a790 90be 8466 87bd 0ead 35bb 31c9 3fbd
00000100: 593b b4be 5d6b 90be 9171 fe3d 70c8 d0be
00000110: c52e 6fbe bda3 4cbd 2714 14bf 4cdd 86be
00000120: c8d1 813d 54c2 81be c423 d33e b9b2 f8be
00000130: 01e6 7e3c b8ed dabe e72b c13e cbd3 133e
00000140: afb4 20be 3032 ab3d 402f 02be 04ff 39be
00000150: e1d9 b7be 1e46 4b3e 3995 6bbe 5f42 873d
00000160: ff29 253d e986 223e 8878 613e 6789 3a3e
00000170: 576a 95be 349f 82bb ffbd 143e 10af ae3e
00000180: 06d0 acbe 39b4 22be e6d0 92be 68ae af3d
00000190: 8194 893d f298 543e c579 9b3c b8e0 493e
000001a0: e33e ed3e f58f 0bbe a114 0ebe 330b 65be
000001b0: 3e31 82be 9af2 7bbe e145 f73d 3be4 dfbd
000001c0: 1e4d 02bd c086 eb3d 687a 8cbe 45d2 babe
000001d0: 9ebe 94be 2a23 673b 4093 4bbf e6c2 71be
000001e0: 91ba aabe a8fa 143e 55f0 913e a8e4 123e
000001f0: 3882 bd3d 1530 46bf dd14 0e3e d653 a63e
00000200: 18b1 353e d664 3a3c 6e7c 023e a64f c2be
00000210: 1e9b cf3d 1ee8 c93e f2ad 51be 7e58 623e
00000220: 8688 2ebe e609 683e 003b fabd 0933 163f
00000230: b1dd 3cbe 59a2 af3e dec0 4bbe 9e32 b8bd
00000240: 1ac9 adbe 13f3 4dbe fca4 953c f080 773b
00000250: 2ce2 42bd aacd 793d 3aef 363e c105 d3bd
00000260: 8139 fc3d 87da 3fbe 780f ac3e bcc4 14be
00000270: 364d 643e f751 80be f385 8a3e 5039 7cbd
00000280: ea2e b7be 62c6 78be 0be6 fa3c b98a 4bbe
00000290: ac60 1bbf 352f 6e3d 233a b0be 4319 2fbe
000002a0: 502f 833e 62e1 543e f0dc 653e 9c37 01bf
000002b0: f253 84be b240 43bf e721 e43e 22c9 8b3e
000002c0: d021 9abe b516 f2bd b106 aebe ab24 2e3d
000002d0: c8a6 103b 9ab9 a13d 9d95 50be 345c 983d
000002e0: bd83 4abe b7f3 6bbe a864 a3bb f954 eebb
000002f0: 2a9a b8be 8752 2abe a630 23bd fa37 233e
00000300: dcd1 303e f299 2abb a42e 963e fb78 103c
00000310: 5aec a1bd 5cea 5dbd f446 713e 50cb 2c3d
00000320: 4441 363e 5b24 46bd 7395 dc3c aa98 3d3e
00000330: 5369 de3d cc7c f33c df4b ee39 e8cd 4fbe
00000340: e924 c0be 731e 2abe e48a c4bd b470 353e
00000350: 8f5d d23d 1d6c 373e aeaa 71be e723 8dbe
00000360: 75af 4cbe ea2b afbd 6715 91bd 0399 bebe
00000370: 3538 5ebe aa49 98be 8c15 9d3d 07bc c2bd
00000380: ac6a 77be d2c8 0c3e 26bf f7bd 5f04 493e
00000390: 741f 01be 6453 6a3d 543e 61bd 8b3d 79be
000003a0: 079f 1dbe 6bca 873c dfe8 9c3d db8f 8abe
000003b0: fe74 c93d 228c 79bc 8575 e6bc fecc 21be
000003c0: 34f7 e9be 2e80 b8be 4acb 9c3e 4c67 843e
000003d0: 91a5 0abe 2bee 5bbe 4eb7 1f3e e12e 7cbe
000003e0: ab42 133e de74 1dbe 81d6 b2bd 7a65 a7be
000003f0: 4ca2 6d3d 5c44 cc3d 0e8f 403e 2832 d2bd

gru.bias_ih_l0 f4 [48]
0.25962704 0.14264232 -0.18335025 -0.106837906 -0.20568834 0.11207319 -0.056095522 0.0071279146
0.022644375 -0.1924147 -0.18245609 -0.050163306 -0.19356371 0.13381003 -0.02262834 0.0014644489
-0.04311373 0.2515745 0.19820991 0.40068164 -0.24496034 -0.13555224 0.3209992 -0.0015614461
0.1421071 -0.04488114 0.17775983 0.24531405 0.050165627 0.13443902 0.30365452 0.38730463
-0.2391136 0.011888951 -0.24189799 0.14964795 -0.045179818 0.00029946235 -0.1465108 -0.22255461
-0.0155702755 0.19166856 -0.08657621 -0.0035274005 0.21786633 0.19421577 -0.101257004 0.31380525
00000000: d6ed 843e d410 123e 2bc0 3bbe d5cd dabd
00000010: f79f 52be a186 e53d 6bc4 65bd 4891 e93b
00000020: b280 b93c 5c08 45be c5d5 3abe 0a78 4dbd
00000030: 9135 46be 7f05 093e 125f b9bc c0f2 bf3a
00000040: 0698 30bd 5fce 803e 8af7 4a3e 2526 cd3e
00000050: e2d6 7abe 35ce 0abe 025a a43e 70a9 ccba
00000060: 8684 113e 49d5 37bd ac06 363e 9b33 7b3e
00000070: 797a 4d3d 62aa 093e 9b78 9b3e cb4c c63e
00000080: 32da 74be e0c9 423c 1bb4 77be 503d 193e
00000090: 790e 39bd 2801 9d39 ed06 16be 5be5 63be
000000a0: 781a 7fbc c344 443e de4e b1bd f62b 67bb
000000b0: 5a18 5f3e 80e0 463e d55f cfbd 15ab a03e

gru.bias_hh_l0 f4 [48]
0.12698668 0.2798023 0.027045894 -0.16431865 -0.061515674 0.15088546 0.17873923 -0.24107757
0.25665605 -0.19784822 0.18743049 0.39041048 -0.027252274 0.047743388 0.23259254 -0.0638249
-0.19835114 -0.15448254 0.42972273 0.35672912 -0.042915475 -0.1693662 -0.0059509245 0.08748543
0.14883097 -0.07316807 0.04827894 -0.13340156 0.23756438 0.015501429 0.018474583 0.01982997
-0.2594546 0.06768164 0.026262641 0.08954266 -0.265349 0.0317781 -0.013108592 0.044955257
-0.2057245 0.031492233 0.049106367 0.10777663 -0.11904341 0.04641809 -0.16534603 0.06724724
00000000: cc08 023e 3f42 8f3e 5a8f dd3c 2643 28be
00000010: dcf7 7bbd b881 1a3e 6b07 373e 0add 76be
00000020: 6c68 833e b998 4abe c7ed 3f3e e2e3 c73e
00000030: 2940 dfbc 928e 433d bd2c 6e3e a1b6 82bd
00000040: 901c 4bbe ac30 1ebe 9e04 dc3e 33a5 b63e
00000050: 23c8 2fbd 556e 2dbe f9ff c2bb 902b b33d
00000060: 2567 183e 24d9 95bd 23c0 453d 6b9a 08be
00000070: 1444 733e b5f9 7d3c 0258 973c 7672 a23c
00000080: 3cd7 84be ac9c 8a3d c024 d73c 2462 b73d
00000090: d3db 87be c129 023d 6bc5 56bc 0123 383d
000000a0: 71a9 52be 00fe 003d c223 493d feb9 dc3d
000000b0: 08cd f3bd e520 3e3d 7850 29be ecb8 893d

fc.weight f4 [1, 16]
-0.25023407 -0.26229697 -0.068099394 -0.09582267 -0.24534279 -0.015203543 -0.1309857 -0.19207409
0.018331002 -0.21262231 0.24389675 -0.11908174 -0.21331203 -0.16509476 0.18640839 0.05818512
00000000: ae1e 80be ca4b 86be b277 8bbd ad3e c4bd
00000010: 243b 7bbe 4818 79bc 1e21 06be 12af 44be
00000020: e62a 963c aab9 59be 12c0 793e 21e1 f3bd
00000030: 786e 5abe 9a0e 29be d7e1 3e3e 8553 6e3d
