models/GRU_VAD/training_checkpoints/tiny_vad_epoch_036_f1_0.9445.pth (torch, 17826 bytes, 9 tensors)

pre.weight f4 [48, 1, 3]
-0.059955627 0.20078355 -0.6345848 -0.39426434 -0.28569263 0.04001924 0.12772577 0.6223724
0.21108146 0.15291815 -0.22137997 -0.25892958 -0.49300277 -0.3596956 -0.28763142 -0.04401272
0.17578807 0.1686104 -0.33561388 -0.1844416 0.21388935 0.35824803 -0.31544253 0.18465243
-0.15268531 0.0031344057 0.49369204 -0.4134778 -0.21431272 -0.009001589 -0.22050993 0.49387527
-0.39273798 -0.13095757 -0.2663843 -0.42304897 -0.37439454 0.46067852 0.23697217 0.31082904
0.056148198 -0.28939024 0.18554294 -0.46400973 -0.3490611 -0.3433465 0.3143068 0.25075933
-0.3649281 -0.12073852 0.25946063 0.56579685 0.23039831 0.09371404 0.31877917 -0.4023063
0.06249086 -0.32931024 -0.30612832 -0.18930332 0.17970419 0.14219813 -0.44873473 0.13932365
0.2832203 -0.10721715 0.07267513 0.18695585 0.39618778 0.57312226 -0.4390843 -0.24689113
0.12762956 0.57503504 1.0940894 0.7563082 0.8834762 0.45820335 -0.1907935 -0.3975423
-0.85715723 0.0014514135 0.6540753 -0.7715967 0.2281456 -0.2001458 0.18281971 0.15497312
0.66661316 -0.2930882 0.13388897 0.11401602 0.3995937 -0.19714755 -0.6788414 -0.23241997
0.40860265 0.57129776 -0.5920375 0.12940718 0.88188446 0.31589156 -0.25296006 -0.12634185
-0.94508684 -0.016876586 -0.57749933 -0.1131047 0.25194913 0.22259802 -0.10345549 0.0783154
-0.3445269 0.5507247 0.09988416 -0.6929779 -0.2879972 0.24931875 0.5699542 -0.06927781
0.21587528 0.30751923 -0.54689276 -0.12055175 -0.86976653 -0.0060293623 -0.27220234 -0.6029524
-0.2748057 -0.57926106 -0.4993132 -0.045754515 -0.2761435 -0.19711246 0.09688393 -0.4112775
-0.3858364 -0.71594447 0.19688457 0.2839046 0.6759349 0.7922725 1.131601 0.5888101
00000000: 0894 75bd 349a 4d3e 2674 22bf 04dd c9be
00000010: 4e46 92be 37eb 233d 8bca 023e cc53 1f3f
00000020: bd25 583e 9396 1c3e 6eb1 62be 6b92 84be
00000030: dc6a fcbe 062a b8be 6d44 93be af46 34bd
00000040: ca01 343e 34a8 2c3e 95d5 abbe 42de 3cbe
00000050: cf05 5b3e 496c b73e af81 a1be 8715 3d3e
00000060: 8a59 1cbe 9a6a 4d3b 34c5 fc3e 5db3 d3be
00000070: cb74 5bbe 677b 13bc 5bcd 61be 38dd fc3e
00000080: f414 c9be be19 06be 8663 88be e099 d8be
00000090: a4b0 bfbe 0ede eb3e d5a8 723e fc24 9f3e
000000a0: a7fb 653d f52a 94be f8fe 3d3e af92 edbe
000000b0: 23b8 b2be 1dcb afbe d2ec a03e 8763 803e
000000c0: dbd7 babe c245 f7bd 06d8 843e 10d8 103f
000000d0: 89ed 6b3e 26ed bf3d 0637 a33e 17fb cdbe
000000e0: 6af6 7f3d 5a9b a8be dabc 9cbe bbd8 41be
000000f0: 6004 383e 639c 113e 8fc0 e5be dcaa 0e3e
00000100: 4002 913e aa94 dbbd b3d6 943d 5b71 3f3e
00000110: 20d9 ca3e 24b8 123f a8cf e0be 07d1 7cbe
00000120: 53b1 023e 7f35 133f 1f0b 8c3f 6a9d 413f
00000130: 7f2b 623f a199 ea3e 5f5f 43be aa8a cbbe
00000140: a86e 5bbf 5b3d be3a 7b71 273f 5d87 45bf
00000150: 009f 693e 05f3 4cbe 1735 3b3e 46b1 1e3e
00000160: 29a7 2a3f a80f 96be 311a 093e 3b81 e93d
00000170: 8c97 cc3e 0ce1 49be 8dc8 2dbf 80ff 6dbe
00000180: 5e34 d13e 9240 123f c58f 17bf 5183 043e
00000190: 2ec3 613f 8abc a13e fb83 81be c25f 01be
000001a0: 36f1 71bf c440 8abc ffd6 13bf 70a3 e7bd
000001b0: 7aff 803e bcf0 633e 79e0 d3bd d363 a03d
000001c0: d465 b0be 4bfc 0c3f 1190 cc3d 0067 31bf
000001d0: 5e74 93be 6a4d 7f3e 85e8 113f 86e1 8dbd
000001e0: 690e 5d3e 2973 9d3e 2a01 0cbf d6e3 f6bd
000001f0: 05a9 5ebf f591 c5bb 1b5e 8bbe 175b 1abf
00000200: 55b3 8cbe 744a 14bf fba5 ffbe 1669 3bbd
00000210: ae62 8dbe d9d7 49be 156b c63d f792 d2be
00000220: 598c c5be 2348 37bf 1c9c 493e f25b 913e
00000230: 120a 2d3f 5fd2 4a3f 4dd8 903f 42bc 163f

pre.bias f4 [48]
-0.5819911 -0.4721907 0.64518255 -0.014424349 -0.20921372 -0.5116349 -0.65252644 -0.6694746
-0.064045444 0.32745084 0.306774 -0.5700761 0.30147865 -0.62582463 -0.12632743 -0.35048997
-0.123101264 -0.06289173 -0.5961607 -0.34302944 -0.17775227 0.016741933 -0.24713323 0.17592125
-0.62886316 0.028038051 0.52255714 -0.21806733 0.756294 0.3188997 -0.57585186 0.6525344
-0.1185073 -0.3337468 0.5448954 -0.7672187 0.43462783 -0.19579366 0.5583192 0.29764727
0.44637227 0.2786738 -0.23091263 -0.13827927 -0.8405141 0.39299423 0.8445733 0.4861351
00000000: 5efd 14bf fbc2 f1be af2a 253f 1b54 6cbc
00000010: 1f3c 56be 81fa 02bf f90b 27bf b062 2bbf
00000020: 422a 83bd a3a7 a73e 7b11 9d3e 82f0 11bf
00000030: 695b 9a3e 0b36 20bf fa5b 01be 6c73 b3be
00000040: 841c fcbd 61cd 80bd fd9d 18bf 8ea1 afbe
00000050: b104 36be 6126 893c 7e10 7dbe b324 343e
00000060: 2dfd 20bf 0eb0 e53c 4ec6 053f 0b4d 5fbe
00000070: 7c9c 413f d246 a33e 076b 13bf 7f0c 273f
00000080: f5b3 f2bd dce0 aabe 447e 0b3f 7268 44bf
00000090: 8a87 de3e 227e 48be 02ee 0e3f 3965 983e
000000a0: e88a e43e 55ae 8e3e 5c74 6cbe 1599 0dbe
000000b0: ef2b 57bf 8a36 c93e f535 583f b3e6 f83e

norm.weight f4 [48]
1.2410038 1.0735875 1.2342879 1.1215336 1.0299622 0.92595553 0.9982017 1.0273219
1.0378687 0.91249603 0.9827892 0.93788564 0.98808485 1.1634572 0.93213403 0.9320873
1.0305827 0.94038826 0.9943014 0.8569986 1.2290895 0.94924855 1.0499395 1.1638743
1.3279535 1.2703304 1.2221149 1.079123 1.2078729 1.1519642 1.056247 1.280962
1.1491057 1.164257 1.2117512 1.2134666 1.2463295 0.948204 1.1747396 1.2628336
1.1866713 1.1194787 1.1847404 1.1294717 1.272488 1.3865402 1.3177029 1.3240082
00000000: 36d9 9e3f 516b 893f 25fd 9d3f 6a8e 8f3f
00000010: cdd5 833f 6c0b 6d3f 268a 7f3f 497f 833f
00000020: e2d8 843f 5799 693f 1398 7b3f 4619 703f
00000030: 21f3 7c3f 2aec 943f 56a0 6e3f 469d 6e3f
00000040: 22ea 833f 49bd 703f 898a 7e3f 4364 5b3f
00000050: ce52 9d3f f401 733f 6b64 863f d5f9 943f
00000060: 61fa a93f 309a a23f 436e 9c3f b420 8a3f
00000070: 949b 9a3f 9073 933f 1a33 873f 90f6 a33f
00000080: e515 933f 6006 953f aa1a 9b3f e052 9b3f
00000090: ba87 9f3f 7fbd 723f de5d 963f 88a4 a13f
000000a0: d8e4 973f 144b 8f3f 93a5 973f 8792 903f
000000b0: e3e0 a23f 267a b13f 7daa a83f 1a79 a93f

norm.bias f4 [48]
-0.028077908 -0.0014248578 0.0668439 -0.03458463 0.013868596 0.04288638 -0.01101706 0.010228141
0.043936063 -0.018407077 -0.042895693 0.016852777 0.0093083475 0.013422484 -0.06130966 0.0015118623
0.017570607 0.043654233 0.063417904 -0.058351714 -0.012485449 0.03562863 -0.035852946 -0.0381186
-0.008800843 0.031699173 -0.0536667 0.06471129 -0.021135507 0.0155492695 0.022977268 0.01866686
-0.018901087 0.019949324 -0.0073368438 -0.04702549 0.09669425 0.008679363 -0.02023946 0.034950096
0.0014964181 -0.0068482095 0.01946371 0.03348077 -0.004184019 0.0012036692 -0.00089154876 -0.041295208
00000000: a403 e6bc 4bc2 baba 74e5 883d 9da8 0dbd
00000010: 1c39 633c a1a9 2f3d e680 34bc ef93 273c
00000020: 4df6 333d 70ca 96bc 65b3 2fbd d60e 8a3c
00000030: 0a82 183c fae9 5b3c d71f 7bbd ae29 c63a
00000040: 3cf0 8f3c c8ce 323d 3fe1 813d 3502 6fbd
00000050: c58f 4cbc 54ef 113d 8ada 12bd 4022 1cbd
00000060: 6931 10bc fed6 013d 9dd1 5bbd 5a87 843d
00000070: 5f24 adbc 5dc2 7e3c d33a bc3c 3eeb 983c
00000080: 74d6 9abc c46c a33c e869 f0bb cd9d 40bd
00000090: a307 c63d e333 0e3c 39cd a5bc d527 0f3d
000000a0: 7623 c43a f266 e0bb 5c72 9f3c 2223 093d
000000b0: 181a 89bb 70c4 9d3a d3b6 69ba 2a25 29bd

gru.weight_ih_l0 f4 [48, 48]
0.1314822 0.19090839 -0.25144288 -0.16540705 -0.17176068 0.08537048 -0.06776287 -0.019600645
0.055486076 0.15308908 -0.13514994 -0.14517541 -0.2046484 0.16379882 -0.060645767 0.2328179
0.12906224 0.030901508 -0.027206983 -0.048253927 0.20178096 -0.105960205 -0.026360968 0.09551685
-0.3492788 -0.6504627 0.39693004 -0.24425413 0.05590293 0.30428734 0.03710995 0.032033797
-0.21438414 -0.0026158525 -0.09454758 -0.101059616 -0.108589076 -0.12024717 0.06910489 0.17121217
0.065684006 0.32596084 0.12842612 -0.16790073 0.107518755 0.08118455 -0.17263366 -0.14623356
0.7539984 0.736966 -0.3641115 0.135345 0.2672625 -0.35343948 0.3100188 -0.28941563
-0.04184596 0.001475188 -0.12438715 -0.022403862 0.22526112 -0.16628328 -0.14110824 -0.10490998
-0.28935057 0.13863169 -0.22080177 -0.22194266 -0.050750744 0.13048583 0.14265004 0.17536311
-0.04628449 -0.24346115 -0.5468258 0.06442379 0.24532472 0.12539187 -0.1830526 -0.17265949
-0.06526809 0.03003552 -0.1276488 -0.39683965 0.19245666 -0.19685091 -0.023934657 0.06798927
0.030806072 -0.2994666 -0.45552832 -0.07807725 -0.08088643 0.41398582 -0.079821795 0.020378152
-0.10924588 -0.043356176 -0.15289228 0.14214878 0.09966527 -0.037536908 -0.0688914 -0.18894944
0.116555735 -0.12140151 0.15293938 -0.033518225 -0.20012742 -0.065079786 -0.075237125 0.0060107363
0.18582667 -0.24867725 0.024783408 0.17392772 0.18968777 -0.09664678 -0.32369202 0.038335983
-0.04944483 -0.005200799 0.10851285 0.012629764 -0.008602505 -0.019140799 0.050988585 0.12223162
0.13929045 0.030079488 -0.18262056 -0.06392742 0.33415824 0.19858827 0.24612449 0.11328656
0.14424483 0.041288223 -0.25242022 -0.12808944 0.15476617 0.2567766 -0.06801086 0.10507303
0.30282682 0.40840247 -0.04614353 0.2822521 0.027276916 -0.123197705 0.3170533 0.11626861
-0.19631551 0.25642908 0.14162745 0.18295488 -0.25483865 0.075274654 -0.019381316 0.13831373
-0.036959305 0.056618214 0.04950158 0.16157517 -0.10372797 0.083360165 -0.23452434 0.055994183
-0.13407479 -0.19736612 -0.34526792 0.05988304 0.12829347 0.24221312 0.18652147 -0.28011057
-0.37084472 -0.02295882 -0.21028769 0.113664255 -0.1736269 -0.17914969 -0.30636835 -0.20507936
0.19133921 0.2019496 0.16035941 0.18808107 0.21349995 -0.026341483 0.023893565 0.005339301
0.11853805 0.28518665 0.15065216 0.012042011 -0.23274885 0.2595657 0.05449472 0.037568755
0.098063014 -0.26265824 -0.23069373 0.05205613 0.2844524 -0.015094963 -0.17183508 0.30925423
0.1453373 0.11042165 -0.095669456 0.18345769 0.113388345 -0.23040967 0.1738134 0.22392099
0.04944019 0.584113 -0.15586805 0.16648832 0.22267929 0.28982767 -0.028034763 -0.15796465
-0.06541483 0.1638654 -0.19617356 0.14890239 0.1846189 -0.024257528 -0.12708339 0.37454164
0.19716638 -0.11065144 -0.059493188 -0.25587165 -0.06014922 0.07510405 -0.22394663 0.14756025
0.6544622 0.5218081 -0.71445584 0.5699844 0.57300216 -0.49712655 0.52196914 -0.355894
-0.20005079 -0.13443917 -0.1343875 0.23134145 -0.20916618 0.10466296 -0.09679401 0.029446146
00000000: 45a3 063e 7d7d 433e 1fbd 80be 7760 29be
00000010: 08e2 2fbe b8d6 ae3d 42c7 8abd 8891 a0bc
00000020: 5e45 633d 62c3 1c3e bf64 0abe dda8 14be
00000030: 5a8f 51be e1ba 273e b267 78bd d167 6e3e
00000040: e428 043e 2925 fd3c 2ee1 debc e9a5 45bd
00000050: ab9f 4e3e aa01 d9bd f5f2 d7bc 579e c33d
00000060: acd4 b2be b984 26bf 6a3a cb3e c11d 7abe
00000070: 79fa 643d 8dcb 9b3e 9a00 183d df35 033d
00000080: 8487 5bbe b96e 2bbb 29a2 c1bd 58f8 cebd
00000090: f363 debd 2644 f6bd dd86 8d3d 3e52 2f3e
000000a0: 5685 863d 57e4 a63e 2382 033e 2bee 2bbe
000000b0: cb32 dc3d 1644 a63d e1c6 30be 40be 15be
000000c0: 0a06 413f cea9 3c3f d36c babe e197 0a3e
000000d0: a1d6 883e 05f6 b4be c9ba 9e3e 492e 94be
000000e0: ab66 2bbd 185b c13a b1be febd 4e88 b7bc
000000f0: daaa 663e 2a46 2abe ae7e 10be 0bdb d6bd
00000100: c225 94be 77f5 0d3e dc19 62be f044 63be
00000110: 03e0 4fbd 149e 053e da12 123e 6392 333e
00000120: ce94 3dbd e14d 79be c7fc 0bbf 9ff0 833d
00000130: 6736 7b3e ba66 003e 2472 3bbe a6cd 30be
00000140: 47ab 85bd 0d0d f63c 5eb6 02be 912e cbbe
00000150: 5c13 453e 4993 49be 9d12 c4bc f53d 8b3d
00000160: 045d fc3c b053 99be 023b e9be f7e6 9fbd
00000170: c9a7 a5bd f3f5 d33e 9c79 a3bd 15f0 a63c
00000180: 4ebc dfbd 3f96 31bd cb8f 1cbe 738f 113e
00000190: 4e1d cc3d 4dc0 19bd ef16 8dbd f67b 41be
000001a0: c6b4 ee3d 5ba1 f8bd 249c 1c3e 684a 09bd
000001b0: 34ee 4cbe 8d48 85bd ec15 9abd b6f5 c43b
000001c0: 5949 3e3e 40a5 7ebe 9306 cb3c 1c1a 323e
000001d0: 833d 423e bfee c5bd f6ba a5be 3106 1d3d
000001e0: a986 4abd 776b aabb fc3b de3d 12ed 4e3c
000001f0: 85f1 0cbc 2acd 9cbc 68d9 503d 9254 fa3d
00000200: 28a2 0e3e 4269 f63c e200 3bbe 61ec 82bd
00000210: ca16 ab3e b95a 4b3e 0f08 7c3e c902 e83d
00000220: ebb4 133e d71d 293d 393d 81be e129 03be
00000230: 067b 1e3e 3978 833e 4749 8bbd 8730 d73d
00000240: 1e0c 9b3e 211a d13e 0001 3dbd 5983 903e
00000250: d773 df3c 144f fcbd cf54 a23e 3d1e ee3d
00000260: ef06 49be ac4a 833e c906 113e 8658 3b3e
00000270: 367a 82be 9929 9a3d 91c5 9ebc 1da2 0d3e
00000280: a462 17bd 80e8 673d 2bc2 4a3d f673 253e
00000290: 546f d4bd bcb8 aa3d 2627 70be 285a 653d
000002a0: e74a 09be 581a 4abe f5c6 b0be eb47 753d
000002b0: 5d5f 033e b706 783e 7cff 3e3e a76a 8fbe
000002c0: 5cdf bdbe 2314 bcbc a855 57be cec8 e83d
000002d0: 40cb 31be 0473 37be 50dc 9cbe 5300 52be
000002e0: 6dee 433e e0cb 4e3e 4235 243e 5398 403e
000002f0: bb9f 5a3e 18ca d7bc 70bc c33c 4ef5 ae3b
00000300: 14c4 f23d fc03 923e 8f44 1a3e db4b 453c
00000310: b755 6ebe cce5 843e db35 5f3d b2e1 193d
00000320: 43d5 c83d 247b 86be fa3a 6cbe cf38 553d
00000330: bfa3 913e dd50 77bc 89f5 2fbe 9256 9e3e
00000340: 4dd3 143e bf24 e23d 59ee c3bd 55dc 3b3e
00000350: 2638 e83d 83f0 6bbe 24fc 313e 8b4b 653e
00000360: cc81 4a3d 6e88 153f e09b 1fbe ea7b 2a3e
00000370: 0a06 643e 4b64 943e 29a9 e5bc 7cc1 21be
00000380: 36f8 85bd 55cc 273e b9e1 48be de79 183e
00000390: bd0c 3d3e b9b7 c6bc 2622 02be ecc3 bf3e
000003a0: fce5 493e 399d e2bd 21af 73bd 9c01 83be
000003b0: 075f 76bd 27d0 993d 4452 65be 091a 173e
000003c0: d68a 273f 3795 053f 94e6 36bf 7fea 113f
000003d0: 45b0 123f 5f87 febe c59f 053f bd37 b6be
000003e0: 1dda 4cbe 6caa 09be e09c 09be c6e4 6c3e
000003f0: a92f 56be 8959 d63d f03b c6bd 0b39 f13c

gru.weight_hh_l0 f4 [48, 16]
-0.026177667 0.16314544 -0.2988725 -0.23264043 -0.11030909 0.056665003 -0.5323272 0.115122244
-0.05449962 -0.1915605 0.13511547 0.0003458214 -0.3835239 -0.21209748 0.092588745 0.28075764
0.011287395 0.20115437 -0.34019756 -0.27147505 -0.14033169 -0.36563373 -0.21768135 -0.0927402
0.004200567 0.30465654 -0.11463516 -0.48689634 0.06248311 -0.6343851 0.17466971 -0.044233892
-0.16598077 0.0036773877 0.01708374 -0.12492446 -0.012811358 0.20634785 0.25372124 -0.2587867
-0.16741261 -0.02161756 0.066922106 -0.25794283 -0.24694379 -0.18984416 -0.11276791 -0.10146532
-0.1469724 -0.1545246 -0.058558714 -0.035050508 -0.21032451 0.012239789 -0.117774576 0.19923918
-0.13404189 -0.01586459 0.25077078 0.21658735 -0.3114647 -0.2404449 -0.010685143 -0.049576655
-0.3101629 -0.24303132 0.09120853 -0.4416066 -0.17449334 -0.07971786 -0.66896003 -0.28107873
-0.13854109 -0.3193918 0.42944014 -0.62568146 -0.0377577 -0.4292798 0.47559226 0.17720267
-0.051780332 0.11301518 -0.440562 -0.22301574 -0.37664926 0.13288334 -0.35126123 0.03977289
0.10371891 0.17539701 0.30660373 0.2519563 -0.29968116 -0.026390469 0.076611064 0.55827177
-0.34468883 -0.13486414 -0.30260423 0.027725535 -0.019887853 0.20117849 0.023489043 0.23402937
0.5542475 -0.20698085 -0.1220851 -0.19046535 -0.33919054 -0.33610174 0.107536964 -0.1282332
-0.10817926 0.12453513 -0.28452855 -0.5061515 -0.28641015 -0.08244308 -0.9120419 -0.25547394
-0.4572124 0.18894465 0.3743852 0.09936844 0.103696086 -0.8900765 0.24820298 0.33203366
0.18031672 -0.025002575 0.15647997 -0.2503281 0.056680005 0.48688424 -0.08626259 0.23859772
-0.16023727 0.16140981 -0.06301734 0.5373269 -0.25568146 0.4666234 -0.17012559 -0.10841078
-0.4273244 -0.31341618 -0.02225783 -0.04396124 -0.16866326 0.0014152518 0.17017102 -0.14268163
0.15551652 -0.7810753 0.49524885 -0.17161164 0.05141462 -0.38311988 0.6279522 -0.13140495
-0.2903348 -0.23594554 0.01519671 -0.108829506 -0.6170756 0.08444257 -0.37630537 -0.08530189
0.40900785 0.04787172 0.31454515 -0.45485172 -0.43266073 -0.73636746 0.48702025 0.28465545
-0.3266527 -0.1802308 -0.34376746 0.124012604 0.032794293 0.11655345 -0.2110252 0.056896187
-0.2585161 -0.2931131 0.04899497 0.07675182 -0.37213266 -0.08523831 -0.0011750329 0.16103083
0.16784859 0.0023265386 0.04429554 0.002107703 -0.06290638 0.081957765 0.16593887 -0.1342461
0.08800067 0.0058471262 0.15047407 0.173964 -0.113375284 0.009954384 0.006629204 0.22461188
-0.40044492 -0.17645003 -0.13616 0.1534583 0.078057274 0.1503601 -0.26554695 -0.2629425
-0.18214796 -0.1333693 -0.033056825 -0.3323327 -0.172508 -0.3506794 0.07220728 -0.0699239
-0.32269555 0.015372487 -0.14072692 0.205125 -0.18511985 0.06968843 -0.07650822 -0.25574705
-0.14471643 -0.13686563 0.1682882 -0.24612136 0.06498533 -0.004414459 0.11807269 -0.1466842
-0.568141 -0.38929722 0.39837092 0.32046473 -0.30319065 -0.23703097 0.24989827 -0.27879393
0.1328042 -0.26930255 -0.023396114 -0.44641903 0.047274336 0.099857144 0.23827168 -0.17588961
00000000: 8c72 d6bc 990f 273e d105 99be 4b39 6ebe
00000010: bbe9 e1bd 9019 683d 9846 08bf 36c5 eb3d
00000020: fe3a 5fbd 7028 44be b65b 0a3e 5d4f b539
00000030: 3f5d c4be 1530 59be 2b9f bd3d 77bf 8f3e
00000040: c4ee 383c 69fb 4d3e 602e aebe c7fe 8abe
00000050: 1cb3 0fbe 5834 bbbe dce7 5ebe 93ee bdbd
00000060: e9a4 893b f1fb 9b3e d7c5 eabd 7a4a f9be
00000070: 4aee 7f3d 1067 22bf 9edc 323e 992e 35bd
00000080: ddf6 29be 5400 713b 33f3 8b3c 65d8 ffbd
00000090: bbe6 51bc da4c 533e c0e7 813e b17f 84be
000000a0: 366e 2bbe 4f17 b1bc 750e 893d 1511 84be
000000b0: d5de 7cbe 8266 42be ddf2 e6bd 0dcd cfbd
000000c0: ef7f 16be b23b 1ebe 43db 6fbd 1f91 0fbd
000000d0: 4f5f 57be 6589 483c cc33 f1bd 5b05 4c3e
000000e0: 4742 09be 75f6 81bc 0765 803e 13c9 5d3e
000000f0: 4d78 9fbe 3037 76be bd10 2fbc e410 4bbd
00000100: accd 9ebe 34dd 78be 8acb ba3d 431a e2be
00000110: 62ae 32be 1e43 a3bd f740 2bbf 8de9 8fbe
00000120: b7dd 0dbe 5287 a3be 94df db3e a92c 20bf
00000130: d1a7 1abd 90ca dbbe d480 f33e 9e74 353e
00000140: 9d17 54bd 8174 e73d 5891 e1be 3d5e 64be
00000150: 2cd8 c0be 9212 083e 83d8 b3be e6e8 223d
00000160: 946a d43d 469b 333e 2afb 9c3e 6b00 813e
00000170: cf6f 99be d330 d8bc 43e6 9c3d e6ea 0e3f
00000180: 0e7b b0be d319 0abe f1ee 9abe a920 e33c
00000190: daeb a2bc bc01 4e3e 186c c03c 65a5 6f3e
000001a0: 2ae3 0d3f caf2 53be c107 fabd 5909 43be
000001b0: 62aa adbe 8715 acbe 573c dc3d 904f 03be
000001c0: 168d ddbd 460c ff3d baad 91be 2593 01bf
000001d0: 5aa4 92be ebd7 a8bd 947b 69bf 7bcd 82be
000001e0: be17 eabe b57a 413e 6baf bf3e ae81 cb3d
000001f0: 9d5e d43d 0edc 63bf ec28 7e3e 5100 aa3e
00000200: f2a4 383e 33d2 ccbc 493c 203e 012b 80be
00000210: 4b29 683d e448 f93e 71aa b0bd f652 743e
00000220: 3d15 24be 9d48 253e 3c0f 81bd 418e 093f
00000230: aee8 82be 43e9 ee3e 6735 2ebe 7906 debd
00000240: 44ca dabe 1678 a0be 0d56 b6bc b410 34bd
00000250: 10b6 2cbe f87f b93a 5041 2e3e 221b 12be
00000260: b93f 1f3e 8df4 47bf 4291 fd3e f6ba 2fbe
00000270: 2398 523d 4a28 c4be 7ac1 203f 058f 06be
00000280: c3a6 94be b59b 71be 9ffb 783c 01e2 debd
00000290: abf8 1dbf 3af0 ac3d 19ab c0be c2b2 aebd
000002a0: 7a69 d13e 2315 443d 100c a13e 53e2 e8be
000002b0: b585 ddbe 9482 3cbf b85a f93e 5cbe 913e
000002c0: 063f a7be 6c8e 38be 4a02 b0be 52fa fd3d
000002d0: 4f53 063d 93b3 ee3d fd16 58be fa0b 693d
000002e0: 395c 84be ec12 96be f3ae 483d 0f30 9d3d
000002f0: 2c88 bebe 6c91 aebd 9003 9aba 44e5 243e
00000300: 80e0 2b3e d778 183b 3d6f 353d 6321 0a3b
00000310: 0fd5 80bd 79d9 a73d e1eb 293e cf77 09be
00000320: b239 b43d 4099 bf3b e015 1a3e 9e23 323e
00000330: 4d31 e8bd b617 233c cb39 d93b a800 663e
00000340: 1e07 cdbe 51af 34be 876d 0bbe 2c24 1d3e
00000350: 7edc 9f3d 00f8 193e c5f5 87be 66a0 86be
00000360: ff84 3abe f691 08be 9866 07bd 8327 aabe
00000370: f0a5 30be 408c b3be 69e1 933d 4334 8fbd
00000380: 5a38 a5be e2dc 7b3c b81a 10be 4a0c 523e
00000390: 0f90 3dbe cfb8 8e3d 57b0 9cbd 47f1 82be
000003a0: 8b30 14be 8126 0cbe be53 2c3e 3d07 7cbe
000003b0: 0717 853d 2ba7 90bb 18d0 f13d 6234 16be
000003c0: b071 11bf f751 c7be 46f7 cb3e f413 a43e
000003d0: ce3b 9bbe 3fb8 72be 55e5 7f3e 14be 8ebe
000003e0: d3fd 073e 06e2 89be 35a9 bfbc 0991 e4be
000003f0: bca2 413d e781 cc3d 7efd 733e 681c 34be

gru.bias_ih_l0 f4 [48]
0.25968656 0.1531779 -0.13494264 -0.10849534 -0.21885514 0.094257325 -0.048536733 0.0023774477
0.013610481 -0.17379665 -0.18656516 -0.05052326 -0.12545064 0.13885227 -0.0010528842 0.016666457
-0.026322236 0.24075565 0.13362801 0.42640647 -0.24420491 -0.13400364 0.34716588 0.02484942
0.15790221 -0.03670806 0.18546428 0.23630619 0.08670047 0.14198077 0.29744932 0.3732677
-0.23484527 0.012369442 -0.2350037 0.14382045 -0.050487418 0.0042337673 -0.1477233 -0.2238868
-0.014733313 0.18465562 -0.08547565 -0.0072073876 0.21853007 0.18410705 -0.10365391 0.32458407
00000000: a3f5 843e abda 1c3e 672e 0abe ce32 debd
00000010: 901b 60be fc09 c13d 74ce 46bd f4ce 1b3b
00000020: 7ffe 5e3c c0f7 31be f00a 3fbe 7af1 4ebd
00000030: 2276 00be 4a2f 0e3e ee00 8aba 1888 883c
00000040: bba1 d7bc a688 763e c8d5 083e f351 da3e
00000050: da10 7abe 4038 09be babf b13e 0391 cb3c
00000060: 1eb1 213e 315b 16bd 59ea 3d3e 40fa 713e
00000070: 0490 b13d 6863 113e 474b 983e f21c bf3e
00000080: 477b 70be 33a9 4a3c cfa4 70be ab45 133e
00000090: e5cb 4ebd 6abb 8a3b c744 17be 9542 65be
000000a0: fe63 71bc 5d16 3d3e dc0d afbd f32b ecbb
000000b0: 59c6 5f3e 8f86 3c3e 8048 d4bd e22f a63e

gru.bias_hh_l0 f4 [48]
0.12704605 0.29033825 0.07545344 -0.16597578 -0.07468259 0.1330699 0.18629815 -0.24582802
0.24762137 -0.17923017 0.18332142 0.39005086 0.040860604 0.05278541 0.25416797 -0.048622854
-0.18155968 -0.16530134 0.36514154 0.38245395 -0.042160287 -0.16781749 0.02021562 0.11389619
0.16462608 -0.06499494 0.055983078 -0.14240941 0.27409983 0.02304292 0.012269575 0.0057930816
-0.2687545 0.03172287 0.04575596 0.08256175 -0.27642298 0.02633088 -0.010889859 0.037222557
-0.18873851 0.10504702 0.024208799 0.104718335 -0.23664916 0.037872426 -0.17079276 0.025688825
00000000: 5c18 023e 37a7 943e 5587 9a3d 8ef5 29be
00000010: 30f3 98bd 7a43 083e f1c4 3e3e 57ba 7bbe
00000020: 7590 7d3e 1d88 37be 9cb8 3b3e bfb4 c73e
00000030: 735d 273d 8435 583d 4e22 823e c228 47bd
00000040: c8ea 39be c144 29be d5f3 ba3e 01d1 c33e
00000050: 44b0 2cbd 59d8 2bbe 3a9b a53c 6842 e93d
00000060: bd93 283e 111c 85bd 834e 653d c6d3 11be
00000070: d056 8c3e 81c4 bc3c 5406 493c e4d3 bd3b
00000080: 319a 89be d7ef 013d 9a6a 3b3d 2316 a93d
00000090: 5087 8dbe dcb3 d73c 616b 32bc ae76 183d
000000a0: ab44 41be e422 d73d 8851 c63c 9176 d63d
000000b0: 2854 72be 1e20 1b3d 4ce4 2ebe 5f71 d23c

fc.weight f4 [1, 16]
-0.29841608 -0.2380295 -0.03404738 -0.041368905 -0.34356606 -0.03221726 -0.14099191 -0.17395133
-0.04896458 -0.27775156 0.25472456 -0.10083826 -0.18958241 -0.11181217 0.23193005 0.0346243
00000000: fec9 98be 01be 73be 4475 0bbd 7172 29bd
00000010: e4e7 afbe 3ff6 03bd 2f60 10be 4c20 32be
00000020: 158f 48bd 7435 8ebe 426b 823e 4a84 cebd
00000030: e421 42be c7fd e4bd 127f 6d3e 36d2 0d3d
