models/GRU_VAD/training_checkpoints/tiny_vad_epoch_034_valloss_0.0489_f1_0.8461.pth (torch, 18021 bytes, 9 tensors)

pre.weight f4 [48, 1, 3]
0.0058051255 0.2629667 -0.5993758 -0.47319 -0.3068414 0.124422275 0.012804084 0.53798056
0.16534503 0.17186834 -0.22018464 -0.22839728 -0.39455944 -0.2976823 -0.27740017 -0.08797496
0.19348143 0.2725435 -0.31875467 -0.19281694 0.21903533 0.35193092 -0.26790565 0.3408793
-0.14981191 -0.00043301514 0.4852682 -0.34075543 -0.18130696 0.010393979 -0.21746716 0.47999558
-0.4000756 -0.16479214 -0.27308849 -0.39811724 -0.3827467 0.44873634 0.21899576 0.2996527
0.04711026 -0.30099496 0.23239753 -0.4347222 -0.28816542 -0.3535229 0.31482822 0.2518113
-0.3127766 -0.09288955 0.36052138 0.4575508 0.14116353 -0.070935674 0.34259477 -0.3815798
0.08004588 -0.30308685 -0.25217974 -0.112965114 0.1993011 0.16868936 -0.44892234 0.15703207
0.29996103 -0.10451018 0.058134973 0.18470019 0.3984214 0.5775133 -0.41861746 -0.19510584
0.115731195 0.7161833 0.86678416 0.69508857 0.871817 0.1353529 -0.12309567 -0.30225313
-0.6969084 0.27490345 0.61389285 -0.83757305 0.22541985 0.289114 0.6434954 -0.08236407
0.40299106 -0.122764125 0.072978094 0.38807002 0.6160475 -0.16484028 -0.54022086 -0.40771937
0.08279103 0.15296067 -0.69025666 -0.23488942 0.50371605 0.39721945 0.089065544 -0.1001971
-0.71668094 0.16997604 -0.13166995 -0.049042415 0.04147801 0.1701263 -0.32731625 0.28794438
-0.14334045 0.38429123 0.10090816 -0.34742433 -0.5472551 0.07704069 0.43974867 0.03739795
0.0051354785 0.18437004 -0.07780464 0.013516545 -0.7504493 -0.12555607 -0.02290727 -0.12631114
0.012631721 0.08981015 0.14566563 0.36662287 -0.43366694 -0.3197599 0.17877305 -0.068544425
0.0054821195 -0.09511191 0.36690354 0.4590285 0.66767323 0.2408187 0.6000365 0.10325955
00000000: ec38 be3b 92a3 863e b170 19bf f645 f2be
00000010: 511a 9dbe 1bd1 fe3d 39c8 513c 18b9 093f
00000020: 3550 293e 41fe 2f3e 1578 61be fae0 69be
00000030: b203 cabe d069 98be 6507 8ebe 372c b4bd
00000040: ff1f 463e d28a 8b3e d033 a3be ce71 45be
00000050: cc4a 603e 4a30 b43e ee2a 89be bb87 ae3e
00000060: 4b68 19be 4f06 e3b9 1375 f83e 7f77 aebe
00000070: 88a8 39be 824b 2a3c b6af 5ebe fbc1 f53e
00000080: b6d6 ccbe 45bf 28be 41d2 8bbe 06d6 cbbe
00000090: 60f7 c3be c5c0 e53e 6d40 603e 146c 993e
000000a0: b0f6 403d 031c 9abe 9ef9 6d3e e893 debe
000000b0: 6b8a 93be f400 b5be 2a31 a13e 69ed 803e
000000c0: 4124 a0be e03c bebd 4296 b83e 1944 ea3e
000000d0: 2c8d 103e b946 91bd 9568 af3e 6d5e c3be
000000e0: 18ef a33d 332e 9bbe b41d 81be 415a e7bd
000000f0: 9615 4c3e e7bc 2c3e 26d9 e5be 04cd 203e
00000100: 7e94 993e 6f09 d6bd f01e 6e3d 0c22 3d3e
00000110: e4fd cb3e e9d7 133f 0755 d6be d3c9 47be
00000120: 7a04 ed3d ca57 373f 91e5 5d3f 53f1 313f
00000130: 662f 5f3f f399 0a3e 9519 fcbd ecc0 9abe
00000140: 9768 32bf 25c0 8c3e 1528 1d3f 306b 56bf
00000150: 76d4 663e c006 943e 1dbc 243f 7eae a8bd
00000160: d854 ce3e c26b fbbd 8a75 953d 1db1 c63e
00000170: 4ab5 1d3f e4cb 28be ea4b 0abf 98c0 d0be
00000180: 588e a93d b9a1 1c3e a9b4 30bf da86 70be
00000190: 89f3 003f 5960 cb3e ff67 b63d 2334 cdbd
000001a0: 6778 37bf 330e 2e3e 7dd4 06be b3e0 48bd
000001b0: d9e4 293d 9735 2e3e ff95 a7be 726d 933e
000001c0: d7c7 12be d2c1 c43e f0a8 ce3d 9ae1 b1be
000001d0: e918 0cbf 82c7 9d3d bd26 e13e 982e 193d
000001e0: 8447 a83b 80cb 3c3e 0a58 9fbd 8074 5d3c
000001f0: 721d 40bf c591 00be 07a8 bbbc b557 01be
00000200: 47f5 4e3c 62ee b73d 5f29 153e feb5 bb3e
00000210: 9809 debe 92b7 a3be 4810 373e 0561 8cbd
00000220: 5aa3 b33b 08ca c2bd c8da bb3e c905 eb3e
00000230: a2ec 2a3f 2d99 763e fe9b 193f be79 d33d

pre.bias f4 [48]
-0.64349353 -0.29493794 0.65257317 -0.08212114 -0.35508803 -0.30449525 -0.69927967 -0.396389
-0.1889673 0.45073527 0.36299986 -0.47705185 0.40248537 -0.509085 -0.11143299 -0.38254154
-0.4280323 -0.11400936 -0.5701348 -0.524216 -0.35032308 0.07257233 -0.39897695 0.26177457
-0.6311982 0.054687653 0.55666006 -0.15299675 0.6146828 0.28589994 -0.50658965 0.41667694
-0.050023448 -0.34266686 0.5649305 -0.58704364 0.16651465 -0.2843195 0.60243165 0.36167136
0.53018725 0.20742173 -0.46182236 -0.10331592 -0.64663655 0.5281635 0.5656761 0.53293306
00000000: febb 24bf 1b02 97be 090f 273f 212f a8bd
00000010: 19ce b5be cde6 9bbe fe03 33bf 80f3 cabe
00000020: a580 41be c6c6 e63e 1edb b93e 2440 f4be
00000030: 9012 ce3e 6553 02bf fb36 e4bd 7cdc c3be
00000040: 0d27 dbbe bd7d e9bd 5bf4 11bf 0533 06bf
00000050: 8c5d b3be cda0 943d b546 ccbe 5107 863e
00000060: 3596 21bf 2900 603d 4681 0e3f 2eab 1cbe
00000070: da5b 1d3f 7a61 923e dcaf 01bf ae56 d53e
00000080: 63e5 4cbd 0872 afbe 499f 103f 7e48 16bf
00000090: d182 2a3e 5392 91be f638 1a3f fd2c b93e
000000a0: 5aba 073f 5d66 543e fb73 ecbe 4c97 d3bd
000000b0: f989 25bf b935 073f 26d0 103f 4d6e 083f

norm.weight f4 [48]
1.4458048 1.1304618 1.2085171 1.1132026 1.0179108 1.0183127 0.97756857 1.0226464
0.9901049 0.9350069 0.9719888 0.88380766 0.9815256 1.0594093 0.8838892 0.94389427
1.3653367 0.9764735 0.9769892 0.8889898 1.5370619 0.9888856 0.9713238 0.9920402
1.2431984 1.2550913 1.0748713 1.1293637 1.2331527 1.0294068 1.039266 1.0626878
1.0995228 1.0080117 1.1453735 1.1279314 1.0445946 0.96188813 1.1752115 1.2215153
1.2597722 1.0752714 1.297527 1.0481447 1.1794835 1.1936269 1.1369938 1.1115768
00000000: 2210 b93f f9b2 903f b0b0 9a3f 6c7d 8e3f
00000010: e74a 823f 1258 823f ef41 7a3f 14e6 823f
00000020: 8477 7d3f 9d5c 6f3f 42d4 783f 3841 623f
00000030: 4345 7b3f b99a 873f 9046 623f 0ea3 713f
00000040: 5ac3 ae3f 2bfa 793f f71b 7a3f d694 633f
00000050: 72be c43f 9b27 7d3f ada8 783f 59f6 7d3f
00000060: 2021 9f3f d5a6 a03f 6295 893f fd8e 903f
00000070: f3d7 9d3f 9ac3 833f ab06 853f 2706 883f
00000080: 2abd 8c3f 8706 813f 999b 923f 0e60 903f
00000090: 47b5 853f 4d3e 763f 556d 963f 9d5a 9c3f
000000a0: 3740 a13f 7ea2 893f 5d15 a63f 9b29 863f
000000b0: 51f9 963f c4c8 983f 0389 913f 2648 8e3f

norm.bias f4 [48]
-0.06445133 0.022010487 0.07258915 -0.07555714 0.015528759 0.030065723 -0.026271535 0.016176183
0.05702279 0.01646935 -0.06172273 -0.013420421 0.018860888 -0.045694448 -0.07619339 -0.024427071
0.09450394 0.025854545 0.0548019 -0.04827827 -0.009905435 0.06313603 -0.04756817 -0.04967805
-0.024415193 0.056616936 -0.0041543534 0.06538377 0.020769717 0.07400051 0.02395277 -0.049092744
-0.026812209 -0.0236724 -0.018623335 -0.075100854 0.020112382 -0.0121719865 -0.016380902 0.048352603
0.049754195 -0.021409899 -0.084671795 0.06018691 -0.033988625 0.06261185 0.035675958 0.022172328
00000000: 0fff 83bd 564f b43c 9fa9 943d b4bd 9abd
00000010: 566c 7e3c 644c f63c 6737 d7bc ea83 843c
00000020: bb90 693d bbea 863c f9d0 7cbd 53e1 5bbc
00000030: 2682 9a3c 1a2a 3bbd 480b 9cbd 481b c8bc
00000040: 488b c13d e9cc d33c f577 603d 6fbf 45bd
00000050: 684a 22bc 774d 813d d7d6 42bd 367b 4bbd
00000060: 5f02 c8bc 29e7 673d 3e21 88bb ede7 853d
00000070: 4125 aa3c 948d 973d 9938 c43c 7915 49bd
00000080: 47a5 dbbc 9fec c1bc f78f 98bc 7ace 99bd
00000090: b9c2 a43c 036d 47bc 3e31 86bc 610d 463d
000000a0: 0ecb 4b3d d063 afbc 6868 adbd 8d86 763d
000000b0: a837 0bbd a43a 803d f420 123d bea2 b53c

gru.weight_ih_l0 f4 [48, 48]
0.42400724 0.31334335 -0.30767116 -0.11021826 -0.06962245 0.03594879 -0.06402615 -0.035430983
-0.0029770469 0.22233349 -0.1357306 -0.11156619 -0.21788436 0.12824719 -0.10228501 0.21263555
0.19715211 0.04383328 -0.00032674923 -0.058884554 -0.114085756 -0.09982824 -0.060138144 -0.1299795
-0.34417886 -0.17429554 0.027112627 0.15593317 0.09481779 0.36732826 0.090753764 -0.116791874
-0.16260393 0.09319764 -0.20048651 -0.1217243 -0.25183186 -0.13141485 -0.18536872 0.14946768
-0.016263304 -0.10836644 0.051362973 -0.31996602 0.04847788 -0.2846967 -0.18782316 0.018198833
-0.15507956 0.1878372 -0.6894777 0.52631444 0.26774168 -0.29794273 0.035652798 -0.21066873
-0.061785337 -0.03929803 -0.17830807 -0.039377436 0.29481587 -0.08732635 -0.18203019 -0.12445972
-0.25958177 0.13946399 -0.14554158 -0.16780679 -0.44097385 0.23100793 0.23027703 0.006993271
0.4382255 0.586427 0.21361603 -0.25450823 -0.2113054 -0.02352471 -0.3554988 0.1940617
-0.6000965 -0.119370125 -0.039759584 -0.25160038 -0.040843308 -0.13413201 -0.0618141 -0.076519795
-0.07408307 0.03183254 -0.29513288 0.33487108 0.00010774003 0.110518225 0.084785596 0.16112112
0.016087834 0.08813023 -0.25958756 0.10705347 0.05789708 0.030752642 -0.061692767 -0.11795401
0.21974479 -0.19904514 0.071257524 -0.12659767 -0.085527584 0.031702712 -0.1526616 0.07853332
0.09833787 -0.17103818 0.04968565 0.1048699 0.12447822 -0.033216864 -0.21727805 -0.06546635
0.024660563 -0.070557386 0.12363275 0.14749834 -0.11595562 0.010423973 0.1362849 -0.010017747
-0.04694352 0.04705334 -0.20001101 0.024182366 0.18758142 0.17210655 0.10975604 0.030296644
0.13358061 -0.12467554 -0.27900645 -0.14872618 0.25296628 0.15268989 -0.17859916 0.09020749
-0.051125992 0.18814573 0.25747603 0.21922888 -0.076568045 -0.06403725 0.07362324 0.14375341
-0.1624172 0.2261829 0.16892959 0.10329285 -0.1711247 -0.028279446 -0.093473196 0.19577925
-0.26623058 0.13946103 -0.019603897 0.028405268 -0.73562604 0.29934293 -0.025823997 -0.12966819
-0.27776548 -0.35752106 0.026623702 0.1314466 0.37066248 0.31795695 -0.0062087653 0.02361296
-0.18285002 -0.23451024 0.10982393 0.040923797 -0.17236938 -0.25549737 -0.00932057 -0.05296375
0.3920922 0.15543291 0.007970482 0.2861313 -0.0063457554 -0.002352997 0.67654943 0.7104388
0.13189112 0.39687082 0.04891599 0.3014843 0.08356058 0.032444317 0.24903928 -0.20362265
-0.24394263 -0.018124795 -0.08720168 0.29470652 0.09353297 -0.2546523 -0.0049155485 0.11131805
0.40207157 -0.17601281 -0.33285135 0.4143806 -0.12557204 -0.43114346 0.11685216 -0.08990077
-0.20678501 0.08163454 0.0733885 0.113039866 0.1964975 0.004904886 -0.12293105 -0.19619933
0.22936751 -0.10937661 0.1900739 0.21382494 0.044949498 -0.061898407 -0.114916585 0.018992858
0.142244 -0.4958028 -0.09163399 -0.31706464 -0.11714557 0.027486842 -0.22935826 0.0684447
0.4206064 0.3753704 -0.3478536 0.14978698 0.22066705 -0.3606014 0.21253978 -0.28805465
-0.3582287 -0.026380625 0.13051046 0.3221769 -0.289139 0.057100102 -0.0074926307 -0.07720211
00000000: 7a17 d93e 8a6e a03e 1387 9dbe 1cba e1bd
00000010: 3796 8ebd 0a3f 133d 2420 83bd 1420 11bd
00000020: 8f1a 43bb 64ab 633e f6fc 0abe d17c e4bd
00000030: 141d 5fbe 3b53 033e ce7a d1bd 22bd 593e
00000040: 3ee2 493e 878a 333d 8a4f abb9 ee30 71bd
00000050: cba5 e9bd c072 ccbd 6a53 76bd 5919 05be
00000060: 3638 b0be 887a 32be 4d1b de3c f2ac 1f3e
00000070: d42f c23d 7312 bc3e 1cdd b93d 9430 efbd
00000080: a581 26be 67de be3d 564c 4dbe 974a f9bd
00000090: 1bf0 80be 9d91 06be 4cd1 3dbe 0e0e 193e
000000a0: 9f3a 85bc 39ef ddbd fb61 523d 96d2 a3be
000000b0: be90 463d c4c3 91be b754 40be b815 953c
000000c0: 2dcd 1ebe 6558 403e 9c81 30bf 8bbc 063f
000000d0: 7015 893e f38b 98be ab08 123d 8bb9 57be
000000e0: 9f12 7dbd f9f6 20bd 6496 36be 3c4a 21bd
000000f0: 1bf2 963e 28d8 b2bd 1f66 3abe bde4 febd
00000100: e7e7 84be a6cf 0e3e da08 15be 8bd5 2bbe
00000110: 53c7 e1be 588d 6c3e becd 6b3e cf27 e53b
00000120: 185f e03e 1420 163f 29be 5a3e e74e 82be
00000130: 7160 58be e5b6 c0bc f003 b6be 1cb8 463e
00000140: ed9f 19bf 5378 f4bd f2da 22bd c4d1 80be
00000150: 504b 27bd e759 09be c830 7dbd 69b6 9cbd
00000160: ddb8 97bd d662 023d a81b 97be 3974 ab3e
00000170: 7df2 e138 6157 e23d 12a4 ad3d effc 243e
00000180: a2ca 833c 9f7d b43d a9e8 84be da3e db3d
00000190: 7d25 6d3d f7ec fb3c 8eb1 7cbd df91 f1bd
000001a0: c704 613e 7dd2 4bbe 77ef 913d d2a2 01be
000001b0: 1629 afbd b4da 013d 5353 1cbe 14d6 a03d
000001c0: 5d65 c93d a224 2fbe 2e83 4b3d 08c6 d63d
000001d0: 70ee fe3d 680e 08bd 237e 5ebe 3913 86bd
000001e0: f304 ca3c 6480 90bd 2b33 fd3d ce09 173e
000001f0: 247a edbd 50c9 2a3c 458e 0b3e 7a21 24bc
00000200: d947 40bd 01bb 403d b0cf 4cbe 191a c63c
00000210: 5815 403e b33c 303e c6c7 e03d ab30 f83c
00000220: 5bc9 083e e455 ffbd efd9 8ebe ad4b 18be
00000230: cc84 813e bd5a 1c3e b3e2 36be b4be b83d
00000240: 7d69 51bd 46a9 403e e6d3 833e 897d 603e
00000250: b5cf 9cbd f625 83bd c8c7 963d 1834 133e
00000260: b250 26be 7d9c 673e e1fb 2c3e 348b d33d
00000270: 503b 2fbe 4caa e7bc e06e bfbd 5b7a 483e
00000280: 604f 88be dfce 0e3e 5a98 a0bc 2ab2 e83c
00000290: fd51 3cbf 7a43 993e d98c d3bc bdc7 04be
000002a0: 4737 8ebe 000d b7be f319 da3c f099 063e
000002b0: 79c7 bd3e 41cb a23e e672 cbbb f76f c13c
000002c0: 093d 3bbe 7423 70be 5eeb e03d b69f 273d
000002d0: 9981 30be 8dd0 82be 4eb5 18bc 84f0 58bd
000002e0: 4fc0 c83e ce29 1f3e a096 023c cd7f 923e
000002f0: 0ef0 cfbb bd34 1abb 5832 2d3f 51df 353f
00000300: 770e 073e a732 cb3e 225c 483d 265c 9a3e
00000310: cf21 ab3d 55e4 043d 2704 7f3e 7582 50be
00000320: 19cc 79be 737a 94bc cb96 b2bd c6e3 963e
00000330: 378e bf3d c961 82be 9c12 a1bb b8fa e33d
00000340: 53dc cd3e b43c 34be 7e6b aabe b229 d43e
00000350: f595 00be d6be dcbe 2f50 ef3d e51d b8bd
00000360: 73bf 53be 0230 a73d b64c 963d 7281 e73d
00000370: a436 493e 2ab9 a03b 46c3 fbbd 7ae8 48be
00000380: 51df 6a3e d800 e0bd bca2 423e edf4 5a3e
00000390: f71c 383d 2f89 7dbd 6359 ebbd e996 9b3c
000003a0: 69a8 113e ddd9 fdbe 9aaa bbbd 4c56 a2be
000003b0: 04ea efbd 162c e13c e4dc 6abe bc2c 8c3d
000003c0: b959 d73e 8d30 c03e de19 b2be c261 193e
000003d0: 8bf6 613e bfa0 b8be 07a4 593e e67b 93be
000003e0: c169 b7be 2e1c d8bc 89a4 053e 5ff4 a43e
000003f0: 070a 94be cce1 693d be84 f5bb 241c 9ebd

gru.weight_hh_l0 f4 [48, 16]
0.15924117 0.24486747 -0.3549767 -0.056303166 -0.17567062 -0.032225806 -0.45797753 0.04623327
0.022564063 -0.34413832 0.20281515 0.32365885 -0.25189582 -0.020571414 -0.15735182 0.12271787
0.099978305 0.020639457 -0.1467868 -0.043538697 0.38472515 -0.119118564 0.23889355 -0.31764093
-0.16961372 -0.19265756 -0.08942045 -0.1210271 0.0055747875 -0.25587428 0.17777847 0.1613535
-0.17433782 0.08297724 0.039178643 -0.15501359 0.013292349 -0.01848932 0.0708047 -0.22597425
-0.13320176 0.028078059 0.08052202 -0.17253552 -0.3164766 -0.3965578 -0.19030091 -0.11607727
-0.27847192 -0.32830715 0.03282953 -0.23683435 -0.11518131 -0.03559397 -0.17974587 -0.07747434
-0.21431132 -0.12684965 0.20661592 0.11014889 -0.18780224 -0.1660292 -0.2437323 0.20651096
-0.01695576 -0.22761962 0.001537851 0.05969625 -0.14561813 0.23675683 0.008749183 0.16586886
0.32645395 -0.043503977 -0.18269432 0.07633145 0.17872006 0.43296802 0.2929261 0.13016382
-0.2665859 -0.06355057 -0.03489152 0.028106686 -0.27344877 0.0012304229 -0.037110314 0.2404423
0.14022279 0.13548455 0.12977192 -0.030549657 -0.39311078 0.08843358 0.35586533 0.16922769
-0.20017327 -0.062761165 -0.19053185 0.21099061 0.28334907 0.28981087 -0.11922966 0.22566302
0.21780398 -0.106852874 -0.25409728 -0.105547324 -0.042222634 0.024484282 0.075059965 -0.23557043
0.1770111 -0.22805539 -0.22353664 0.41184676 -0.3351878 0.072375335 -0.4566402 -0.2791824
-0.07850214 -0.47583836 0.5391047 0.35546333 -0.50497735 0.38434184 0.20329574 -0.110837065
-0.05798962 -0.35477653 -0.23090893 -0.14886314 -0.3329078 -0.020153778 -0.01512648 -0.25102946
-0.062981956 -0.10035745 0.09524388 0.09309269 -0.10895562 0.018280426 0.11891974 0.031922497
-0.03328384 -0.13967921 -0.2640964 0.06630872 -0.08658981 0.36943653 0.08774126 0.21430431
0.383706 -0.10537745 -0.04705503 0.078489475 -0.028212957 -0.34959427 0.22917482 0.12504086
-0.13024373 -0.3496078 -0.049124748 0.30683237 -0.4063116 0.0813764 0.0002744878 -0.024883417
0.18806024 -0.0143690845 -1.1669909e-05 -0.21978284 -0.28730193 -0.10302052 0.23768304 0.21388792
0.06968337 0.3991471 -0.30305997 -0.04988407 -0.08864773 -0.17892286 -0.12391534 0.44822705
-0.059164803 -0.10963945 -0.17859392 0.3474888 -0.34694737 -0.3074946 -0.45804363 -0.37906298
-0.32305592 -0.21108459 -0.060949262 -0.06564204 -0.2893598 -0.7080122 0.27908465 -0.2024273
0.48322484 -0.23413086 0.70027256 -0.020353101 -0.16106546 -0.5334498 0.07282123 -0.16730428
-0.32400194 -0.22931792 -0.12894326 0.30024052 0.094404094 0.106899776 -0.15163697 -0.17254493
-0.08487252 -0.028659772 -0.2333906 -0.39098236 -0.2900655 -0.36795938 0.023516227 -0.020854138
-0.16145442 0.020562036 -0.03261896 0.25730363 -0.08138688 -0.033166938 -0.38207623 -0.60054386
-0.23749086 -0.056640435 0.0029140594 -0.3527868 0.21912888 -0.04960798 0.30617303 0.005721292
-0.21104525 -0.20243718 0.13897647 0.08703121 0.10756374 -0.25901967 0.031808507 0.006532596
0.24145593 -0.37945023 -0.22415642 0.11265757 -0.44833612 -0.2895957 -0.006233991 -0.09434319
00000000: 1e10 233e 8abe 7a3e 82bf b5be 269e 66bd
00000010: 00e3 33be 35ff 03bd 087c eabe 195f 3d3d
00000020: 45d8 b83c e632 b0be c6ae 4f3e 9db6 a53e
00000030: 7df8 80be 6285 a8bc d620 21be 8253 fb3d
00000040: 6dc1 cc3d 1414 a93c 474f 16be a255 32bd
00000050: b2fa c43e 6ff4 f3bd 83a0 743e d5a1 a2be
00000060: 38af 2dbe 0648 45be 1222 b7bd 0edd f7bd
00000070: b5ac b63b f401 83be 8f0b 363e da39 253e
00000080: 9d85 32be f9ef a93d c979 203d e2bb 1ebe
00000090: 27c8 593c ea76 97bc 0e02 913d cb65 67be
000000a0: 0b66 08be f503 e63c bbe8 a43d 27ad 30be
000000b0: 3909 a2be a009 cbbe 3ede 42be ebb9 edbd
000000c0: df93 8ebe e017 a8be 4278 063d b484 72be
000000d0: 2ee4 ebbd fcca 11bd 4d0f 38be deaa 9ebd
000000e0: 6d74 5bbe e0e4 01be 2093 533e be95 e13d
000000f0: 3b4f 40be 8f03 2abe f694 79be 9c77 533e
00000100: cee6 8abc 1e15 69be b891 c93a 0e84 743d
00000110: eb1c 15be 6270 723e bc58 0f3c 87d9 293e
00000120: f924 a73e 3a31 32bd 3814 3bbe aa53 9c3d
00000130: 6402 373e fcad dd3e 69fa 953e aa49 053e
00000140: f27d 88be cd26 82bd 69ea 0ebd fe3f e63c
00000150: 7a01 8cbe 2446 a13a fc00 18bd 8236 763e
00000160: 9096 0f3e 76bc 0a3e eee2 043e 4643 fabc
00000170: d145 c9be aa1c b53d fb33 b63e 064a 2d3e
00000180: 39fa 4cbe ed88 80bd c81a 43be ec0d 583e
00000190: 2113 913e 1762 943e ae2e f4bd 3514 673e
000001a0: 0208 5f3e aed5 dabd 0a19 82be 3229 d8bd
000001b0: a4f1 2cbd 4393 c83c 0ab9 993d 6039 71be
000001c0: 6642 353e 5a87 69be cae6 64be 94dd d23e
000001d0: bc9d abbe 8539 943d bfcc e9be fff0 8ebe
000001e0: bbc5 a0bd 16a1 f3be c402 0a3f 4aff b53e
000001f0: 3246 01bf 74c8 c43e c22c 503e 8bfe e2bd
00000200: 8686 6dbd 45a5 b5be 6473 6cbe 946f 18be
00000210: e472 aabe 8919 a5bc 0ed5 77bc ef86 80be
00000220: affc 80bd 3588 cdbd 390f c33d 61a7 be3d
00000230: 2024 dfbd d5c0 953c 318c f33d 2ac1 023d
00000240: a354 08bd 1108 0fbe a537 87be decc 873d
00000250: 0056 b1bd c926 bd3e b1b1 b33d 9772 5b3e
00000260: 1d75 c43e 22d0 d7bd c6bc 40bd 17bf a03d
00000270: dc1e e7bc 05fe b2be ceac 6a3e b60a 003e
00000280: 9d5e 05be cbff b2be 0837 49bd 2219 9d3e
00000290: 1308 d0be aca8 a63d 21e9 8f39 4fd8 cbbc
000002a0: dd92 403e 4f6c 6bbc e1c9 43b7 c10e 61be
000002b0: 3d19 93be 6cfc d2bd 2f63 733e 6f05 5b3e
000002c0: 28b6 8e3d 025d cc3e ad2a 9bbe 3d53 4cbd
000002d0: f18c b5bd 8e37 37be 53c7 fdbd 047e e53e
000002e0: cb56 72bd a68a e0bd 53e1 36be 0dea b13e
000002f0: 16a3 b1be ef6f 9dbe b284 eabe 8b14 c2be
00000300: 9667 a5be 8f26 58be efa5 79bd 556f 86bd
00000310: f826 94be 4a40 35bf 2fe4 8e3e 1a49 4fbe
00000320: 3f69 f73e 00c0 6fbe 1045 333f 8cbb a6bc
00000330: 58ee 24be 2b90 08bf 4c23 953d d051 2bbe
00000340: 95e3 a5be 51d2 6abe b409 04be 20b9 993e
00000350: ef56 c13d 45ee da3d b946 1bbe 9eaf 30be
00000360: a5d1 adbd e6c7 eabc f2fd 6ebe d72e c8be
00000370: 7783 94be 2c65 bcbe 1aa5 c03c 4cd6 aabc
00000380: 4f54 25be b771 a83c 759b 05bd 4dbd 833e
00000390: 2aae a6bd 0eda 07bd 7f9f c3be 3ebd 19bf
000003a0: ce30 73be cdff 67bd cef9 3e3b 79a0 b4be
000003b0: 5263 603e bd31 4bbd b6c2 9c3e ad79 bb3b
000003c0: 3f1c 58be b14b 4fbe d94f 0e3e 6b3d b23d
000003d0: 614a dc3d 3a9e 84be a349 023d 630f d63b
000003e0: 3940 773e 4d47 c2be 4389 65be 03b9 e63d
000003f0: 508c e5be e345 94be 8246 ccbb 0137 c1bd

gru.bias_ih_l0 f4 [48]
0.26936606 0.08632438 -0.20310299 -0.15347166 -0.11643058 0.24059592 -0.08117846 0.048624136
0.13016166 0.008475707 0.0035794678 -0.14481695 -0.09826268 0.19072263 -0.09703349 0.0642196
-0.099481344 0.28732678 0.16945991 0.25608334 0.048434682 -0.2868902 0.29311347 -0.079543315
0.34502718 -0.06094048 0.040419206 0.26987675 0.05342847 0.1375543 0.37936577 0.23794611
-0.26525816 -0.0029076226 -0.27255663 0.16760954 -0.03394528 -0.03134899 -0.14493836 -0.23980106
0.106890015 0.175622 -0.06861179 -0.059541266 0.21510036 0.18953592 -0.08552548 0.3029003
00000000: 59ea 893e d6ca b03d 3bfa 4fbe ad27 1dbe
00000010: 2873 eebd c75e 763e e440 a6bd 1a2a 473d
00000020: 1949 053e b1dd 0a3c 8195 6a3b e54a 14be
00000030: f23d c9bd cb4c 433e 7fb9 c6bd 9185 833d
00000040: e0bc cbbd 7f1c 933e e686 2d3e 5b1d 833e
00000050: 7263 463d 46e3 92be f812 963e 9be7 a2bd
00000060: 67a7 b03e ba9c 79bd 9c8e 253d 492d 8a3e
00000070: d0d7 5a3d 09db 0c3e 3b3c c23e 25a8 733e
00000080: ebcf 87be d08d 3ebb 8b8c 8bbe d6a1 2b3e
00000090: 350a 0bbd cc67 00bd b96a 14be 698e 75be
000000a0: 27e9 da3d 41d6 333e 5784 8cbd 8be1 73bd
000000b0: 4543 5c3e b415 423e fc27 afbd c015 9b3e

gru.bias_hh_l0 f4 [48]
0.13672593 0.22348362 0.007293518 -0.21095225 0.027741944 0.27940693 0.15365629 -0.1995809
0.36417294 0.0030422148 0.37346682 0.29575676 0.068048544 0.10465585 0.15818694 -0.001069848
-0.25471944 -0.118730485 0.40097365 0.21213105 0.25047943 -0.32070404 -0.033837426 0.009503602
0.35175085 -0.089227326 -0.08906202 -0.10883841 0.24082744 0.01861627 0.09418561 -0.12952808
-0.299236 0.09288928 0.0162713 0.105689704 -0.2723792 0.01311421 0.008567538 0.076297924
-0.08291391 0.016621193 0.15914294 0.08173966 -0.33303303 0.05206442 -0.120350055 0.056636214
00000000: e201 0c3e e4d8 643e 77fe ee3b de03 58be
00000010: 1343 e33c 6d0e 8f3e 1358 1d3e ef5e 4cbe
00000020: e074 ba3e e55f 473b 0b37 bf3e 6e6d 973e
00000030: 095d 8b3d ce55 d63d c2fb 213e 243a 8cba
00000040: 966a 82be f828 f3bd 6b4c cd3e e238 593e
00000050: d73e 803e 5233 a4be 1d99 0abd ffb4 1b3c
00000060: b018 b43e d1bc b6bd 2666 b6bd ace6 debd
00000070: 789b 763e 2681 983c 63e4 c03d 02a3 04be
00000080: 7635 99be bc3c be3d 644b 853c d873 d83d
00000090: 4975 8bbe fcdc 563c dc5e 0c3c 1642 9c3d
000000a0: c5ce a9bd 2b29 883c 5ef6 223e 1f67 a73d
000000b0: 4e83 aabe 8041 553d 177a f6bd 60fb 673d

fc.weight f4 [1, 16]
-0.36376566 -0.27028748 -0.03604872 -0.07120967 -0.092811234 -0.14693718 -0.1335914 -0.3370922
0.029455962 -0.49021035 0.32824415 -0.15116146 -0.2538317 -0.39561138 0.01703161 0.23420893
00000000: 7e3f babe 1f63 8abe d3a7 13bd 60d6 91bd
00000010: d113 bebd b376 16be 2fcc 08be 5997 acbe
00000020: a14d f13c dafc fabe 9e0f a83e 12ca 1abe
00000030: 3bf6 81be 938d cabe e085 8b3c 77d4 6f3e
