models/GRU_VAD/training_checkpoints/tiny_vad_epoch_020_f1_0.9393.pth (torch, 17826 bytes, 9 tensors)

pre.weight f4 [48, 1, 3]
00000000: e3d8 82bd 78c7 5c3e c2b6 20bf 8995 ddbe
00000010: 2c2c 96be 9582 fa3c d9ea 013e 23db 1d3f
00000020: a5a5 483e 976c fc3d 60b5 6bbe 445d 60be
00000030: 0912 15bf 038f dabe 6cd9 9ebe 5fc9 10bd
00000040: 83f2 3c3e a28e 493e 2236 bebe 706f 64be
00000050: 1ea8 4d3e aaad c43e 426e 91be a83d 673e
00000060: 1db7 01be c464 db3c 9267 053f d1ee e8be
00000070: 1127 8bbe 3890 8bbd cb8d 62be d2f9 fc3e
00000080: 6fa8 c9be 0254 22be d74a 95be 1ca2 e6be
00000090: 4a17 bbbe a4b9 ef3e 01f9 773e 7148 a03e
000000a0: 0edf 6e3d 0cd0 95be 4222 2c3e 4623 f7be
000000b0: 7193 b8be 1655 acbe 62d4 a43e b876 893e
000000c0: 04da b8be 0c8a e5bd 5101 8b3e 6842 0d3f
000000d0: 5dbd 593e 7d75 6f3d 4734 aa3e 6302 c9be
000000e0: cc43 8a3d b3eb acbe c1b5 9dbe 2d70 36be
000000f0: c4d7 453e 2394 1f3e 199e dabe fb59 0d3e
00000100: 9642 913e d793 d7bd fc84 993d 813c 433e
00000110: ddb6 ce3e 77b2 143f 2826 dbbe 3118 6bbe
00000120: 135a b33d c723 113f 8f31 883f 1de7 4d3f
00000130: dc18 393f fc17 d43e 0919 edbd 348f 99be
00000140: e38b 4dbf 2600 ce3d d4f3 343f 1743 45bf
00000150: f941 183e 3aa6 63be 6dab 193e db21 aebd
00000160: d6bb 133f 7bcd 83be 50c1 623e 2e67 203e
00000170: 9e68 e93e 46bf 5cbd 55bb 41bf 3c75 60be
00000180: 6c11 e23e 0d33 103f fadf 1bbf e8b8 be3d
00000190: 5ac8 5e3f 696f a33e aea0 47be 0fad 81bd
000001a0: 750d 65bf dde7 003e 4e19 24bf 3365 babd
000001b0: 655c a73e 0613 713e 06a7 f5bd e2ce 033e
000001c0: 50b5 d0be b2a8 0d3f 1a6b 3c3e fccd 2ebf
000001d0: f770 c5be c281 1c3e cbd9 133f b7cc 2abe
000001e0: aceb aa3e 3a1b 523e b633 11bf 225b 25bd
000001f0: 1ad3 62bf ba92 0fbd 122d 40be a4f4 14bf
00000200: 4d31 e0bd 483f fbbe 119c 98be 5c84 76bd
00000210: 50f5 c7be f5d8 85be af5a 273e 8ea0 bebe
00000220: d59d 98be dd4c 1fbf 2e17 fd3d be51 6d3e
00000230: 5a55 4f3f fcac 3b3f a928 893f c63e 123f
-0.06389024 0.21560466 -0.62778866 -0.4327815 -0.29330575 0.030579844 0.12687244 0.616625
0.19594438 0.12325399 -0.23018408 -0.21910578 -0.58230644 -0.42687234 -0.31025255 -0.035348292
0.18451886 0.19683316 -0.37150675 -0.22308135 0.20083663 0.38413745 -0.28404433 0.22582114
-0.12667508 0.026781447 0.5211116 -0.45494702 -0.27178243 -0.06814617 -0.22124402 0.49409348
-0.39386317 -0.15852359 -0.2915866 -0.45045555 -0.36541206 0.4682132 0.24216081 0.31305268
0.05831819 -0.2926029 0.16809943 -0.482691 -0.3604999 -0.33658665 0.32193285 0.26848388
-0.36103833 -0.11207971 0.27149442 0.5517945 0.21263643 0.058461655 0.3324301 -0.39259633
0.067512125 -0.33773574 -0.3080273 -0.17816229 0.1932059 0.15583853 -0.42698744 0.13803856
0.28371114 -0.10526245 0.07496068 0.19066049 0.4037389 0.58084816 -0.42802548 -0.22958447
0.08757415 0.56695217 1.0640124 0.80430776 0.7230356 0.4142455 -0.11577041 -0.29992068
-0.80291575 0.10058622 0.7068455 -0.77055496 0.14868917 -0.22231379 0.150068 -0.08502551
0.5770849 -0.25742707 0.22144055 0.1566436 0.4558763 -0.05389335 -0.7567647 -0.21919721
0.44153917 0.563279 -0.60888636 0.09312612 0.8702446 0.31920937 -0.19494888 -0.063318364
-0.8947366 0.12588449 -0.6410111 -0.091013335 0.3268768 0.23542413 -0.11994748 0.12871888
-0.4076333 0.55335534 0.18400231 -0.6828306 -0.38562748 0.15283874 0.577542 -0.16679655
0.33382928 0.20518199 -0.5671953 -0.040370114 -0.88603365 -0.03505204 -0.18767193 -0.5818579
-0.109469034 -0.49071717 -0.2980657 -0.06018482 -0.39054346 -0.26142088 0.16343187 -0.37231869
-0.29807916 -0.6222666 0.12357937 0.23175713 0.8098961 0.7331083 1.0715533 0.57127035

pre.bias f4 [48]
00000000: 076b 13bf 211c debe f973 113f 9faf 0ebd
00000010: d505 61be 88d1 03bf 74b7 12bf 8b66 1bbf
00000020: 85c3 7fbd 9065 9c3e b4c0 983e 421e 14bf
00000030: 2053 a33e af57 14bf bd46 0abe a419 9fbe
00000040: bacb d2bd da23 8abd 0400 09bf 18e5 e4be
00000050: db1f bfbd 1b6d 983b f899 80be c775 403e
00000060: e1c1 18bf 0a15 603c c579 083f 7a07 29be
00000070: 683f 333f e9e9 8f3e 6db3 0cbf a3b6 153f
00000080: 4565 febd cad2 a1be 3162 033f 7a0e 3cbf
00000090: 797f b23e 29ac 36be 1dc0 fc3e 4fcb 863e
000000a0: 9c54 d53e be24 933e facd 51be 7562 e8bd
000000b0: 678f 2cbf a9c3 c33e 84f9 303f 4e10 e23e
-0.57585186 -0.43380836 0.56817585 -0.034835454 -0.21974881 -0.51491594 -0.5731118 -0.60703343
-0.06244232 0.30546236 0.2983452 -0.5785867 0.31899357 -0.57946295 -0.13503547 -0.3107425
-0.10292764 -0.067451194 -0.5351565 -0.44706035 -0.09332248 0.0046516783 -0.2511747 0.18794928
-0.59670836 0.013676891 0.53310806 -0.16506758 0.70018625 0.28108147 -0.5496128 0.58481807
-0.124216594 -0.31606132 0.51321703 -0.7345959 0.3486288 -0.17839111 0.4936532 0.26326987
0.41666114 0.2873897 -0.2048873 -0.11346904 -0.67406315 0.38235214 0.6913073 0.44153064

norm.weight f4 [48]
00000000: 6048 9f3f 59ca 8b3f e05e 9a3f ca20 8b3f
00000010: 3bb6 873f 56e1 6b3f fa3d 803f 1ab6 813f
00000020: b453 863f 373d 733f 5fa6 813f ad45 753f
00000030: e366 7e3f 164a 943f f0da 733f 5dca 733f
00000040: 7b1b 863f eabd 773f a571 7c3f f902 733f
00000050: 6022 943f 8b92 763f b68c 8a3f 3944 933f
00000060: d27e a03f 0562 9e3f 1d6f 963f 5fcd 943f
00000070: 40a7 943f 5e2b 8d3f 2eb6 853f f294 a13f
00000080: 6bfa 993f 944e 943f 1a3b 973f 236b 9b3f
00000090: 3dc3 973f cbaf 803f f5db 913f 8af4 9d3f
000000a0: 4295 973f ce46 9b3f b6e0 8e3f 41db 8a3f
000000b0: 41d9 953f cf52 a93f e933 9d3f 3848 9f3f
1.2443962 1.0921127 1.2060204 1.0869381 1.0602487 0.9214071 1.0018914 1.0133698
1.0494294 0.9501528 1.0128897 0.9580944 0.9937574 1.1585109 0.9525595 0.95230657
1.0477136 0.9677416 0.9861091 0.9492641 1.157299 0.96317357 1.0824192 1.1505195
1.2538702 1.2373663 1.1752659 1.1625174 1.1613541 1.102886 1.0446222 1.262358
1.2029546 1.158648 1.1814911 1.214207 1.1856457 1.0053648 1.139525 1.2340252
1.1842425 1.2130983 1.1162326 1.0848161 1.1706926 1.3228396 1.2281467 1.2443914

norm.bias f4 [48]
00000000: 846c a5bc bb86 e43b 4619 4a3d 05a7 bdbc
00000010: c604 ac3c 6ace d13c 76c0 8ebb 499c 93bb
00000020: 312b fe3c 06a2 42bb 3476 15bd 2f53 913c
00000030: 7120 bd3b 37a1 4b3b e42a 54bd 6790 35bc
00000040: 432c 3e3d 6034 c13c 960e 393d 4997 13bd
00000050: afb6 6a3c 0a89 a13c 07f7 3dbd 6940 9dbc
00000060: cf90 60bc f2fb 083d 29b3 1cbd f1d5 943d
00000070: d980 1cbc 5b72 193d 358d 903c 6c45 c93c
00000080: 26e7 c5bc a850 053c bf37 453c 2766 70bd
00000090: bb31 ca3d b5f3 3abb 1196 18bc b5e2 1b3d
000000a0: 37c1 8d3c a6f7 b5ba 9134 df3b 9d32 db3c
000000b0: 1910 6ebc 3cc6 a83b 95e6 fe3b 547f 14bd
-0.020193346 0.006974069 0.04934051 -0.02315093 0.02099837 0.025611121 -0.004356439 -0.0045047146
0.031026455 -0.0029698624 -0.03648968 0.01773986 0.0057716896 0.0031071433 -0.051798716 -0.0110817915
0.04642893 0.023584545 0.045179926 -0.03603295 0.014325782 0.019718666 -0.04637816 -0.019195752
-0.0137064 0.0334434 -0.038256798 0.072673686 -0.009552204 0.037462573 0.017645458 0.024569236
-0.024158072 0.008136906 0.012037217 -0.05869117 0.098727666 -0.0028526608 -0.009313122 0.038058
0.017304046 -0.0013883009 0.0068116863 0.026757533 -0.014530205 0.0051505845 0.0077789524 -0.036254242

gru.weight_ih_l0 f4 [48, 48]
00000000: a373 de3d b6a1 4d3e 038c 79be 4366 29be
00000010: 038c 29be ab60 953d 1cc9 ccbd 00e3 a7bc
00000020: adff 453d 23db 203e 75c1 0abe dc87 0cbe
00000030: 15e5 4cbe 4292 0b3e 2aae 82bd 5fc8 5e3e
00000040: 3f65 0a3e fa2e e33c f9cf 2dbd 7eaa 2abd
00000050: 6a56 193e 16c5 d0bd 6c10 eabc e55e a83d
00000060: 2881 91be 5c5e d1be b41e 923e 8eb7 56be
00000070: e718 a23d 01dd 553e 0755 ba3c fbd6 aa3d
00000080: cfab 8dbe fed8 da3b 5bbd c2bd ed1e febd
00000090: da09 9bbd bd8d d8bd 453b b93d 0e64 253e
000000a0: 354f 8c3d 432f a03e 6458 933d 6ae0 62be
000000b0: 9d14 9a3d cff4 c53c 89a9 dcbd 769f 4dbd
000000c0: 896f 173f 2556 123f bc56 abbe 4451 0b3e
000000d0: 8ecf 883e 2421 b0be 927b 8e3e 4dfa 8abe
000000e0: fabc 56bd 6b48 3d3c f1ca fcbd 2997 c23c
000000f0: fe84 553e afac 1fbe 04cb 0bbe 31d8 f6bd
00000100: 2b09 8dbe c3f5 de3d 9be4 33be d7df 49be
00000110: bb56 a5bd 5ead 113e fb6d 133e d660 1c3e
00000120: a235 46bd 74dd 7bbe d750 96be 6850 da3d
00000130: 4ae6 503e 0204 9d3d 94b7 2dbe 4eaa 68be
00000140: f7a9 13be b071 b53c ccd8 1abe 3333 b6be
00000150: e169 0b3e 9ca9 59be 91aa ccbd 4b30 ebbc
00000160: b0b6 a4bb e643 98be 3a9f c7be e604 773c
00000170: d694 46bd 2785 9b3e b610 dabd a186 5a3c
00000180: 280f fabd d08c 53bd 00cb c5bd 25d4 a33d
00000190: c08f 8c3d 9ed3 4dbc 1469 52bd 2a27 2ebe
000001a0: 5d9f 143e 6677 1cbe 357c 063e f57d 80bd
000001b0: d47b 1ebe 614d dfba 894e dbbd c098 153d
000001c0: 463d 073e fb83 57be 3c2c 0e3d 3982 043e
000001d0: a4c9 0e3e 403d 60bd c4a3 86be ee40 fbbc
000001e0: 7db7 013d 0664 08bd 5205 e53d b06f f43d
000001f0: 2a29 99bd ef79 003d 0649 9d3d 9ee4 763d
00000200: b38c 2e3e 78cc 863d c798 36be b566 a7bc
00000210: d19a 8c3e c90d 3f3e 68c9 463e 23ee b43d
00000220: 0133 1b3e fa32 37bd 2ba2 72be 9107 48be
00000230: 128c 543e 3a57 5b3e e30e ffbd 0516 e83d
00000240: 18fe 7f3e 7c52 b13e b026 8f3d 8ea0 8c3e
00000250: 0df2 273c 0cf0 f2bd 516e 943e 31f4 e23d
00000260: 44e9 44be 55f7 863e f46b 083e 1b41 373e
00000270: 1d87 74be 2396 3e3d 6111 d8bc b282 0f3e
00000280: e0d8 6fbb 30ef 353d 958e 163d 867e 263e
00000290: 37e8 d0bd ca5c 8f3d 9a6c 7bbe 4ea1 923d
000002a0: b68d 29be 3cff 8fbe ac0d 87be 0b44 173e
000002b0: 6be8 0f3e 9310 973e 74ab 2d3e 931d 77be
000002c0: b262 a4be a2f9 79bd bba3 37be af1f e13d
000002d0: 802f 1dbe 8ddb 2cbe fdb9 81be 718f 31be
000002e0: 25fe 573e 7dc5 5e3e 90cf 1e3e 26e5 343e
000002f0: 6725 483e ebdc 37bd 7490 c13d e3da 2f3e
00000300: 2e71 f53d e0bf 8e3e d853 1b3e 82e6 6d3d
00000310: 1548 48be 3563 5c3e e047 493d 6e00 ee3b
00000320: 49fa 053d 1e2a 75be 8fea 55be 11c4 b43d
00000330: e7a5 7a3e 97f7 92bc c27f 28be ee47 8a3e
00000340: 898b 163e 56a9 9b3d 49dd e2bd 8a20 5e3e
00000350: 5411 e23d 8d19 70be dcc4 333e 6c4a 5e3e
00000360: e332 c5bc 1eab 1d3f 3e70 1ebe bcef ee3d
00000370: 5208 633e bb66 063e fadf a8bd 7319 fcbd
00000380: 1a83 38bc 0c40 a13d a403 87bd 3d7a 303e
00000390: 73c4 1f3e f361 d8bd d9c1 5abd 58ad 983e
000003a0: b1bd 5a3e 51ec d3bd 1774 0bbd bf66 35be
000003b0: e9dc 99bd bd3b 1b3e 135c 58be 084c db3d
000003c0: 0dc5 f33e 8cd8 a53e d7aa fabe b901 833e
000003d0: 617f bd3e 76d3 d8be b611 cf3e 50d2 b4be
000003e0: e6e1 94be 77e5 e9bd 43b3 4abd f89b a73e
000003f0: 4a4a b4be f402 cf3d 0b52 c13b c715 38bd
0.108619 0.20081219 -0.24369816 -0.16542916 -0.16557316 0.072938286 -0.09999296 -0.020493984
0.048339535 0.15708594 -0.1355036 -0.13723701 -0.20009263 0.13630012 -0.063808754 0.21756123
0.13515185 0.027732361 -0.042434666 -0.0416665 0.1497437 -0.10193841 -0.028572284 0.08221225
-0.2841885 -0.40892303 0.2853905 -0.20968458 0.07914906 0.20885088 0.022745622 0.083417855
-0.27670142 0.0066786995 -0.09508773 -0.124082424 -0.075702384 -0.105739094 0.09044508 0.16151449
0.06851045 0.31286058 0.071945935 -0.2215592 0.07523463 0.024164585 -0.10774524 -0.050200902
0.59154564 0.57162696 -0.3346461 0.13605219 0.26720852 -0.34400284 0.27828652 -0.2714409
-0.052426316 0.01155291 -0.123433955 0.02375372 0.20851514 -0.15593217 -0.13651663 -0.12052954
-0.27546057 0.10886719 -0.17567675 -0.19714294 -0.08073183 0.1422629 0.14397423 0.15271315
-0.048390992 -0.24596196 -0.2935855 0.106598675 0.20400348 0.0766678 -0.16964561 -0.22721216
-0.14420305 0.022148937 -0.15121764 -0.35585937 0.13614608 -0.21256107 -0.099934705 -0.028709551
-0.005026661 -0.29739302 -0.38988668 0.0150768515 -0.048481785 0.30375025 -0.106477186 0.013337762
-0.12209922 -0.05164796 -0.0965786 0.07999448 0.06863356 -0.0125626605 -0.05136974 -0.17007127
0.14513917 -0.15279922 0.13133319 -0.062740244 -0.15476924 -0.001703661 -0.10708339 0.036522627
0.13206968 -0.2104644 0.034710154 0.12940301 0.13944107 -0.054745913 -0.26296818 -0.03067061
0.03166913 -0.033298515 0.111826554 0.11935365 -0.074785545 0.031366285 0.07679944 0.06027662
0.1704586 0.06581968 -0.17831717 -0.020434717 0.27461866 0.18657602 0.19412768 0.088344835
0.15156175 -0.04472635 -0.23694675 -0.19534136 0.20756558 0.21419993 -0.12454011 0.11332325
0.24999273 0.34633243 0.06989801 0.27466244 0.0102505805 -0.118621916 0.28990415 0.11081732
-0.19229609 0.26360574 0.13322431 0.1789593 -0.23879667 0.0465299 -0.026375474 0.140147
-0.0036597773 0.04441756 0.03675707 0.16259202 -0.102005415 0.0700012 -0.24553147 0.07159673
-0.16557965 -0.28124416 -0.26377618 0.1477205 0.14053504 0.29504833 0.16959935 -0.24132375
-0.3210655 -0.061029084 -0.17933552 0.10992371 -0.15350151 -0.16880627 -0.2533721 -0.17339875
0.21093042 0.21755023 0.15508866 0.17665538 0.19545518 -0.04488842 0.0945138 0.17173342
0.11984478 0.27880764 0.15168703 0.058081158 -0.19558747 0.2152222 0.04914081 0.007263235
0.032709394 -0.23941848 -0.20890258 0.08826459 0.24477349 -0.017940326 -0.16454986 0.27008003
0.14701666 0.07600658 -0.11077363 0.216921 0.11038461 -0.23447247 0.17555565 0.21708077
-0.024072116 0.6158923 -0.15472504 0.116668195 0.22171143 0.13125126 -0.08245845 -0.123095416
-0.011261726 0.07873544 -0.06592491 0.1723413 0.15602283 -0.10565557 -0.053407524 0.2981975
0.21361424 -0.10347808 -0.03404626 -0.17714976 -0.075128384 0.15159507 -0.21128874 0.10707861
0.47611275 0.32391775 -0.48958465 0.25587252 0.37011245 -0.42348832 0.404432 -0.35316706
-0.29078597 -0.1142072 -0.049487364 0.32736182 -0.35212928 0.10107985 0.005899673 -0.044942643

gru.weight_hh_l0 f4 [48, 16]
00000000: d43c 5cbd da91 0c3e 1886 88be 5674 2bbe
00000010: 5c0f aabd ccf9 ad3d afc3 dabe b6fe 723d
00000020: 4abf e3bd 57a4 0abe c0b3 093e b69b c33c
00000030: d3c0 a6be 3369 33be adc4 dc3d 837c 803e
00000040: 3db7 0b3e 149b 4f3e a200 99be 8e9d 54be
00000050: 981a 49bd be9a 4fbe 2862 87bd aab8 cfbd
00000060: 0f16 8b3c 6ffc 863e ee5c 2fbe b41f 74be
00000070: 3d29 8a3d de6c d9be 8082 013e 9898 bdbd
00000080: a260 cbbd 0766 e03c c73a 803d 4e52 13be
00000090: 6eae b63c 714f 593e e27a 803e 9dcf 6abe
000000a0: d88d 1abe 40ad 013d 2c4e 2d3d a620 6fbe
000000b0: ca90 58be 4ad3 44be 1f51 12be 4f3a fcbd
000000c0: a048 cfbd ee19 41be d631 00bd ecc1 953d
000000d0: 1285 0cbe e4e1 993d e558 cabd ed6c 2f3e
000000e0: 38b3 19be b499 953c d775 553e 51be 853e
000000f0: aba8 94be 33b7 9fbd 2f15 cfbb 6841 46bd
00000100: 86e5 b1be 556a 8fbe 32a4 f33d 1fb0 d1be
00000110: d8d0 67be 794b 65bd 7250 17bf 6eff 87be
00000120: 965e 1c3d 8409 8abe 48fc d63e 760b 05bf
00000130: 3182 f93b bab0 ddbe 5660 c83e 1435 1a3e
00000140: efae 1bbe 27c1 9f3d 1b11 22be 2e1f 37be
00000150: 20cf babe 767a 4b3e ed34 6cbe bec8 443d
00000160: 2741 0a3d 7a9c 1b3e 4412 763e 6622 3b3e
00000170: ee7f 9dbe 53b5 f63b 8b1a 1a3e c60c c33e
00000180: 0091 aebe 3247 21be f4a4 92be 11e3 963d
00000190: 6853 513d 0c85 533e 89d9 b53c 1335 513e
000001a0: 93a4 f73e bd26 13be 6f50 0ebe e6e2 57be
000001b0: f379 93be 9ac7 86be dde8 fc3d d18f e8bd
000001c0: 69ac 3cbd c1b2 f73d 93c2 8ebe e83d c6be
000001d0: f90f 97be 4337 7cbc 2376 51bf a027 75be
000001e0: 56f9 b7be ab2e 203e c19e 9c3e c9fc fe3d
000001f0: f7e7 c93d a9c6 4fbf 776d 203e b4c6 a83e
00000200: 61ea 323e fc4d 2f3c d54c 073e d193 bdbe
00000210: 9529 cd3d 33c0 d73e 60f2 3abe a4de 6d3e
00000220: 2e43 36be a117 633e d229 f9bd 28e5 133f
00000230: 792a 47be da6f b93e 2bf3 4abe 22ed c0bd
00000240: bf44 c9be f864 86be 93c4 853c 1f14 9e3c
00000250: 6452 66bd 0eab 453d a2c4 3b3e af02 02be
00000260: 8201 e13d f421 8bbe 0976 b53e 0368 46be
00000270: 2482 4f3e 0950 81be 8c7c ad3e 01eb 8ebd
00000280: 996d b1be c244 74be 9d1b d73c 89a7 46be
00000290: 090c 1dbf 6031 7d3d 34bb b4be f8fc 1bbe
000002a0: c954 8f3e 4f86 413e f140 6d3e fe70 ffbe
000002b0: 5cc9 91be 8370 45bf 90c0 e83e fb89 8e3e
000002c0: 02d8 9fbe da10 04be ac66 afbe 2cd3 4c3d
000002d0: 7497 613b f941 a93d 4991 52be 6b58 8d3d
000002e0: f60d 51be 68f7 76be bb18 523b 3eb4 2cbb
000002f0: 74a5 b8be 6ad2 20be eed8 fcbc e41d 263e
00000300: b043 323e 947f e7ba ec52 8c3e ba08 193c
00000310: e15f a0bd df35 2fbd 71f4 6c3e 7502 f53c
00000320: 4ff5 2f3e 6032 46bd 3270 173d 5072 3d3e
00000330: 454a cb3d e653 033d f909 143b 8ef2 34be
00000340: ab58 c4be 3969 31be 56a2 c3bd 6dea 373e
00000350: 9df4 ce3d 9482 373e aa9c 72be 1a32 8dbe
00000360: 7acc 4dbe aa13 c4bd 0c3a 80bd bf1c c1be
00000370: cfe0 61be 7693 97be e31c ad3d 0e23 c6bd
00000380: 1d16 85be aba9 e63d 7c03 f9bd 280b 523e
00000390: 0b5c 06be 4ce6 773d 2fe6 5ebd bd8d 81be
000003a0: cdc6 1fbe a216 e8bb 221b bc3d 6471 8abe
000003b0: e5cb c03d f58e 0bbb 218c 22bb e35b 21be
000003c0: 545a f5be 3ba2 babe f25e a03e 5726 873e
000003d0: d96e 1ebe 1def 5dbe 0f1f 273e 2a63 78be
000003e0: f846 1c3e 4a2a 27be 4bb0 b9bd 46c8 aebe
000003f0: ae83 1d3d 675b bf3d 8f46 463e 1d62 e8bd
-0.053768948 0.13727513 -0.26664805 -0.16743597 -0.08303711 0.084949106 -0.4272742 0.059324943
-0.1112047 -0.13539253 0.13447475 0.02387796 -0.32568988 -0.17520599 0.107797004 0.25094995
0.13644119 0.20274001 -0.29883295 -0.20763227 -0.049097627 -0.20273873 -0.06610519 -0.10142644
0.016978292 0.26364467 -0.17125294 -0.23840219 0.06746147 -0.42465872 0.12647438 -0.092576206
-0.099305406 0.0273924 0.06261211 -0.14386865 0.022299971 0.2122171 0.25093752 -0.2293076
-0.15093172 0.031659365 0.04231088 -0.23352298 -0.21148983 -0.19221225 -0.14288758 -0.12315809
-0.10121274 -0.18857548 -0.031297527 0.07312378 -0.13722637 0.07513788 -0.098802365 0.17131396
-0.15009773 0.018261768 0.20845734 0.26121762 -0.29034933 -0.07798614 -0.006319664 -0.04840222
-0.34745425 -0.28010812 0.11896552 -0.40954682 -0.22638261 -0.05598018 -0.59107125 -0.26562065
0.03817614 -0.26960385 0.4198935 -0.51970613 0.007614397 -0.43298894 0.39135998 0.1505931
-0.1520345 0.07800513 -0.15826838 -0.17882988 -0.3648615 0.19870934 -0.23067065 0.048043005
0.03375354 0.1519641 0.24030405 0.1827484 -0.30761665 0.0075289398 0.15049188 0.38095683
-0.34095 -0.15749815 -0.28641474 0.07367528 0.051104933 0.20656222 0.022198455 0.20430402
0.48367748 -0.14370246 -0.1389787 -0.21082649 -0.28803977 -0.2632416 0.12349103 -0.11355556
-0.04606286 0.120946415 -0.27882823 -0.38719106 -0.29504374 -0.015394035 -0.8182089 -0.23940897
-0.35932416 0.15642802 0.3058987 0.12450559 0.09858697 -0.81162506 0.15666758 0.32964098
0.17472221 0.010699745 0.13212903 -0.37026837 0.10017697 0.42138824 -0.18256521 0.23229462
-0.17799065 0.22176982 -0.1216618 0.5777154 -0.19449796 0.36218148 -0.19819324 -0.094202295
-0.39310262 -0.26248908 0.016329085 0.019296704 -0.056230918 0.048258834 0.18336728 -0.12696336
0.10986616 -0.27174342 0.35441616 -0.19375615 0.20264488 -0.25256374 0.33884084 -0.06978417
-0.3465393 -0.23854354 0.026258284 -0.19399847 -0.6134649 0.061814666 -0.35299075 -0.15233219
0.27994373 0.18898891 0.23169304 -0.49890894 -0.28473938 -0.77124804 0.45459414 0.27839646
-0.31219488 -0.12897053 -0.3425802 0.050006077 0.0034422548 0.082645364 -0.20563234 0.0690163
-0.20415482 -0.24117815 0.0032058198 -0.002635255 -0.3606373 -0.15705267 -0.030865159 0.1622234
0.17408633 -0.0017661923 0.27407014 0.0093404595 -0.078307875 -0.042775985 0.23140122 0.029908398
0.17183422 -0.048387885 0.036972232 0.18500638 0.09926275 0.032062434 0.0022588952 -0.17670652
-0.38348898 -0.17325296 -0.095524475 0.1796052 0.1010525 0.17920905 -0.23692575 -0.27577287
-0.20097533 -0.09574063 -0.062610716 -0.37717244 -0.22058414 -0.2960469 0.08452775 -0.09674655
-0.25993434 0.1126283 -0.12158868 0.20512068 -0.13121049 0.060522363 -0.05441874 -0.2530345
-0.1560318 -0.007082776 0.09184863 -0.27039635 0.0941389 -0.0021294926 -0.0024802762 -0.15757708
-0.47920477 -0.36451897 0.31322438 0.26396438 -0.15471973 -0.21673246 0.16320442 -0.24256578
0.15261447 -0.16324726 -0.09066828 -0.34137172 0.038455658 0.093436055 0.19362853 -0.113468386

gru.bias_ih_l0 f4 [48]
00000000: 6314 853e a210 103e f2e4 34be 6496 ddbd
00000010: e502 55be ca99 f03d 927f 62bd b484 043c
00000020: a816 a23c 890f 35be 6a72 3bbe 4f41 3abd
00000030: eeb1 42be 8918 0d3e 5e39 73bc 36df 7d3b
00000040: 65c4 2ebd 6a1d 7e3e 9650 483e 9d2f d23e
00000050: 5c28 7cbe 35fe 05be 3f1f a73e 3115 643b
00000060: 9670 0e3e a073 42bd bb2c 2f3e 2521 7b3e
00000070: 814c 663d bcce 103e 1b15 983e 5033 c43e
00000080: 9faa 73be 7b13 563c b34c 73be 73c5 173e
00000090: b59b 38bd 412c 9db9 66d7 15be 882d 64be
000000a0: 9797 6abc 15cb 443e c62b b4bd 3d35 65bb
000000b0: d1ba 5f3e 8991 453e eaaf d9bd f727 a13e
0.25992116 0.14068845 -0.1766546 -0.108197 -0.20801885 0.11748083 -0.05529744 0.0080882795
0.019786194 -0.17681707 -0.18305364 -0.04547244 -0.19013187 0.1377889 -0.01484522 0.003873778
-0.042667765 0.24815908 0.19561991 0.4105195 -0.24624771 -0.13085254 0.32641026 0.003480267
0.13910136 -0.04747355 0.17106907 0.24524362 0.056225304 0.14141363 0.29703602 0.38320398
-0.23795556 0.013066168 -0.23759727 0.14821415 -0.04507037 -0.00029978345 -0.14632949 -0.22282994
-0.014318368 0.19218095 -0.087974116 -0.003497436 0.21848609 0.19293799 -0.10629256 0.31475803

gru.bias_hh_l0 f4 [48]
00000000: de55 023e 2542 8e3e 8434 0a3d 69a7 29be
00000010: c5c1 82bd 510b 203e a7d8 373e 4be1 75be
00000020: caf1 813e e69f 3abe 2251 3f3e bf4a ca3e
00000030: 1623 c3bc aeda 533d 0a25 763e d78e 7bbd
00000040: a8a7 4abe 01b0 21be 1ab1 da3e abae bb3e
00000050: 110e 35bd 559e 28be be89 0dba de7e bd3d
00000060: 3553 153e 5228 9bbd 6658 2a3d e1ac 08be
00000070: 9478 793e 5b1f b83c 4940 423c 99da 803c
00000080: b823 85be d9f8 843d eed4 0f3d dac8 b33d
00000090: a775 87be a055 f93c 68b0 4dbc cbcb 303d
000000a0: 925a 50be 7773 353d 9736 393d 3dcc dc3d
000000b0: 2dbf 01be 916c 393d a549 2fbe 917b 6f3d
0.12728068 0.2778484 0.03374149 -0.16567768 -0.06384615 0.15629317 0.1795374 -0.24011724
0.25379783 -0.18225059 0.18683293 0.39510152 -0.023820441 0.05172222 0.24037567 -0.06141552
-0.19790518 -0.15789796 0.42713243 0.366567 -0.044202868 -0.16466649 -0.00053992483 0.092527136
0.14582522 -0.0757605 0.04158821 -0.13347198 0.24362403 0.022475889 0.011856147 0.015729235
-0.26003814 0.064927764 0.035115175 0.08778544 -0.2645695 0.030436337 -0.012554266 0.043163102
-0.2034705 0.04429957 0.045218077 0.10781143 -0.12670584 0.045269553 -0.17117937 0.05846745

fc.weight f4 [1, 16]
00000000: 2f69 80be 3d93 83be dc98 80bd 45f5 b3bd
00000010: 99ea 84be 0802 a5bc 5cf0 07be b2cb 44be
00000020: 8cd1 293c 1724 64be 2d96 793e 9caa e7bd
00000030: 7d03 5bbe 9c61 20be ebd0 463e 406d 643d
-0.2508025 -0.2569827 -0.062791556 -0.08787016 -0.25960234 -0.02014257 -0.13275284 -0.19218329
0.010364901 -0.22279392 0.24373694 -0.11311838 -0.2138805 -0.15662235 0.19415633 0.05576825
