models/GRU_VAD/training_checkpoints/tiny_vad_epoch_046_valloss_0.0480_f1_0.8468.pth (torch, 18021 bytes, 9 tensors)

pre.weight f4 [48, 1, 3]
00000000: 8ccf 773b 3c61 853e 7c69 1abf 87ff efbe
00000010: a9b7 9fbe ded3 023e f4c0 953c f93c 083f
00000020: 2273 353e ad26 383e 2e99 5fbe afe4 70be
00000030: c27e b3be 3a88 87be 191a 8dbe 0915 d7bd
00000040: 4e40 3c3e ccf2 893e 5eba a1be bd3d 49be
00000050: 8166 563e 05e7 b13e 0a28 88be 652c b13e
00000060: 4170 1bbe 34f7 51bb 0295 f73e f519 a6be
00000070: 127a 2abe ffab c63c 21f8 5bbe 8968 f43e
00000080: 7378 cdbe e0cf 27be 4a9a 89be 60c1 c9be
00000090: f7bb c8be 7154 e03e 2944 573e 279f 973e
000000a0: 7080 383d aa82 9bbe 7dee 723e 1547 debe
000000b0: fe41 91be 1b9c b6be 8d0f a03e f60a 7a3e
000000c0: 9b25 9dbe 92b6 cabd 6395 b83e ea4a e53e
000000d0: 5a53 113e 85ed a2bd 57a4 ac3e eb27 c4be
000000e0: e722 a33d c0bc 92be 309a 73be 95e0 c9bd
000000f0: a0e2 4a3e 8792 2e3e 0030 e7be 35a5 213e
00000100: 95e2 9a3e ba78 cebd 5474 743d d296 413e
00000110: b842 ce3e ef8b 113f 230a dabe dda9 50be
00000120: 8add d63d be93 363f 616d 623f 0df5 2a3f
00000130: 3a6a 633f 585d 0c3e 3ca5 fcbd 71bc 97be
00000140: dca7 36bf 9033 923e bf59 193f 5568 56bf
00000150: 1665 633e 9d06 a23e 89a3 253f 40ed efbd
00000160: 5759 c03e 5d28 edbd a107 9d3d 70ee d63e
00000170: 0050 203f a67f 36be 7ec1 11bf d910 cabe
00000180: 68e4 603d a23d 083e 0cc6 32bf dd8f 31be
00000190: a010 fd3e 1030 d73e cb7b db3d 484b d7bd
000001a0: 6dbf 31bf 1aac 1c3e 58e7 a7bd 4cc8 5bbd
000001b0: 3343 bd3c 03bc 133e 8e3c a3be 6397 903e
000001c0: c52b e9bd 9236 ad3e 4dfe b73c 887f aabe
000001d0: f3d2 10bf d5a1 b63d f39d cd3e 3691 c83c
000001e0: 4287 ffbc 1e69 513e 2133 4cbd fc61 a9ba
000001f0: ae92 3fbf 8cd0 babd 0f50 e0bc c1ae a6bd
00000200: 9dbd f63c 0703 d23d 9a65 173e 941f ba3e
00000210: 11ad dcbe 506f 8cbe 37cd 583e 3784 b7bd
00000220: ef3f 993b ac82 9ebd aefb c53e fee0 f23e
00000230: 0083 303f d27a 653e 7b5a 1c3f b0a9 013e
0.0037812917 0.26050746 -0.60317206 -0.4687464 -0.3119481 0.12776133 0.018280484 0.53218037
0.17719701 0.17983504 -0.21835777 -0.23524736 -0.35057646 -0.2647112 -0.27558973 -0.10502059
0.18383905 0.26943052 -0.315875 -0.19652458 0.2093754 0.34746566 -0.26593047 0.34604183
-0.1517954 -0.0032038214 0.4835587 -0.3244168 -0.16648129 0.024251936 -0.21481372 0.47736004
-0.40130958 -0.16387892 -0.26875526 -0.39405346 -0.39205906 0.43814424 0.21022095 0.2961361
0.045044363 -0.30373126 0.23723789 -0.43413606 -0.2837066 -0.35665974 0.31261864 0.24418244
-0.30692753 -0.09898104 0.36051473 0.44783717 0.14191952 -0.079554595 0.3371913 -0.38311705
0.079656415 -0.2865963 -0.23789287 -0.09857289 0.19813013 0.17048083 -0.4515381 0.15785678
0.30250993 -0.100816205 0.05968125 0.1890519 0.40285277 0.56854147 -0.4258586 -0.20377298
0.10491474 0.71319187 0.8844815 0.6678017 0.88833964 0.13707483 -0.123362035 -0.29635957
-0.71349883 0.28554964 0.59902567 -0.8375295 0.2220653 0.3164567 0.6470266 -0.11715174
0.3756816 -0.11579964 0.07667471 0.41978788 0.6262207 -0.17822132 -0.5693587 -0.3946598
0.054905325 0.13304761 -0.69833446 -0.17340036 0.49426746 0.42028856 0.10716971 -0.10512406
-0.6943272 0.15300027 -0.08198422 -0.053657815 0.023103332 0.1442719 -0.31882137 0.282405
-0.113853015 0.33830696 0.022460127 -0.33300424 -0.5657188 0.08917586 0.40159568 0.024483304
-0.031192426 0.20450255 -0.049853448 -0.0012922878 -0.7483319 -0.091218084 -0.027381925 -0.081388004
0.030119712 0.10254484 0.14784852 0.36352217 -0.4310079 -0.27428675 0.21172033 -0.08960765
0.004676811 -0.077397674 0.3866858 0.4743728 0.6894989 0.22410133 0.6107556 0.12662387

pre.bias f4 [48]
00000000: c255 26bf 408c 97be c7f3 2a3f f914 a9bd
00000010: 8f6f bbbe 4f0f 9bbe 7b9b 37bf 15ea c9be
00000020: ae12 44be b610 eb3e d9f3 ba3e dce6 f2be
00000030: 11ca cf3e c293 03bf 3104 cebd 31c1 cdbe
00000040: 20bd dfbe 9b8c fdbd ccb9 13bf 7af9 02bf
00000050: 2a70 babe 63ae a33d c847 e2be 6809 8b3e
00000060: 9e7e 23bf 6c70 6d3d a8a2 0f3f 0287 21be
00000070: bdbc 1e3f c384 953e d2d6 01bf 6ee1 d83e
00000080: fe97 44bd 0bae b1be 2663 143f 7bc6 17bf
00000090: 0079 303e 7793 94be 5774 1e3f 5f9f bc3e
000000a0: 8773 093f 770e 563e 4c08 f3be 0144 d4bd
000000b0: 0cae 29bf 6866 0b3f a256 133f 9858 0a3f
-0.64974606 -0.2959919 0.66778225 -0.08255953 -0.3660855 -0.30285117 -0.7172162 -0.39436403
-0.1914775 0.45911187 0.36514166 -0.47441757 0.40583852 -0.51397336 -0.10059393 -0.40186456
-0.43698978 -0.12380334 -0.5770538 -0.5116192 -0.364137 0.07992246 -0.4419539 0.27155614
-0.6386508 0.057968542 0.5610757 -0.15774158 0.6200674 0.29202852 -0.50718415 0.4235949
-0.047996514 -0.34703097 0.5796379 -0.5928723 0.17233658 -0.29018757 0.6189627 0.3684034
0.53691906 0.20903955 -0.47467268 -0.10364533 -0.662812 0.54453135 0.57554066 0.54041433

norm.weight f4 [48]
00000000: 0de4 b93f 769f 903f 9d7a 9b3f 7463 8f3f
00000010: 6cf1 813f 950f 833f ccdd 7b3f fd78 823f
00000020: 199a 7c3f a417 6c3f fba7 753f b0b9 603f
00000030: 2279 783f eb7a 873f 3f7a 603f c078 6f3f
00000040: ed45 ad3f cd20 7b3f 95b4 783f 70de 5f3f
00000050: 72c9 c83f a6a1 7d3f fe30 743f 62d9 7b3f
00000060: 02d6 a03f 4a91 9f3f 89a5 8a3f 5546 8e3f
00000070: f588 9f3f 27be 833f 357d 853f a351 893f
00000080: f3ad 8d3f 4c56 803f f3fe 923f d7d4 903f
00000090: adc9 843f 5c1b 733f ed01 993f a5e0 9b3f
000000a0: 6683 a13f a846 8a3f 19cf a63f 9854 883f
000000b0: 1ffc 983f d01a 9b3f ae28 933f b8a8 8e3f
1.452272 1.1298664 1.2146794 1.1202226 1.0151801 1.023913 0.9838531 1.0193173
0.98672634 0.9222357 0.9595944 0.87783337 0.97059834 1.0584387 0.8768653 0.93543625
1.3536965 0.98096925 0.97150546 0.8744879 1.5686476 0.9907478 0.95387256 0.98378575
1.256531 1.2466214 1.0831767 1.1115214 1.2463671 1.0292405 1.0428835 1.0728039
1.106871 1.0026336 1.1484054 1.1314954 1.0374047 0.9496362 1.1953713 1.2177931
1.2618225 1.0802813 1.3031951 1.0650816 1.1951941 1.2117558 1.149679 1.1145239

norm.bias f4 [48]
00000000: c0ce 8abd 4c13 c73c 0bee 943d 8820 a4bd
00000010: 6e67 613c 00c7 e93c ce8a c9bc 0661 8e3c
00000020: d4a3 783d 574e 393c a7b6 8bbd 1a96 77bc
00000030: 8d2c ad3c 9eb8 52bd d72b 9ebd 40d8 a1bc
00000040: 5878 d83d 62f2 d63c 3290 6c3d 4a09 29bd
00000050: ce40 22bc 1820 843d 0603 34bd 905d 67bd
00000060: 3fd1 c7bc 75ee 6c3d 30db 19bc b23a 773d
00000070: 4f08 c83c 4f7d 973d c91f db3c 5082 64bd
00000080: 7984 fabc ffd2 a0bc 4e58 e0bc 5f2c 9bbd
00000090: e9a8 4c3c 79ba d3bb 9758 b1bc e76c 413d
000000a0: 8c1a 3d3d 0e90 bbbc 29c4 aabd 5bb4 813d
000000b0: 9e68 eabc c704 833d 50b8 123d 1ea9 8f3c
-0.06777716 0.024301194 0.072719656 -0.08014017 0.01375757 0.028537273 -0.02460232 0.017380249
0.060703114 0.011310182 -0.068219475 -0.015111471 0.021139408 -0.051445596 -0.077232055 -0.019756436
0.10569829 0.026238624 0.057754703 -0.041268624 -0.009903146 0.06451434 -0.043948196 -0.056485713
-0.024391769 0.057844598 -0.009390637 0.06035871 0.024418024 0.073969476 0.026748555 -0.05578834
-0.030580746 -0.01963186 -0.027385857 -0.075768225 0.012491443 -0.0064614383 -0.021648688 0.047222998
0.046167895 -0.022895839 -0.08338196 0.06333228 -0.028614338 0.063973956 0.035820305 0.017536696

gru.weight_ih_l0 f4 [48, 48]
00000000: cba6 ec3e 97b4 993e 72af a8be 3964 cabd
00000010: 93b4 93bd 1bc9 323d c0bd 67bd 2448 0fbd
00000020: e32b ccbb 5546 6a3e 4372 03be 79c1 d3bd
00000030: 1fcd 6cbe 1e92 063e 3776 ccbd 0918 5a3e
00000040: 8574 913e f0c0 383d c11b a93b 2b25 6ebd
00000050: 5355 f9bd 0ff1 c7bd 2d33 78bd e69d 12be
00000060: e9b5 bfbe 173f 5bbe 99ec 393d 56d1 463e
00000070: 7872 b03d f7dd b53e 7be2 b53d f6c7 e6bd
00000080: 848c 2bbe d391 ca3d 0c80 53be fe27 eebd
00000090: 15d5 89be 4cd7 03be 4c44 59be 5d6a 103e
000000a0: 95d4 e8bc dc32 10be 415a 633d 864b 86be
000000b0: f299 5f3d da92 96be 6d9f 48be 7ccd 3b3c
000000c0: 4eed 82be 43c5 2d3e d668 37bf 294e 0d3f
000000d0: 9eeb 853e bf39 96be f846 c53b da44 4cbe
000000e0: 7a1f 5ebd 5700 46bd 67a1 3abe d6be 53bd
000000f0: 6979 9d3e 4cdc aebd 9153 4abe 2a46 f0bd
00000100: ce8c 4abe 83ca 183e 237c 12be cbef 22be
00000110: 1526 e5be ecf6 733e 6861 753e 35fe b5bb
00000120: f5ff 063f 3fe7 0a3f 0ea7 a53e c671 96be
00000130: 2078 8abe ab95 03bd 2212 babe 2c80 5d3e
00000140: a6fd 18bf d98e d0bd 94ca f9bc 7c63 80be
00000150: 09b6 4bbd 0007 0abe 1833 8fbd 0218 8cbd
00000160: 6b35 9ebd ec4c 243d bd2a 96be f686 bc3e
00000170: c7c8 5c3a 4c1a d63d 26b6 ef3d dde1 313e
00000180: 29cb d73c c191 eb3d 6462 85be 18fb b43d
00000190: 296b f23c 57af 203d 0129 c2bd 8a97 e3bd
000001a0: 3e0d 6d3e f91a 44be 8288 a53d abaa 02be
000001b0: 98eb a0bd 2df9 193c 4288 1abe fbbb 8e3d
000001c0: a062 8c3d a3e5 34be d5f0 123d b983 f93d
000001d0: 4345 123e 2946 73bd 2926 7fbe 5946 09bd
000001e0: e7cf e5bc 69b0 1cbd 419b 123e 05b2 ef3d
000001f0: bd11 b7bd 32f7 0e3d 05d8 ea3d 971c 353c
00000200: 8182 81bd 369b af3c 2c96 33be 7790 773a
00000210: 01f7 5b3e d7e0 1a3e cd48 0a3e 485a 653d
00000220: d364 213e 9b16 a5bd 576d 9bbe 8e54 00be
00000230: ceaa 6a3e 274b 373e f1e1 1ebe dc10 e13d
00000240: dc9e 17bd f9fa 493e 227d 903e 9c94 503e
00000250: 78f4 b8bd 5f21 50bd b9d6 b13c a807 203e
00000260: c92f 1dbe c919 5c3e 7ddb 213e 1b20 b03d
00000270: b58a 24be 9f4c dbbc 0d94 d3bd 0a28 4f3e
00000280: d696 a0be a474 183e ee9d ddbc 4a7a 913c
00000290: d0cb 60bf ef6a ab3e fb7e 053c 1d58 6abe
000002a0: 186b 91be 6f06 cabe bf10 443c 09ad a03d
000002b0: 1538 b83e fccc 923e c2ed bfbc fd18 993c
000002c0: 8605 0bbe a157 83be 2610 ef3d bf04 163d
000002d0: 6fe5 38be b6e4 8bbe 9818 65bc d918 9abd
000002e0: b1b9 c43e 58fa bd3d aafc 073b 8dab ac3e
000002f0: d22e 6fbc 0554 b3bc a8e5 3c3f 2dc2 3d3f
00000300: 8f36 ea3d 9446 b93e f2f3 8f3d 575d 983e
00000310: b453 b83d 2719 053d 5234 823e a400 5abe
00000320: 9218 83be 4620 63bc 70f8 b2bd 4dbb 963e
00000330: 7ee0 c83d cd85 88be 4b59 8d39 750c d33d
00000340: f1cf cd3e 0b2e 3ebe dd8c a8be cf4d d83e
00000350: 21c3 00be eb38 e6be 6d67 db3d 7b62 a3bd
00000360: 03fc 64be ebba 3d3d a33d ed3d f4ec f73d
00000370: 5896 673e a9b9 8cbc 5845 fbbd 8e28 4bbe
00000380: 5c40 9e3e a11d fdbd f933 603e 5650 5e3e
00000390: cccf 9f3d 32e6 37bd fb78 fcbd 79fa 593b
000003a0: 5aa9 0a3e d39b 0bbf 2938 b9bd acd2 95be
000003b0: 116c dbbd e089 7d3c f5b9 86be ebb6 793d
000003c0: 67c0 d53e 8935 bb3e bd8d a9be 0802 073e
000003d0: c9e2 5f3e 80a4 c0be d135 523e 96df 90be
000003e0: 93d8 b6be 9d59 03bc de1b 1b3e 9fd8 ae3e
000003f0: a7ea 90be c4e9 3c3d a552 d0bb e250 b6bd
0.46221003 0.30020592 -0.32946354 -0.09882397 -0.07212176 0.04364882 -0.056577444 -0.034980908
-0.0062308176 0.22878392 -0.12836556 -0.10339636 -0.23125122 0.13141677 -0.09983485 0.21298231
0.2840921 0.045105875 0.005160779 -0.058140915 -0.121744774 -0.09762775 -0.06059568 -0.14318046
-0.37443474 -0.21410786 0.045391653 0.19415793 0.08615583 0.35520908 0.08881088 -0.11268608
-0.16752821 0.09891095 -0.20654315 -0.11628722 -0.2692038 -0.12875098 -0.2121746 0.14103074
-0.02842168 -0.14081901 0.055505995 -0.26229495 0.054590173 -0.29408914 -0.19592066 0.0114625655
-0.25571674 0.1696978 -0.7164434 0.5519739 0.26156324 -0.29340932 0.006020423 -0.1994814
-0.054229237 -0.048340168 -0.18225633 -0.051695667 0.3075669 -0.08538112 -0.1975844 -0.11732133
-0.19780275 0.14921002 -0.14305167 -0.15911786 -0.44755617 0.23824662 0.23962939 -0.0055539855
0.5273431 0.54259104 0.32354015 -0.29383677 -0.27044773 -0.032125156 -0.3634196 0.21630925
-0.59762037 -0.10183496 -0.030492105 -0.250759 -0.04973415 -0.13479233 -0.06992167 -0.068405166
-0.077250324 0.04011242 -0.29329482 0.36821717 0.0008422252 0.104542345 0.11704664 0.17371316
0.026341991 0.1150241 -0.2605163 0.08836955 0.029592114 0.039229717 -0.09480477 -0.11112888
0.23149583 -0.19150914 0.080826774 -0.12760417 -0.07857436 0.009397787 -0.1509104 0.06969448
0.06854749 -0.17665724 0.035874207 0.12183327 0.14284234 -0.05939308 -0.249169 -0.033514354
-0.028053237 -0.038254175 0.14317037 0.117038764 -0.0893893 0.034903713 0.11466984 0.01105418
-0.0632372 0.021436315 -0.17537755 0.0009443829 0.21480943 0.15124832 0.13504334 0.055994302
0.15761118 -0.08060952 -0.30356857 -0.12532255 0.2291672 0.17899762 -0.15515877 0.10989544
-0.037016734 0.19724645 0.2822047 0.2036919 -0.09031004 -0.050813075 0.021708833 0.1562792
-0.1535026 0.21494211 0.15806384 0.08599874 -0.16068538 -0.026769934 -0.10330973 0.20230117
-0.3136508 0.14888245 -0.027052846 0.017758507 -0.87810993 0.3348002 0.00814795 -0.22885175
-0.2840202 -0.39458033 0.011966883 0.07845504 0.35980287 0.28672016 -0.023428801 0.018688673
-0.13576326 -0.25652793 0.11673002 0.03662562 -0.18056272 -0.2732293 -0.013982914 -0.075242706
0.3842292 0.09276265 0.0020749965 0.33724633 -0.014598565 -0.02189065 0.7378793 0.74124414
0.114361875 0.3618666 0.07028951 0.29758713 0.0900034 0.03249469 0.25430542 -0.21289307
-0.25604683 -0.013862675 -0.08738792 0.29439774 0.098084435 -0.26664582 0.00026960144 0.1030511
0.4019771 -0.18572251 -0.3291997 0.42246863 -0.12574436 -0.449653 0.10713086 -0.07977768
-0.2236176 0.046320837 0.11584022 0.12105742 0.22615945 -0.017178373 -0.12269086 -0.19839689
0.30908477 -0.12359167 0.21894826 0.21710333 0.07803306 -0.044897266 -0.12327763 0.0033260866
0.13541165 -0.54534644 -0.09043915 -0.29262292 -0.107139714 0.0154747665 -0.2631375 0.06096546
0.41748354 0.36564282 -0.3311595 0.13184369 0.21863855 -0.37625504 0.20528342 -0.28295583
-0.35712108 -0.008016971 0.15147349 0.34149644 -0.28304026 0.046121374 -0.0063575082 -0.08902146

gru.weight_hh_l0 f4 [48, 16]
00000000: e4e2 0d3e 13f5 743e e610 bcbe ec5a 8fbd
00000010: 53b6 49be cf0a 0fbd a1d4 f1be ba5b 253c
00000020: 2950 bb3c 889a b3be 851f 5f3e e750 a83e
00000030: 75a8 89be 34df c2bc 0ad8 2dbe 9453 083e
00000040: 8490 af3d 3713 aa3c 0434 0abe 270d 1bbd
00000050: 49cf e43e 5026 eebd 942f 923e f80d 9cbe
00000060: 3bca 40be a64a 59be 12aa e1bd dd06 e8bd
00000070: 3be4 2cbd 89fc 6cbe 60bd 2a3e 0455 6f3e
00000080: d84a 7cbe 65ef 923d 76b4 bc3c c8e2 01be
00000090: a8d0 cc3c 59ff 88bd ef83 b23d 0ed4 57be
000000a0: f773 c5bd 9efe 9fba 8d79 b83d 4aa9 41be
000000b0: 6c7c cabe ece9 ecbe c1a0 2cbe 6d17 cabd
000000c0: 6cc7 a6be 095a a7be b390 3f3d 5207 99be
000000d0: 61e2 d9bd 65a8 a6bd 8050 52be 143f c9bd
000000e0: 4773 6abe 2990 fdbd e38b 453e 3b91 103e
000000f0: 091d 80be ce32 47be 85bc 8bbe 1753 3d3e
00000100: 9a47 b3bb bf15 61be a287 1dbd d49d 993d
00000110: d495 0abe 53b5 733e 358a 833d be84 353e
00000120: bfc0 a83e e782 cebc fc28 51be f156 5e3d
00000130: 4a1f 413e c1d0 e33e b7a3 a23e 89b7 333e
00000140: e657 82be faf2 a1bd 74c1 03bd 5e73 0c3d
00000150: 5058 75be a776 b13b 9aea e7bc 6fac 773e
00000160: 483f 093e 9d1d 1c3e 96ea b53d b0a4 37bd
00000170: 15d7 bcbe 6980 d43d 9e07 bf3e cb7e 3c3e
00000180: 35a8 5cbe 33b7 8bbd d7d0 29be 3505 6f3e
00000190: b760 ab3e c64e 8c3e be15 ebbd c691 753e
000001a0: 6aec 533e c9d1 ddbd 6cc8 7ebe d796 e4bd
000001b0: 6995 67bd 0503 a83c b9cb af3d f6aa 6fbe
000001c0: 300e 623e 725c 6dbe 2f99 52be 5c6d cb3e
000001d0: c6f0 9cbe 4070 9a3d ef53 e9be 54b1 97be
000001e0: c667 d1bd 7e79 f9be 70c9 023f 69c6 b93e
000001f0: 8d03 0bbf 168e c83e ee69 543e c0cb 7bbd
00000200: 99ae 09be 58bd c1be 932d 2fbe 45c1 50be
00000210: c6cf 50be 192c eebd ded5 023d 0735 adbe
00000220: 883f fdbd 7d84 10be 26cf 313e a4dc 993d
00000230: 7a47 34be bf85 05be 1158 363e 361c a63d
00000240: fec3 22bd 93da 00be 11e0 8dbe ef69 593d
00000250: dfa6 e9bd 3b70 bf3e 639b c63d 161d 663e
00000260: a131 c33e 5abb abbd 5b34 98bd 9d84 bc3d
00000270: 4995 a2bc 532e b6be 7953 643e af52 ea3d
00000280: af0f 08be ebbd babe b968 2ebd 1fc6 9f3e
00000290: 0ead cabe 0807 983d 5b13 893b 68c5 9fbc
000002a0: 0031 353e d863 98bb 29c0 eabc a93e 6abe
000002b0: 6fec 8fbe e791 b4bd 6d61 7b3e a6c2 683e
000002c0: 20aa 513d 1de2 db3e 95f1 9dbe 27a3 83bd
000002d0: b880 d1bd e328 3bbe 7b73 c9bd a580 df3e
000002e0: 6b09 8ebd 743d e5bd b151 18be c388 b33e
000002f0: 60a2 a5be 8a4a a4be 31aa eebe bea3 cbbe
00000300: a160 bbbe dc9d 58be ea4b a1bd 3c21 b6bd
00000310: bc11 8ebe 449d 39bf dd32 913e 1e65 4fbe
00000320: 0a3c 003f d407 25be 7b32 3f3f 0cdd 93bc
00000330: ac96 20be f5c8 07bf 9f49 4f3d 4680 32be
00000340: cf0d a9be a5e3 7abe f02e f3bd dc9e 933e
00000350: 2b90 dc3d 0cdf c83d 2dd4 19be c71b 32be
00000360: e665 c6bd d3f8 f0bc 51da 7cbe a4b1 cfbe
00000370: 91b5 91be f719 bbbe dcc2 e13c 6661 26bc
00000380: dc88 57be 6983 aebc 5776 c9bc 5932 7c3e
00000390: 21e8 96bd 8d8c 41bd cae4 e6be 1b92 21bf
000003a0: ef3a 79be 8132 95bd 8c77 193d d325 bfbe
000003b0: 82c5 573e 853c 88bd fad9 a43e aa97 aa3c
000003c0: 2f54 77be 9af0 24be 0100 123e f7e9 5e3d
000003d0: 4f10 083e d423 8cbe f372 813d 8f31 323d
000003e0: 7f75 703e d5e5 b9be b3f1 7cbe 526a 1b3e
000003f0: 0f45 06bf 741d a3be 8c0e aebc f141 2cbe
0.13856083 0.23921613 -0.36731642 -0.06999764 -0.19698457 -0.034922417 -0.47232535 0.01009267
0.022865372 -0.35078835 0.21789367 0.32874224 -0.26886335 -0.023788072 -0.16976944 0.13313133
0.08572486 0.020761115 -0.13496405 -0.03785434 0.44689396 -0.11628401 0.28551924 -0.30479407
-0.18827145 -0.21219882 -0.110187665 -0.11329434 -0.042209845 -0.2314321 0.16673803 0.23372275
-0.24637926 0.07174567 0.02303527 -0.12684166 0.025001839 -0.06689329 0.087165706 -0.21076986
-0.09641259 -0.0012206619 0.09007559 -0.18912235 -0.3954805 -0.46272218 -0.16858198 -0.09867749
-0.32574022 -0.3268588 0.046768855 -0.29888397 -0.106388815 -0.081375875 -0.20538521 -0.09826484
-0.22895537 -0.12381012 0.19291644 0.14117901 -0.25022152 -0.19452974 -0.27292266 0.18488728
-0.005471182 -0.21980952 -0.038459428 0.075008065 -0.13533717 0.23799638 0.06422845 0.17726418
0.32959554 -0.025208903 -0.2042579 0.054282133 0.18859592 0.44495204 0.3176553 0.17550482
-0.25457686 -0.07907672 -0.032166913 0.03428971 -0.2395947 0.005415756 -0.028310109 0.24186872
0.13403046 0.15245672 0.08882634 -0.044834793 -0.36882845 0.10376055 0.373105 0.18407743
-0.21548541 -0.06822052 -0.16583572 0.2334183 0.33472225 0.2740385 -0.11478756 0.2398139
0.20695654 -0.10831029 -0.24881142 -0.11161583 -0.056538973 0.020509252 0.08583779 -0.2340506
0.22075725 -0.23179796 -0.20566247 0.39731872 -0.30652446 0.07540941 -0.4557185 -0.29627478
-0.10224871 -0.48725504 0.5108862 0.36284187 -0.54302293 0.39170903 0.20743534 -0.061473608
-0.1344551 -0.3783977 -0.17107229 -0.20386226 -0.2039176 -0.11629505 0.03194224 -0.3382952
-0.12365633 -0.1411304 0.17364177 0.07512787 -0.17605391 -0.13039301 0.17807032 0.081108496
-0.039737694 -0.1258338 -0.27710012 0.05307954 -0.11408781 0.37390313 0.096976064 0.22472033
0.381238 -0.08385344 -0.07431861 0.092049815 -0.019846575 -0.35582218 0.22297467 0.11441552
-0.13287233 -0.3647302 -0.04258034 0.31205842 -0.39585155 0.07423216 0.0041832156 -0.01950331
0.17694473 -0.004650574 -0.028656082 -0.22875465 -0.28110072 -0.08816891 0.24548884 0.22730502
0.051187634 0.42945948 -0.30848375 -0.06427603 -0.10229629 -0.18277316 -0.09836479 0.43652835
-0.0693539 -0.11193362 -0.14874913 0.35065278 -0.32350445 -0.3208812 -0.4661422 -0.39773363
-0.3659716 -0.21153969 -0.078758076 -0.08893058 -0.27747905 -0.72505593 0.28359118 -0.20253417
0.5009161 -0.16116267 0.746864 -0.01804974 -0.15682477 -0.5304101 0.05060732 -0.17431745
-0.33018348 -0.24500902 -0.11874187 0.28832138 0.10769685 0.09808168 -0.15022345 -0.17393409
-0.09687404 -0.029415524 -0.24692656 -0.40565217 -0.28458837 -0.36543247 0.027558737 -0.010155058
-0.21048301 -0.021302896 -0.024592562 0.24628581 -0.07368494 -0.04725318 -0.45096427 -0.63113564
-0.24338888 -0.072850235 0.037467524 -0.37333545 0.21071437 -0.06652168 0.32197553 0.020824272
-0.24153207 -0.16107407 0.14257814 0.054422345 0.13287471 -0.27371085 0.06320753 0.043504294
0.23482321 -0.3630816 -0.24701576 0.15177277 -0.52449125 -0.31858408 -0.02124717 -0.1682203

gru.bias_ih_l0 f4 [48]
00000000: 04c4 8b3e 9f38 a93d b93b 38be bcd2 27be
00000010: 8678 e8bd f79a 813e b8c8 99bd e8e9 2c3d
00000020: ea93 c63d 8886 183c f619 213c 7584 11be
00000030: ff5a d2bd 4979 433e 6edf d1bd b2cf 6f3d
00000040: d1c7 d7bd 9c5b 953e 315e 223e 3a81 833e
00000050: a483 563d 2c71 94be 656a 983e 195f aabd
00000060: 8015 b13e 2ffc 61bd fc80 023d 489f 8c3e
00000070: 4e7f 4d3d 734c 0c3e 4a05 c13e 7201 773e
00000080: d988 8abe f5e3 34ba 03d2 8bbe 3c72 2b3e
00000090: 0e58 15bd 79d2 0bbd a4b3 15be d949 78be
000000a0: bfce c63d 7909 323e f617 85bd d710 80bd
000000b0: ca6e 543e 12ac 403e 6453 b4bd 2692 9d3e
0.27297986 0.08262753 -0.17991532 -0.16388983 -0.11351113 0.2531354 -0.07508987 0.042215258
0.09696181 0.0093094185 0.00983285 -0.14210685 -0.102712624 0.19089235 -0.10247694 0.058547683
-0.10536159 0.29171455 0.15856244 0.2568453 0.052371636 -0.28992593 0.29768673 -0.0831892
0.34586716 -0.05517214 0.03186129 0.27465272 0.050170235 0.13701038 0.37699348 0.24121645
-0.2705753 -0.00069004233 -0.27308664 0.16742796 -0.03646093 -0.03413627 -0.14619309 -0.2424692
0.097074024 0.17386426 -0.06498711 -0.06253212 0.20745388 0.1881564 -0.08804968 0.30775565

gru.bias_hh_l0 f4 [48]
00000000: 31b5 0f3e d50f 613e 89b3 f93c edae 62be
00000010: 9c2d fb3c 017a 953e 3394 233e fcee 52be
00000020: 5675 a93e 2003 7e3b a36a c23e afd0 983e
00000030: fb3f 823d 94ae d63d b568 1c3e 73ea dcbb
00000040: 646d 85be 762c eabd 03b8 c73e b700 5a3e
00000050: e142 823e 38c1 a5be 10bb efbc e2f1 bf3b
00000060: c986 b43e a0ec aabd f0ec c7bd 871e d5bd
00000070: 4d45 733e 780c 943c 8108 bc3d b649 01be
00000080: 2b82 9dbe 7314 dd3d 0342 1c3d d121 ca3d
00000090: d0e7 8ebe 3bd7 2d3c e0e1 143c 2373 9e3d
000000a0: b536 acbd 1cbb 773c 0d72 263e 9107 af3d
000000b0: f5be babe 8cd4 4f3d d663 00be 7afb ee3c
0.14033963 0.21978696 0.030481117 -0.22137041 0.030661397 0.29194644 0.15974502 -0.20598978
0.33097333 0.0038759187 0.37971982 0.29846713 0.063598596 0.10482517 0.15274318 -0.0067418157
-0.2606002 -0.114342615 0.39007577 0.21289335 0.2544165 -0.32373977 -0.029264003 0.005857692
0.35259083 -0.08345914 -0.09761989 -0.10406213 0.23756905 0.018072352 0.091813095 -0.12625775
-0.30763373 0.10794916 0.03814889 0.09869731 -0.27911234 0.010610397 0.009087056 0.07736804
-0.08408872 0.015120294 0.16254444 0.08546365 -0.36473814 0.05073981 -0.12538084 0.029172648

fc.weight f4 [1, 16]
00000000: c61f d2be c57b 87be 8a39 dabc 0d9a 86bd
00000010: 7813 abbd fa19 0dbe 9389 e9bd ec44 b0be
00000020: bc53 043d 1036 0bbf 9e76 ad3e ba9c 08be
00000030: 5755 8abe 8ab0 cabe e7bc a83b 8e7c 6e3e
-0.41039866 -0.26461616 -0.026638765 -0.065723516 -0.08353323 -0.1377944 -0.11403193 -0.34427583
0.032306418 -0.5437937 0.3387956 -0.13341036 -0.27018234 -0.39587814 0.005149472 0.23289701
