models/GRU_VAD/training_checkpoints/tiny_vad_epoch_027_valloss_0.0483_f1_0.8468.pth (torch, 18021 bytes, 9 tensors)

pre.weight f4 [48, 1, 3]
000000 27 49 db 3b ef 30 87 3e e0 d8 18 bf ae 34 f4 be
       0.00669207 0.2640452 -0.59705925 -0.4769644
000010 37 0c 9c be 47 f8 f9 3d 1a 96 63 3b ab a0 08 3f
       -0.3047807 0.12205558 0.0034726919 0.5337016
000020 b4 f4 18 3e f1 36 2d 3e 45 4f 61 be cb 97 62 be
       0.14937097 0.1691549 -0.22002895 -0.22128217
000030 a1 ec d8 be 52 02 a3 be 6d 02 8f be 1e e1 a0 bd
       -0.42368034 -0.31837708 -0.27931538 -0.07855438
000040 4c 9e 4e 3e 46 9b 8d 3e d9 38 a4 be 13 fd 43 be
       0.20177573 0.27657527 -0.3207462 -0.19139509
000050 66 44 66 3e b1 e9 b6 3e 0c d4 87 be 75 f1 af 3e
       0.2248703 0.35725167 -0.26528966 0.34363905
000060 ae 6b 18 be 9d a2 87 3a 92 3b f9 3e 75 d9 b2 be
       -0.14884827 0.0010348145 0.4867826 -0.34931532
000070 ec 63 41 be ed 76 84 3b c2 27 60 be 0a 83 f6 3e
       -0.18885773 0.0040424974 -0.21890166 0.4814685
000080 85 0d cd be 25 71 28 be db f1 8c be 86 0c cd be
       -0.40049377 -0.16449411 -0.2752827 -0.40048617
000090 8f 3b c2 be 4b 71 e7 3e 0f 28 63 3e fe 94 9a 3e
       -0.37936065 0.45203623 0.2218325 0.30191797
0000a0 af fa 48 3d d4 d5 98 be 8e 66 68 3e eb f2 df be
       0.049067196 -0.29850638 0.22695372 -0.4374002
0000b0 68 61 96 be 58 7f b1 be e2 de a3 3e c8 8b 85 3e
       -0.2937119 -0.34667468 0.32005984 0.26083207
0000c0 6a 16 a0 be 13 12 b0 bd 9d 84 b9 3e ea 9e ee 3e
       -0.312671 -0.085971974 0.36233988 0.46605617
0000d0 9d 3c 14 3e 74 04 7b bd e8 52 b1 3e fc de c2 be
       0.14476247 -0.061283544 0.34633565 -0.3806075
0000e0 89 1b a4 3d a0 e9 a0 be 57 ef 86 be 35 dc ff bd
       0.080130644 -0.31428242 -0.26354477 -0.12493173
0000f0 74 0c 49 3e 7b 92 27 3e 60 a3 e6 be 60 29 20 3e
       0.19633657 0.16364472 -0.4504652 0.15640783
000100 dd d0 98 3e de 84 da bd 46 87 65 3d 69 47 37 3e
       0.2984685 -0.10669874 0.05603721 0.17898335
000110 e5 d0 c8 3e e4 00 15 3f 7c 38 d4 be 3a ef 42 be
       0.39221874 0.58204484 -0.41449344 -0.1903657
000120 bb f7 e9 3d 6f d8 36 3f 01 f3 5d 3f 81 f1 35 3f
       0.11424204 0.71424 0.8669892 0.7107163
000130 31 98 5a 3f d0 83 0a 3e e9 89 06 be 16 26 99 be
       0.85388476 0.13526845 -0.13138546 -0.2991187
000140 96 3f 2f bf 0d f9 90 3e 36 14 20 3f 7d 00 55 bf
       -0.684564 0.2831501 0.6253084 -0.8320387
000150 b7 d5 6a 3e 50 fd 8b 3e dc 37 25 3f d8 9b 8c bd
       0.22933088 0.273417 0.6453836 -0.06865662
000160 ae ac d8 3e f8 6e 03 be a8 22 98 3d 71 d0 bf 3e
       0.42319244 -0.128353 0.07428485 0.37463716
000170 de 53 1f 3f 24 da 19 be 00 82 0a bf e2 27 d7 be
       0.62237346 -0.1502462 -0.54104614 -0.42022616
000180 d3 b5 cf 3d 01 84 25 3e 58 3b 31 bf 78 36 88 be
       0.10142102 0.16163637 -0.69231176 -0.26604056
000190 c1 af 01 3f 8c ab ba 3e 68 7e b6 3d a4 49 a3 bd
       0.50658804 0.36459005 0.08910829 -0.0797303
0001a0 3f 08 3c bf b5 24 38 3e 7a be 24 be 4b 05 5d bd
       -0.7345008 0.17982753 -0.16088286 -0.053960126
0001b0 13 27 2b 3d f2 ea 42 3e 05 f6 a3 be 07 b3 90 3e
       0.04178531 0.19034937 -0.32023636 0.28261587
0001c0 23 0f 28 be 7e c3 d5 3e 17 b2 21 3e 91 58 bb be
       -0.16412024 0.4175071 0.15790592 -0.36591008
0001d0 33 7c 04 bf 0b cf 73 3d 4e 76 ea 3e 65 1e 31 3d
       -0.5175201 0.059523623 0.45793384 0.043241877
0001e0 5c 90 36 3c a0 c2 30 3e 89 26 cb bd 19 23 e8 3c
       0.011142816 0.17261744 -0.099194594 0.028337048
0001f0 3f 8f 41 bf b2 56 17 be c0 54 a7 bc 2f c4 22 be
       -0.756092 -0.14779165 -0.020426154 -0.1589515
000200 b8 2b 85 3b d4 e0 9a 3d 27 1f 0c 3e 5e 75 bf 3e
       0.0040640496 0.07562414 0.13683759 0.37394232
000210 91 6c df be b7 a4 b6 be 5d 76 2d 3e 61 8c 84 bd
       -0.43637517 -0.35672542 0.16939683 -0.06472088
000220 26 d0 af bc 58 5a bb bd f1 eb b7 3e 19 ae e1 3e
       -0.021461558 -0.09148091 0.35922197 0.44078138
000230 d0 f9 26 3f af ce 7c 3e 98 25 1a 3f 46 d4 cb 3d
       0.65224934 0.24688219 0.60213614 0.09952597

pre.bias f4 [48]
000000 b5 4a 24 bf 6f c1 96 be 25 01 24 3f 28 b8 a9 bd
       -0.64176494 -0.29444453 0.64064246 -0.08287078
000010 79 0d b3 be ca 02 9d be 55 28 30 bf cb 5f cb be
       -0.34971216 -0.3066619 -0.6881154 -0.39721522
000020 23 c1 3e be 14 13 e3 3e 1b 76 b8 3e ab d0 f6 be
       -0.18628363 0.44350493 0.36027607 -0.48206076
000030 88 27 cd 3e 75 ba 01 bf 30 64 ed bd 60 cf be be
       0.40069222 -0.50675136 -0.11591375 -0.3726759
000040 03 d0 d5 be e1 55 e8 bd ce c6 10 bf ae 10 08 bf
       -0.41760263 -0.11344505 -0.5655335 -0.5315045
000050 95 81 ac be 8a 46 8b 3d f5 c9 c0 be 2e 41 82 3e
       -0.33692613 0.06800564 -0.3765408 0.25440353
000060 c4 83 1f bf 97 2a 5b 3d 90 58 0e 3f 37 85 19 be
       -0.62310433 0.053507414 0.55603886 -0.14992224
000070 dc f9 1c 3f 2f 0c 91 3e 62 fb 00 bf 06 e8 d2 3e
       0.61318755 0.28329608 -0.5038358 0.41192645
000080 2a 63 4e bd ea ec ae be b5 26 0e 3f f6 73 15 bf
       -0.05038754 -0.34165126 0.5552781 -0.5838007
000090 42 5d 23 3e d1 e9 8d be 3a fd 16 3f e7 1e b6 3e
       0.15953544 -0.2771745 0.58980143 0.35570452
0000a0 d8 3c 06 3f 3d 07 53 3e 63 fa e8 be 9a 5a cc bd
       0.5243659 0.2060823 -0.4550353 -0.099782184
0000b0 3e bb 22 bf 5e ca 04 3f aa 8f 0f 3f 33 ce 06 3f
       -0.6356696 0.5187129 0.5607859 0.52658385

norm.weight f4 [48]
000000 24 98 b8 3f 89 0b 91 3f ab 99 98 3f bf c3 8d 3f
       1.442143 1.1331645 1.1921896 1.1075362
000010 35 9e 82 3f 59 ef 81 3f 11 07 7a 3f 1e 19 83 3f
       1.0204531 1.0151168 0.9766703 1.024204
000020 c9 d8 7d 3f 33 24 71 3f b8 48 7b 3f 79 32 63 3f
       0.9915891 0.9419586 0.98157835 0.8874889
000030 10 c2 7b 3f 95 8a 87 3f f3 9a 63 3f 6c 38 73 3f
       0.9834299 1.0589167 0.8890831 0.9500797
000040 38 21 ad 3f 39 0b 79 3f 22 1f 7b 3f 65 ac 66 3f
       1.3525763 0.9728275 0.9809438 0.90106803
000050 80 82 c1 3f e4 d4 7c 3f 5b a1 7a 3f 16 7d 7c 3f
       1.511795 0.98762345 0.9790246 0.98628366
000060 f8 c0 9f 3f 5d f2 a0 3f af 1c 89 3f a8 46 92 3f
       1.2480764 1.2573963 1.0711879 1.1427813
000070 8d 39 9d 3f af 65 84 3f 91 e6 84 3f 8b f0 87 3f
       1.2283188 1.0343531 1.0382863 1.0620283
000080 68 a4 8d 3f f1 ca 80 3f f3 a6 92 3f 50 37 90 3f
       1.1065798 1.0061933 1.1457199 1.126688
000090 a5 6d 85 3f 17 6e 78 3f 06 5f 94 3f ad 53 9c 3f
       1.0424086 0.97042984 1.1591499 1.2213036
0000a0 c7 f4 a0 3f 31 4b 8a 3f c8 a8 a5 3f 76 fd 84 3f
       1.25747 1.0804197 1.2942133 1.038985
0000b0 5c bc 95 3f da 4c 97 3f a6 cb 90 3f 93 32 8e 3f
       1.1698108 1.1820328 1.1312149 1.1109184

norm.bias f4 [48]
000000 20 00 80 bd 93 b5 a9 3c 6c d5 95 3d 03 d6 96 bd
       -0.06250024 0.020716464 0.073160976 -0.07365038
000010 6e 36 82 3c bb cb ec 3c 0d 97 d4 bc 55 3a 7e 3c
       0.015895095 0.02890574 -0.025950933 0.015516837
000020 f0 43 65 3d 9a 74 87 3c c7 bd 6e bd ef c0 50 bc
       0.055972993 0.016535092 -0.058286455 -0.012741311
000030 22 7e 97 3c e7 6a 30 bd 48 ea 97 bd f9 a7 e2 bc
       0.018492762 -0.0430707 -0.074177325 -0.027667986
000040 f7 0c b5 3d 27 1e cb 3c b7 a7 5c 3d 4d 74 47 bd
       0.088403635 0.024794651 0.053870883 -0.048694897
000050 53 be 9d bb 81 59 79 3d df bc 4b bd b9 fb 38 bd
       -0.004813948 0.060876373 -0.04974067 -0.045161936
000060 72 3d c9 bc 9e 38 65 3d 75 c9 09 bb c2 5c 8b 3d
       -0.024565432 0.055962197 -0.0021024619 0.068048015
000070 a0 17 a2 3c a2 e3 96 3d 78 9e c3 3c 9c 6f 39 bd
       0.019786656 0.07367636 0.023879275 -0.045272455
000080 df 3f c5 bc 70 9f c9 bc 84 05 7f bc 24 37 99 bd
       -0.024078308 -0.024612159 -0.01556528 -0.0748122
000090 30 26 b5 3c ed f9 4e bc f5 4f 80 bc 47 f7 44 3d
       0.022112936 -0.012632829 -0.015663126 0.048087385
0000a0 5f 14 54 3d 46 72 b3 bc 0e 35 ab bd eb 84 75 3d
       0.05177724 -0.021905076 -0.08359729 0.059941214
0000b0 f7 99 10 bd 26 26 7f 3d 07 b8 0d 3d c7 4c c7 3c
       -0.035303082 0.06229224 0.03459933 0.024328602

gru.weight_ih_l0 f4 [48, 48]
000000 62 0d d0 3e e5 36 a2 3e ba 42 98 be 49 35 f4 bd
       0.4063521 0.31682506 -0.29738408 -0.11924226
000010 69 63 91 bd e9 b7 0b 3d 06 c1 83 bd 20 e7 0c bd
       -0.07099039 0.034110937 -0.06433301 -0.034400105
000020 b0 6c 19 ba c1 b4 5e 3e d5 a4 11 be 7c b2 ee bd
       -0.00058526825 0.2174864 -0.14223035 -0.11655137
000030 78 27 58 be 46 4c 05 3e 4b 77 d6 bd d1 22 5b 3e
       -0.21108806 0.13017377 -0.10471972 0.214
000040 e6 a4 22 3e 75 e8 34 3d 1f 6f 87 b9 e2 ce 76 bd
       0.15883216 0.044167 -0.00025831998 -0.060255893
000050 30 1e e6 bd 54 4e c8 bd 4b 5b 68 bd b3 6d fd bd
       -0.112362266 -0.09780565 -0.05672769 -0.12374439
000060 53 a6 a7 be 5a 0c 21 be d3 91 a5 3c 63 ef 09 3e
       -0.32744083 -0.15727368 0.020211136 0.13470225
000070 83 58 bd 3d 27 52 bc 3e aa 23 c7 3d a5 3f 00 be
       0.09245398 0.36781427 0.09723599 -0.12524278
000080 fd cd 25 be 7d ae c2 3d c9 f4 4f be 84 09 f8 bd
       -0.1619186 0.09505937 -0.20308222 -0.1211119
000090 5a 40 7d be 7b 73 03 be 17 d6 31 be 9f 1e 18 3e
       -0.2473158 -0.12837021 -0.17366825 0.14855431
0000a0 c0 12 61 bc 1f b5 c0 bd 0d 3c 5a 3d 0b 4c b1 be
       -0.0137373805 -0.09409546 0.053279925 -0.3462833
0000b0 6e 19 49 3d ad 22 91 be 50 23 3e be f4 38 93 3c
       0.049096517 -0.28346768 -0.18568158 0.017971493
0000c0 ec 35 b7 bd 58 83 48 3e af 3e 28 bf 1b c5 00 3f
       -0.08945832 0.19581354 -0.6572065 0.5030076
0000d0 3c 5a 8a 3e 80 57 98 be e6 30 53 3d 5a 4d 5d be
       0.27021968 -0.29754257 0.051560305 -0.21611539
0000e0 1a 3d 84 bd b7 5c 08 bd 9a c9 34 be 05 e9 00 bd
       -0.06456967 -0.033291545 -0.1765503 -0.031472225
0000f0 ae eb 92 3e 2d 48 b8 bd 88 7b 31 be 51 14 02 be
       0.28695434 -0.089981414 -0.1733228 -0.12703063
000100 64 2c 90 be 81 be 07 3e 88 48 17 be 94 cc 2e be
       -0.28158867 0.13256265 -0.14773762 -0.17070228
000110 a1 89 da be b5 8a 65 3e 9e 5d 63 3e ca 0d d5 3c
       -0.42683128 0.22416194 0.22203681 0.026007552
000120 66 6e bd 3e 6f 05 1c 3f cc 04 0e 3e f0 91 71 be
       0.3699829 0.6094579 0.13869017 -0.23590827
000130 10 bf 2b be 5c cb 31 bc 27 41 af be a1 20 2d 3e
       -0.16772103 -0.010851707 -0.34229395 0.16906978
000140 c1 17 19 bf d3 9f f3 bd 58 0a 6b bd 32 ff 81 be
       -0.5980187 -0.118957184 -0.05738291 -0.2539001
000150 ac ad c4 bc 9a 2e 0a be 23 a7 75 bd 79 56 9c bd
       -0.024008594 -0.1349434 -0.059973847 -0.07633681
000160 4e d0 8e bd 1b 0e 9d 3c 7e d9 97 be 42 85 9f 3e
       -0.06973325 0.019171765 -0.2965812 0.31156355
000170 f3 21 46 3a 14 1d ee 3d c1 14 6e 3d 9d 79 1b 3e
       0.00075581594 0.1162664 0.05812526 0.1518311
000180 b6 c1 03 bb a4 45 99 3d eb ce 84 be a0 91 f1 3d
       -0.0020104474 0.07483986 -0.25939116 0.11795354
000190 c2 34 9b 3d a1 57 83 3c 42 c9 30 bd 9e 2e 08 be
       0.07578422 0.016032996 -0.043160684 -0.13299033
0001a0 98 dc 4d 3e ac 3b 45 be b5 2f 9e 3d 15 09 e8 bd
       0.20103681 -0.19261044 0.07723943 -0.11329857
0001b0 a7 a8 cb bd 63 a9 04 3d aa 3c 16 be ee bb 96 3d
       -0.09944277 0.032388102 -0.14671579 0.073600635
0001c0 34 57 ce 3d 8d 38 32 be 76 2c 49 3d 26 b8 d1 3d
       0.100752264 -0.17404385 0.049114667 0.10240202
0001d0 82 03 f3 3d ca 67 e6 bc 1c 52 59 be ea 99 8a bd
       0.118659034 -0.028125662 -0.21222728 -0.06767638
0001e0 e1 f4 6c 3d 00 d4 99 bd 09 a7 d8 3d 01 a9 16 3e
       0.057850722 -0.07511139 0.105787344 0.14712907
0001f0 82 13 f5 bd d2 02 a3 3b f5 c8 06 3e 23 ca 19 bc
       -0.119666114 0.0049747014 0.13162597 -0.009386572
000200 f5 4e 3b bb 2e 30 2b 3d c5 df 50 be 76 1e cb 3c
       -0.0028580998 0.041793995 -0.20397861 0.024794798
000210 cb f1 39 3e 36 12 2e 3e 89 2c e5 3d 15 83 e7 3c
       0.18158643 0.16999134 0.11190135 0.028260747
000220 70 5a 06 3e 6e 1d 0a be bd 70 8f be d9 5b 29 be
       0.13120437 -0.13487789 -0.280157 -0.16538943
000230 53 68 81 3e 7f b4 19 3e a3 0e 38 be 66 06 b2 3d
       0.25274906 0.1501026 -0.17974333 0.08692627
000240 9d 8c 8c bd 6f be 34 3e 3f 4a 7c 3e b5 07 65 3e
       -0.06862757 0.1765077 0.24637698 0.22366221
000250 25 86 93 bd 92 cc 8b bd 9b 1c c5 3d 6c b0 10 3e
       -0.072033204 -0.06826128 0.09624597 0.141298
000260 ee ed 26 be 2a 95 6a 3e 72 3c 2f 3e 80 02 e0 3d
       -0.163017 0.22908464 0.17112902 0.10937977
000270 e0 f0 31 be e8 45 d1 bc bb d5 b9 bd 31 fe 46 3e
       -0.17377043 -0.02554603 -0.09073969 0.19432904
000280 86 00 6c be b3 b1 0b 3e 52 7a 52 bc a0 c0 03 3d
       -0.23047075 0.13642006 -0.012846546 0.032166123
000290 03 44 26 bf 3d 34 90 3e 58 88 30 bd 2b 06 88 bd
       -0.6494753 0.28164855 -0.043098778 -0.066418014
0002a0 d9 4f 88 be 66 4f 9d be 4c 03 e3 3c 35 0d 2a 3e
       -0.2662342 -0.3072464 0.027711533 0.166066
0002b0 31 08 be 3e a8 4c ab 3e 78 8c 0e 3c 12 16 b3 3c
       0.37115625 0.33456922 0.008700483 0.02186111
0002c0 41 b7 4b be f8 47 5f be e6 31 d1 3d 86 08 43 3d
       -0.19894125 -0.21804798 0.102145955 0.04761555
0002d0 56 f0 27 be 49 27 78 be 0a e6 f5 bb d2 7f 30 bd
       -0.16400275 -0.24233736 -0.0075042294 -0.04309065
0002e0 5a 3a c9 3e f7 49 43 3e 1a 00 80 3c 8f 1b 83 3e
       0.3930233 0.19071184 0.015625048 0.25606963
0002f0 cf fd 43 3b 22 1e ef 3b 48 b4 21 3f cf c8 2f 3f
       0.002990592 0.0072972933 0.6316571 0.68665785
000300 c7 a7 06 3e 2f cd d9 3e 08 0d 0e 3d db 97 9b 3e
       0.1314994 0.42539355 0.034680396 0.30389294
000310 1c 43 9f 3d 10 e3 00 3d 5b 21 76 3e 36 41 4c be
       0.07776472 0.031466544 0.24036162 -0.19946751
000320 cb 76 7a be 97 f9 b2 bc 81 47 c0 bd f4 08 97 3e
       -0.24459378 -0.02184753 -0.09388638 0.29499018
000330 0b 10 ad 3d 69 71 75 be 83 6d d9 bb b2 6d e6 3d
       0.084503256 -0.23969044 -0.0066353693 0.112513915
000340 35 5d cb 3e 83 7e 2c be 61 86 a2 be 8e 15 d4 3e
       0.3971955 -0.16845135 -0.31743148 0.41422695
000350 82 6f ec bd 47 08 da be d4 9c ed 3d 92 28 ab bd
       -0.11544706 -0.4258444 0.11602178 -0.083573475
000360 d3 bc 3d be 91 8f d3 3d f6 d6 41 3d bf 96 f6 3d
       -0.18529062 0.103301175 0.047324143 0.12040471
000370 34 2f 30 3e a6 a9 a2 3c 7a 75 08 be 53 0f 46 be
       0.17205507 0.019856285 -0.13326064 -0.19341783
000380 69 e5 50 3e ee bf df bd 1b c5 36 3e f8 f5 54 3e
       0.20400013 -0.109252796 0.17848627 0.20796955
000390 fd 9b 46 3d 87 18 b0 bd dd cf b5 bd 8b f6 fa 3c
       0.048488606 -0.08598428 -0.088775374 0.030635139
0003a0 11 58 15 3e f4 74 f2 be b2 38 c7 bd 56 9e a6 be
       0.14584376 -0.47354853 -0.09727611 -0.32542676
0003b0 f2 5b 03 be 0b 31 1e 3d d4 10 5b be 76 ed 9a 3d
       -0.12828043 0.03862099 -0.21393138 0.07564823
0003c0 44 31 da 3e f7 9e c2 3e e0 fc b7 be da 0e 25 3e
       0.42615712 0.38011906 -0.35935116 0.16118947
0003d0 6d c9 6d 3e 8b 43 bc be 1f 4a 62 3e f2 0f 94 be
       0.23221369 -0.3677028 0.22098587 -0.28918415
0003e0 33 61 b4 be 9e 87 13 bd 82 32 f3 3d bc bf 9e 3e
       -0.35230407 -0.036018007 0.11874868 0.31005657
0003f0 72 cb 8f be 66 21 6e 3d 34 05 4f bc af 64 91 bd
       -0.28084904 0.05813732 -0.012635518 -0.07099282

gru.weight_hh_l0 f4 [48, 16]
000000 9d c2 2c 3e a6 e0 80 3e 9b 80 b1 be 55 2e 55 bd
       0.16871114 0.25171393 -0.3466843 -0.05204614
000010 80 06 27 be dc 79 b5 bc 32 c7 e6 be 4d 96 8e 3d
       -0.16311073 -0.022152834 -0.4507385 0.06962261
000020 7c c5 c7 3c 34 80 ad be d8 44 47 3e 37 68 a4 3e
       0.02438616 -0.33886874 0.19459856 0.3211076
000030 5c 8b 71 be 5a ce bb bc 9d ae 19 be 1d 9c e9 3d
       -0.23588318 -0.022925545 -0.15008016 0.11406729
000040 c2 e6 f0 3d 3f 57 bb 3c 9b 7b 1f be 6d b2 3a bd
       0.117627636 0.02286875 -0.15574495 -0.045580316
000050 2d a3 b0 3e 8c ed ff bd 48 1a 57 3e 49 97 a3 be
       0.34499493 -0.1249648 0.21006119 -0.3195136
000060 23 c5 1f be bc fe 36 be 57 93 a4 bd ba 47 fc bd
       -0.15602545 -0.17870611 -0.08035915 -0.12318368
000070 64 6e 17 3d 5f 63 8a be 09 28 3e 3e 7a b5 e5 3d
       0.03697051 -0.2702894 0.1856996 0.112162545
000080 67 21 14 be 11 1a a2 3d 29 f7 c1 3c 45 7e 26 be
       -0.14465867 0.07915128 0.023677425 -0.16259106
000090 94 ed 21 3c 43 2a 28 3c a0 b3 98 3d 53 eb 6c be
       0.009883303 0.010263982 0.07456136 -0.23136644
0000a0 dd c6 0c be 75 8d 01 3d 14 60 96 3d f9 ab 34 be
       -0.13747735 0.031629045 0.07342544 -0.17643727
0000b0 1a 32 91 be 3e 0b bc be dd 32 44 be f9 92 e5 bd
       -0.28358537 -0.36727327 -0.19160028 -0.112096734
0000c0 5d e8 81 be 4c e1 aa be 77 dd ec 3c b1 60 53 be
       -0.25372592 -0.33375013 0.028914196 -0.20642354
0000d0 ed 28 f2 bd 52 2f 8b bc af 41 2b be a4 fc 9e bd
       -0.11824212 -0.016990338 -0.16724275 -0.07763031
0000e0 9a 8c 53 be 79 f3 14 be 8f 4a 6c 3e f8 9f bf 3d
       -0.20659104 -0.14546002 0.23075317 0.093566835
0000f0 2e cc 23 be c2 b0 1f be 1f 42 62 be 80 90 63 3e
       -0.15995857 -0.15594772 -0.22095536 0.22223091
000100 b8 a7 a7 bc f6 8e 65 be 36 fa ae 3c 30 5f 76 3d
       -0.020465717 -0.22417817 0.021359544 0.06014937
000110 8e a7 0b be 82 95 6b 3e 98 dd f4 bc 82 c3 2c 3e
       -0.13638136 0.23006251 -0.02989082 0.16871455
000120 6f 63 a0 3e c9 40 57 bd 82 6d 2b be d5 79 a0 3d
       0.31325862 -0.05255202 -0.16740993 0.078357376
000130 6c 35 1a 3e 31 66 d7 3e 9d d7 8c 3e f3 b0 b9 3d
       0.15059441 0.42070153 0.2750825 0.090669535
000140 2d 6a 89 be 0a 76 62 bd 2a 76 27 bd 54 07 8a 3c
       -0.26838818 -0.055288352 -0.040884174 0.016849197
000150 a6 68 96 be c6 97 2f 3c d1 92 31 bd b4 14 6a 3e
       -0.29376715 0.010717338 -0.043352906 0.2285946
000160 8b 5d 19 3e b6 28 03 3e ea 3f 20 3e 48 0b bb bc
       0.1497709 0.12808499 0.15649381 -0.022832528
000170 9c 46 ca be f4 3a 95 3d 81 8d af 3e 37 3b 25 3e
       -0.39506996 0.07286635 0.34287646 0.1613587
000180 fc b2 4f be c1 13 8b bd fb 5f 5e be 01 39 4a 3e
       -0.20283121 -0.06790877 -0.21716301 0.19748308
000190 37 48 80 3e 8e dd 92 3e a8 cf ec bd dc c4 5e 3e
       0.25055096 0.28684658 -0.11563045 0.21754783
0001a0 3b 1e 70 3e f9 47 ed bd e9 81 79 be f3 71 e0 bd
       0.23449032 -0.11585993 -0.24365963 -0.10959234
0001b0 06 d2 37 bd 52 1d 38 3c eb 58 9c 3d 96 a6 69 be
       -0.04487803 0.011237459 0.07634147 -0.22817454
0001c0 7c 1d 0d 3e 4a 97 68 be ce 6e 70 be ee 10 d5 3e
       0.13780779 -0.22713962 -0.23479769 0.4161448
0001d0 59 6b b6 be 42 6e 87 3d ba f8 ea be a6 69 8e be
       -0.35628775 0.06612827 -0.45892888 -0.27814978
0001e0 49 47 7e bd 28 e7 f5 be 02 f8 0f 3f b7 62 b2 3e
       -0.0620797 -0.4802792 0.56237805 0.34840938
0001f0 cc af fb be 6d 2d ba 3e 67 16 4c 3e 1a 22 07 be
       -0.4915756 0.36362782 0.19930421 -0.13196602
000200 a7 ad 35 bd 32 de ac be 4f de 7a be 4b 69 1d be
       -0.04435506 -0.33763272 -0.24498866 -0.15372197
000210 db 24 bc be c4 cf b9 bb ea 39 03 bd 53 20 72 be
       -0.36746868 -0.0056705195 -0.032037653 -0.23645143
000220 1c fa 20 bd 1a 65 c6 bd 46 06 ae 3d fc 16 e4 3d
       -0.039301023 -0.09687252 0.0849729 0.111371964
000230 a6 61 d0 bd 1a f7 0f 3d ae 96 cb 3d a5 28 81 3c
       -0.10174875 0.035147764 0.09940849 0.015766451
000240 24 27 f1 bc 61 da 09 be 11 ff 83 be d7 b0 81 3d
       -0.029437609 -0.13462211 -0.25780538 0.06332558
000250 e8 2e a5 bd 86 fb be 3e d1 7f 9e 3d dc 74 57 3e
       -0.08065587 0.37301272 0.07739223 0.21040672
000260 c6 29 c4 3e 35 03 dd bd 45 43 03 bd a2 73 aa 3d
       0.3831312 -0.10791627 -0.032046575 0.083228365
000270 03 ad d1 bc 15 61 b1 be 7a 41 63 3e 48 33 f6 3d
       -0.025595194 -0.3464438 0.22192946 0.120215
000280 96 b9 02 be 52 f5 ac be 3e f3 55 bd 90 64 99 3e
       -0.12766108 -0.33780915 -0.052233927 0.29959536
000290 3e 2c d4 be 54 89 b3 3d 38 f4 a2 bb 52 7b dd bc
       -0.41440004 0.08766428 -0.004972961 -0.027036343
0002a0 3b 9d 47 3e 97 fd 88 bc 16 ed 8a 3c b7 60 57 be
       0.19493572 -0.016722484 0.016958755 -0.21032988
0002b0 40 a2 93 be ec 75 e8 bd 3c 01 6c 3e 8b 6f 51 3e
       -0.28834724 -0.11350617 0.23047346 0.20452707
0002c0 43 e0 8e 3d eb 5c bb 3e ea f2 9a be 2e dc 13 bd
       0.06976368 0.36594328 -0.30263454 -0.03609865
0002d0 26 52 a7 bd 32 a4 37 be e5 3c 05 be fe b0 ea 3e
       -0.081699654 -0.1793373 -0.1301151 0.4583816
0002e0 1e e0 37 bd df 76 f4 bd f3 04 3c be 49 e5 a8 3e
       -0.04489147 -0.11936735 -0.18361263 0.3298743
0002f0 a4 d0 b9 be f0 33 9e be 7e 89 de be 04 15 b9 be
       -0.36291993 -0.30899 -0.43464273 -0.36148846
000300 e5 d2 98 be 14 02 4b be dd 66 38 bd 99 c1 62 bd
       -0.298484 -0.19825011 -0.045019973 -0.05536041
000310 ef eb 97 be ec be 2a bf 2e 7b 89 3e 5d b5 5b be
       -0.2967219 -0.66697574 0.2685179 -0.21455903
000320 b1 6c f0 3e e1 8b 8a be be d4 2c 3f b7 1e 60 bc
       0.46957925 -0.27059844 0.6751212 -0.013679198
000330 b0 54 27 be 99 3a 0a bf c3 27 a0 3d df 18 32 be
       -0.163409 -0.5399566 0.07820084 -0.173923
000340 0b ec a4 be be d7 5f be 0d 58 09 be 2e ad 9b 3e
       -0.32211336 -0.21859643 -0.13412495 0.30405563
000350 b5 a4 ad 3d 94 35 e3 3d 33 a8 20 be 72 ad 30 be
       0.08478681 0.110942036 -0.15689163 -0.17253664
000360 4f fe 99 bd 0c ec ee bc b8 89 63 be e4 c1 c1 be
       -0.07519209 -0.02916529 -0.22220504 -0.3784324
000370 55 c3 99 be 9c 60 bf be 24 34 94 3c 8a da ea bc
       -0.3003184 -0.37378395 0.018091269 -0.02866866
000380 c6 fc 06 be 51 ac 5f 3d 6c bd 14 bd f7 65 86 3e
       -0.13182363 0.054607693 -0.03631346 0.26249668
000390 40 b3 ad bd 46 12 cb bc 3b 7f ae be 03 6c 16 bf
       -0.08481455 -0.024788987 -0.34081444 -0.5875856
0003a0 43 f2 75 be 1a f2 37 bd 3e 1f 8c bc 43 7f a8 be
       -0.24018197 -0.04490862 -0.017104741 -0.32909593
0003b0 29 11 5a 3e 6c cc 14 bd a0 a0 91 3e 9b e3 f7 bb
       0.21295609 -0.036327764 0.2844286 -0.0075649745
0003c0 06 94 48 be 43 50 6c be e0 cd 0f 3e 07 a9 d0 3d
       -0.19587716 -0.23077492 0.14043379 0.101884894
0003d0 90 07 bf 3d a9 76 81 be 9c 72 75 3b 6d a4 1b bc
       0.09327614 -0.25285843 0.0037452346 -0.009499651
0003e0 8b 17 7d 3e 0a b4 c9 be 11 63 51 be d5 e4 a7 3d
       0.24716012 -0.3939517 -0.20447947 0.08197943
0003f0 08 27 c7 be 60 f7 8b be 3a 7b 55 ba 8d e6 60 bd
       -0.38896966 -0.2733717 -0.00081436674 -0.05490737

gru.bias_ih_l0 f4 [48]
000000 8c d0 87 3e 8a 06 b7 3d e5 ab 51 be 4f c1 1a be
       0.26526296 0.08936794 -0.20475729 -0.15112804
000010 e9 e5 ea bd 01 2b 70 3e b5 ff 9d bd 38 db 53 3d
       -0.11469633 0.23453905 -0.07714788 0.051722735
000020 13 f7 fe 3d 99 77 38 ba c6 c8 3e bb 00 7a 13 be
       0.124494694 -0.00070368644 -0.002911137 -0.14402008
000030 10 51 c9 bd 11 cc 3e 3e ee df c1 bd 40 cd 83 3d
       -0.098299146 0.18632533 -0.09466539 0.06435633
000040 89 ef c4 bd f2 99 91 3e 25 d9 3a 3e 12 06 84 3e
       -0.09616 0.28437763 0.18246897 0.2578588
000050 cd 9d 35 3d b7 21 90 be 10 ef 95 3e 3a f6 9e bd
       0.044339944 -0.28150722 0.29283953 -0.07761808
000060 8b a6 b0 3e 45 de 7b bd ab 54 46 3d 5f c2 8a 3e
       0.34502062 -0.06149127 0.04842059 0.27101418
000070 3f f1 68 3d 55 d3 0e 3e 28 23 c1 3e 82 38 71 3e
       0.056870695 0.13947804 0.37722135 0.23556712
000080 3b c2 86 be fb 85 8b bb f4 55 87 be 4d b8 2c 3e
       -0.2632006 -0.004257915 -0.26432765 0.1686718
000090 8d d7 05 bd 30 14 fc bc 35 b0 13 be 20 5a 74 be
       -0.03267627 -0.030771345 -0.14422686 -0.23862505
0000a0 f6 2c de 3d 76 7d 34 3e 5f 19 8e bd 7a ad 68 bd
       0.10848419 0.17625985 -0.06938433 -0.056806065
0000b0 4a a4 5e 3e 11 b3 42 3e 7d 79 ac bd fb c7 99 3e
       0.21742359 0.19013621 -0.084216096 0.30035385

gru.bias_hh_l0 f4 [48]
000000 58 ce 07 3e be f6 67 3e c9 c9 b8 3b 80 9d 55 be
       0.13262308 0.22652718 0.005639289 -0.20860863
000010 0c 78 f1 3c 97 f4 8b 3e b6 78 21 3e b3 32 49 be
       0.029476188 0.27335045 0.15768704 -0.19648246
000020 20 8e b7 3e 5d 1a c9 bb 49 e4 bb 3e de d5 97 3e
       0.3585062 -0.006137176 0.36697605 0.29655355
000030 eb 49 8b 3d 54 54 cd 3d 85 68 24 3e 99 9b 74 ba
       0.06801208 0.1002585 0.16055496 -0.0009331047
000040 3f b7 80 be 26 33 f9 bd 83 f5 d3 3e 5a 0a 5b 3e
       -0.25139806 -0.12167959 0.41398248 0.21390668
000050 4d 4c 7c 3e c3 71 a1 be 52 b8 0b bd f8 3f 3b 3c
       0.24638481 -0.31532106 -0.03411133 0.011428826
000060 d4 17 b4 3e a0 dd b7 bd 10 03 a6 bd 59 92 dc bd
       0.3517443 -0.089778185 -0.08106053 -0.10770101
000070 da 21 7a 3e b4 43 a8 3c ee 7f bc 3d a5 12 07 be
       0.24426976 0.020540096 0.09204088 -0.13190706
000080 dd f2 96 be 7f de ab 3d 39 c7 49 3c b9 b3 e1 3d
       -0.29482165 0.08392047 0.012315565 0.110206075
000090 20 01 89 be 98 43 60 3c ad 4b fc 3b 0b 77 98 3d
       -0.2675867 0.013687991 0.007699451 0.07444581
0000a0 54 63 aa bd b5 76 8c 3c b5 34 22 3e 7f a8 a6 3d
       -0.083197266 0.017146448 0.15840419 0.08137607
0000b0 48 49 9e be c2 99 57 3d aa 01 f2 bd cd 55 90 3d
       -0.30915284 0.05263687 -0.11816724 0.07047615

fc.weight f4 [1, 16]
000000 90 66 aa be 70 24 8b be 2c 05 35 bd 01 0e 9e bd
       -0.33281374 -0.27176237 -0.044194385 -0.07717515
000010 f6 65 ca bd 45 50 1a be 5e 53 11 be 6a e7 a7 be
       -0.09882729 -0.15069683 -0.14191958 -0.32793742
000020 cc 17 f8 3c d1 6a e7 be 78 3b a2 3e e7 eb 23 be
       0.030284785 -0.45198682 0.31685996 -0.16007958
000030 8a ed 79 be 09 83 c9 be f2 f3 d4 3c 2a 3b 6c 3e
       -0.2440702 -0.39357784 0.025995228 0.23069444
