models/GRU_VAD/training_checkpoints/tiny_vad_epoch_003_valloss_0.0626_f1_0.7818.pth (torch, 18021 bytes, 9 tensors)

pre.weight f4 [48, 1, 3]
000000 3d e1 b5 bc 84 c3 87 3e 18 0f 09 bf b3 41 e0 be
       -0.022202129 0.26516354 -0.53538656 -0.43800125
000010 bf 92 66 be 31 77 32 3e 77 dd ae bc 31 04 ed 3e
       -0.22516917 0.1742828 -0.021345837 0.4629226
000020 ec b3 05 bd 65 ef ee 3d b0 89 64 be 26 97 30 be
       -0.03264229 0.11666755 -0.22318149 -0.17245159
000030 35 0f 20 bf 82 50 ed be 82 a7 a8 be b9 a6 82 bd
       -0.62523204 -0.46350485 -0.32940298 -0.06379456
000040 f7 49 55 3e 3b 36 83 3e e6 db d4 be c4 cc 90 be
       0.20828997 0.25627312 -0.4157402 -0.28281224
000050 f0 ff 32 3e 07 30 e0 3e d8 48 62 be 07 7a c6 3e
       0.17480445 0.43786642 -0.220981 0.38764974
000060 aa aa e0 bd 4d 78 07 3d 2e c7 03 3f b0 61 02 bf
       -0.109700516 0.033073712 0.514758 -0.5093031
000070 7c 26 ac be 67 48 fa bd f6 9b 6f be 66 14 fa 3e
       -0.3362311 -0.12220841 -0.23399338 0.48843688
000080 88 1e cb be ff 09 72 be 89 1d bb be 31 c9 02 bf
       -0.3967173 -0.23636626 -0.3654597 -0.51088244
000090 e5 29 ad be ac a1 fd 3e df 2c 87 3e c9 c4 99 3e
       -0.33821025 0.49537408 0.2640142 0.30032948
0000a0 db 03 69 3d 12 ef 8e be a8 36 2e 3e cf b0 f8 be
       0.056888442 -0.2791677 0.17013037 -0.48572394
0000b0 cf e1 b5 be 41 32 95 be 58 17 bd 3e 83 7e ae 3e
       -0.3552384 -0.29139903 0.36931872 0.34080896
0000c0 1e e5 a2 be 42 66 a0 bd e4 5b a0 3e e2 26 03 3f
       -0.31815428 -0.07832004 0.31320107 0.51231205
0000d0 5c cc 2f 3e e6 9f 54 3c e1 47 bc 3e 98 cc bb be
       0.171678 0.012977576 0.3677359 -0.3667953
0000e0 a8 16 c1 3d 7c fd ac be 73 25 97 be db 90 42 be
       0.094281495 -0.33787143 -0.2952076 -0.1900057
0000f0 9e ac 61 3e 10 81 42 3e 03 f4 c3 be 06 08 07 3e
       0.22038504 0.18994546 -0.38272104 0.13186654
000100 77 38 8c 3e 3b cf ed bd ed e1 56 3d 56 fb 27 3e
       0.2738683 -0.11611792 0.052461553 0.16404471
000110 43 d6 c6 3e c5 f9 1c 3f 82 91 c6 be f4 00 1e be
       0.38835344 0.6131862 -0.3878289 -0.15430051
000120 99 37 af 3d 1e b3 d0 3e c9 40 d3 3e 5b 1a 36 3f
       0.08555526 0.40761656 0.41260365 0.71133965
000130 4a f3 b9 3e a1 49 80 be 6e db e1 bd 2b ab 53 be
       0.36318427 -0.25056174 -0.11028181 -0.20670764
000140 fc ce 1c bf 06 84 9a 3e 88 ab 2b 3f 63 b5 3a bf
       -0.61253333 0.3017885 0.6705861 -0.72933024
000150 af 73 a5 3e 76 53 0d be 41 39 07 3e bc 89 44 be
       0.32314822 -0.13801369 0.13205434 -0.19193166
000160 f3 22 e8 3e f3 f0 ab be af fa bc 3e d4 46 f5 3e
       0.45339164 -0.33582267 0.36910006 0.479056
000170 4e 8a 2e 3f 6b 0e 2a 3e fb fc 27 bf a2 12 c2 be
       0.68179786 0.16607063 -0.6562039 -0.3790484
000180 55 09 87 3e fe 00 cf 3e 80 28 29 bf 8f 96 02 bf
       0.26374307 0.40430444 -0.66077423 -0.51010984
000190 c6 8a 1e 3f c3 da 16 3e 15 0e 52 be f1 84 d9 3d
       0.619305 0.14731888 -0.20513184 0.1062106
0001a0 84 6f 3d bf 7d 70 4d 3e dc 1b 39 bf dd 84 9a be
       -0.73998284 0.20062442 -0.72308135 -0.30179492
0001b0 93 aa 1f be 10 2c 40 3d 5f 5d 7c be aa 72 fc 3e
       -0.15592413 0.04691702 -0.24644993 0.49306232
0001c0 2b c1 f8 be 22 d0 2b 3f cc 16 e3 3e 15 82 05 bf
       -0.48584875 0.6711446 0.4435333 -0.52151614
0001d0 7b 1f 13 be 3c 1d 33 be 46 a9 a5 3e e3 0a 95 bd
       -0.14367478 -0.17491621 0.32355708 -0.07277467
0001e0 e2 c8 b5 3e 89 20 a1 bc 6f ef 83 be 22 56 b7 3e
       0.35504824 -0.019668834 -0.2576861 0.35807902
0001f0 d7 2d 56 bf db 70 00 be 6e e7 eb 3c 4e de 04 bf
       -0.83663696 -0.12543051 0.028796878 -0.5190171
000200 4e 93 6e 3d 94 9d 73 be 25 7a 47 bc 2d d3 8f 3e
       0.05824595 -0.2379058 -0.012175118 0.28090802
000210 74 ed ed be 93 72 95 be 94 87 f8 3e 65 25 ed bd
       -0.46470225 -0.29188976 0.48540938 -0.11579398
000220 fe f6 54 3e c8 87 97 be e7 88 b0 3e 5b 73 fe 3d
       0.20797345 -0.2959578 0.34479448 0.12424346
000230 0c 07 40 3f e1 91 7a 3e f3 9a 2f 3f f6 b0 76 3b
       0.7501075 0.24469711 0.6859581 0.0037642098

pre.bias f4 [48]
000000 76 3d 0c bf 70 15 88 be b6 85 e8 3e d3 e1 27 bd
       -0.5478128 -0.26578856 0.45414513 -0.040986847
000010 09 85 88 be e9 09 de be 92 d1 0f bf 40 f7 da be
       -0.26663998 -0.43366936 -0.56179154 -0.42766762
000020 76 51 c6 bd 6d b8 ae 3e 6c b6 8d 3e 5b 15 12 bf
       -0.09683506 0.3412508 0.2767824 -0.57063836
000030 95 03 c5 3e 83 8e ee be c4 92 24 be 53 76 84 be
       0.38479295 -0.46593103 -0.16071612 -0.25871524
000040 42 24 08 be 26 79 ab bd ae f6 04 bf 9e b1 1c bf
       -0.13295081 -0.083727166 -0.51938903 -0.6120852
000050 41 ed c3 bd 7b 67 51 3d f9 5b 90 be 80 ed 40 3e
       -0.09566737 0.051124077 -0.2819517 0.18840599
000060 61 31 11 bf 07 4c ad bb d3 7c 06 3f b8 0c e3 bd
       -0.5671597 -0.005288604 0.52534217 -0.1108641
000070 03 28 04 3f e5 a2 7e 3e a3 74 fb be a5 0e b4 3e
       0.51623553 0.24866827 -0.49112424 0.35167423
000080 96 33 8a bd de 6e 99 be a7 12 f4 3e 5b cd 02 bf
       -0.067481205 -0.29967397 0.4767048 -0.510946
000090 91 7e c1 3d bf 75 39 be 83 0c b6 3e 79 2b 39 3e
       0.09447969 -0.18111323 0.3555642 0.1808299
0000a0 4d 92 d0 3e d9 55 4d 3e 82 2b 7c be 99 73 a6 bd
       0.4073662 0.2005228 -0.24625972 -0.08127517
0000b0 07 1c 04 bf bc ac a7 3e 8f 8c f8 3e f0 70 c3 3e
       -0.51605266 0.32748973 0.48544738 0.38172102

norm.weight f4 [48]
000000 34 36 91 3f f0 cf 84 3f 8f bc 83 3f b1 e0 85 3f
       1.1344666 1.0375957 1.0291919 1.0459195
000010 2c c2 8a 3f 07 51 75 3f 20 a7 83 3f af a0 7e 3f
       1.0840507 0.9582676 1.0285378 0.99463934
000020 ed 0d 80 3f 6b 04 80 3f b8 5b 80 3f b3 58 7e 3f
       1.000425 1.0001348 1.002799 0.99354094
000030 35 c5 82 3f 97 9a 82 3f 61 e4 75 3f f1 a9 81 3f
       1.0216433 1.0203427 0.96051604 1.0129987
000040 94 a4 81 3f ab cb 77 3f 85 a0 80 3f 49 cf 7d 3f
       1.012835 0.9679515 1.0048987 0.9914442
000050 58 8e 78 3f 88 52 79 3f ab c5 89 3f 54 e2 7d 3f
       0.970922 0.9739156 1.0763448 0.99173474
000060 c9 70 82 3f 09 4c 93 3f 75 41 82 3f 6f 48 98 3f
       1.0190669 1.1507579 1.0176226 1.1897105
000070 0a 9f 86 3f 40 e5 8c 3f 24 12 88 3f 07 7d 83 3f
       1.0517285 1.1007462 1.0630536 1.027253
000080 86 1e a0 3f 63 4c 86 3f da dd 8a 3f 82 73 8e 3f
       1.2509315 1.0492061 1.0848954 1.1129
000090 49 0d 78 3f ba e0 94 3f ab f4 7e 3f 08 bb 89 3f
       0.9689527 1.1631081 0.99592084 1.0760202
0000a0 ae e0 97 3f 92 4e 9c 3f b8 a5 95 3f 1c bb 84 3f
       1.1865442 1.2211478 1.1691198 1.0369601
0000b0 c1 46 8c 3f ae 6f 85 3f a1 f5 87 3f 5b ed 81 3f
       1.0959092 1.0424707 1.0621835 1.015056

norm.bias f4 [48]
000000 8b ab c6 bc 38 ca 85 3c 04 72 3a 3d 10 01 23 bd
       -0.02425172 0.016331777 0.04551889 -0.039795935
000010 a2 13 e2 3c 07 d7 05 3c 43 3c 3a bb a2 08 08 3d
       0.027597252 0.008168942 -0.0028417266 0.033211358
000020 7a 95 23 3d fd 48 a0 3c 5f d9 32 bd b1 d2 46 3c
       0.039937474 0.019566054 -0.043664332 0.012135194
000030 0d 7c 19 3b 5d c5 c7 bc 4a 02 42 bd be 19 05 bd
       0.0023419887 -0.024386102 -0.047365464 -0.032495253
000040 67 0e 84 3d df 4b 6c 3c b5 52 12 3d 3c 07 fa bc
       0.064480595 0.014422386 0.035723407 -0.030521028
000050 5d 0d ce 3c 37 78 a0 3c 1a 73 62 bd 12 7e 00 bd
       0.025152856 0.019588573 -0.05528555 -0.03137023
000060 eb bd fa bc 58 52 11 3d 46 01 84 bb 8d 7d 98 3d
       -0.030608138 0.03547892 -0.004028472 0.07445822
000070 33 a2 9a bc 4c 89 5d 3d 30 41 55 3c 20 ca d8 bc
       -0.01887617 0.054086015 0.01301603 -0.026463568
000080 ae 3a c1 bc d3 f1 fb bc 38 6a 9a 3b aa 02 82 bd
       -0.023587551 -0.03075496 0.0047123693 -0.063481644
000090 9c ba 25 3d 58 0b 97 bc 73 e5 0c bd 5f a0 5e 3c
       0.040461168 -0.018438026 -0.034398507 0.01358804
0000a0 ef 41 4b 3d c2 9f 86 bc 75 1b f7 bc 8e 24 e7 3c
       0.049623426 -0.0164336 -0.03016446 0.028215673
0000b0 8b d7 2a bd 09 5b 53 3c 81 10 4b 3c 31 30 44 3b
       -0.041709464 0.012900122 0.012394072 0.002993595

gru.weight_ih_l0 f4 [48, 48]
000000 91 8f 01 3d 2b 52 11 3e 40 85 81 be b3 fc 78 bd
       0.031631056 0.14191501 -0.25296974 -0.060787868
000010 b0 1c a9 bd 1c ca f8 3c f5 49 da bd 37 73 66 bd
       -0.08257425 0.03036981 -0.106586374 -0.05626222
000020 55 d1 58 bd a7 31 63 3e e0 b2 08 be 0f ba dc bd
       -0.05293401 0.2218691 -0.13349485 -0.10777675
000030 fd 04 55 be 49 89 02 3e 95 68 2c bd 39 a2 19 3e
       -0.20802684 0.12747683 -0.042091925 0.1500329
000040 75 9b ed 3d 66 a0 ab bc 1e df 15 bd ff 66 8d bb
       0.11601917 -0.020950507 -0.036589734 -0.0043152566
000050 cd 41 4f 3c 9e 43 d4 bd d6 67 65 bd 8f 87 b8 bc
       0.0126499655 -0.103644595 -0.05600723 -0.022525577
000060 e5 8d 96 be c4 2a 4d be 54 01 80 3e 96 ef 34 be
       -0.29405132 -0.20035845 0.25001013 -0.1766952
000070 2b 38 49 bc 0c 82 a5 3e 89 ca 03 3c 4f b7 19 3d
       -0.012281458 0.3232578 0.008043894 0.037528332
000080 99 31 85 be d6 34 02 3d 7e 34 f2 bd 43 e6 bd bd
       -0.26014403 0.03178867 -0.11826418 -0.092724346
000090 1c dc 02 be a8 b9 d3 bd b8 2f 85 3c ac 1b 19 3e
       -0.12779278 -0.103381455 0.016258106 0.14951962
0000a0 14 df 54 3d 40 d5 78 3e 5e a6 b0 3d 44 4b 5b be
       0.051970556 0.24300098 0.08625482 -0.2141543
0000b0 b9 c5 78 3d 16 63 37 be e9 05 c2 bd 38 a4 8b 3d
       0.060735438 -0.17908892 -0.094737835 0.068184316
0000c0 17 d4 52 3e 0b cd 7a 3e 96 34 53 be f6 9f 15 3e
       0.20588718 0.2449228 -0.20625529 0.14611802
0000d0 4d fb 82 3e df 4f ac be b6 ee 70 3e 99 94 88 be
       0.25582352 -0.33654687 0.23528561 -0.2667587
0000e0 23 56 b5 bd d0 a2 08 3d be 8e da bd ce c7 74 3d
       -0.0885432 0.033358395 -0.10671757 0.05976086
0000f0 fb 62 40 3e 67 27 e8 bd 72 f1 f8 bd 6e 99 0a be
       0.18787758 -0.113356404 -0.12155427 -0.13535091
000100 1c 2a 97 be 0e 39 aa 3d d7 05 21 be 02 8d 3a be
       -0.29524314 0.083116636 -0.15724884 -0.18217853
000110 63 d0 39 be 61 b2 25 3e d1 f2 1d 3e b9 0d 0d 3e
       -0.181459 0.16181327 0.15424658 0.13774766
000120 ba 2b 93 bc c6 57 b3 bd 16 50 19 bd 7c 45 96 3d
       -0.017965186 -0.08756976 -0.03742989 0.07337472
000130 d7 2f 2f 3e a3 4c 66 3d 27 8a 46 be 4e b3 f1 bd
       0.17108093 0.05622543 -0.19388638 -0.11801778
000140 82 a3 94 be 63 01 98 bd 35 29 18 be c7 72 84 be
       -0.29030997 -0.074221395 -0.14859469 -0.25868818
000150 36 86 ce 3d 68 db 69 be 6d 5d 8d bd 56 64 ef bc
       0.100841925 -0.22837603 -0.06902585 -0.029222649
000160 68 45 1e bd 9f d4 86 be 54 87 9a be 9a 1f ef 3d
       -0.03864041 -0.26334092 -0.30181372 0.116759494
000170 4a 3d 04 bc f6 22 1e 3e f6 be cf bd 36 36 2c 3d
       -0.008071253 0.15443024 -0.10143845 0.042043887
000180 e1 ae 9b bc a1 8b 4c bc 92 2c 30 be 56 50 9d 3d
       -0.019004287 -0.012484462 -0.17204502 0.076813385
000190 21 6c 9f 3d 6c 98 82 3b 99 bd 1d bd f4 88 12 be
       0.07784296 0.0039854553 -0.038510893 -0.14310056
0001a0 6c a3 3b 3e 6e fb 47 be 23 63 b8 3d 32 4a c3 bd
       0.18324059 -0.19529507 0.09003284 -0.09535636
0001b0 7f 29 de bd 70 66 6c 3d 7d ed 12 be b5 70 90 3d
       -0.108477585 0.05771488 -0.14348407 0.07052747
0001c0 2e 63 8d 3d ee 4d 30 be e0 8d 6b 3d 77 5d bb 3d
       0.06903683 -0.17217228 0.05750835 0.091486864
0001d0 a3 9e ed 3d e2 3d 8c bc 93 15 46 be 94 eb 6f bd
       0.11602523 -0.017119352 -0.19344167 -0.058574274
0001e0 00 56 cf 3d 3e 46 e4 bd 4a 0d a0 3d 53 96 43 3e
       0.10123825 -0.1114621 0.07815035 0.19100313
0001f0 1f 08 17 be 73 78 13 bc c2 b4 f6 3d 09 6c 69 39
       -0.14749192 -0.009000885 0.120461956 0.00022260858
000200 3c b9 92 bc 98 f1 26 3d 01 bb 5b be b3 4d 0a 3d
       -0.017910592 0.040757746 -0.21458055 0.033765506
000210 ab e9 1e 3e 7f 18 5b 3e a5 d4 03 3e 1a 8b 8a 3c
       0.15518825 0.21396063 0.12874086 0.016912032
000220 1f e9 d4 3d e7 a3 0c be 29 8a 4f be ee 59 52 be
       0.10396027 -0.13734399 -0.20267548 -0.20542118
000230 14 c6 86 3e 9d 06 12 3e c9 ad 41 be fe b0 a5 3d
       0.26322997 0.14260335 -0.1891395 0.08090399
000240 57 30 13 3e c2 b9 7b 3e aa f1 6d 3e 4b 3c 52 3e
       0.14373909 0.2458258 0.23236719 0.20530812
000250 2e ff 6a bd b1 95 af bd ab 79 5f 3e 9c b9 03 3e
       -0.057372265 -0.08573473 0.21823756 0.12863773
000260 71 91 26 be 56 dd 76 3e 19 e7 26 3e ed dd 21 3e
       -0.16266419 0.2410787 0.16299094 0.15807314
000270 ae b6 3c be 23 b2 d9 3c 24 0b 97 bd 38 62 33 3e
       -0.18429062 0.0265742 -0.07375172 0.17517936
000280 42 cf ba bc 89 63 aa 3d 5d a2 e1 3c eb 4d 01 3e
       -0.022803906 0.08319766 0.027543241 0.1262738
000290 5b e4 b9 bd 0e c6 d3 3d b8 f5 54 be a0 28 52 3d
       -0.090767585 0.1034051 -0.2079686 0.051308274
0002a0 97 a3 3d be 85 c9 65 be 31 1b 36 be d2 8e 35 3e
       -0.18519436 -0.22440155 -0.1778381 0.17730263
0002b0 00 6a 2d 3e d8 b2 94 3e 78 20 36 3e be ab 58 be
       0.16934967 0.29042697 0.17785823 -0.21159264
0002c0 d9 ed 5d be 37 46 78 bd 5c 74 0b be e9 fd f4 3d
       -0.21672763 -0.060613837 -0.13618606 0.11962492
0002d0 f6 16 2e be b2 6b 15 be 36 64 64 be 51 09 ec bd
       -0.17000946 -0.14591864 -0.22303852 -0.115252145
0002e0 62 a3 82 3e d1 dc 56 3e 63 18 0a 3e 28 d5 30 3e
       0.25515276 0.20982672 0.13485865 0.17268813
0002f0 12 fb 38 3e 7b e8 b5 bc ca 71 1f 3e 6a de 86 3e
       0.18064526 -0.022205582 0.15570751 0.26341563
000300 c2 82 0f 3e c8 97 ae 3e 27 74 39 3d 4c 99 6a 3e
       0.14014724 0.34100175 0.045276787 0.2291004
000310 5d eb d9 bc 98 82 e5 3d 3a 6c cc 3d 12 16 7b bd
       -0.026601488 0.112065494 0.0998158 -0.061300345
000320 8a 16 05 be 06 47 30 be f8 a1 6c be 1a 98 2b 3e
       -0.12996879 -0.17214593 -0.23108661 0.16757241
000330 93 9d 26 3e 9f d9 99 ba e6 01 1d be 67 b5 61 3e
       0.16271047 -0.001173783 -0.15332755 0.22041856
000340 54 aa f7 3d 67 53 20 3d 03 1d cd bd 80 87 5b 3e
       0.120930344 0.03914204 -0.10015299 0.21438408
000350 b6 90 83 3d 1f c1 39 be 29 21 86 3e ce 1b 3d 3e
       0.06424086 -0.18140076 0.26197174 0.18467638
000360 98 e6 12 bd 36 66 84 3d 01 bc 48 be 3c 85 d3 bd
       -0.035864443 0.06464808 -0.19602968 -0.10328147
000370 c2 28 2c 3e d3 ff 26 bd d8 64 f4 bd 2a 32 0c be
       0.16812423 -0.040771317 -0.11933297 -0.13691011
000380 d3 a2 03 be 03 84 17 bd e1 b3 cf bc 8a 06 89 3e
       -0.12855081 -0.03699113 -0.025354328 0.267628
000390 8f f9 0c bd cb ff 18 be 99 48 ef bc cf d5 8f 3d
       -0.034417685 -0.14941327 -0.029209422 0.07023203
0003a0 ca 82 a6 3d a4 42 80 be ed 8c ad bb 51 a4 7f be
       0.08130415 -0.25050843 -0.0052963407 -0.24965025
0003b0 c5 3d 88 bd 14 2f 23 3d b5 d1 61 be 6f f4 52 3d
       -0.066524066 0.03983982 -0.22052653 0.05150264
0003c0 6e a7 c8 3e 92 b2 52 3e b7 57 aa be d3 78 5f 3d
       0.3919024 0.20575932 -0.33270046 0.054558586
0003d0 99 bb 2f 3e 5c e5 8a be 4f c9 89 3e 31 14 9e be
       0.17161407 -0.27128112 0.269114 -0.3087478
0003e0 94 46 b0 be bf 6c 1a be e9 65 86 bc a7 d1 7a 3e
       -0.34428847 -0.15080546 -0.016406016 0.24494039
0003f0 be b2 96 be 7f 37 39 3e 58 d9 80 bd 7d 34 f9 3c
       -0.29433244 0.18087576 -0.06291455 0.030420536

gru.weight_hh_l0 f4 [48, 16]
000000 10 ba 03 3e a8 2b 3b 3e ac aa 83 be 9b 47 17 3e
       0.12863946 0.18278372 -0.2571615 0.14773409
000010 6e 4f 57 3d d4 44 36 3e c8 99 73 be c4 6d 50 3e
       0.052565984 0.17799693 -0.23789132 0.20354372
000020 10 cb 57 bd 6b 73 53 be 51 fb 95 3c 48 e0 4c 3e
       -0.05268389 -0.20649497 0.018308314 0.20007432
000030 59 9c 7a be 73 e7 97 3d 7e 46 00 3d f8 21 10 3e
       -0.24473704 0.07417192 0.031317227 0.14075458
000040 3d 59 b4 3e ef 01 11 3e 22 95 83 be 52 0b 4f bd
       0.35224333 0.14160894 -0.25699717 -0.050547905
000050 40 fa a3 3d 76 25 00 bd e0 90 86 3d 33 fa 59 bd
       0.08006716 -0.031285726 0.065706015 -0.053217124
000060 ae 5c 0b bd 4a 46 e6 3d 32 18 96 be 3a 24 92 bd
       -0.034023933 0.11243875 -0.29315335 -0.07135816
000070 69 6e 60 3e 30 a1 8b bd ea c8 3c 3e 8d 75 39 be
       0.21917118 -0.068178535 0.18436018 -0.18111248
000080 c9 68 bf bc bb 36 87 3d de b9 a4 3d 5f 31 31 be
       -0.023365395 0.06602236 0.08043264 -0.1730399
000090 13 b3 34 3d a5 9a d9 3d 9b c4 53 3e 60 d8 54 be
       0.04411609 0.10625199 0.20680468 -0.20785666
0000a0 81 df 0b be 66 0c b2 3d 0a 78 49 3c 2c 49 42 be
       -0.13659479 0.08693771 0.012296686 -0.18973225
0000b0 e2 54 48 be 20 02 5d be 5a 1e 41 be 51 37 ef bd
       -0.1956363 -0.21582842 -0.18859234 -0.11680473
0000c0 cd 5c 1c be 6f d4 55 be ce a6 0a 3c 1c 5a 15 3e
       -0.15269776 -0.20881818 0.008462621 0.14585155
0000d0 ec 43 0d be 4d 2f 8f 3c 18 ec 16 bd 11 8a de 3d
       -0.13795441 0.01747861 -0.03684625 0.10866178
0000e0 9e c1 1a be e8 f5 99 3b 5f fa 60 3e 5b e0 3c 3e
       -0.15112922 0.0046985038 0.21970509 0.1844496
0000f0 0c 13 6c be 2a 2d d0 bc 3e b7 f9 3b f4 2b 95 bd
       -0.23054141 -0.02541216 0.007620721 -0.07283774
000100 6f df 03 bd 9c 25 b8 bd 26 6c 50 3e 2f 54 02 be
       -0.032195505 -0.089915484 0.20353755 -0.12727426
000110 5c 1b 06 bd 23 c4 08 3e c9 38 2f be f1 ab 91 3d
       -0.032740936 0.1335607 -0.17111506 0.07112873
000120 1e 2e fe 3d 21 28 e6 bd 92 48 19 bc de 2f 08 3e
       0.1241114 -0.11238123 -0.009355681 0.1329951
000130 03 0d 47 3e a1 77 9e 3e 1b 4c 9a 3c 35 a2 9e bd
       0.19438557 0.30950645 0.018835118 -0.07745782
000140 a2 f7 12 be 8b d5 cb 3d 43 32 bb 3d 16 73 b5 bd
       -0.14352277 0.099528395 0.09140446 -0.088598415
000150 c5 30 b1 be be 98 37 3e f0 19 1b be 1a 7e 4d 3d
       -0.3460752 0.1792936 -0.15146613 0.050169088
000160 6d 23 b4 bb 02 9c 03 3e 98 bf 6e 3e e9 60 06 3e
       -0.005497387 0.12852481 0.23315275 0.13122906
000170 96 1b 22 be 91 b9 0d 3e b4 96 3c 3e 10 a8 4a 3d
       -0.15830836 0.13840319 0.18416864 0.049476683
000180 5b 44 ba be 20 79 71 be 85 cd 91 be e2 2d 72 3e
       -0.36380276 -0.23581362 -0.2847711 0.23650315
000190 bb 6b 7c 3e 43 4d d5 3d 10 45 e1 3d 08 2a 84 3d
       0.24650471 0.10415127 0.10999501 0.06453329
0001a0 d2 cf 9c 3e dc 93 35 be 3a 8c 93 bd d5 f2 aa be
       0.30627304 -0.17732185 -0.072044805 -0.3338839
0001b0 a8 73 ef bd 61 b3 0c be 11 b8 08 3e fa 24 c2 bd
       -0.116919816 -0.13740303 0.13351466 -0.09479709
0001c0 67 aa ff bd 85 b4 9b be 99 59 90 be d9 7a 1e 3e
       -0.124836735 -0.30411163 -0.28193358 0.1547655
0001d0 87 cc 83 be 43 17 41 3d a1 1f 8d be 9d 1d 6a be
       -0.2574198 0.047141325 -0.27563193 -0.22862859
0001e0 3c 10 a5 3c cc f0 b4 be 0a fd dd 3e b7 74 32 3e
       0.020149343 -0.35339963 0.43357116 0.17427336
0001f0 31 ee 8d be e5 1e f7 3c 8d 2e 60 3e 78 cf f5 3d
       -0.27720788 0.030166099 0.21892758 0.12002462
000200 31 4b 97 bc e7 cd 59 be 4b da 4d 3e 3e 43 67 be
       -0.018468471 -0.21269952 0.20102803 -0.22584245
000210 c6 66 81 bd 00 79 90 bc 6a bf b2 bd c6 50 b8 bd
       -0.063184306 -0.017635822 -0.087279156 -0.08999781
000220 a7 48 69 be 99 93 16 3c 0b c1 15 bd 27 a6 7c 3e
       -0.22781621 0.009190463 -0.036561053 0.24672757
000230 4c 21 99 bd 92 63 3f 3e f7 91 06 3b 8e c1 05 be
       -0.07477054 0.18690327 0.002053378 -0.13062117
000240 ab 30 a8 bd 9f 52 93 bd ae 18 65 bd a6 d4 b7 ba
       -0.08212408 -0.07193493 -0.05593174 -0.0014025166
000250 b6 c7 10 3e 83 c5 7c 3e 5a 17 f1 3d 63 e0 02 3e
       0.14138684 0.2468472 0.11772032 0.12780909
000260 1b 2c 47 3e 2b 03 e1 3b cf 24 de 3d 3a 7a 70 3d
       0.19450419 0.0068668327 0.108468644 0.058710314
000270 e2 a6 45 3e e5 d9 8b be 31 f3 0b 3e b8 a9 1b 3d
       0.19301942 -0.27314678 0.13666989 0.038003653
000280 ce 86 fb bd 1a 11 54 be 65 cd 2a 3d a1 da 96 3e
       -0.12281571 -0.20709649 0.041699786 0.29463676
000290 0b dc a5 be c8 85 6f 3d eb 16 2c 3d 8a f8 d2 bb
       -0.32394442 0.058477193 0.042014044 -0.0064383196
0002a0 e4 c1 cd 3d 67 31 9f 3d 04 f0 d7 3d 09 55 fc bd
       0.10046747 0.077730946 0.10543826 -0.12320907
0002b0 3b 82 42 be 2a 04 90 bd 73 54 2c 3e 06 3a 91 3d
       -0.18994991 -0.07032044 0.1682909 0.07091145
0002c0 f7 e1 9d bd c0 5b 5e bd 47 3f 6c be 7c 49 0e 3e
       -0.07709115 -0.05428672 -0.23071013 0.1389522
0002d0 a4 15 9e 3d 54 6d f9 bd a0 0b a1 bd d3 68 6f 3e
       0.07718971 -0.12179056 -0.078635454 0.23379831
0002e0 65 71 16 be 59 25 40 be d6 bb 0e be 3a 94 d2 3d
       -0.14691694 -0.18764247 -0.13938841 0.10282178
0002f0 8a 4f d1 be 92 ee 22 be 46 09 23 be 3b 55 0b 3d
       -0.40880996 -0.1591132 -0.15921506 0.03401683
000300 14 9b 19 3d 5a 81 23 bd 15 b7 bd 3e 64 4b 57 bd
       0.03750141 -0.03991828 0.37053743 -0.052562132
000310 cb ca b6 bd 38 2d 41 bd 3f 52 4c 3e d2 a4 91 bc
       -0.089253984 -0.047162265 0.1995325 -0.017778788
000320 18 55 0e 3e 67 98 9a bd 5e a1 07 3e 15 f6 f2 3d
       0.13899648 -0.075486 0.1324515 0.11863343
000330 6c c2 13 3e 6a 03 df bc 55 d0 56 3b 0b e5 92 be
       0.14429635 -0.027223308 0.0032777984 -0.2869037
000340 99 41 ab be 38 14 22 be 2b 49 8f bd 96 09 9c 3e
       -0.33448485 -0.15828025 -0.069963776 0.30476063
000350 b7 ee 04 3e ca cb 76 3d 1a 63 19 be 26 5f 1d be
       0.12981687 0.060252942 -0.1497921 -0.15368327
000360 f4 d7 1e be 49 ad 74 3b f5 06 55 be 6d 23 aa be
       -0.15512067 0.0037334731 -0.20803435 -0.33230153
000370 b4 00 95 be 07 16 bb be 42 60 2e bb 4c 9b c6 bd
       -0.291021 -0.36540243 -0.0026607667 -0.09697589
000380 19 b8 87 3d 4e a2 b2 3e 1a 1a 6c bd 40 44 23 3e
       0.06626911 0.34889454 -0.05764208 0.15944004
000390 e1 4b a0 bd 7f 7f d9 3c aa 99 20 be 1a 98 64 be
       -0.07826973 0.026550053 -0.15683618 -0.22323647
0003a0 e5 c8 37 be 9b 63 1e 3e b2 f6 2a be 00 21 cd bd
       -0.17947729 0.15467684 -0.1669567 -0.1001606
0003b0 c9 c9 93 3e 2e 4f 12 3e fe 1c 2f be 59 07 58 be
       0.28864887 0.14288017 -0.17100903 -0.21096553
0003c0 1e 87 42 be cc 17 cc be da e5 cf 3d 38 5e ad 3e
       -0.18996856 -0.39861906 0.101512626 0.33860946
0003d0 f0 ec 4e bd ed 6a 2b be 4f d4 f8 bd b7 05 a0 bd
       -0.05051893 -0.16740008 -0.1214987 -0.0781359
0003e0 20 46 79 3e 43 96 5f be 6e 44 48 be d8 56 91 bd
       0.24343157 -0.21834664 -0.19557354 -0.07096642
0003f0 be 4b c6 bd d0 be 2a 3d 0e d8 63 3e 93 b5 ca 3d
       -0.096824154 0.04168588 0.22250387 0.09897914

gru.bias_ih_l0 f4 [48]
000000 7d 6e 8c 3e 84 34 f5 3d 48 09 5d be 78 52 07 be
       0.27428046 0.11972907 -0.21585572 -0.13215053
000010 4a a9 6d be fa 6e bb 3d f6 da 46 bd 1a 71 8e 3d
       -0.2320911 0.091520265 -0.04854866 0.06955166
000020 28 dd 87 bd de be 49 be 10 3d 10 be 4c 55 11 be
       -0.06633979 -0.19701716 -0.14085793 -0.14192694
000030 64 28 31 be 59 d8 c7 3d 9a a7 d1 bd 55 db fb 3d
       -0.17300564 0.09758062 -0.102370456 0.12297694
000040 73 e3 aa bd 7d bb 65 3e 04 6e 06 bd 0f 99 a0 3e
       -0.08344164 0.22434802 -0.032819763 0.31366774
000050 34 b6 de bc 25 bd 13 be 02 bf 72 3e b3 d8 5b bd
       -0.02718649 -0.14427622 0.23705676 -0.053673457
000060 9a f9 44 3e c0 a0 53 bd b7 bd 07 3e e9 7e 88 3e
       0.1923584 -0.051666975 0.13255964 0.26659325
000070 93 14 f7 3c 7f d4 a8 3d ad 7b a9 3e 00 af 0a 3e
       0.030161178 0.082436554 0.3310217 0.1354332
000080 ed 8e 79 be f2 5e 47 3c b0 07 86 be 5e 72 2c 3e
       -0.24370928 0.012168633 -0.2617774 0.16840503
000090 c2 1b d9 bc 40 f5 ed bc fd 50 1e be e5 04 5c be
       -0.026502494 -0.029047608 -0.15460582 -0.21486242
0000a0 ec ea d7 3d 63 f2 40 3e 00 66 a9 bd 65 e3 87 bc
       0.10542855 0.18842463 -0.08271408 -0.016587922
0000b0 12 ec 62 3e db 28 4f 3e 19 cf 58 bd 15 f8 83 3e
       0.22160366 0.20230429 -0.05293188 0.2577521

gru.bias_hh_l0 f4 [48]
000000 27 0a 11 3e f5 86 83 3e e9 e2 b2 bb a6 2e 42 be
       0.14164029 0.25688902 -0.0054591787 -0.18963107
000010 96 0e b4 bd d8 75 05 3e cb c1 3e 3e 08 f1 36 be
       -0.087918445 0.13033235 0.18628614 -0.17865384
000020 40 b2 2b 3e 39 4f 4f be 7c 86 6a 3e 36 e8 98 3e
       0.16767216 -0.20245065 0.22902864 0.29864663
000030 b1 5d db bb ae a5 3c 3c b1 84 1c 3e c8 49 6c 3d
       -0.0066945185 0.0115141105 0.15284993 0.05768755
000040 44 68 74 be e5 11 3a be 3e 76 4b 3e 2d 18 8a 3e
       -0.23867899 -0.18170889 0.19869325 0.2697157
000050 10 0e 33 3e 39 5d 36 be 24 1a b8 bd cc e3 10 3d
       0.17485833 -0.17808999 -0.08989361 0.035373494
000060 2c dc 4b 3e de be a3 bd c2 c2 49 3b 53 a0 e5 bd
       0.19908208 -0.079953894 0.003078625 -0.1121222
000070 09 c8 5e 3e 49 82 15 bd a0 c4 3b 3d 28 9c 6d be
       0.21755995 -0.036501203 0.045841813 -0.232041
000080 61 74 7b be 80 2e 92 3d 1f 07 03 3a 7d 7a f4 3d
       -0.24556114 0.071377754 0.00049983145 0.11937425
000090 58 2d 6d be 5e 7f 7c 3c f4 db 9c bc 26 b8 72 3d
       -0.23161829 0.015411226 -0.01914785 0.05925765
0000a0 f3 a9 4b bd a1 a3 bc 3c a0 d5 14 3e 31 e8 9c 3d
       -0.049722623 0.023027243 0.14534616 0.076614745
0000b0 89 13 e7 bd 92 22 80 3d 87 b1 a2 bd 4a c6 c3 3d
       -0.11283023 0.06256594 -0.07944017 0.09559305

fc.weight f4 [1, 16]
000000 50 a0 40 be 4b d0 5b be 0b 5d 1e be b3 bc f0 bd
       -0.18811154 -0.21466176 -0.1546518 -0.117547415
000010 bf ba 25 be 48 4b 44 bd 9b 84 03 be 74 6e 28 be
       -0.16184519 -0.047923356 -0.12843554 -0.16448385
000020 4e 11 22 3d 37 7c fd bd af 10 4c 3e 61 da 35 be
       0.039567284 -0.12377208 0.1992824 -0.17759086
000030 eb df 0a be 90 c6 6a be c5 94 5b 3d 80 20 38 3d
       -0.1356198 -0.22927308 0.053608675 0.04495287
