models/GRU_VAD/training_checkpoints/tiny_vad_epoch_001_f1_0.7683.pth (torch, 14933 bytes, 9 tensors)

pre.weight f4 [32, 1, 3]
00000000: 7522 c73a 207f 8a3e ad96 1fbf adba f4be
00000010: 5c9d 91be fc23 5c3d 9f09 3d3d a77d 053f
00000020: 8d16 2f3d 3459 c23d cd2f 70be 2a19 45be
00000030: c718 0dbf 4f01 c5be 25a4 81be 48b8 453c
00000040: 7200 613e e410 b03e 7aee cbbe 302f 85be
00000050: 255e 483e 7e7b db3e 7163 2cbe cbff c53e
00000060: ef81 4bbe f960 1bbd 7a64 d63e d35f e9be
00000070: d028 91be 089c 83bd 51dd 5ebe be02 013f
00000080: ebe5 bdbe 95e5 5abe 57c4 b3be 26e6 f8be
00000090: ffa3 c0be c44b ea3e 2f92 623e 64b9 903e
000000a0: 4311 043d 8a50 97be 7e8a d83d ef7f 07bf
000000b0: 961b d0be b1c1 97be 1172 ba3e 78cd ac3e
000000c0: 970b 8fbe 757d cc3d 817c da3e 4c8c e43e
000000d0: 4864 173f ae07 e43e 3f25 bf3e 3bd2 aebd
000000e0: 4b62 fa3e 28c5 adbe b025 20bf 1812 1fbf
000000f0: c68f 9e3e fb5b 7c3d 7808 1cbf 990a 873e
00000100: 9dde d13e 0101 3f3e aece 1b3e 0e00 9c3e
00000110: 8a73 1e3f a3dc e53e ad4d d0be de0b dabe
00000120: f21d 653e b2a9 f83e 12f9 213f 09ec f33e
00000130: 4414 423e e2b4 c1be ce70 d7bd f8fc 0bbf
00000140: d336 17bf d560 263f 7d1c f13e 800b c0be
00000150: a8ba a1bd db36 8bbe 5c7a 8fbe b156 e6be
00000160: 5aa8 0bbd 8a8b c2be a961 4a3d 2b5c 033d
00000170: 0fb3 9f3e 86ae a43e 7e71 d6be 9f28 0cbe
0.0015192764 0.27050114 -0.6233929 -0.47798672 -0.28440368 0.053745255 0.046151754 0.52144855
0.042746115 0.094896704 -0.23455735 -0.1924788 -0.5511593 -0.3847756 -0.25320545 0.012067862
0.21972826 0.34387887 -0.3983038 -0.26012564 0.19567163 0.42867655 -0.16834809 0.38671717
-0.19873784 -0.037934277 0.41873533 -0.4558092 -0.2835145 -0.06426245 -0.21764113 0.5039481
-0.37089476 -0.21376641 -0.35110733 -0.4861309 -0.3762512 0.4576093 0.22126077 0.28266442
0.032243025 -0.29553634 0.1057329 -0.52929586 -0.40646046 -0.29639962 0.3641515 0.3375051
-0.2793853 0.099848665 0.42673114 0.44638288 0.5913739 0.4453711 0.37333104 -0.08536192
0.48903117 -0.3393948 -0.62557507 -0.62136984 0.30969065 0.061611157 -0.6095042 0.26375273
0.40990153 0.18652727 0.15215561 0.30468792 0.6189505 0.44894895 -0.40684262 -0.4258718
0.22374704 0.48566967 0.63270676 0.47641018 0.18953043 -0.37833315 -0.10519563 -0.54682875
-0.5906803 0.64991504 0.47092047 -0.37508774 -0.0789693 -0.2719029 -0.2802304 -0.44988015
-0.0340961 -0.37997085 0.049409542 0.03207032 0.31191298 0.321644 -0.41883463 -0.1368737

pre.bias f4 [32]
00000000: 4f5d 513e 9d1e 8c3d 2a69 c4be e247 c2be
00000010: 2fcd f73e caaf e03e 8cfa 96be 48e4 7cbd
00000020: 24fc eebe 5242 f3bc 0002 fbbe d35b e7be
00000030: 3820 bd3c 3461 6c3d e8c6 58be 56ee a13e
00000040: a974 c0be a7d3 0b3f 8959 ee3e 15f2 0bbf
00000050: f43e 4fbe bd6f 8c3d 99b6 0c3e db51 e43d
00000060: 537b 8b3e c37e ab3d ae05 a4be 03a7 a83e
00000070: a1db 1bbf f77e b4be 69e0 3ebe 1691 6ebe
0.2044575 0.068417765 -0.38361484 -0.37945467 0.4839873 0.43884116 -0.29488027 -0.061741143
-0.46676743 -0.02969471 -0.49024963 -0.45187244 0.023086652 0.057709888 -0.21169627 0.31627148
-0.37589005 0.5461983 0.46552685 -0.5466626 -0.20238858 0.0685725 0.1374153 0.11148425
0.27242526 0.08373787 -0.32035583 0.3293992 -0.60882 -0.35253116 -0.18640293 -0.23297533

norm.weight f4 [32]
00000000: 18c0 9f3f 9946 873f 5998 863f 75af 933f
00000010: fc5d 813f 66af 813f fe50 823f bb88 813f
00000020: 484d 853f 6ae4 7e3f f00e 8e3f c40d 7c3f
00000030: b1cc 803f ed99 7d3f 54cf 813f 6171 823f
00000040: aea0 853f dd9d a63f c171 a03f 73b7 8e3f
00000050: 6457 8d3f c0a6 843f 84f3 893f 16e2 7b3f
00000060: f7ac 853f 95b6 803f f881 823f aa48 8a3f
00000070: d31a 863f 8e33 823f ee73 823f 26dc 793f
1.2480497 1.056842 1.0515243 1.153792 1.0106807 1.0131652 1.0180967 1.0119852
1.0414209 0.9956728 1.1098309 0.98458505 1.0062467 0.99063 1.0141397 1.019085
1.043966 1.3016926 1.2534715 1.1149734 1.1042295 1.0363388 1.077744 0.98391855
1.044341 1.005572 1.0195913 1.0803425 1.0476936 1.0171983 1.0191629 0.97601545

norm.bias f4 [32]
00000000: 02a2 12bd 7454 e7bb 4451 b33b 4daa babb
00000010: 45c4 47bc 38ba 8f3b abd2 073c 77fb bc3a
00000020: 81ef 4ebd 9716 9f3c 9763 02bd 8301 0dbc
00000030: 21b8 8cbb 8e7c 6bba d42b 123b 6cc9 d9bb
00000040: 9c06 afbb 6c9e 91bc 1800 423b 6e20 ecbc
00000050: 4ad5 73bd a98d 06bb 1823 283b 7e4a 92bb
00000060: be91 153d 3e29 eb3b 75e1 33bb ab61 333c
00000070: 393d d6bc 7c69 0ebc 19ad cbbc 4e83 163c
-0.035799034 -0.007059628 0.005472334 -0.005696571 -0.01219279 0.0043862127 0.008289973 0.0014418204
-0.050521377 0.019419951 -0.031833258 -0.008606317 -0.004294411 -0.00089830987 0.0022303956 -0.006646326
-0.005341364 -0.017775737 0.0029602107 -0.028824057 -0.05952958 -0.0020531213 0.0025655683 -0.0044644466
0.036515944 0.0071765473 -0.0027447615 0.010948579 -0.02615224 -0.008692142 -0.024862813 0.009186579

gru.weight_ih_l0 f4 [48, 32]
00000000: dbe7 b93d e4e0 16be 460b 83bd bd65 2fbd
00000010: 8157 20be 5fea ccbc cb9f 353e 3fe4 46bd
00000020: 17f5 88bc 8ae4 40bb aae9 8e3c 83ec 4f3e
00000030: 9c95 3e3e 6581 b93d c3ad a33e fb3b d1bd
00000040: 0d69 90be 9541 77be cff7 d63d b36b 49bd
00000050: fda9 32be 3a46 73be 62c5 9ebe a8e6 91be
00000060: 0d5c f8bd 2b5f d63d 3a0f c63d 6415 79be
00000070: 13b6 f53d aba7 6cbe a0b3 d5bd 2419 15be
00000080: 3d5d 403e f9c6 873d 8af5 a1be 39f5 e9bd
00000090: e9e9 923a bf96 27bd 2f16 9cbd c4e1 3e3d
000000a0: 1302 8bbe c017 0b3d cf86 323e 72ab 2fbd
000000b0: 538b 293e 2aa7 823c 7af4 1ebe dd3f b23d
000000c0: c1f4 11be f877 b3be 4d21 873d b6aa 67be
000000d0: 3a5b ebbc fc0f 08be d1e1 b53d cf0a 4c3c
000000e0: 76ee 773c f91c caba 79d9 e5bd 1ed6 23be
000000f0: 98a7 80be 260d ac3d 0a66 0a3e 8024 f23d
00000100: 3ebd 0cbd 7e51 603d 466a 5abe d478 58be
00000110: 7511 27be db3a e13d acca 4bbe 29fa d2bc
00000120: e0d8 a3bd e4c5 6b3e dbe4 90be 6ac3 b8bd
00000130: ba88 72be 8b5f 123e fb23 fb3b a924 e03d
00000140: d2b2 c6bc 6555 d23d dcc5 9c3d b845 f7bd
00000150: 2e69 4abd 0416 12be 82aa cdbd 984d d63d
00000160: f0ec 38be 32a4 aebd 2599 213e 391e 1abe
00000170: 11ba eabd 58f7 1d3e f578 e5bc 8caf 9fbd
00000180: 6071 f0be aecb 193e 3242 fabd c571 89be
00000190: 16d2 e0bd c068 95bc 61b2 b8ba e49c 453e
000001a0: f188 753b 3cce 733e 7741 de3d f98b e2bd
000001b0: 41ce 663d c7fb 69be 1831 e7bc dc94 c4bb
000001c0: 9a57 3f3e 0e52 eb3e b3e6 e23d 0bef 0abe
000001d0: 0cae 83bc 7198 80be 13a4 793e df28 63be
000001e0: fe2f fb3c 2ab3 0cbe 731c 35be 7a1c b9bd
000001f0: 32c5 293e 8590 debd 96cb 4fbe 029a 03be
00000200: 0181 0bbe 46f4 de3d f472 20be a72e 78be
00000210: afbe 7fbd 9e26 803d 338b 4f3e f4e6 fb3d
00000220: e49c b23c 44e1 78bc a63c 3abe c68a 183e
00000230: d213 003e 1fac cdbc 90ff f6bc 5749 54be
00000240: d110 afbe 1abc ef3d 6601 45bd ad2c a8be
00000250: 069c 153e ec60 71be 41e3 adbd f1c2 8c3d
00000260: 3d25 2d3d ab55 4dbe 1b44 9abe 7013 823e
00000270: 6a9c 47bd 8fd9 de3d 9bd7 22be 6e35 60bc
00000280: 6f27 2b3e 6bf5 2d3d 1380 49be d806 553e
00000290: e955 b03d 6b35 9abc 5c4c 59bd 6a5c 21be
000002a0: c51f 323e 12bf 3abe 1c02 443e 5582 a9bd
000002b0: 44de eebd 00d1 f73c 2228 19be 55ce 943d
000002c0: 773b 14bd 7f8c eabe 8507 38be 9c97 373e
000002d0: cb22 103e 83e9 80bd 225c 8bbe a618 9fbd
000002e0: 3e11 10bd 1286 f0bd 4982 f43d 0c70 cc3d
000002f0: 4c16 d0bd f10f c83c ef6d d93d 2d5c 0f3d
00000300: 469f 88bd 7a8a 373d 3417 4fbe db34 08be
00000310: 56ea 733e 0925 263e 5d68 5e3e 3f7f 00bd
00000320: 5f85 763d 9b89 97bd 011b a5be fbfc 18be
00000330: 3faf 343e ce85 a63d db53 97bd 08ff 96b8
00000340: 5252 303e cd08 023f 4d4e b73e 5219 7b3d
00000350: 7af4 27be b224 0abe eba0 423e f120 8c3d
00000360: 621e c5bd 1072 313e ff6a d63c f633 153e
00000370: bc4c 78be 146e 17bc b91c 26be 5a3e e13d
00000380: 5b4f 4abe 72f5 b43d f381 a63d 6da4 21bd
00000390: 3415 b9bd 3efa 013e 8296 39be 84f8 593d
000003a0: b17e 34be a4fe 70be ef0d 8fbe f7b1 5d3e
000003b0: b18d e33d 014c 573e 96f5 733e 85b1 85be
000003c0: 6be5 d8bd 9c68 f03d 9f92 25bd 38fa ca3d
000003d0: 205b 7dbe 4dd4 07be f327 5fbe 6837 28be
000003e0: 61dd 7a3e 6c5d 323e 4b0c 133e 8436 053e
000003f0: 5b6b 4a3e 859c babd a682 c23d b592 493e
0.09077426 -0.14734226 -0.063986346 -0.042821635 -0.1565838 -0.0250141 0.17736737 -0.048557516
-0.01671843 -0.0029433095 0.017445404 0.20305066 0.18611759 0.09057883 0.31968507 -0.102165185
-0.28205147 -0.24146111 0.104964845 -0.049174976 -0.17447658 -0.23757258 -0.31009966 -0.2849629
-0.12126932 0.104673706 0.09670873 -0.24324566 0.119976185 -0.23110835 -0.104346514 -0.14560372
0.18785568 0.06629748 -0.31632644 -0.11423726 0.0011208627 -0.040915247 -0.07621419 0.046602026
-0.2715002 0.033958197 0.17434238 -0.042888112 0.16557054 0.01594885 -0.15522948 0.08703587
-0.14253522 -0.35052466 0.065981485 -0.22623715 -0.028730024 -0.13287348 0.08880962 0.012453749
0.015132537 -0.0015420011 -0.1122312 -0.15999648 -0.25127864 0.08400945 0.13515487 0.11823368
-0.034360163 0.054765217 -0.21329603 -0.21139842 -0.16315253 0.10997554 -0.19901532 -0.025754051
-0.0800035 0.23024708 -0.28299603 -0.09021647 -0.2368497 0.14294259 0.0076642013 0.10944492
-0.02425519 0.10270194 0.07654926 -0.12073845 -0.049416713 -0.14266211 -0.100422874 0.104640186
-0.18059134 -0.085274115 0.15781076 -0.15050592 -0.114612706 0.15426385 -0.028011778 -0.07797155
-0.46961498 0.15019104 -0.12219657 -0.26844612 -0.10977571 -0.018238425 -0.0014091247 0.1929813
0.0037465657 0.23809141 0.1085233 -0.11061854 0.056349043 -0.22849952 -0.028221652 -0.0059991907
0.18685761 0.4596104 0.11079159 -0.1356775 -0.016074203 -0.25116304 0.24378996 -0.2218356
0.030662533 -0.1374022 -0.17686634 -0.090386346 0.1657913 -0.10867409 -0.20292506 -0.12851718
-0.1362343 0.10886435 -0.15668851 -0.24236546 -0.06243771 0.06257366 0.20267944 0.1229991
0.021803327 -0.015190426 -0.18187198 0.14896688 0.12507561 -0.025106488 -0.030151159 -0.20731102
-0.34192517 0.117057994 -0.048097037 -0.32846585 0.146103 -0.23572129 -0.08490611 0.068731196
0.04227184 -0.20052211 -0.30130085 0.25405455 -0.048733152 0.1088134 -0.1590256 -0.013684614
0.16714261 0.042470377 -0.19677763 0.20803392 0.08610136 -0.0188243 -0.053051338 -0.1575791
0.17394932 -0.1823695 0.1914143 -0.08276812 -0.116634876 0.030251026 -0.14956716 0.07265917
-0.036189523 -0.45810315 -0.17971618 0.17928928 0.14075772 -0.06294539 -0.2721873 -0.07768373
-0.035172693 -0.11744322 0.119389124 0.09982309 -0.10160503 0.024421664 0.10616671 0.035000015
-0.06671004 0.044809796 -0.20223695 -0.13301413 0.23819861 0.16225065 0.21719499 -0.03137135
0.060185786 -0.07399293 -0.32247165 -0.14940254 0.17644976 0.0813099 -0.07389041 -7.200061e-05
0.17218903 0.5079468 0.35801926 0.061303444 -0.16401854 -0.1349056 0.19006698 0.068422206
-0.09624936 0.17328668 0.026174067 0.14570603 -0.24248022 -0.009242553 -0.16221894 0.10998221
-0.19756834 0.088358775 0.081302546 -0.03946345 -0.09037247 0.12693116 -0.1812382 0.05321552
-0.17626454 -0.23534638 -0.27940318 0.2164992 0.1111101 0.21025087 0.23824152 -0.26112
-0.10590633 0.11738703 -0.040423032 0.09911007 -0.24741793 -0.1326458 -0.21792583 -0.16427386
0.24498512 0.1741845 0.14360158 0.13009077 0.19767515 -0.09111885 0.094975755 0.1968487

gru.weight_hh_l0 f4 [48, 16]
00000000: ffed a73b e1d3 163e 8658 b7bd 310e 833e
00000010: 265b d73d db91 b83d cdf3 393e bb52 34bc
00000020: e085 52be b0e1 033e ece2 253b 8328 d1bd
00000030: 6a8d f83d 5c9e 5cbe 21aa 9cbe 7edb 39be
00000040: ba29 67be 8802 5c3e 665d 9dbd ccdf d6bd
00000050: bd18 c5bd 88e0 6cbe adc9 51be a2ad 273e
00000060: f496 88be a996 a33d 3cb6 3f3e c42c 64bd
00000070: 9fa4 313e c482 9fbd d5ca 3f3e 6757 5b3e
00000080: 13ba 243e c482 a73e b4a2 74be 5b02 03be
00000090: 329f 51bd fcc2 06be 338e 553e f8e5 47be
000000a0: 2ff4 51be 0a21 d9bd 5c9d 0ebd c50b 96be
000000b0: 6cfc 04be 438e db3c 99ae c43d 93a9 2ebd
000000c0: d408 483c 466d 43bd 9f16 803e 135b 833d
000000d0: 1406 113e 5a74 2d3e eab4 993e 09f7 a7be
000000e0: 4a87 ff3d 6ff5 f73c 088e 29be 964a 3cbd
000000f0: 19c7 33be bdc7 85bd 4918 0b3e 2b72 78be
00000100: 7df1 243e 087b d9bd 98ef 0e3e 04df 7b3e
00000110: 5f3a a23d 160f 493e 0211 803e 1421 c43c
00000120: 1634 293c 7f83 f83c 069b e23d 905d 2b3d
00000130: 3a2d 71be 701a 193e ae93 06be e977 b8bd
00000140: 01dd 18be 27bc d2bd 769d 13bc 295b 5ebd
00000150: 3a21 62be 224a 39be 3979 1fbe cb33 703e
00000160: 8733 4b3e d002 90be f866 2e3d 991e 87bd
00000170: 9757 33bd d365 3e3d ae09 8c3c e0db 2f3e
00000180: 7158 04bc 329b 053e 9290 eabc 9897 99bd
00000190: 31eb d73d 2d58 b3bd 9eef d93d 11a7 5e3e
000001a0: 5479 023d 2440 2d3d df9d 83be 91c2 26be
000001b0: 7b48 46be 8e46 74bc 2824 40be 7366 063e
000001c0: 7a79 6abd 483a 86bd 8965 153e e33d 323e
000001d0: 0622 5b3e 275d 8d3d 5942 e13d cd14 23be
000001e0: 4feb fc3d d0f6 95bc ba62 d3bd bf75 69be
000001f0: 5c27 abbe 20d9 423d 1719 99bd 6e60 2c3e
00000200: bc95 a33e 1c43 193e d7ea 3f3e 2d8b cd3c
00000210: 387b 763c 1e70 053e df77 353e cf00 81bd
00000220: ea6d 14bd 0304 1c3e d4f8 93be bd4f 8ebc
00000230: b55a 81be e776 f03c 4031 88be f02c 34be
00000240: 1f05 14bb 3da9 8d3e 5040 b7bd 064a b23d
00000250: adda 5f3d fc09 643e 1254 493e 9daa de3d
00000260: 5da0 123e 8803 5a3e e6e2 9fbb 2d2d 83be
00000270: 412d 39be c29a ccbd 83c7 dfbd ca14 29be
00000280: 4091 23be ca6d a33c 865c 633e e18a 723e
00000290: c00c a6be 99c2 d93d ed63 15be 1038 94be
000002a0: 0468 6cbe 800f a53d 4ddf 8cbc 1e32 8fbe
000002b0: 8968 bc3d f27a 073e 06cd b9bd ab5d f93d
000002c0: f388 7dbd 9a5c 94bd b538 89bb f108 d9bc
000002d0: 2ee0 38be f12f 22be ef8f 333e 3f0c 263d
000002e0: 97a4 803e 89c5 333b e177 783d b685 d1bd
000002f0: 3cdc 363d f8ed c8bd 57fb b83d 2be0 053e
00000300: 521e 9e3e 8c81 5b3e cb13 d83d 12ac 703e
00000310: c9f7 73be 6c8a 803e 882c b83e 9d27 633e
00000320: de38 3fbe f45e 903b 3206 aabd e6ea a4bb
00000330: 2b1f 993c b781 d6bb 5dab c23d 1d2d 14be
00000340: 7e24 28be 3ac1 693d 00f5 ca3c 83b7 b5bd
00000350: 4784 583d fb00 63be f475 35be f4e1 64bd
00000360: 902b 813e d93e b0be 7e30 c1bd 6339 64be
00000370: f759 153e f341 e9bd 0235 323e 0f12 07be
00000380: e202 7fbe 4e42 8ebd 96a2 6d3d efcc 803e
00000390: 069f 533e 7600 dbbd c8bd bcbe 9301 ca3c
000003a0: 12f8 98bd be58 4bbe 6119 e13d 24e8 ad3d
000003b0: 9afd 683e 145d 443e 7b70 96bd d88e 423d
000003c0: 6cb6 003e 5d93 11be 324d 273d 2de2 813c
000003d0: 2d1b 9cbe 9a51 4f3e 23a9 423d 33a4 9dbe
000003e0: f317 f23d 6968 afbc 51a3 513d 552e 683e
000003f0: 4137 9fbd 037a 11bd 01ca 4c3d 64da bd3d
0.005124807 0.14729263 -0.089524314 0.25596765 0.10515432 0.09012195 0.18159409 -0.011006053
-0.20558882 0.12879062 0.0025312258 -0.10212805 0.121363476 -0.21544784 -0.30598548 -0.18150136
-0.22574511 0.2148534 -0.0768383 -0.104919046 -0.09623859 -0.23132527 -0.2048709 0.1637483
-0.26677668 0.079877205 0.1872186 -0.055706754 0.17347954 -0.077886134 0.18729718 0.2142006
0.16086607 0.32716954 -0.23890191 -0.12793867 -0.05117721 -0.13160318 0.20855026 -0.1952132
-0.20503305 -0.10602005 -0.03481804 -0.29305854 -0.12986916 0.026801234 0.09603614 -0.042642187
0.012209136 -0.047711633 0.2501726 0.064138554 0.14162475 0.16938916 0.3002084 -0.3280566
0.12476976 0.030268399 -0.16558087 -0.04596957 -0.17556418 -0.06532238 0.13583483 -0.24262302
0.16107745 -0.106191695 0.13958585 0.24596792 0.0792129 0.19634661 0.25012976 0.023941554
0.01032736 0.03033614 0.110647246 0.041837275 -0.23552409 0.14951491 -0.13142273 -0.09007246
-0.14928056 -0.102897935 -0.00900971 -0.054286156 -0.22082987 -0.18094686 -0.15573587 0.23457257
0.19843875 -0.28127146 0.042578667 -0.06597633 -0.043784704 0.046483826 0.01709446 0.1717372
-0.008077727 0.13047484 -0.02863339 -0.07499617 0.10542906 -0.087570526 0.106414065 0.21743418
0.03185399 0.042297497 -0.25706384 -0.16285159 -0.19363587 -0.0149094 -0.18763793 0.13125019
-0.057244755 -0.06554085 0.14589514 0.1740642 0.21399698 0.06902533 0.10998983 -0.15925904
0.12349569 -0.018306166 -0.10321565 -0.22798823 -0.33428466 0.047570348 -0.07475489 0.1683366
0.31950176 0.14967006 0.18741928 0.025090778 0.015044026 0.1303105 0.17721508 -0.06298982
-0.036237635 0.15235905 -0.28900778 -0.017372007 -0.25264516 0.029353572 -0.26600075 -0.17595267
-0.002258606 0.2766818 -0.089478135 0.08705525 0.054651905 0.22269434 0.19660977 0.10872386
0.14318986 0.2129041 -0.0048793433 -0.25620404 -0.18083669 -0.09990455 -0.10926726 -0.16511837
-0.15973377 0.019949812 0.22203264 0.2368579 -0.32431602 0.1063282 -0.145889 -0.28949022
-0.23086554 0.08059597 -0.017196322 -0.27967924 0.09199626 0.13230494 -0.09072308 0.12176069
-0.061898183 -0.07244225 -0.004187668 -0.026493521 -0.18054268 -0.158386 0.17535375 0.040539023
0.25125572 0.0027430973 0.0606612 -0.102305815 0.044643626 -0.09811014 0.09032314 0.13073795
0.30882508 0.21436137 0.1055065 0.2350314 -0.23824991 0.25105608 0.35971475 0.2218308
-0.18674037 0.0044058505 -0.08301963 -0.005032885 0.01869162 -0.006546225 0.09505341 -0.14470334
-0.1642017 0.05706904 0.024775028 -0.08872893 0.052860525 -0.22168343 -0.17720777 -0.05587955
0.25228548 -0.3442295 -0.09433077 -0.22287516 0.145851 -0.11389532 0.17403033 -0.13190483
-0.24903443 -0.0694624 0.058016382 0.25156352 0.20666131 -0.10693447 -0.36863542 0.024658954
-0.07469191 -0.19858071 0.10991169 0.08491543 0.22752991 0.19176131 -0.07345673 0.047499508
0.12569588 -0.14216371 0.040845104 0.01585492 -0.30489483 0.20245972 0.047524583 -0.30789337
0.11820974 -0.021412091 0.05118114 0.22673924 -0.07774211 -0.03551675 0.049997333 0.0927017

gru.bias_ih_l0 f4 [48]
00000000: b447 0e3d bb05 443e c071 ad3e 1478 833e
00000010: 8e88 9d3e 939b babd 5806 e0bb b803 2dbc
00000020: 33b3 183e 6c8c 273e d750 863d 2c9b 22be
00000030: cbf3 dbbd 1bd8 613e d6c7 ddbc 1ef1 053c
00000040: f20f 9bbe 0418 93be 1aac ab3e 24ac 5dbd
00000050: 3858 f4bd 13c5 82be f58e f13c 169a 87be
00000060: c0d4 b9be 25b6 4cbe c920 953d 43dd 5c3e
00000070: 795f 303b 218a 40be 68ba 583e 1448 a4be
00000080: 7db9 423e 99cf 6c3d 7810 323c 828b 8dbb
00000090: 25d5 44be d444 653e fa36 073e b353 55be
000000a0: b530 74be a676 89bd 02fc 153e 84af 19be
000000b0: 7b7f 683e fe05 07be 6862 65be 2826 0e3e
0.03473635 0.19142811 0.33875847 0.2567755 0.30768245 -0.09111705 -0.0068366937 -0.010559969
0.14912109 0.1636216 0.06558388 -0.15879506 -0.10739859 0.22055094 -0.027072828 0.008175163
-0.30285603 -0.2872926 0.3352974 -0.054119244 -0.11930889 -0.2554098 0.029487113 -0.26484746
-0.36295128 -0.19991358 0.07281644 0.2156878 0.0026912375 -0.18802692 0.21164858 -0.3208624
0.1901607 0.057815168 0.010868184 -0.004319609 -0.19221933 0.22389537 0.13204566 -0.2083271
-0.23846705 -0.067120835 0.14646915 -0.1500836 0.2270488 -0.1318588 -0.2240082 0.13881743

gru.bias_hh_l0 f4 [48]
00000000: 7472 d3bd 158d a43c fcbd 953c 0c2c eb3c
00000010: 1aa0 0cbe d2b4 71be a26c 3e3e d721 38bc
00000020: a7c7 9abd 3e9d 653d c3ae 0fbe 9068 8d3d
00000030: 3fc0 4c3e 46a9 633e 9d73 27be 74ec 3e3c
00000040: 8bd7 64bc 66ae 863d c8f5 d13d 4bce 59bd
00000050: 8672 a93d a8a6 4fbc 4f8b aebe 514e 2d3d
00000060: 9915 92be 002d a1be a466 ecbd bf03 bf3e
00000070: 2e25 4abe 3cdf bfbc ee80 db3c 3fe7 efbd
00000080: cc88 593e 7b62 103d 5dda 82be 6592 1ebe
00000090: cfc6 8b3b f775 5fbe 0036 663d 571e 2cbe
000000a0: 8234 62bd f747 e63d c192 64be c75a 4bbe
000000b0: 24ee cf3d 5aea 74be 4356 413e 7db9 24be
-0.103245646 0.020086804 0.018279068 0.028707527 -0.13732949 -0.23604134 0.18596128 -0.011238537
-0.07557612 0.05605816 -0.1403151 0.06904709 0.19995211 0.22232541 -0.16352697 0.0116530545
-0.013967405 0.065762326 0.10251957 -0.053175252 0.08273797 -0.012674011 -0.3409066 0.042311016
-0.28532103 -0.31479645 -0.11543015 0.37307546 -0.19740745 -0.023421876 0.026794877 -0.117140286
0.2124359 0.03525017 -0.25557223 -0.15485533 0.004265643 -0.21822344 0.056203842 -0.16808449
-0.055225857 0.11244195 -0.22321607 -0.19858848 0.101528436 -0.23917523 0.18880562 -0.16086383

fc.weight f4 [1, 16]
00000000: ce10 f33d cd7e 053e 7552 fe3d a38a 89be
00000010: e4e2 b03c f22f 353e 53b4 b33e 4798 7fbe
00000020: 4ed7 59be 5d29 743e 1a23 a0bd c21e 2ebe
00000030: 2ec6 96be 863b a7be 9be4 8cbe 02b2 35be
0.118684396 0.13036652 0.12418071 -0.26863584 0.021592565 0.17694071 0.35098514 -0.24960433
-0.21273538 0.23843904 -0.07819195 -0.1700392 -0.29448074 -0.326626 -0.27518162 -0.17743686
