models/GRU_VAD/training_checkpoints/tiny_vad_epoch_039_f1_0.9332.pth (torch, 17826 bytes, 9 tensors)

pre.weight f4 [48, 1, 3]
-0.05685871 0.19932742 -0.6340178 -0.3884459 -0.2866058 0.041572418 0.12786451 0.6250427
0.21601525 0.15941875 -0.2208874 -0.2665883 -0.4774006 -0.35148242 -0.28443334 -0.041207124
0.17939784 0.17030486 -0.32417643 -0.17634313 0.21911277 0.3578909 -0.3169412 0.18153693
-0.15591651 0.001077455 0.49212676 -0.40750593 -0.20780367 -0.0028205076 -0.21946485 0.49443412
-0.3924374 -0.12516542 -0.26154658 -0.41816318 -0.37612826 0.45932275 0.23610038 0.30822012
0.054644514 -0.29116756 0.18804865 -0.46128252 -0.3474213 -0.34556317 0.3111367 0.2450279
-0.3658979 -0.124175474 0.2554089 0.5674503 0.23210268 0.097576216 0.317497 -0.4017104
0.0637228 -0.32789344 -0.3068068 -0.19261849 0.1752378 0.13914864 -0.45358458 0.13924393
0.28274584 -0.10804135 0.07248424 0.18632625 0.39484882 0.5722647 -0.4389692 -0.24773899
0.14222415 0.56458825 1.0959711 0.7569706 0.89126325 0.45711112 -0.19912826 -0.4054588
-0.8689943 0.001137903 0.64485514 -0.7762511 0.24306673 -0.19702639 0.19787179 0.20198414
0.6809705 -0.29165244 0.12726653 0.1097483 0.39924148 -0.21270335 -0.6845688 -0.2207412
0.4055483 0.58850956 -0.594273 0.12769373 0.86991185 0.3260937 -0.2539868 -0.1341202
-0.95065653 -0.029609095 -0.57615286 -0.1251139 0.23156314 0.22805607 -0.095281966 0.08265377
-0.3453626 0.55011255 0.09018049 -0.69793004 -0.2566625 0.24463832 0.5577346 -0.05360147
0.231285 0.3055337 -0.54958266 -0.15236092 -0.8633953 -0.008354065 -0.27585372 -0.5896827
-0.29423827 -0.5777012 -0.53023124 -0.03647662 -0.24728698 -0.20314369 0.10756347 -0.4138447
-0.40744168 -0.7168807 0.20734286 0.27142197 0.67960227 0.7788961 1.1288795 0.5953541
00000000: aee4 68bd 7d1c 4c3e fe4e 22bf 62e2 c6be
00000010: ffbd 92be d747 2a3d eaee 023e cc02 203f
00000020: 1a33 5d3e ab3e 233e 4e30 62be 437e 88be
00000030: da6d f4be 81f5 b3be 3fa1 91be cdc8 28bd
00000040: 11b4 373e 6664 2e3e 74fa a5be 4b93 34be
00000050: 195f 603e 7a3d b73e 1e46 a2be d1e4 393e
00000060: 94a8 1fbe 6439 8d3a 0af8 fb3e 9ea4 d0be
00000070: 7cca 54be 44d8 38bb 65bb 60be 7826 fd3e
00000080: 8eed c8be 5d2b 00be 6fe9 85be 7c19 d6be
00000090: e293 c0be 5a2c eb3e 4cc4 713e 07cf 9d3e
000000a0: edd2 5f3d ea13 95be d38f 403e 392d ecbe
000000b0: 34e1 b1be a8ed b0be 4f4d 9f3e 98e8 7a3e
000000c0: f856 bbbe b64f febd f5c4 823e 6c44 113f
000000d0: 53ac 6d3e 0ad6 c73d f78e a23e fcac cdbe
000000e0: 1981 823d a6e1 a7be c815 9dbe c83d 45be
000000f0: 8a71 333e fb7c 0e3e 3d3c e8be f695 0e3e
00000100: 10c4 903e c944 ddbd 9e72 943d 4fcc 3e3e
00000110: a029 ca3e f07f 123f 92c0 e0be 4aaf 7dbe
00000120: 35a3 113e db88 103f c848 8c3f d3c8 413f
00000130: d429 643f 780a ea3e 47e8 4bbe 4c98 cfbe
00000140: 6976 5ebf b025 953a 3a15 253f 64b8 46bf
00000150: 7ce6 783e 49c1 49be e79e 4a3e eed4 4e3e
00000160: 1554 2e3f 7853 95be 2852 023e b7c3 e03d
00000170: 6169 cc3e e8ce 59be e73f 2fbf fb09 62be
00000180: 07a4 cf3e 90a8 163f 4622 18bf 25c2 023e
00000190: 8bb2 5e3f c1f5 a63e 8f0a 82be ce56 09be
000001a0: 3a5e 73bf c68e f2bc c17e 13bf dc1d 00be
000001b0: e31e 6d3e 8887 693e 3123 c3bd 6146 a93d
000001c0: 5ed3 b0be 2dd4 0c3f 8cb0 b83d 8bab 32bf
000001d0: 4469 83be 7882 7a3e b2c7 0e3f 378d 5bbd
000001e0: fad5 6c3e ea6e 9c3e 73b1 0cbf 8004 1cbe
000001f0: 7907 5dbf 7ddf 08bc b33c 8dbe 72f5 16bf
00000200: 66a6 96be 3ae4 13bf 3cbd 07bf 8268 15bd
00000210: cc38 7dbe e604 50be 3d4a dc3d 74e3 d3be
00000220: 329c d0be 7e85 37bf b051 543e d2f7 8a3e
00000230: 6afa 2d3f bc65 473f 207f 903f 2069 183f

pre.bias f4 [48]
-0.5811382 -0.47677672 0.655967 -0.0073697213 -0.20112519 -0.511864 -0.65758854 -0.6761827
-0.066380456 0.3354502 0.30854538 -0.56847143 0.29736963 -0.6313643 -0.12447993 -0.35521573
-0.122387454 -0.06134597 -0.60092133 -0.32652125 -0.19186406 0.02238344 -0.24622151 0.17252806
-0.63484234 0.02855418 0.52284867 -0.22666906 0.76328737 0.32221437 -0.5812391 0.66180587
-0.1204716 -0.33642468 0.55054307 -0.7716527 0.4440202 -0.20115831 0.5675857 0.29903862
0.4476834 0.28018543 -0.23475595 -0.142058 -0.8576766 0.3908556 0.8576012 0.49350837
00000000: 79c5 14bf 141c f4be 74ed 273f b47d f1bb
00000010: c3f3 4dbe 8509 03bf b957 28bf 4f1a 2dbf
00000020: 7af2 87bd 21c0 ab3e a9f9 9d3e 5887 11bf
00000030: d540 983e 17a1 21bf 55ef febd d6de b5be
00000040: 46a6 fabd e945 7bbd fbd5 19bf cb2d a7be
00000050: 0378 44be 7a5d b73c 7e21 7cbe 32ab 303e
00000060: 0785 22bf 75ea e93c 69d9 053f ef1b 68be
00000070: cd66 433f 48f9 a43e 16cc 14bf 1c6c 293f
00000080: d0b9 f6bd db3f acbe 64f0 0c3f 088b 45bf
00000090: 9e56 e33e 72fc 4dbe 4c4d 113f 971b 993e
000000a0: c236 e53e 7774 8f3e dd63 70be a777 11be
000000b0: b290 5bbf 3a1e c83e c18b 5b3f 21ad fc3e

norm.weight f4 [48]
1.2366498 1.072254 1.2363164 1.1308987 1.025798 0.9292062 0.9858159 1.0264802
1.0377475 0.9078895 0.9792809 0.93432695 0.98695415 1.1626412 0.93048114 0.92548794
1.0280823 0.93794125 0.98891515 0.84324366 1.2382442 0.9472574 1.0452887 1.1549913
1.3337373 1.2733154 1.2311803 1.0688387 1.2131127 1.1607534 1.059891 1.2893063
1.1535959 1.1502712 1.2150716 1.2140079 1.2516814 0.941615 1.1773016 1.2582057
1.1879045 1.1027923 1.1841782 1.1341766 1.2829034 1.3866982 1.3253481 1.325147
00000000: 8a4a 9e3f 9e3f 893f 9e3f 9e3f 4ac1 903f
00000010: 594d 833f 75e0 6d3f 6e5e 7c3f b463 833f
00000020: e9d4 843f 726b 683f 27b2 7a3f 0d30 6f3f
00000030: 07a9 7c3f 6dd1 943f 0334 6e3f c7ec 6c3f
00000040: 3398 833f eb1c 703f 8b29 7d3f d1de 573f
00000050: c97e 9e3f 767f 723f 05cc 853f c1d6 933f
00000060: e7b7 aa3f 00fc a23f 5197 9d3f b5cf 883f
00000070: 4747 9b3f 9193 943f 82aa 873f fd07 a53f
00000080: 08a9 933f 163c 933f 7787 9b3f 9c64 9b3f
00000090: 1937 a03f ae0d 713f d2b1 963f e20c a13f
000000a0: 410d 983f 4c28 8d3f 2793 973f b32c 913f
000000b0: 2e36 a43f 547f b13f 02a5 a93f 6b9e a93f

norm.bias f4 [48]
-0.030221146 -0.004828184 0.06910322 -0.034834318 0.015946845 0.043610442 -0.012001291 0.016274333
0.044635687 -0.01821729 -0.043905325 0.014906661 0.0084014665 0.014687083 -0.061794624 0.0036839577
0.017269807 0.04584458 0.06700489 -0.06286158 -0.016154375 0.040348414 -0.034363877 -0.0416539
-0.008765306 0.030696746 -0.05349626 0.0628489 -0.020343475 0.012435145 0.022741595 0.020587774
-0.019970942 0.019657351 -0.007989162 -0.045312468 0.09468686 0.009742314 -0.018696064 0.03272088
-0.00299359 -0.0054500266 0.022115512 0.036165923 -0.002636937 0.00028148215 -0.0025347876 -0.041254986
00000000: 5692 f7bc be35 9ebb fd85 8d3d 6eae 0ebd
00000010: f5a2 823c dda0 323d 10a1 44bc c051 853c
00000020: e9d3 363d 6d3c 95bc 12d6 33bd 113b 743c
00000030: 4ea6 093c 17a2 703c 5c1c 7dbd 8e6e 713b
00000040: 6979 8d3c 87c7 3b3d dc39 893d 92bd 80bd
00000050: 2e56 84bc 6144 253d 23c1 0cbd 489d 2abd
00000060: 5c9c 0fbc be77 fb3c e51e 5bbd edb6 803d
00000070: 5ca7 a6bc c7bc 4b3c 954c ba3c b1a7 a83c
00000080: 1a9a a3bc 7408 a13c f9e4 02bc 9199 39bd
00000090: 2feb c13d 3a9e 1f3c 7d28 99bc 5406 063d
000000a0: 1b30 44bb 2396 b2bb 972b b53c b822 143d
000000b0: 76d0 2cbb e593 9339 ae1e 26bb fdfa 28bd

gru.weight_ih_l0 f4 [48, 48]
0.12983969 0.18481658 -0.254726 -0.16562283 -0.17463794 0.089234695 -0.060683407 -0.019238697
0.056304906 0.15216497 -0.13675842 -0.14652345 -0.20594542 0.17014329 -0.061482605 0.23666123
0.12573859 0.03285146 -0.022058165 -0.051168017 0.20501024 -0.10395013 -0.0231357 0.095292464
-0.36084232 -0.6844354 0.42402837 -0.2518505 0.05444801 0.32839763 0.042867973 0.023717308
-0.20300089 0.0029050834 -0.10424763 -0.09519582 -0.114387 -0.1256274 0.06378891 0.17369442
0.07329858 0.31610417 0.13744998 -0.15743817 0.11423368 0.08172079 -0.18093233 -0.15299045
0.76867133 0.75422746 -0.36024964 0.1231737 0.2541742 -0.34391832 0.30838507 -0.2865148
-0.035915308 -0.0037689859 -0.13012244 -0.03288698 0.23136228 -0.16109124 -0.14776698 -0.09608587
-0.29878742 0.14927329 -0.22093783 -0.23217803 -0.057212558 0.13674131 0.15124863 0.16725992
-0.03160243 -0.24889696 -0.5936753 0.082682736 0.24528234 0.13093102 -0.1773192 -0.16953366
-0.060173567 0.027236229 -0.13079406 -0.39442763 0.19019657 -0.1890306 -0.017450402 0.074388325
0.031839214 -0.30536756 -0.45673877 -0.08684544 -0.076986626 0.41426203 -0.079477645 0.015891237
-0.100210264 -0.0398352 -0.17115967 0.15312964 0.10516928 -0.040322315 -0.06490718 -0.19060487
0.11002514 -0.117417514 0.1553453 -0.029784096 -0.20707372 -0.06958561 -0.06723243 -0.0004938833
0.19963694 -0.25833234 0.027396694 0.18430683 0.20394506 -0.105597496 -0.334951 0.049589925
-0.066476636 -0.016131938 0.11299401 0.0016130627 -0.004455712 -0.03379741 0.051493123 0.12912056
0.1208107 0.013698103 -0.1830281 -0.065888144 0.3391881 0.2097418 0.25212494 0.11151418
0.1359516 0.05760461 -0.24801144 -0.12014444 0.15318644 0.25684053 -0.06355343 0.10773396
0.30415574 0.42219168 -0.064207956 0.2825274 0.029684562 -0.12415617 0.32375333 0.11898434
-0.19701165 0.25404236 0.14021748 0.18455602 -0.25962552 0.082720116 -0.016907766 0.13632008
-0.042084195 0.058344994 0.05834163 0.16210172 -0.101768896 0.08369293 -0.2356204 0.060506567
-0.12417403 -0.18430834 -0.3593269 0.049723197 0.12516645 0.21892616 0.19006675 -0.28463456
-0.38426682 -0.020518692 -0.21121489 0.114925966 -0.17745008 -0.17293495 -0.3135591 -0.20949094
0.1900669 0.19719653 0.16056733 0.1862799 0.2171605 -0.0280067 0.01228086 -0.024704158
0.12102313 0.2869963 0.14183755 0.006394579 -0.23723158 0.2657697 0.062456403 0.04064482
0.107504316 -0.2647856 -0.23462209 0.048959333 0.28669807 -0.016510688 -0.17099422 0.31526658
0.14579964 0.116253614 -0.09283823 0.17825435 0.11169687 -0.22801712 0.17522532 0.22177178
0.056097824 0.5569798 -0.1581623 0.17162097 0.22440396 0.32071143 -0.016756361 -0.16572696
-0.0734215 0.17980888 -0.22271985 0.14657044 0.18538623 -0.005958617 -0.14297923 0.38195863
0.19377548 -0.12607503 -0.069309846 -0.26526663 -0.056540724 0.054192796 -0.22690357 0.15053542
0.654952 0.521464 -0.728596 0.5851603 0.59424996 -0.5151638 0.541657 -0.37024558
-0.20723605 -0.119771436 -0.13276707 0.24874145 -0.2286844 0.085462995 -0.08555989 0.023593716
00000000: b2f4 043e 8f40 3d3e 726b 82be 0899 29be
00000010: 4ad4 32be aec0 b63d 2a8f 78bd 799a 9dbc
00000020: f99f 663d 22d1 1b3e 660a 0cbe 3e0a 16be
00000030: 5be3 52be 0b3a 2e3e 2fd5 7bbd 5257 723e
00000040: 9ec1 003e 418f 063d 53b3 b4bc 8e95 51bd
00000050: 34ee 513e cee3 d4bd 1487 bdbc b228 c33d
00000060: 53c0 b8be 2937 2fbf 3f1a d93e 8cf2 80be
00000070: e004 5f3d bc23 a83e 5496 2f3d cd4a c23c
00000080: 77df 4fbe 3663 3e3b c87f d5bd 07f6 c2bd
00000090: bb43 eabd 78a4 00be c3a3 823d f3dc 313e
000000a0: 911d 963d 68d8 a13e b0bf 0c3e 7937 21be
000000b0: 59f3 e93d 3b5d a73d 5346 39be 87a9 1cbe
000000c0: a5c7 443f 0d15 413f a472 b8be 7e42 fc3d
000000d0: 1f23 823e 1016 b0be a6e4 9d3e 11b2 92be
000000e0: ee1b 13bd 1701 77bb d13e 05be 7fb4 06bd
000000f0: 3cea 6c3e 1af5 24be 3a50 17be abc8 c4bd
00000100: aafa 98be 19db 183e 873d 62be 14c0 6dbe
00000110: b757 6abd ea05 0c3e ece0 1a3e 2f46 2b3e
00000120: 8d71 01bd d8de 7ebe 1bfb 17bf 9155 a93d
00000130: 4b2b 7b3e c812 063e 2a93 35be 3b9a 2dbe
00000140: 8f78 76bd 831e df3c e1ee 05be 6bf2 c9be
00000150: e4c2 423e 3d91 41be 25f4 8ebc e858 983d
00000160: d669 023d 2359 9cbe aad9 e9be 06dc b1bd
00000170: 2aab 9dbd 271a d43e 2dc5 a2bd 572e 823c
00000180: 0a3b cdbd 3c2a 23bd 7b44 2fbe 04ce 1c3e
00000190: fe62 d73d 0329 25bd 0eee 84bd ec2d 43be
000001a0: dc54 e13d 9878 f0bd d712 1f3e c7fd f3bc
000001b0: 220b 54be e682 8ebd 28b1 89bd f277 01ba
000001c0: a06d 4c3e 2344 84be 086f e03c eeba 3c3e
000001d0: f9d6 503e 8043 d8bd b37e abbe ce1e 4b3d
000001e0: e724 88bd 2027 84bc 6769 e73d 676d d33a
000001f0: 3901 92bb 276f 0abd 74ea 523d 2e38 043e
00000200: 9a6b f73d 026e 603c b86b 3bbe 5df0 86bd
00000210: 10aa ad3e 8ec6 563e 8516 813e 8c61 e43d
00000220: e536 0b3e d0f2 6b3d b6f6 7dbe 4a0e f6bd
00000230: e8dc 1c3e 9a80 833e 4d28 82bd 9fa3 dc3d
00000240: 4dba 9b3e 8229 d83e 767f 83bd 6ea7 903e
00000250: 0a2d f33c 9745 febd ffc2 a53e 10ae f33d
00000260: 6cbd 49be d711 823e 2c95 0f3e 41fc 3c3e
00000270: a3ed 84be 2a69 a93d 2882 8abc 7e97 0b3e
00000280: 7a60 2cbd 29fb 6e3d a2f7 6e3d fefd 253e
00000290: 366c d0bd 3367 ab3d 7946 71be bcd5 773d
000002a0: f44e febd 53bb 3cbe b2f9 b7be 8daa 4b3d
000002b0: a22b 003e 2e2e 603e dca0 423e 9fbb 91be
000002c0: 9fbe c4be d116 a8bc b748 58be 4e5e eb3d
000002d0: 79b5 35be dc15 31be d18a a0be cb84 56be
000002e0: e6a0 423e e3ed 493e c36b 243e 28c0 3e3e
000002f0: 525f 5e3e 4f6e e5bc a935 493c 6060 cabc
00000300: fada f73d 2ef1 923e dd3d 113e 9e89 d13b
00000310: d6ec 72be f712 883e 49d2 7f3d 2f7b 263d
00000320: 392b dc3d fa91 87be c640 70be 9589 483d
00000330: 17ca 923e 6c41 87bc 1c19 2fbe 9f6a a13e
00000340: 804c 153e 6016 ee3d f821 bebd 4f88 363e
00000350: 54c1 e43d 527d 69be 446e 333e 2418 633e
00000360: d5c6 653d 3a96 0e3f 4cf5 21be 68bd 2f3e
00000370: 27ca 653e 4a34 a43e a344 89bc 54b4 29be
00000380: 035e 96bd d21f 383e ac10 64be 9016 163e
00000390: e3d5 3d3e 8140 c3bb 2669 12be 1590 c33e
000003a0: 146d 463e d019 01be 52f2 8dbd 07d1 87be
000003b0: 3f97 67bd 44f9 5d3d 6959 68be f525 1a3e
000003c0: efaa 273f aa7e 053f 4485 3abf 11cd 153f
000003d0: c420 183f c6e1 03bf 08aa 0a3f d490 bdbe
000003e0: b035 54be ba4a f5bd 17f4 07be 14b6 7e3e
000003f0: 3e2c 6abe 3907 af3d 063a afbd 9c47 c13c

gru.weight_hh_l0 f4 [48, 16]
-0.022386054 0.1660667 -0.3023175 -0.23879887 -0.109110676 0.05095479 -0.55065596 0.12408894
-0.050404187 -0.2040536 0.13952087 -0.0028492596 -0.3897403 -0.21588603 0.09119234 0.28445354
-0.010348032 0.19933216 -0.33657047 -0.28660646 -0.15089504 -0.3948063 -0.23894098 -0.082375966
0.0038087142 0.31233135 -0.11873822 -0.5253595 0.05379598 -0.6604854 0.18082179 -0.043555133
-0.17240752 -0.00058602676 0.002561073 -0.12193214 -0.019370407 0.20367326 0.25194207 -0.26033825
-0.16756141 -0.03049822 0.07347871 -0.2561316 -0.2621351 -0.18961307 -0.11168264 -0.10198276
-0.1642759 -0.15359695 -0.0675324 -0.048467584 -0.23486373 -0.00986693 -0.1220072 0.2023198
-0.12625225 -0.03633677 0.26662943 0.19646947 -0.32137096 -0.28421265 -0.009538582 -0.04987365
-0.30552086 -0.23330045 0.08537409 -0.45391122 -0.16368294 -0.08146806 -0.6815739 -0.28698438
-0.1784049 -0.31742167 0.432845 -0.6183797 -0.03865624 -0.4241461 0.4904183 0.18135723
-0.04418095 0.10300776 -0.48751983 -0.20922263 -0.3918684 0.10304047 -0.38068327 0.03520974
0.10496473 0.14170378 0.33579803 0.24746852 -0.2978043 -0.04799026 0.07979607 0.5802801
-0.34699118 -0.1333814 -0.30730453 0.025217036 -0.031202853 0.19925281 0.024492508 0.23828943
0.56352264 -0.22396368 -0.11163156 -0.19240288 -0.34005836 -0.34235945 0.10305749 -0.13235517
-0.12571612 0.11629037 -0.28039527 -0.52625996 -0.2881572 -0.093737595 -0.9219502 -0.26008224
-0.46205422 0.19274823 0.38910407 0.091642514 0.09817458 -0.8953235 0.2646449 0.32769194
0.18043624 -0.03318113 0.16087162 -0.23404479 0.045619745 0.48546273 -0.074105196 0.23127791
-0.1620173 0.14969325 -0.04805073 0.5224739 -0.2620535 0.4789281 -0.15879422 -0.1091323
-0.40936905 -0.3044231 -0.037927553 -0.03415892 -0.17181113 -0.002856736 0.19014247 -0.14041407
0.16384247 -0.84229237 0.5184753 -0.1518639 0.055279534 -0.39244044 0.6480025 -0.13913095
-0.30003574 -0.24322894 0.0153824175 -0.10611507 -0.6230906 0.084670566 -0.3785305 -0.08378625
0.41131127 0.04283234 0.33870554 -0.4438208 -0.452677 -0.7329027 0.5023541 0.28288427
-0.327876 -0.18907689 -0.3383101 0.14726005 0.04375429 0.12429521 -0.20694296 0.051761027
-0.2829722 -0.28914842 0.05856715 0.10632723 -0.36814845 -0.06383436 0.00985289 0.15517339
0.1848966 0.03141076 -0.04502535 -0.024138695 -0.027911264 0.094631374 0.124772586 -0.159307
0.07374805 0.058838114 0.12514094 0.19774924 -0.12626524 -0.030057564 -0.02976323 0.3272491
-0.40959978 -0.19168706 -0.1364095 0.1606781 0.06843264 0.13827324 -0.26374593 -0.26328158
-0.18364239 -0.1450298 -0.018716518 -0.3400977 -0.14939919 -0.3497222 0.08144762 -0.0742248
-0.3437249 -0.010760319 -0.13995185 0.21516187 -0.19188789 0.068375796 -0.07766432 -0.26724875
-0.1460794 -0.15933783 0.18516782 -0.251025 0.067541644 -0.0010727337 0.15563814 -0.14920595
-0.5690592 -0.3841689 0.40048787 0.322868 -0.30939004 -0.24363673 0.27717128 -0.27731445
0.13986987 -0.27563503 -0.012813407 -0.43634823 0.0592515 0.098703 0.22933449 -0.18431525
00000000: f562 b7bc 640d 2a3e 5cc9 9abe b187 74be
00000010: 6b75 dfbd f8b5 503d caf7 0cbf 5822 fe3d
00000020: 9f74 4ebd 6df3 50be 8fde 0e3e a5ba 3abb
00000030: 0a8c c7be 3a11 5dbe 0dc3 ba3d e5a3 913e
00000040: cb8a 29bc bb1d 4c3e f752 acbe 15be 92be
00000050: 3b84 1abe 0d24 cabe f2ac 74be bbb4 a8bd
00000060: 9f9b 793b e5e9 9f3e 062d f3bd f67d 06bf
00000070: 2c59 5c3d 9215 29bf 5929 393e de66 32bd
00000080: 998b 30be 979f 19ba add7 273b 8fb7 f9bd
00000090: b0ae 9ebc b98f 503e 8dfe 803e 0e4b 85be
000000a0: 3895 2bbe 67d7 f9bc 027c 963d ae23 83be
000000b0: 9236 86be ee29 42be deb9 e4bd 56dc d0bd
000000c0: f137 28be 8548 1dbe 6d4e 8abd f285 46bd
000000d0: 1e80 70be e7a8 21bc e9de f9bd ec2c 4f3e
000000e0: 4548 01be ddd5 14bd a783 883e 4b2f 493e
000000f0: bc8a a4be 5284 91be b647 1cbc 5048 4cbd
00000100: 3b6d 9cbe 50e6 6ebe 9cd8 ae3d 0d67 e8be
00000110: 809c 27be bad8 a6bd a17b 2ebf 9eef 92be
00000120: c6af 36be 1885 a2be dc9d dd3e 224e 1ebf
00000130: 0156 1ebd ad29 d9be 1b18 fb3e b6b5 393e
00000140: 15f7 34bd bcf5 d23d 339c f9be 753e 56be
00000150: faa2 c8be e206 d33d ebe8 c2be 1738 103d
00000160: c0f7 d63d cc1a 113e b8ed ab3e 6368 7d3e
00000170: ce79 98be 6f91 44bd 1f6c a33d 3d8d 143f
00000180: d4a8 b1be 2295 08be 0557 9dbe f593 ce3c
00000190: 209d ffbc ee08 4c3e 83a4 c83c 2502 743e
000001a0: 0543 103f bc56 65be 169f e4bd 4305 45be
000001b0: 211c aebe bd49 afbe ce0f d33d 1d88 07be
000001c0: babb 00be a529 ee3d f88f 8fbe f9b8 06bf
000001d0: 5789 93be 7ff9 bfbd ee04 6cbf 8029 85be
000001e0: 5f92 ecbe cb5f 453e a638 c73e 12af bb3d
000001f0: c10f c93d ec33 65bf 897f 873e 3dc7 a73e
00000200: 47c4 383e f0e8 07bd 88bb 243e 70a9 6fbe
00000210: c5db 3a3d 928e f83e 77c4 97bd 1ed4 6c3e
00000220: dde7 25be 3049 193e d8d0 44bd d9c0 053f
00000230: e02b 86be 1036 f53e f49a 22be c180 dfbd
00000240: d298 d1be 58dd 9bbe ec59 1bbd 39ea 0bbd
00000250: 42ef 2fbe 1438 3bbb b5b4 423e b5c8 0fbe
00000260: 52c6 273e 79a0 57bf ccba 043f 3682 1bbe
00000270: cb6c 623d f4ed c8be 7ee3 253f 5878 0ebe
00000280: 499e 99be 0211 79be 8906 7c3c dc52 d9bd
00000290: de82 1fbf c367 ad3d c0ce c1be 2098 abbd
000002a0: 6497 d23e f770 2f3d d06a ad3e 7b3c e3be
000002b0: 48c5 e7be 839f 3bbf 479a 003f 35d6 903e
000002c0: 5ddf a7be 5f9d 41be fb36 adbe 57cb 163e
000002d0: b337 333d 7d8e fe3d dbe8 53be 5f03 543d
000002e0: bbe1 90be 430b 94be 1ce4 6f3d 17c2 d93d
000002f0: f47d bcbe 97bb 82bd 046e 213c c6e5 1e3e
00000300: 8955 3d3e 92a8 003d 806c 38bd 83be c5bc
00000310: 2aa6 e4bc 18ce c13d c588 ff3d 6021 23be
00000320: 3809 973d 3c00 713d f224 003e c77e 4a3e
00000330: ad4b 01be 483b f6bc 04d2 f3bc 328d a73e
00000340: 10b7 d1be 9d49 44be efae 0bbe cd88 243e
00000350: 6926 8c3d 8097 0d3e b509 87be d8cc 86be
00000360: c00c 3cbe b182 14be 6253 99bc 4921 aebe
00000370: 1afc 18be ca0e b3be 03ce a63d 2c03 98bd
00000380: b6fc afbe 0d4c 30bc 8a4f 0fbe 6553 5c3e
00000390: 427e 44be 9c08 8c3d 790e 9fbd d4d4 88be
000003a0: d795 15be 7529 23be a29c 3d3e 5986 80be
000003b0: 4653 8a3d f89a 8cba 9b5f 1f3e 72c9 18be
000003c0: ddad 11bf c9b1 c4be bf0c cd3e f44e a53e
000003d0: 5f68 9ebe e87b 79be 65e9 8d3e 29fc 8dbe
000003e0: 0c3a 0f3e 0920 8dbe 53ef 51bc 0969 dfbe
000003f0: b3b1 723d cc24 ca3d a9d6 6a3e 23bd 3cbe

gru.bias_ih_l0 f4 [48]
0.25862378 0.14804734 -0.12805307 -0.10814979 -0.21996345 0.105440736 -0.047720768 -0.002816491
0.013170672 -0.17242919 -0.18756181 -0.05329945 -0.11886548 0.14472124 0.0012117518 0.012333084
-0.027364919 0.24451734 0.11961798 0.42761588 -0.2376343 -0.12886654 0.3529367 0.026964009
0.15664679 -0.035505194 0.1823383 0.23218895 0.09483039 0.13972175 0.29548585 0.37223747
-0.23414819 0.013282742 -0.23570451 0.14409877 -0.049826633 0.0072116656 -0.14707367 -0.22437085
-0.0138718365 0.18509245 -0.08539087 -0.007124792 0.2203567 0.18445963 -0.10409556 0.32893768
00000000: 566a 843e b999 173e 5820 03be a37d ddbd
00000010: 193e 61be 50f1 d73d da76 43bd e194 38bb
00000020: cdc9 573c 4791 30be 3410 40be 8650 5abd
00000030: bf6f f3bd ce31 143e a5d3 9e3a b410 4a3c
00000040: 652c e0bc c162 7a3e 46fa f43d 78f0 da3e
00000050: 6856 73be 97f5 03be 1fb4 b43e a0e3 dc3c
00000060: 0468 203e e56d 11bd e4b6 3a3e f1c2 6d3e
00000070: 6f36 c23d 3813 0f3e ec49 973e e995 be3e
00000080: 8bc4 6fbe dc9f 593c 865c 71be a18e 133e
00000090: 0317 4cbd d64f ec3b 7b9a 16be 79c1 65be
000000a0: b346 63bc e088 3d3e 69e1 aebd 1677 e9bb
000000b0: 30a5 613e fce2 3c3e 0e30 d5bd 856a a83e

gru.bias_hh_l0 f4 [48]
0.12598324 0.28520763 0.082343005 -0.16563018 -0.075790994 0.14425352 0.18711413 -0.25102198
0.24718156 -0.1778627 0.18232477 0.3872745 0.04744584 0.05865445 0.25643238 -0.052956235
-0.18260235 -0.16153973 0.3511315 0.38366336 -0.03558969 -0.16268039 0.025986262 0.11601079
0.16337065 -0.06379206 0.052857064 -0.14652665 0.28222966 0.020784002 0.010306489 0.0047630216
-0.27078593 0.026479634 0.046159316 0.08326783 -0.2774494 0.027217366 -0.009910791 0.03696426
-0.18702194 0.115878224 0.021112822 0.10482294 -0.2277566 0.038453527 -0.17136814 0.026593072
00000000: c001 013e bc06 923e 73a3 a83d f59a 29be
00000010: 4f38 9bbd 32b7 133e d99a 3f3e f485 80be
00000020: 2a1d 7d3e a421 36be 58b3 3a3e d848 c63e
00000030: 9256 423d a63f 703d 1b4b 833e a3e8 58bd
00000040: 1cfc 3abe ac6a 25be 82c7 b33e 866f c43e
00000050: 7fc6 11bd b095 26be 24e1 d43c 1197 ed3d
00000060: a34a 273e 69a5 82bd a680 583d 150b 16be
00000070: 6880 903e 3643 aa3c 8cdc 283c 1f13 9c3b
00000080: 74a4 8abe d1eb d83c 8d11 3d3d 5388 aa3d
00000090: d90d 8ebe f4f6 de3c df60 22bc d667 173d
000000a0: ae82 3fbe 9051 ed3d ccf4 ac3c 69ad d63d
000000b0: 0739 69be 7281 1d3d 217b 2fbe b7d9 d93c

fc.weight f4 [1, 16]
-0.30794263 -0.23637924 -0.030422647 -0.039364476 -0.35666487 -0.03554324 -0.14340414 -0.16856822
-0.051847216 -0.2903013 0.25748363 -0.09949853 -0.18654965 -0.113772206 0.23146594 0.03379798
00000000: a8aa 9dbe 660d 72be ea38 f9bc a53c 21bd
00000010: c79c b6be ca95 11bd 89d8 12be 269d 2cbe
00000020: bf5d 54bd 5fa2 94be e5d4 833e e3c5 cbbd
00000030: df06 3fbe 6701 e9bd 6805 6d3e c06f 0a3d
