models/GRU_VAD/training_checkpoints/tiny_vad_epoch_039_f1_0.9565.pth (torch, 14370 bytes, 9 tensors)

pre.weight f4 [32, 1, 3]
000000 a9 3b 51 bb 65 66 d0 3c 6b 00 38 bf 1c c4 ac be
       -0.003192643 0.02543945 -0.7187564 -0.3374337
000010 2c 2d 82 be a9 14 9d 3d 99 e7 b5 bb 71 29 e5 3e
       -0.25425088 0.07669956 -0.00555129 0.4475818
000020 7a 0d b2 3e 26 cd 83 3c cd d8 2f be 5a 74 5a be
       0.34775907 0.016089033 -0.17172547 -0.21333447
000030 d8 f3 6a be 45 1b f1 bd 10 02 8e be 8b c8 42 bd
       -0.22944582 -0.117727794 -0.2773595 -0.047554534
000040 56 ad 04 3e 96 6a bc 3e b4 db c3 be da 21 9d be
       0.12956747 0.3680007 -0.38253558 -0.3068989
000050 ed 77 30 3e e2 5c 4b 3e 97 81 b9 be 80 47 58 3e
       0.17233248 0.1985965 -0.36231682 0.21121025
000060 a6 ee 1e be c3 29 88 3a b2 fa f1 3e 02 87 90 be
       -0.15520725 0.0010388423 0.47261578 -0.28228003
000070 98 4b 4c be 56 e3 d0 3d 36 61 14 be 01 59 f7 3e
       -0.19950712 0.10199611 -0.14490208 0.48310092
000080 9a d1 d2 be 2d 1f 47 bd fd ff 29 be ca 39 87 be
       -0.41175538 -0.048613716 -0.16601558 -0.26411277
000090 cf 6d a9 be 7e 59 cf 3e cc b9 57 3e 97 5e 9b 3e
       -0.3309159 0.40497965 0.2106697 0.30345604
0000a0 ed 21 b9 3d 1f 29 dc be 64 32 c1 3d 64 0e e8 be
       0.09039674 -0.43000123 0.094334394 -0.4532348
0000b0 db a0 79 be c2 3d c4 be 62 d3 77 3e f0 1f 89 3e
       -0.24377768 -0.38328367 0.2420173 0.2678218
0000c0 81 fa 9a 3d 65 2c 6a 3e a9 36 08 3f 16 9d 30 3d
       0.07567311 0.22868498 0.53208405 0.04311856
0000d0 5b ae 32 3e fa a3 1d 3f 1f 06 17 3a a4 48 bd 3d
       0.17449324 0.61578333 0.0005761105 0.09242371
0000e0 b4 cb fc 3e 84 68 83 bb 8e 13 3a be 50 d2 2c bf
       0.49374163 -0.004010262 -0.18171522 -0.6750841
0000f0 d7 a4 5a bd 32 90 3d be 4d 1e 16 bf e1 7a 2c 3d
       -0.05337986 -0.18512037 -0.58639985 0.042109374
000100 c6 63 b7 3e 80 05 88 3f 1a cb 91 3e 5d 71 d4 3e
       0.3581831 1.0626678 0.28475267 0.4149274
000110 ec b7 66 3f 21 8d dc be f7 ce 70 bf 46 44 62 bf
       0.9012439 -0.43076423 -0.94065803 -0.88385427
000120 4d fd 3f bb e9 c4 de 3d cc 0d 4d 3e cb af f9 bd
       -0.0029295266 0.108774014 0.20024794 -0.12191733
000130 a0 37 f8 be 6d d0 2f bf bb 84 61 3d dc 46 24 be
       -0.48479939 -0.6867741 0.055058222 -0.16042656
000140 1d 6b 83 3e 5b 19 24 3d f8 01 a0 3d a8 38 dd 3c
       0.25667658 0.040063243 0.078128755 0.027004555
000150 4d 95 9f 3c d7 ac a4 bd 3b f8 e9 bd 3f a9 42 3e
       0.019480372 -0.08040779 -0.11424299 0.19009875
000160 44 a5 ff be 6f 6d 66 bf 40 dc 80 be df 3f d5 be
       -0.49930775 -0.9001073 -0.25168037 -0.41650292
000170 98 c6 8f be a3 65 46 3e 60 13 2f 3f 38 bf a1 3f
       -0.28081203 0.19374709 0.6838894 1.263648

pre.bias f4 [32]
000000 5b 6e fd 3d 9e e3 18 3d 4d d8 3f bf a9 1d d8 be
       0.12374564 0.037326448 -0.74939424 -0.4221013
000010 8c e6 87 3f cc a8 f4 3e c3 5f 95 3e 12 a4 f0 be
       1.0617232 0.47785032 0.29174623 -0.47000176
000020 e4 78 89 bf 2e 20 a3 3d 23 7d 7a bf fa 18 c3 3e
       -1.0740018 0.07965122 -0.97847193 0.38104993
000030 bf 42 91 bf 31 8d a0 3d fd bf 42 3f 5d 0b 6f 3e
       -1.1348494 0.0783943 0.760742 0.23344178
000040 47 2a 3d bf 28 11 2c 3f 1c 0f 17 3f 8e 2f 27 bf
       -0.73892635 0.6721368 0.5900743 -0.6530694
000050 8f 65 cf be a1 d3 d4 bc c5 b6 76 3e 85 d6 5a 3e
       -0.4050717 -0.025979819 0.24093159 0.21370895
000060 d6 73 65 3f 50 f1 cb 3d 3c 3c 17 bf 6e 5b 31 3f
       0.89629877 0.09958136 -0.59076285 0.69280136
000070 d5 8e 6a bf 6c 48 01 bf 53 07 cc be 3d 21 58 be
       -0.91624194 -0.5050113 -0.39849338 -0.2110643

norm.weight f4 [32]
000000 a5 c5 b2 3f 8c 52 80 3f 67 a0 84 3f 79 05 88 3f
       1.3966566 1.0025191 1.0361451 1.062667
000010 56 db 34 3f c1 7a 6d 3f bf 60 4a 3f 8b 82 19 3f
       0.7064718 0.9276543 0.7905387 0.5996482
000020 06 89 77 3f 1a c4 07 3f d9 50 a1 3f f6 d6 19 3f
       0.96693456 0.530336 1.2602798 0.6009363
000030 a4 70 56 3f 18 87 e4 3f 3a 39 67 3f 71 bc 49 3f
       0.83765626 1.7853727 0.90321696 0.78803164
000040 eb bf 97 3f 37 5f be 3f 9a 4f a2 3f da 5d 8e 3f
       1.1855444 1.4872807 1.2680542 1.1122391
000050 32 fc 87 3f 56 69 70 3f c8 38 6b 3f d0 f0 49 3f
       1.0623839 0.9391073 0.91883516 0.78883076
000060 a2 a1 bf 3f a3 83 1a 3f 56 58 88 3f 14 34 c1 3f
       1.4971201 0.6035711 1.0651958 1.5094018
000070 46 14 8f 3f 16 3d 45 3f d6 d3 71 3f 71 23 71 3f
       1.1178062 0.77046335 0.9446386 0.94194704

norm.bias f4 [32]
000000 37 08 d2 be 63 58 95 be 39 60 c7 3e 1d 01 5b be
       -0.41021892 -0.29168996 0.389406 -0.21387143
000010 b2 33 c2 be fd 90 4b 3e fe 8f 90 be 62 24 82 3e
       -0.37930065 0.19879527 -0.28234857 0.25418383
000020 02 5f 9b 3c 0b c9 5b be 34 ed f4 bd 51 27 b0 be
       0.018966202 -0.2146341 -0.119593054 -0.34404996
000030 bf 86 d8 3d fe ca 92 bd 63 71 83 be ed f6 29 3d
       0.10572576 -0.07167624 -0.25672445 0.041495252
000040 7c b4 c5 3e ab 52 aa 3d 5b b2 bb 3d 2b df 8e bd
       0.3861426 0.08316549 0.09164878 -0.0697616
000050 7a 67 38 be 26 77 f2 3d 37 1c 9c 3d 8a 79 8c 3b
       -0.18008223 0.11839132 0.07622569 0.0042869495
000060 31 c3 08 3e e0 5e 33 3a d8 98 a8 b9 c0 96 7a 3b
       0.1335571 0.00068424456 -0.00032157334 0.0038236827
000070 11 8a a8 3b 29 92 e8 3d 04 83 eb bc 57 37 ee 3d
       0.005143412 0.11356003 -0.028748997 0.11631649

gru.weight_ih_l0 f4 [48, 32]
000000 eb 5f ca 3d bc 60 d8 be a4 34 92 bd fe d5 8f 3e
       0.09881576 -0.42261302 -0.07138947 0.2809295
000010 ec 08 49 3e cf 9e 1d bf ee 7c 50 3f d7 bd 38 be
       0.1963231 -0.6157045 0.8144063 -0.18041168
000020 3b 28 4d be 6d a6 9f 3e 24 94 a6 bd c4 ac 79 3e
       -0.20034878 0.3118166 -0.08133724 0.24382311
000030 a6 7b 2a 3e a1 fb 32 be 60 dd 42 3e fe 14 81 3c
       0.1664873 -0.17478801 0.1902976 0.01575708
000040 aa 53 aa be 8a 54 4b bf bb 1c 9a be a6 28 ac bc
       -0.33266956 -0.7942587 -0.30100045 -0.021015476
000050 5e 18 bb bd 26 69 68 bf 06 87 8a bf d0 5d 82 3e
       -0.09135507 -0.90785444 -1.0822456 0.25462198
000060 f7 3b c8 be 94 ae 74 3e 50 1c 9a bc b1 f1 ba be
       -0.3910825 0.23894721 -0.018812329 -0.3651252
000070 f3 33 1d 3e b8 9f d9 bd ef eb 72 be ec 9b b8 3e
       0.15351848 -0.10626167 -0.23722814 0.3605646
000080 bc 8e 35 3f c3 55 04 3f af 39 ae be 6f 36 b5 be
       0.7092092 0.5169336 -0.34028384 -0.35393092
000090 e0 4b bc bd c1 f1 9b 3e c5 a8 d0 be 3c cc 70 3e
       -0.091941595 0.3045788 -0.4075376 0.23515409
0000a0 c7 8d 2a be 22 66 aa bd 35 97 f3 bd 2e 9e 05 be
       -0.16655646 -0.083202615 -0.11894075 -0.13048622
0000b0 52 8a 88 3e de 56 99 bf d1 e9 5d be b5 57 83 3e
       0.2666803 -1.1979635 -0.21671225 0.25652853
0000c0 dd 7b 0b 3e c0 a0 c0 be ff f4 01 be 07 12 51 be
       0.13621469 -0.37622643 -0.12691115 -0.20417033
0000d0 c8 ef d5 bd 19 62 09 3d 42 a9 8a 3e cc 8c 6b be
       -0.10446125 0.03354082 0.27082258 -0.23002928
0000e0 3d 28 83 3e 58 c2 8c be b6 6c bc bd 6c c8 00 3f
       0.25616637 -0.27492023 -0.092004225 0.5030582
0000f0 de 70 a4 be 0c 6a 53 be 77 1c 0a be ab f9 17 3f
       -0.3211736 -0.20645922 -0.13487421 0.5936534
000100 bc 6d e1 ba bb ba a3 3e 17 43 08 bf 14 59 b5 bd
       -0.0017198841 0.31978402 -0.5322737 -0.08854881
000110 03 d3 26 3e 5a 42 37 3d 01 44 b7 3e 5c af 99 3d
       0.16291432 0.044741012 0.3579407 0.0750415
000120 29 1d 72 be 6d 9f 28 3f 74 94 dc bf 6f b0 1f 3e
       -0.23643936 0.65868264 -1.7232804 0.15594648
000130 43 42 15 bf c8 30 33 bf 75 8c b3 3e 35 94 68 3c
       -0.5830423 -0.6999631 0.35068098 0.014195492
000140 eb 83 0b bf 06 79 5b 3d a1 94 10 3e f7 7c c9 be
       -0.54498166 0.053582214 0.14119197 -0.39353153
000150 25 81 ac be c7 0c 1a bf 01 b2 8f be 2e 47 03 be
       -0.3369228 -0.60175747 -0.28065494 -0.12820122
000160 c6 24 92 3c e8 6c 6c be 9f e0 41 be c8 2c 94 3d
       0.0178398 -0.2308842 -0.18933342 0.07235104
000170 a8 bf fc be 6a f1 50 be 4e 40 c8 be 27 56 d0 be
       -0.49364972 -0.20404592 -0.3911156 -0.4069073
000180 41 74 e2 be 57 00 24 3e dc c2 90 bd ee a4 b3 be
       -0.4422932 0.16015755 -0.070684165 -0.3508677
000190 29 bc b9 bd 80 68 85 3c 96 86 ac 3d 0e 90 68 3e
       -0.09069092 0.016285181 0.08424108 0.22711203
0001a0 fb 60 a9 bd d3 0d 35 3e f3 79 4a be aa 08 2d be
       -0.08270451 0.17681055 -0.19773082 -0.16897836
0001b0 65 26 79 3d d2 46 59 3d 43 76 e6 bd 06 9f e9 3d
       0.06082763 0.053046055 -0.112530254 0.114072844
0001c0 49 56 8c 3b 4e 66 80 3f a8 c8 11 3f 79 e5 28 be
       0.004282747 1.0031221 0.569468 -0.16493787
0001d0 c1 d3 21 be 41 df 33 3e 70 b3 83 3e 56 42 a8 3e
       -0.15803434 0.17565633 0.25722837 0.3286311
0001e0 2c 14 50 3f 81 f8 08 3c de 5f ae be 44 e5 8b 3f
       0.8128078 0.008360029 -0.34057516 1.0929341
0001f0 f8 91 47 be 04 43 b7 be c9 f0 01 bf 78 60 86 3e
       -0.19489276 -0.35793316 -0.50758034 0.26245475
000200 c7 62 d5 3e 88 38 7c 3f b3 fd a6 bf e0 0f a4 3e
       0.41676924 0.9852376 -1.3046173 0.32043362
000210 64 38 2b 3e 9d 3b 29 bd ef 1c e3 3d 77 50 10 3e
       0.1672073 -0.041316617 0.11089503 0.14093195
000220 e0 40 c8 3b da 87 0e 3c 9e 4c 56 be 98 8d ea 3d
       0.0061112493 0.008699382 -0.20927665 0.11452788
000230 19 7e 1f 3e 8f 2b 90 be fe b8 ea bc 29 0f cf be
       0.15575446 -0.28158233 -0.028652664 -0.40441254
000240 1d 53 8a bd c3 13 fc 3e 18 b6 9c 3c 99 f3 01 bf
       -0.06754134 0.49233827 0.019129798 -0.50762326
000250 27 5c 0d bd 08 5a b9 be a4 3d 41 3d 07 0b 90 be
       -0.03451171 -0.362015 0.047177926 -0.28133413
000260 82 67 0b be 9a 41 3c bf ea 68 65 be 84 ae 67 3e
       -0.13613704 -0.735376 -0.22403303 0.22625166
000270 31 65 83 bd 20 e3 18 be c6 a0 9d be bc 23 93 bd
       -0.06415785 -0.14930391 -0.30786723 -0.0718455
000280 7e 1d 10 40 e3 1d ea 3c d5 ce bf 3e 67 3f 85 bf
       2.2518 0.028578704 0.37462488 -1.0409974
000290 ae 9f 60 be db 3d c6 3d a4 37 0e be 16 32 c8 bd
       -0.21935913 0.09679767 -0.13888413 -0.09775178
0002a0 f2 83 53 3d 05 a5 09 be 8b c0 04 be 06 c9 c7 3c
       0.051639505 -0.13441856 -0.12964074 0.024387848
0002b0 fb 4a 80 be 25 1a 14 be b9 ff 0e be 84 83 82 bd
       -0.25057206 -0.14463098 -0.13964738 -0.06372741
0002c0 0e a6 8f bf 1d 7f 08 bf a3 a5 86 3f 67 05 1f bf
       -1.1222551 -0.5331896 1.0519298 -0.6211762
0002d0 1e 8f ce be d8 4e 18 3e 40 ad ab 3d 9a cd 47 be
       -0.40343565 0.14873827 0.08382654 -0.19512025
0002e0 47 36 25 bd a5 8c ba be 09 a0 d3 bd ed 75 d3 bd
       -0.040334966 -0.36435428 -0.10333259 -0.10325227
0002f0 ed ad f8 bd 84 9a 75 bd aa 81 00 3e fc a8 8b bd
       -0.12142549 -0.05996181 0.12549463 -0.068193406
000300 8c 5b eb bc 60 1d 3a 3d 0b 24 57 be 82 4c 43 be
       -0.028730176 0.04543817 -0.21009843 -0.19072154
000310 65 2d 76 3e bd f2 7a 3e b5 a5 54 3e e2 13 e8 bd
       0.24040754 0.2450666 0.20766337 -0.11331917
000320 68 22 b0 bd 23 60 af bc 65 c1 08 bf db 84 5f bd
       -0.086003125 -0.021408146 -0.53420097 -0.05457006
000330 e9 49 2d 3d 11 ce 38 bd 07 06 fe 3c c3 c9 32 3b
       0.042306814 -0.045118395 0.031008733 0.0027280904
000340 09 f2 fe 3c 87 f7 26 3f b5 e5 df 3e 54 71 48 3d
       0.03112127 0.65221447 0.4372994 0.048936203
000350 59 21 25 be 7c e0 55 bf 0c c1 0a bf 81 36 43 3f
       -0.16126002 -0.8354566 -0.54200816 0.7625504
000360 5a 8e 02 3f ab 77 66 3e 35 19 37 be c1 74 74 3f
       0.5099846 0.22506587 -0.1788071 0.9549065
000370 a2 96 12 bf 7b 3e c1 be 07 59 04 bf 40 3b 14 3f
       -0.572611 -0.3774298 -0.51698345 0.5790291
000380 c8 a0 b7 bd a0 d3 54 3d e1 0b 2a bd 9b 04 c0 3d
       -0.089662135 0.051959634 -0.041515235 0.093758784
000390 f5 84 1c 3e b3 ea 27 bd 06 d6 0c 3e 2d 00 88 bd
       0.15285094 -0.04099531 0.13753518 -0.066406585
0003a0 da 65 c8 be 72 d7 d0 bc a9 a9 72 bf ff 2a c3 3e
       -0.39140207 -0.025493357 -0.9479013 0.3811874
0003b0 32 46 24 be 69 67 7e bd 55 b0 e5 3e 30 f6 90 be
       -0.16042402 -0.06211034 0.44861093 -0.28312826
0003c0 72 26 cf be 7a f6 48 3e 6c 4d 1f 3d 70 d9 98 bd
       -0.4045902 0.19625273 0.038892195 -0.07463348
0003d0 fe fb 14 bf 22 81 9f be fd a7 5a be dc e2 e8 bd
       -0.5819701 -0.31153208 -0.21353145 -0.11371395
0003e0 f1 2d 18 3f 9d 74 83 be 3e a2 08 be 1f e5 c1 3e
       0.594451 -0.25674906 -0.1334314 0.37870118
0003f0 05 f6 a9 bd b5 29 99 be cf c3 3e be 60 2f fe 3c
       -0.082988776 -0.29914632 -0.18629383 0.03102845

gru.weight_hh_l0 f4 [48, 16]
000000 cd f7 b4 be cb 74 ef 3e 60 ba 28 3d ab 4a 82 3f
       -0.35345307 0.46768793 0.041193366 1.0179037
000010 0a c0 e7 3e 1a c3 fa bd 1c 63 40 bf d6 e9 f2 3e
       0.45263702 -0.12244244 -0.7515123 0.47444028
000020 4b 26 2e 3f 12 6b fe be 2d c0 be 3e 98 13 56 3e
       0.6802718 -0.49691063 0.37255993 0.20905912
000030 05 6e 1c 3f 2c 30 27 be ad c5 ad bd 74 fa f1 3e
       0.61105376 -0.1632697 -0.08484969 0.47261393
000040 0a e4 01 bf 9c 85 01 3e 88 e2 5d bf 01 71 f6 be
       -0.50738585 0.12648624 -0.86673784 -0.4813309
000050 2d b5 36 be 08 85 cc be b2 54 40 3e 64 6b 48 bc
       -0.1784255 -0.39945245 0.18782309 -0.012232635
000060 ba d1 db bd ee 55 67 be 90 14 10 3f 4e 9f ba 3e
       -0.107333615 -0.22591373 0.56281376 0.36449665
000070 ea a3 7f be b4 d7 1a be 4f 57 41 bf 02 1f 2f 3f
       -0.24964872 -0.15121347 -0.7552385 0.6840669
000080 ec b3 c0 3e e1 76 85 3e e6 2f 36 bf 7a 5c 2e bd
       0.3763727 0.2606726 -0.7116684 -0.04256866
000090 79 78 6d be fc ba c1 3e 89 23 0d 3f 85 ec d2 3d
       -0.23190488 0.3783797 0.5513235 0.10299019
0000a0 e0 fb bb be 6d 48 2f 3e 13 67 d5 be 8e c0 bc be
       -0.36715603 0.17117472 -0.41680202 -0.36865658
0000b0 4a a3 2e be 68 c0 b9 be 79 2d 68 3e c6 d7 b0 be
       -0.17054477 -0.36279607 0.22673596 -0.34539622
0000c0 49 8f 04 bc 27 04 02 3f 3e 2b 8b 3e 81 5e ad 3e
       -0.0080908025 0.50787586 0.2718143 0.33861163
0000d0 ef 9e 17 3e 55 c5 e6 3e 65 22 53 3e 99 49 2d bf
       0.14806722 0.45072427 0.20618589 -0.67690426
0000e0 f3 43 a2 3d 05 96 74 be 61 f5 18 be 51 fe a0 be
       0.079231165 -0.23885353 -0.14937355 -0.31444028
0000f0 bf dc 4c bf 69 17 e6 be fc 74 a0 be 56 dd 62 be
       -0.8002433 -0.44939736 -0.31339252 -0.22154745
000100 ec 2e 18 3e c9 cf de be fe 5e 11 3f ee cb ad 3d
       0.1486165 -0.43517902 0.5678557 0.08486162
000110 f7 f4 16 bf e5 39 20 3d f3 db d2 3e 05 84 ae 3e
       -0.58967537 0.039117713 0.41183433 0.34085098
000120 b8 a6 2c be 83 d5 65 3e 61 d3 92 3d f9 b8 39 bf
       -0.16860473 0.2244473 0.071692236 -0.7254787
000130 42 f9 84 be a8 b3 d3 3e ed da 1b bf 63 83 da be
       -0.2597142 0.41348004 -0.6088093 -0.42678365
000140 36 f5 5b bd 02 fb 23 bf cf 57 2c c0 a4 6c 37 3e
       -0.05370065 -0.6405488 -2.6928594 0.17912537
000150 fe 8a 9b 3e 02 03 d8 3c b9 d2 0e bf e5 7b cd 3e
       0.3037948 0.026368622 -0.5579029 0.40133587
000160 c7 75 0c 3e 51 3c 37 bf 02 49 cb 3e 45 6d fd 3e
       0.13716803 -0.7157641 0.39704138 0.4949743
000170 41 4e d3 3d 88 5b 0f bf be b0 0a 3c 6b 19 98 3e
       0.1031766 -0.5599904 0.00846499 0.29706892
000180 04 5f 4b 3e f5 5b eb 3d b2 90 9b be 3b 66 bd 3d
       0.19860464 0.11492149 -0.3038383 0.092480145
000190 18 5a c6 3d 2b ce 01 bd f6 10 94 3e 36 3a 9b bd
       0.09685153 -0.031690758 0.2891919 -0.07579462
0001a0 ef 6c 22 bf 03 60 96 bd e8 71 8b be 6e ad de be
       -0.6344747 -0.073425315 -0.2723534 -0.4349169
0001b0 be 93 10 bf 92 a2 77 be 64 b5 12 be ba b8 14 3d
       -0.56475437 -0.2418311 -0.14327008 0.03630898
0001c0 d2 b9 d5 3e 4c 3e 43 3f a4 4e 2a bf 92 29 d1 be
       0.41743332 0.7626693 -0.66526246 -0.40852028
0001d0 e9 7a 24 3e 96 3a 89 3e 08 72 35 3f a1 74 c2 be
       0.16062512 0.2680251 0.7087712 -0.37979606
0001e0 d4 69 61 be a1 58 6b 3e 16 87 27 bf 8b 23 a9 be
       -0.22013026 0.22983028 -0.654405 -0.3303493
0001f0 9f b3 0f bf 7f ff e9 bd ad f4 15 bf 70 9a 9c 3e
       -0.56133455 -0.11425685 -0.5857647 0.30586576
000200 cb 3e 3f 3f d0 35 6e be 0a bb 00 be 41 46 e1 be
       0.7470519 -0.23262715 -0.1257135 -0.43998912
000210 23 3e 8d 3e e7 fd bb be 07 09 06 3e 6c 26 a1 be
       0.2758647 -0.3671715 0.13089381 -0.31474626
000220 7a 53 dd bd 59 12 ba 3e 67 48 b4 be ea 59 4e 3f
       -0.108069375 0.36342123 -0.3521149 0.8060595
000230 36 ba 9d be d0 35 94 3d 42 92 a3 be eb 6c ef 3d
       -0.3080613 0.072368264 -0.31947523 0.11690696
000240 1c e9 a3 bd ce a4 bc 3e ac c0 07 3e 8d c3 11 3e
       -0.080034465 0.36844486 0.13257092 0.14234753
000250 40 43 08 3e ae b9 7e 3c 4e b6 8f 3d eb 5f 60 bd
       0.13306904 0.015547199 0.07017194 -0.054778975
000260 71 21 a6 3c a7 a4 c7 be 69 4e 7c 3c 48 e7 a6 be
       0.020279618 -0.38992807 0.015399554 -0.3259833
000270 a7 d6 c3 be 0a 63 3b be b5 3e 57 be 58 7e 59 bb
       -0.38249704 -0.18299499 -0.21020015 -0.003318688
000280 e9 1c f8 be 81 da 00 bf ea d2 bd bd 84 6d 42 3f
       -0.48459557 -0.5033341 -0.09268744 0.7594836
000290 32 33 ff bd ac 34 15 3e 8f 07 43 be d5 57 aa bd
       -0.124609366 0.14570874 -0.19045852 -0.08317534
0002a0 3e 82 02 bd b1 a6 c4 be 8c a0 e6 3e b9 28 6c bf
       -0.03186249 -0.38408425 0.45044363 -0.9224964
0002b0 a5 b4 61 be 34 b2 8c 3d 86 57 b6 bc 31 6f 98 3e
       -0.22041567 0.06869927 -0.022258531 0.29772332
0002c0 43 ec 83 bd 01 24 91 be ca d3 d6 be a9 df 35 be
       -0.06441548 -0.2834778 -0.41958457 -0.17761101
0002d0 a9 35 6c bd 30 1e a2 bd fc cf cf 3e 44 c0 31 3e
       -0.05766836 -0.07915914 0.40588367 0.173585
0002e0 0f 1b 10 3e be fd 87 3e 75 25 b9 3d 6f d5 86 3e
       0.14072822 0.26560777 0.090403475 0.26334712
0002f0 bc 20 9a bd 7a 69 54 be 7c c9 f8 bd 8b 10 10 3d
       -0.07525775 -0.20743361 -0.12147805 0.035172027
000300 14 70 2b 3f d5 22 3f 3e 9a f1 f4 3d c1 ce 66 3d
       0.6696789 0.18665631 0.11960144 0.05634952
000310 09 0c 5f be f6 b4 9a 3d e5 ce 54 3f d5 f3 33 3d
       -0.21781935 0.07554047 0.83128196 0.04393371
000320 7c 27 39 bf 60 a0 57 be 09 67 70 3e 46 e9 95 bd
       -0.72325873 -0.21057272 0.23476805 -0.07319884
000330 3d 63 d1 3e 19 99 b7 3e 48 28 5d 3e 27 ee 42 bf
       0.40896025 0.35858992 0.21597397 -0.7614464
000340 a8 da 6c be 9c 05 4d bf 9f 95 95 bf 9a 11 b3 be
       -0.23130286 -0.80086684 -1.1686286 -0.34974366
000350 34 1b 46 3e 57 e8 02 3c 85 c4 cb be e2 4a 9f bc
       0.19346315 0.007989964 -0.3979837 -0.019444887
000360 0d 1a c7 3e b5 9c ae bf b3 58 da 3d 9b 24 3f bd
       0.38887063 -1.3641573 0.10661449 -0.04666577
000370 a9 f5 21 be 2f db 4b bf 5f 69 d3 be eb 77 86 3e
       -0.15816368 -0.7963132 -0.4129133 0.26263365
000380 e0 1a 41 be 61 4a 03 3f 1d 05 7d 3d f3 de c7 be
       -0.18857908 0.5128537 0.061772455 -0.39037284
000390 94 54 8b bd 34 e1 f9 be b5 bc 67 bd 65 be 6b be
       -0.06803241 -0.4880463 -0.05657645 -0.23021848
0003a0 6b da c4 bc 80 a3 ec 3d 99 d2 5b 3e 5e de 1e 3f
       -0.024029931 0.11554623 0.21467055 0.62058055
0003b0 02 f6 e4 bd b7 ab d2 3d 5e 76 e1 be 26 c8 1f be
       -0.11179735 0.10286658 -0.4403562 -0.15603694
0003c0 6a 9d b0 3e db 58 7c bd 16 d0 0f c0 bc 28 dd bd
       0.34495097 -0.061608177 -2.2470756 -0.10798785
0003d0 cf 53 37 3e 38 59 89 bd a2 06 b9 bd f9 69 ca be
       0.17903064 -0.0670647 -0.09034468 -0.39533976
0003e0 8a 63 91 3d 21 40 e6 3d 66 30 08 3f bd cb 0c 3f
       0.07099064 0.112427 0.5319885 0.5499838
0003f0 7a 3d 93 3b 86 5a 3e be ed f8 41 3e d7 ec 0f be
       0.0044934126 -0.1858922 0.18942614 -0.14055191

gru.bias_ih_l0 f4 [48]
000000 f2 a0 1e 3d 3e 3c b9 3d 35 e8 2d 3f 50 46 c4 3e
       0.03872771 0.090446934 0.67932445 0.38334894
000010 b0 52 c7 3e 71 03 2a be 29 ce 05 3e a8 41 85 3e
       0.38930273 -0.16602875 0.13066925 0.26026654
000020 f5 6f 18 3e ee ba 86 3e d9 3d 10 3d db 81 3c 3d
       0.14886458 0.2631449 0.035215233 0.046022277
000030 ba 90 20 be 2f 03 4f 3e 05 56 07 bd 3f 41 1b 3c
       -0.15680209 0.20216058 -0.03304102 0.009476005
000040 e8 69 f9 bd a1 6d ac be f9 e5 eb 3e d7 5d 68 be
       -0.12178403 -0.3367739 0.46073893 -0.22692047
000050 b9 ea 5c 3e 33 f5 34 3d 4c 14 cb 3e b4 2e 6a be
       0.21573915 0.044179153 0.39663923 -0.22869378
000060 4b b4 9c be f4 ed a0 3c 9f 06 b2 3e 5c e5 ec 3e
       -0.30606303 0.019644715 0.34770676 0.46268737
000070 8b 15 39 3d 17 e4 e3 3d 10 cd 26 3e 6b 2c 2c 3e
       0.04518656 0.11127489 0.16289163 0.16813819
000080 f8 56 64 3e 7c 11 8d 3e d2 b3 ef bd b0 93 9a bd
       0.22298801 0.27552402 -0.1170422 -0.075477004
000090 5f 9e 58 be ba a6 09 3f ab b9 30 3e a5 76 75 be
       -0.21154164 0.5377003 0.17258327 -0.2397104
0000a0 ea 1b 9b be 66 c9 13 3d 3b a6 c0 3d 6e 59 cf bd
       -0.30294734 0.03608074 0.09406706 -0.10124479
0000b0 17 94 2d 3e 57 24 56 be 09 3b 82 be 32 f0 b0 bc
       0.16951023 -0.209123 -0.25435665 -0.021598909

gru.bias_hh_l0 f4 [48]
000000 8a 45 cb bd 5d ac a5 bd 14 ba b7 3e 53 01 1f 3e
       -0.09925373 -0.08089516 0.35884154 0.15527849
000010 35 32 64 bd cc 35 9f be 5a 9d a5 3e b6 e8 84 3e
       -0.055711944 -0.3109573 0.32346612 0.25958794
000020 e1 4c 9b bd 1a 51 1f 3e bb c7 2e be 17 38 8c 3e
       -0.07583023 0.15558282 -0.17068379 0.27386543
000030 3a 29 1a 3e 5b d4 50 3e 40 90 2d be 5d 3c 54 3c
       0.15054789 0.20393507 -0.16949558 0.012953845
000040 be 1d 2b 3e 8f 59 85 3c 7d 6e 69 3e 69 66 67 be
       0.16710564 0.016278056 0.22796054 -0.2259766
000050 cf e7 d5 3e 87 e6 92 3e 02 00 d7 3c 37 b2 a0 3d
       0.41778418 0.28691503 0.02624512 0.07846492
000060 5e ea 69 be 27 0c c3 bd 55 49 23 3e 06 bd 1e 3f
       -0.2284331 -0.09523802 0.15945943 0.62007177
000070 0c a1 1e be 0f 40 8d 3e 08 ea b3 bc 88 64 be 3e
       -0.15491122 0.27587935 -0.02196218 0.37186074
000080 bb d3 94 3e a2 85 7d 3e 35 eb cb be 77 b8 87 be
       0.29067788 0.24758008 -0.39827886 -0.26507923
000090 33 a6 28 bd 09 15 21 bf 16 37 cf 3d 26 45 5a be
       -0.041174125 -0.6292272 0.10117929 -0.2131544
0000a0 79 aa 8b 3d aa 1e 61 3e 04 9c 82 be e0 18 e2 bd
       0.068196245 0.21984354 -0.25509655 -0.11039901
0000b0 68 12 8d 3d e5 96 55 be 57 88 5c 3e bd bc 01 3e
       0.06888276 -0.20858343 0.21536385 0.12669654

fc.weight f4 [1, 16]
000000 03 cf ef bb 3d 6e 58 3f 57 0f 40 bd ec 75 ab bf
       -0.007318379 0.8454321 -0.04688963 -1.3395362
000010 08 67 c7 bd 04 18 ab 3f 97 1c 84 3f 0d 5b 77 3c
       -0.097364485 1.3366704 1.0321225 0.015097392
000020 2a 77 8f bf e5 59 d6 3f 18 2a 15 be 56 5c 70 be
       -1.1208241 1.6746184 -0.14566839 -0.23472723
000030 d4 33 65 bf ff 7f 8c bf e9 c7 4e bf 20 9a b5 bf
       -0.8953221 -1.0976561 -0.8077379 -1.418766
