models/GRU_VAD/training_checkpoints/tiny_vad_epoch_046_f1_0.9448.pth (torch, 17826 bytes, 9 tensors)

pre.weight f4 [48, 1, 3]
-0.053529747 0.19333848 -0.6372742 -0.37605637 -0.28692964 0.04313064 0.12793398 0.6234972
0.21798976 0.17387521 -0.21727446 -0.27702573 -0.4435051 -0.32761428 -0.27703017 -0.044412922
0.17877665 0.16658252 -0.31619036 -0.169127 0.22195683 0.35645273 -0.32093245 0.17377856
-0.16589275 -0.00662084 0.48562843 -0.39483538 -0.19248565 0.011646577 -0.21803637 0.4955584
-0.39237323 -0.11822975 -0.25597286 -0.41157508 -0.38085046 0.45520517 0.23335059 0.30344173
0.050952382 -0.29426187 0.19432008 -0.4552193 -0.3434997 -0.35009316 0.30670062 0.23802307
-0.3653109 -0.12540983 0.25469288 0.5675126 0.23324043 0.10244644 0.3160498 -0.40269187
0.06439464 -0.32421312 -0.3075253 -0.19654016 0.17582808 0.14192444 -0.45550472 0.1427194
0.28467706 -0.10690839 0.070259795 0.18316396 0.38974062 0.5742118 -0.43685982 -0.24968573
0.14437348 0.5731245 1.0982866 0.7155471 0.901274 0.4577349 -0.1982939 -0.42233533
-0.8742249 -0.023737311 0.64126277 -0.7916111 0.25550896 -0.18453537 0.19763729 0.25862867
0.7242298 -0.28371853 0.10030102 0.10587923 0.39076 -0.21499623 -0.6645965 -0.21527569
0.4055301 0.5977679 -0.61954 0.13342302 0.8706146 0.32844192 -0.259313 -0.13488442
-0.99198943 -0.06598021 -0.57115793 -0.12260996 0.22706145 0.2363646 -0.117369145 0.08480829
-0.3368351 0.56749076 0.09018003 -0.7073187 -0.23887832 0.22605138 0.5438359 -0.04051118
0.19542566 0.30398077 -0.5625775 -0.17417367 -0.86722624 0.037573177 -0.24104555 -0.60094386
-0.34794804 -0.5924048 -0.54743844 -0.07013143 -0.22114764 -0.19015087 0.10207539 -0.3933572
-0.4316983 -0.7350796 0.21178521 0.28264028 0.63251984 0.7680968 1.120974 0.60451114
00000000: 0242 5bbd 86fa 453e 6724 23bf 768a c0be
00000010: 71e8 92be c1a9 303d 2001 033e 839d 1f3f
00000020: b538 5f3e 580c 323e 327d 5ebe 51d6 8dbe
00000030: 1a13 e3be 0fbd a7be e6d6 8dbe 53ea 35bd
00000040: 3a11 373e 9c94 2a3e b4e3 a1be a12f 2dbe
00000050: a748 633e f980 b63e 4251 a4be 02f3 313e
00000060: cadf 29be a2f3 d8bb 4aa4 f83e dd27 cabe
00000070: f51a 45be 49d1 3e3c ed44 5fbe d5b9 fd3e
00000080: 25e5 c8be 7022 f2bd e00e 83be f8b9 d2be
00000090: d5fe c2be a710 e93e 75f3 6e3e b75c 9b3e
000000a0: 72b3 503d 7ea9 96be d8fb 463e 8112 e9be
000000b0: 31df afbe 693f b3be dd07 9d3e 52bc 733e
000000c0: 080a bbbe 6f6b 00be 1b67 823e 8148 113f
000000d0: 94d6 6e3e 70cf d13d 48d1 a13e a12d cebe
000000e0: 56e1 833d 43ff a5be f573 9dbe d341 49be
000000f0: 470c 343e a454 113e ea37 e9be 0925 123e
00000100: 31c1 913e c9f2 dabd 5ee4 8f3d 558f 3b3e
00000110: 158c c73e 8bff 123f 17ac dfbe 9ead 7fbe
00000120: a4d6 133e 4ab8 123f a894 8c3f 182e 373f
00000130: e5b9 663f 3b5c ea3e 8e0d 4bbe 563c d8be
00000140: 34cd 5fbf c074 c2bc cc29 243f 06a7 4abf
00000150: 12d2 823e d7f6 3cbe 6e61 4a3e fa6a 843e
00000160: 2067 393f 8e43 91be 9f6a cd3d 36d7 d83d
00000170: b211 c83e f927 5cbe ff22 2abf 3b71 5cbe
00000180: a4a1 cf3e 5107 193f 2c9a 1ebf 0ba0 083e
00000190: 99e0 5e3f 8a29 a83e acc4 84be 241f 0abe
000001a0: 05f3 7dbf a220 87bd 6837 12bf ee1a fbbd
000001b0: cc82 683e 9009 723e 3c5f f0bd f8af ad3d
000001c0: a675 acbe 1347 113f 4fb0 b83d d712 35bf
000001d0: 859c 74be 037a 673e d438 0b3f 0def 25bd
000001e0: aa1d 483e 5ea3 9b3e 1405 10bf 955a 32be
000001f0: 8a02 5ebf 55e6 193d a5d4 76be 75d7 19bf
00000200: 3f26 b2be d7a7 17bf ed24 0cbf 11a1 8fbd
00000210: 8774 62be e9b6 42be e70c d13d 1d66 c9be
00000220: 8f07 ddbe 2d2e 3cbf 39de 583e 3ab6 903e
00000230: d2ec 213f fea1 443f 137c 8f3f 3ec1 1a3f

pre.bias f4 [48]
-0.59067124 -0.491552 0.6768488 -0.008835037 -0.19349967 -0.5122799 -0.6776849 -0.6986849
-0.06195695 0.33270258 0.3135983 -0.56751615 0.2948154 -0.6465363 -0.13101754 -0.3686417
-0.13686232 -0.06527303 -0.6161144 -0.2932499 -0.20688781 0.021800617 -0.24999419 0.17654204
-0.6412375 0.035033207 0.52571756 -0.23977277 0.7821218 0.33993882 -0.5856871 0.6727406
-0.11489507 -0.33531252 0.55209523 -0.7848537 0.46825346 -0.20332846 0.5824637 0.31266183
0.44803748 0.27858275 -0.2452875 -0.14908396 -0.8776372 0.3934126 0.8974729 0.5013216
00000000: 3b36 17bf b4ac fbbe f745 2d3f d5c0 10bc
00000010: c724 46be c724 03bf c27c 2dbf 03dd 32bf
00000020: 92c6 7dbd fe57 aa3e f58f a03e bd48 11bf
00000030: 0bf2 963e 6783 25bf 7629 06be 9bbe bcbe
00000040: a325 0cbe dead 85bd acb9 1dbf da24 96be
00000050: 66da 53be 3597 b23c 7afe 7fbe 70c7 343e
00000060: 2428 24bf fb7e 0f3d 6d95 063f fe86 75be
00000070: 2239 483f 760c ae3e 97ef 15bf ba38 2c3f
00000080: 1b4e ebbd 15ae abbe 1d56 0d3f 2cec 48bf
00000090: ebbe ef3e 5635 50be 571c 153f 3615 a03e
000000a0: 2b65 e53e 66a2 8e3e a52c 7bbe 77a9 18be
000000b0: d5ac 60bf 606d c93e c9c0 653f 9d56 003f

norm.weight f4 [48]
1.2408658 1.0702013 1.2370874 1.1437181 1.0142744 0.9300986 0.98502886 1.0294431
1.0349258 0.89478844 0.9783156 0.9293102 0.98450255 1.161994 0.9253044 0.91871977
1.0230806 0.930848 0.9872879 0.81371766 1.2536916 0.9459623 1.03061 1.1560141
1.3434625 1.254104 1.2333766 1.0580844 1.2322869 1.1880326 1.0610809 1.2903398
1.156438 1.14062 1.2271402 1.2178593 1.2825091 0.93241626 1.1971085 1.264842
1.1861446 1.0852022 1.1960495 1.1414715 1.2914109 1.3954192 1.3538082 1.3246765
00000000: b1d4 9e3f 5bfc 883f e158 9e3f 5b65 923f
00000010: bed3 813f f11a 6e3f da2a 7c3f cbc4 833f
00000020: 7378 843f db10 653f e472 7a3f 46e7 6d3f
00000030: 5c08 7c3f 38bc 943f c0e0 6c3f 3831 6b3f
00000040: 4ef4 823f 0e4c 6e3f e6be 7c3f cd4f 503f
00000050: f778 a03f 962a 723f 07eb 833f 45f8 933f
00000060: 94f6 ab3f 7b86 a03f 49df 9d3f 4f6f 873f
00000070: 94bb 9d3f 7411 983f 80d1 873f db29 a53f
00000080: 2906 943f d6ff 913f ee12 9d3f d0e2 9b3f
00000090: 4229 a43f d5b2 6e3f da3a 993f 58e6 a13f
000000a0: 96d3 973f e8e7 8a3f 2618 993f bd1b 923f
000000b0: f44c a53f 199d b23f 9649 ad3f 008f a93f

norm.bias f4 [48]
-0.03680049 -0.008679561 0.075374335 -0.04445529 0.011095984 0.048346166 -0.01008628 0.024945572
0.052958064 -0.029211812 -0.047062203 0.013771032 0.01278292 0.015543429 -0.06726333 0.008359008
0.007075944 0.05147025 0.0766024 -0.071563765 -0.020892935 0.045018177 -0.031413518 -0.04760155
-0.006098545 0.032219596 -0.056495905 0.06383493 -0.0203644 0.006962714 0.027085712 0.017542033
-0.015931576 0.025802461 -0.014855107 -0.04465943 0.09289338 0.01668573 -0.022171827 0.03457301
-0.008602648 -0.008003261 0.026269084 0.0412383 0.0055907816 -4.8347723e-05 -0.0031599777 -0.044562392
00000000: 1cbc 16bd b834 0ebc dc5d 9a3d c016 36bd
00000010: eecb 353c a106 463d ed40 25bc a85a cc3c
00000020: 8eea 583d 9c4d efbc 4cc4 40bd e59f 613c
00000030: 746f 513c dea9 7e3c 5bc1 89bd 38f4 083c
00000040: 52dd e73b 78d2 523d b8e1 9c3d 0690 92bd
00000050: a927 abbc fb64 383d 76ab 00bd d8f9 42bd
00000060: 4ed6 c7bb b2f8 033d 4068 67bd e3bb 823d
00000070: 3ed3 a6bc 7a27 e43b dbe2 dd3c 4fb4 8f3c
00000080: f082 82bc af5f d33c d662 73bc ceec 36bd
00000090: e23e be3d 83b0 883c b1a1 b5bc 6e9c 0d3d
000000a0: 1ff2 0cbc 1c20 03bc 4332 d73c 7ee9 283d
000000b0: e032 b73b f9c8 4ab8 a117 4fbb 0e87 36bd

gru.weight_ih_l0 f4 [48, 48]
0.12478153 0.17590733 -0.25957656 -0.16214521 -0.17819841 0.09343583 -0.04898249 -0.019142462
0.056970507 0.15039885 -0.13835338 -0.14989601 -0.2090999 0.17992336 -0.062343437 0.24142379
0.12188765 0.03393383 -0.015603767 -0.05032105 0.21946234 -0.1037678 -0.02054424 0.099300034
-0.37579083 -0.76530707 0.47904092 -0.2717476 0.05728918 0.33490762 0.05104548 0.0074742455
-0.17463657 0.0027978672 -0.10748651 -0.08536053 -0.1249996 -0.13016814 0.06413851 0.17033476
0.08792818 0.31092215 0.15579289 -0.13631505 0.12201561 0.10184371 -0.19632228 -0.16611278
0.8264262 0.8132897 -0.37125605 0.11636719 0.24343982 -0.34016657 0.31839198 -0.29408658
-0.035965126 -0.0023928464 -0.12326815 -0.038778007 0.22841047 -0.16358368 -0.14480896 -0.09319801
-0.29663238 0.15249796 -0.23378296 -0.23353666 -0.04839072 0.13098337 0.15009573 0.16938227
-0.023169529 -0.26790392 -0.70366615 0.066828094 0.25818992 0.15206297 -0.18306813 -0.14874911
-0.062019642 0.026069298 -0.11601111 -0.40256563 0.1984728 -0.18898863 0.0075784614 0.091973774
0.044592705 -0.31952545 -0.47325197 -0.12504315 -0.08422783 0.40463373 -0.06701348 0.03028745
-0.09968301 -0.031066889 -0.19510593 0.17667371 0.12146955 -0.056003533 -0.065128736 -0.20170256
0.09283841 -0.10301456 0.16831054 -0.020088218 -0.2234516 -0.08635125 -0.05333967 -0.012927641
0.21848172 -0.27609205 0.021514539 0.20250575 0.22529788 -0.123154946 -0.3567822 0.07589207
-0.072436206 -0.015748989 0.12745781 -0.029849535 0.018261101 -0.07075342 0.040904645 0.15606618
0.08373781 -0.015138691 -0.1733683 -0.08492164 0.36412975 0.19057518 0.27619123 0.12909721
0.145384 0.08012288 -0.2520199 -0.11084263 0.13090917 0.26819327 -0.03997669 0.10585992
0.3191377 0.44900766 -0.09908105 0.2832228 0.031067781 -0.121257134 0.33770493 0.12840758
-0.19094639 0.24154788 0.13601144 0.17946479 -0.25828448 0.10363278 -0.023236385 0.14073616
-0.069678605 0.07516041 0.07012477 0.15149245 -0.10470231 0.09796342 -0.2269686 0.056793436
-0.10589519 -0.157942 -0.38250145 0.022468267 0.11379471 0.17090982 0.20348622 -0.30228767
-0.40346125 -0.0073358794 -0.22075765 0.12390587 -0.19362994 -0.16879843 -0.33361343 -0.23039538
0.18706103 0.1782052 0.16632058 0.19011025 0.23120458 -0.03235825 -0.014959146 -0.09963831
0.121920004 0.29508987 0.12404453 -0.0030453708 -0.24459487 0.27728054 0.080667384 0.04563263
0.12645818 -0.26742965 -0.23883495 0.04304498 0.29480362 -0.021208119 -0.17257465 0.32747
0.14767557 0.12543532 -0.089011334 0.17194757 0.11508517 -0.22796327 0.17409496 0.22782966
0.0874503 0.50512123 -0.12958163 0.18204293 0.23030709 0.3770816 0.0034290582 -0.17784113
-0.09730933 0.22350109 -0.288298 0.13197884 0.19508968 0.023678893 -0.1659385 0.39862803
0.17599115 -0.13127388 -0.0928543 -0.2833174 -0.05290703 0.021291777 -0.23690276 0.1443717
0.69220626 0.5544093 -0.7875481 0.6672707 0.6443412 -0.52884 0.5453439 -0.37953773
-0.18067437 -0.1281361 -0.12890612 0.23031975 -0.20210065 0.06957398 -0.09857669 0.031628754
00000000: 758d ff3d 0d21 343e 38e7 84be 6509 26be
00000010: a579 36be 495b bf3d dda1 48bd a7d0 9cbc
00000020: e859 693d 2802 1a3e 82ac 0dbe 577e 19be
00000030: 491e 56be d43d 383e d55b 7fbd cc37 773e
00000040: 3ba0 f93d 33fe 0a3d f1a6 7fbc 721d 4ebd
00000050: bcba 603e 3684 d4bd 654c a8bc d15d cb3d
00000060: a867 c0be 2aeb 43bf da44 f53e 8022 8bbe
00000070: 0fa8 6a3d 0379 ab3e 1115 513d 84ea f43b
00000080: eed3 32be 6c5c 373b e321 dcbd 80d1 aebd
00000090: caff ffbd cc4a 05be 0d5b 833d 3c6c 2e3e
000000a0: b113 b43d 3031 9f3e 2c88 1f3e 2c96 0bbe
000000b0: 52e3 f93d 6f93 d03d b508 49be 7819 2abe
000000c0: ab90 533f c133 503f 4615 bebe ec51 ee3d
000000d0: 4a48 793e 502a aebe 4604 a33e 8492 96be
000000e0: 2b50 13bd 4dd1 1cbb 0374 fcbd b0d5 1ebd
000000f0: 6fe4 693e 7b82 27be cd48 14be 99de bebd
00000100: 33e0 97be 6d28 1c3e cd64 6fbe 3c24 6fbe
00000110: 5935 46bd 8120 063e b2b2 193e 8c72 2d3e
00000120: 06ce bdbc b42a 89be 7723 34bf 2bdd 883d
00000130: 7831 843e 65b6 1b3e 3676 3bbe b051 18be
00000140: 4f08 7ebd 488f d53c 3c97 edbd 151d cebe
00000150: 743c 4b3e 3c86 41be be54 f83b bf5c bc3d
00000160: d7a6 363d d798 a3be 154e f2be 500b 00be
00000170: a47f acbd 272c cf3e 5d3e 89bd 631d f83c
00000180: 9b26 ccbd fd7f febc d9c9 47be f4e9 343e
00000190: 07c5 f83d f663 65bd 3762 85bd 1e8b 4ebe
000001a0: 1022 be3d 4cf9 d2bd 9959 2c3e 0c90 a4bc
000001b0: 7fd0 64be edd8 b0bd b37a 5abd 75ce 53bc
000001c0: acb9 5f3e f05b 8dbe 423f b03c ab5d 4f3e
000001d0: 7db4 663e a938 fcbd 28ac b6be 4d6d 9b3d
000001e0: 6f59 94bd 0604 81bc 4d84 023e 0387 f4bc
000001f0: 4e98 953c 2be7 90bd a18b 273d d0cf 1f3e
00000200: bb7e ab3d 4608 78bc 7687 31be 66eb adbd
00000210: 376f ba3e 2426 433e f068 8d3e 0f32 043e
00000220: 8bdf 143e 7717 a43d c108 81be 7601 e3bd
00000230: 0e0d 063e a150 893e 99be 23bd 16cd d83d
00000240: 0466 a33e 55e4 e53e 01eb cabd 9402 913e
00000250: dc81 fe3c a955 f8bd a9e7 ac3e 477d 033e
00000260: 7387 43be 5458 773e 9546 0b3e 9ec5 373e
00000270: dd3d 84be 6c3d d43d 3b5a bebc 241d 103e
00000280: a8b3 8ebd b3ed 993d 939d 8f3d d620 1b3e
00000290: 2a6e d6bd 0ca1 c83d 756a 68be 3ca0 683d
000002a0: 94df d8bd 8cbb 21be 3bd7 c3be 5f0f b83c
000002b0: 330d e93d fc02 2f3e b15e 503e 73c5 9abe
000002c0: 7992 cebe d161 f0bb 4b0e 62be 5cc2 fd3d
000002d0: ed46 46be 7fd9 2cbe 61cf aabe c4ec 6bbe
000002e0: ed8c 3f3e 6d7b 363e f14f 2a3e 43ac 423e
000002f0: e5c0 6c3e 168a 04bd 3517 75bc 2c0f ccbd
00000300: 32b1 f93d 0516 973e 0f0b fe3d d894 47bb
00000310: 1477 7abe b7f7 8d3e f134 a53d 48e9 3a3d
00000320: 417e 013e 8aec 88be 2691 74be ef4f 303d
00000330: 80f0 963e a6bc adbc 69b7 30be 26aa a73e
00000340: 4438 173e 1e72 003e 934b b6bd 0613 303e
00000350: c6b1 eb3d 346f 69be f345 323e 2e4c 693e
00000360: 2519 b33d a04f 013f 0cb1 04be 7669 3a3e
00000370: 9fd5 6b3e d710 c13e 0dba 603b fc1b 36be
00000380: 1d4a c7bd 78dd 643e cc9b 93be 7625 073e
00000390: 97c5 473e 3dfa c13c c8eb 29be f918 cc3e
000003a0: 0637 343e a96c 06be 652a bebd fa0e 91be
000003b0: 0bb5 58bd 186c ae3c a396 72be 2dd6 133e
000003c0: 6e34 313f c5ed 0d3f c19c 49bf 41d2 2a3f
000003d0: 8bf3 243f 0f62 07bf a89b 0b3f c552 c2be
000003e0: b402 39be 1c36 03be f7ff 03be f1d8 6b3e
000003f0: 79f3 4ebe ce7c 8e3d 93e2 c9bd 278d 013d

gru.weight_hh_l0 f4 [48, 16]
-0.014788081 0.1786711 -0.30926657 -0.25745302 -0.10644152 0.04929872 -0.58495605 0.14282407
-0.034057997 -0.22666165 0.14851695 0.005375084 -0.41026405 -0.21615645 0.09499499 0.291493
-0.05130036 0.19133402 -0.34735885 -0.32016137 -0.17284665 -0.42973307 -0.2987462 -0.07289685
0.00853248 0.31424695 -0.11948509 -0.5628039 0.0130432 -0.70607305 0.20968191 -0.02617366
-0.16454677 -0.005446348 -0.01432262 -0.111812174 -0.020160303 0.2127391 0.25260746 -0.270604
-0.18206272 -0.029475154 0.07613934 -0.24620298 -0.27357832 -0.17452638 -0.10888307 -0.104767345
-0.20985276 -0.15080556 -0.087227 -0.09808165 -0.291404 -0.070662074 -0.13539712 0.21314397
-0.10329237 -0.079330884 0.3053245 0.13602605 -0.3160012 -0.4084188 -0.008496803 -0.05895696
-0.28347144 -0.2107684 0.073473595 -0.49489668 -0.14849372 -0.076854676 -0.7173356 -0.29605994
-0.2520563 -0.32256588 0.43619147 -0.60702354 -0.03880958 -0.4103736 0.52595234 0.19111978
-0.0300251 0.09764216 -0.53061664 -0.205534 -0.3997428 0.1359052 -0.40532523 0.034001675
0.10453444 0.11935991 0.37784985 0.27342567 -0.3092001 -0.03957172 0.08141827 0.5852057
-0.3548907 -0.14612734 -0.30504206 0.04395093 -0.047712177 0.22047628 0.044035565 0.22743605
0.55581814 -0.23874924 -0.088939376 -0.19213769 -0.3649459 -0.3290575 0.112703845 -0.13827938
-0.13907593 0.114414126 -0.28262404 -0.56452847 -0.28654534 -0.10486176 -0.94412726 -0.2589365
-0.4679184 0.1923264 0.41006428 0.09833174 0.08455187 -0.9024006 0.29420102 0.3279446
0.18844864 -0.042643882 0.17216894 -0.18214226 0.028868174 0.5012616 -0.04119131 0.22512203
-0.15763064 0.13074075 -0.02999218 0.5134395 -0.2742099 0.5043693 -0.14815225 -0.112078786
-0.40247506 -0.28020552 -0.06428837 -0.03663907 -0.1953861 -0.012197938 0.22371311 -0.13031012
0.1889529 -0.9891909 0.59611744 -0.13496925 0.05389908 -0.4300567 0.6942207 -0.1590834
-0.29722363 -0.25130862 0.014068896 -0.0825649 -0.6305968 0.0837328 -0.38510337 -0.07829722
0.42255762 0.019644406 0.37629956 -0.43846756 -0.48636684 -0.7285607 0.51657456 0.28297102
-0.33564702 -0.21147278 -0.33191103 0.18271726 0.055269726 0.13429056 -0.20303181 0.04994339
-0.32520002 -0.28991023 0.08546681 0.13023186 -0.37451863 -0.034465246 0.036701545 0.1464835
0.21667227 0.06251166 -0.13039467 -0.039291814 0.05425355 0.07049493 0.10399713 -0.19174062
0.034731496 0.15843444 0.037605636 0.1649437 -0.08362752 -0.062835135 -0.08161307 0.40492395
-0.4261042 -0.1895728 -0.16677922 0.13709712 0.046732966 0.091991246 -0.26928285 -0.249773
-0.16259438 -0.14956436 0.0010686084 -0.31396243 -0.11946042 -0.38417223 0.06372099 -0.07515573
-0.39144805 -0.07266731 -0.13045925 0.2349806 -0.21217906 0.060017362 -0.073358364 -0.29598624
-0.1405611 -0.21789187 0.23184383 -0.25740445 0.04472239 0.0068005635 0.24966216 -0.16569883
-0.5694792 -0.38157225 0.4418248 0.34389845 -0.30804312 -0.24219632 0.34793463 -0.29023188
0.12664226 -0.2536862 -0.0016196478 -0.42620185 0.07224626 0.1108455 0.22857067 -0.2006793
00000000: b549 72bc 8ff5 363e 3058 9ebe e2d0 83be
00000010: 03fe d9bd 74ed 493d aebf 15bf 7940 123e
00000020: 6680 0bbd fe19 68be d414 183e 7921 b03b
00000030: 210e d2be 1e58 5dbe bc8c c23d 923e 953e
00000040: 5420 52bd 11ed 433e 05d9 b1be 31ec a3be
00000050: b6fe 30be f905 dcbe 43f5 98be f24a 95bd
00000060: d1cb 0b3c fae4 a03e 99b4 f4bd eb13 10bf
00000070: 25b3 553c 34c1 34bf dbb6 563e 256a d6bc
00000080: f37e 28be 4777 b2bb 6ca9 6abc c8fd e4bd
00000090: 3827 a5bc 47d8 593e c455 813e 9c8c 8abe
000000a0: a66e 3abe e175 f1bc f1ee 9b3d a21c 7cbe
000000b0: 7512 8cbe 0bb7 32be 16fe debd 4390 d6bd
000000c0: a4e3 56be c66c 1abe 12a4 b2bd 08df c8bd
000000d0: e832 95be 47b7 90bd 8ba5 0abe 6a42 5a3e
000000e0: f38a d3bd 3b78 a2bd 7e53 9c3e 6a4a 0b3e
000000f0: e9ca a1be 451c d1be 2d36 0bbc da7c 71bd
00000100: 2b23 91be acd3 57be 5379 963d 1963 fdbe
00000110: bd0e 18be fc65 9dbd 4ea3 37bf 2b95 97be
00000120: 860d 81be 5b27 a5be 7d54 df3e e565 1bbf
00000130: cbf6 1ebd 7d1c d2be d0a4 063f e7b4 433e
00000140: 33f7 f5bc 9df8 c73d 7ed6 07bf 8177 52be
00000150: 17ab ccbe bc2a 0b3e ca86 cfbe 5745 0b3d
00000160: 2716 d63d f872 f43d 8975 c13e 73fe 8b3e
00000170: 7a4f 9ebe f515 22bd 9fbe a63d 0ad0 153f
00000180: 3cb4 b5be 68a2 15be 792e 9cbe e405 343d
00000190: d86d 43bd 89c4 613e a35e 343d ffe4 683e
000001a0: 194a 0e3f ae7a 74be d925 b6bd bebf 44be
000001b0: 30da babe 3a7a a8be 46d1 e63d 1c99 0dbe
000001c0: ec69 0ebe f451 ea3d 19b4 90be f084 10bf
000001d0: 12b6 92be c3c1 d6bd 53b2 71bf 5393 84be
000001e0: 0093 efbe 36f1 443e f2f3 d13e 2762 c93d
000001f0: 8829 ad3d ba03 67bf 84a1 963e 5be8 a73e
00000200: aef8 403e 5aab 2ebd 0e4d 303e 8083 3abe
00000210: f37c ec3c ae52 003f 38b8 28bd 6486 663e
00000220: ed69 21be e7e0 053e 29b2 f5bc c570 033f
00000230: 3d65 8cbe 591e 013f 39b5 17be 9089 e5bd
00000240: 3611 cebe 1977 8fbe 9fa9 83bd d912 16bd
00000250: 4b13 48be dcd9 47bc 0d15 653e 0470 05be
00000260: de7c 413e 9d3b 7dbf 279b 183f 6135 0abe
00000270: 48c5 5c3d 6430 dcbe 73b8 313f c2e6 22be
00000280: b22d 98be 86ab 80be 3a81 663c c917 a9bd
00000290: cb6e 21bf 1a7c ab3d 452c c5be 4b5a a0bd
000002a0: 7959 d83e 4eed a03c 56aa c03e d27e e0be
000002b0: 1305 f9be f482 3abf 3b3e 043f 94e1 903e
000002c0: edd9 abbe 528c 58be 3ef0 a9be 3c1a 3b3e
000002d0: 8262 623d 7783 093e 92e7 4fbe 7191 4c3d
000002e0: 9e80 a6be 1d6f 94be 3909 af3d 805b 053e
000002f0: e8c0 bfbe 6e2b 0dbd 5c54 163d c5ff 153e
00000300: 56df 5d3e 1d06 803d 2e86 05be 74f0 20bd
00000310: f838 5e3d a55f 903d 73fc d43d a757 44be
00000320: 9d42 0e3d a33c 223e 5e08 1a3d 00e7 283e
00000330: e844 abbd b5af 80bd c124 a7bd 3152 cf3e
00000340: 542a dabe 5f1f 42be 2cc8 2abe 3063 0c3e
00000350: 116b 3f3d e865 bc3d 71df 89be 7ec4 7fbe
00000360: 247f 26be 6627 19be 8c10 8c3a afbf a0be
00000370: aaa7 f4bd 39b2 c4be 2780 823d 3feb 99bd
00000380: e16b c8be 99d2 94bd 1c97 05be c19e 703e
00000390: 7845 59be c4d4 753d e93c 96bd 828b 97be
000003a0: 40ef 0fbe 0c1f 5fbe 7868 6d3e 84ca 83be
000003b0: d32e 373d 43d7 de3b 70a7 7f3e f4ac 29be
000003c0: 64c9 11bf 705d c3be dc36 e23e 7513 b03e
000003d0: d4b7 9dbe 5002 78be 7d24 b23e 4699 94be
000003e0: 82ae 013e 28e3 81be 5d4a d4ba 2137 dabe
000003f0: d9f5 933d f702 e33d 6e0e 6a3e e07e 4dbe

gru.bias_ih_l0 f4 [48]
0.26012856 0.15474834 -0.11122323 -0.11518746 -0.21828857 0.1121695 -0.03052988 -0.0032930318
0.010948765 -0.17401391 -0.1859694 -0.05829115 -0.104030944 0.13370517 -0.007696474 0.012097193
-0.022258533 0.25078425 0.10435963 0.43120053 -0.24936704 -0.13767393 0.35871065 0.026204312
0.15637438 -0.0322543 0.18832375 0.2320748 0.101214126 0.13779666 0.30023 0.36987215
-0.23613434 0.011532706 -0.23456523 0.14218256 -0.05344524 0.005759945 -0.14819469 -0.22611918
-0.015771458 0.17816222 -0.08041256 -0.01003872 0.21892631 0.18087532 -0.103509575 0.33539036
00000000: 922f 853e 5976 1e3e 01c9 e3bd 67e7 ebbd
00000010: 0a87 5fbe 1fb9 e53d cd19 fabc e8cf 57bb
00000020: 7362 333c b430 32be c36e 3ebe b3c2 6ebd
00000030: 2d0e d5bd 02ea 083e b432 fcbb 4e33 463c
00000040: 8757 b6bc cb66 803e 80ba d53d 51c6 dc3e
00000050: 135a 7fbe 65fa 0cbe eca8 b73e 6daa d63c
00000060: 9b20 203e 161d 04bd f1d7 403e 04a5 6d3e
00000070: 5a49 cf3d 911a 0d3e bfb7 993e e25f bd3e
00000080: 33cd 71be adf3 3c3c de31 70be 4e98 113e
00000090: 65e9 5abd ecbd bc3b 59c0 17be c98b 67be
000000a0: 2533 81bc 2870 363e 57af a4bd 7279 24bc
000000b0: 382e 603e 6137 393e d4fc d3bd 49b8 ab3e

gru.bias_hh_l0 f4 [48]
0.12748808 0.29190847 0.09917287 -0.17266761 -0.07411621 0.150982 0.20430511 -0.25149828
0.2449596 -0.17944743 0.18391718 0.38228303 0.06228049 0.04763834 0.24752392 -0.053192075
-0.17749585 -0.15527266 0.33587292 0.387248 -0.047322553 -0.17148778 0.031760156 0.11525103
0.16309825 -0.060541216 0.05884253 -0.1466408 0.28861368 0.018858744 0.015050889 0.0023975568
-0.27708465 0.01045404 0.048589516 0.08290133 -0.29054156 0.022880366 -0.011091195 0.037107315
-0.18110378 0.12579064 0.015234159 0.102133706 -0.21615654 0.035763726 -0.17110714 0.027956448
00000000: 3c8c 023e 0775 953e 251b cb3d c7cf 30be
00000010: 3dca 97bd 079b 1a3e 5c35 513e 62c4 80be
00000020: b0d6 7a3e 11c1 37be c954 3c3e 9aba c33e
00000030: d419 7f3d 6c20 433d e976 7d3e efdf 59bd
00000040: 79c1 35be ccff 1ebe 89f7 ab3e 5f45 c63e
00000050: 4bd5 41bd 7e9a 2fbe f016 023d bb08 ec3d
00000060: 3a03 273e 11fa 77bd dd04 713d 0229 16be
00000070: 2cc5 933e a77d 9a3c 0198 763c 5420 1d3b
00000080: 0ade 8dbe 6c47 2b3c cd05 473d 2cc8 a93d
00000090: ddc1 94be 9b6f bb3c d8b7 35bc d7fd 173d
000000a0: 4573 39be 43cf 003e b298 793c 7a2b d13d
000000b0: 2458 5dbe fc7c 123d b636 2fbe ec04 e53c

fc.weight f4 [1, 16]
-0.32798204 -0.24459627 -0.027604751 -0.0394747 -0.3825539 -0.03490795 -0.14111458 -0.15387292
-0.05873583 -0.30683446 0.26134554 -0.09125442 -0.17321035 -0.1096866 0.228631 0.030913895
00000000: 43ed a7be 7277 7abe 5c23 e2bc 39b0 21bd
00000010: 1bde c3be a3fb 0ebd 5780 10be dd90 1dbe
00000020: fb94 70bd 6819 9dbe 15cf 853e 99e3 babd
00000030: 0e5e 31be 5ea3 e0bd 3f1e 6a3e 233f fd3c
