models/GRU_VAD/training_checkpoints/tiny_vad_epoch_042_valloss_0.0467_f1_0.8527.pth (torch, 18021 bytes, 9 tensors)

pre.weight f4 [48, 1, 3]
0	0x3bb2d1f4	0.0054571573
1	0x3e865cc3	0.26242647
2	0xbf19dfdb	-0.601072
3	0xbeeffa30	-0.46870565
4	0xbe9e0174	-0.30860484
5	0x3e0151c2	0.12628844
6	0x3c8f05a2	0.01745874
7	0x3f08fdfa	0.5351254
8	0x3e3253b0	0.17414737
9	0x3e375cdb	0.17906515
10	0xbe5e695f	-0.21719883
11	0xbe6d5cd6	-0.23179945
12	0xbeba6ea0	-0.36412525
13	0xbe8cdc35	-0.27511755
14	0xbe8d9445	-0.27652183
15	0xbdcfa0bf	-0.10138082
16	0x3e3cf6e5	0.18453558
17	0x3e88f3c8	0.2674849
18	0xbea28459	-0.31741598
19	0xbe48f683	-0.19625287
20	0x3e58e8cc	0.21182555
21	0x3eb321cc	0.34986722
22	0xbe884ef3	-0.26622733
23	0x3eb08c74	0.34482157
24	0xbe1a4ea4	-0.15069062
25	0xbb0d7213	-0.0021582886
26	0x3ef803ed	0.48440495
27	0xbea8fb49	-0.33004215
28	0xbe2fac55	-0.17155583
29	0x3c9edb6c	0.019391738
30	0xbe5c43b8	-0.21510208
31	0x3ef52edd	0.47887316
32	0xbecd203f	-0.40063664
33	0xbe27e5a9	-0.16396202
34	0xbe8a3bd4	-0.2699877
35	0xbeca8a9a	-0.3955887
36	0xbec6d6f5	-0.38835874
37	0x3ee26949	0.4422095
38	0x3e5ac4bc	0.2136411
39	0x3e97a448	0.29617524
40	0x3d35de6c	0.04440157
41	0xbe9bb66c	-0.30412614
42	0x3e715445	0.23567303
43	0xbede5544	-0.43424428
44	0xbe91d436	-0.28482217
45	0xbeb69f18	-0.35668254
46	0x3e9fef67	0.31237337
47	0x3e7b8559	0.24562587
48	0xbe9e125d	-0.30873385
49	0xbdc74d61	-0.09731556
50	0x3eb88e25	0.36045948
51	0x3ee6f30e	0.4510731
52	0x3e112476	0.14174065
53	0xbd9c1e98	-0.07623023
54	0x3eadd9f7	0.33955356
55	0xbec3d14d	-0.3824562
56	0x3da312d4	0.079625756
57	0xbe94cd53	-0.290629
58	0xbe77599c	-0.24155277
59	0xbdd22e30	-0.10262716
60	0x3e4d500c	0.20050067
61	0x3e2f4eb3	0.17119865
62	0xbee60313	-0.4492422
63	0x3e21c72e	0.15798637
64	0x3e9aa9d5	0.30207697
65	0xbdcff511	-0.101541646
66	0x3d75ac3a	0.0599787
67	0x3e404d7a	0.18779555
68	0x3ecda521	0.40165046
69	0x3f126bea	0.57195914
70	0xbed89eb4	-0.4230858
71	0xbe4d3380	-0.20039177
72	0x3de96afe	0.1139736
73	0x3f34243f	0.7036781
74	0x3f623acf	0.88370985
75	0x3f2e220d	0.6802071
76	0x3f613814	0.87976193
77	0x3e0d6d67	0.13811265
78	0xbe01f1cc	-0.12689894
79	0xbe94da1f	-0.29072663
80	0xbf3554be	-0.7083243
81	0x3e8f8ed6	0.28038663
82	0x3f1a4e9f	0.60276216
83	0xbf569e3f	-0.83835214
84	0x3e61fa58	0.22068155
85	0x3e9f3694	0.31096327
86	0x3f24af6d	0.6433018
87	0xbdd86173	-0.10565462
88	0x3ec4e884	0.38458645
89	0xbdee9c37	-0.11650889
90	0x3db5d988	0.088793814
91	0x3ecdca6f	0.40193507
92	0x3f2057ea	0.62634146
93	0xbe375684	-0.17904097
94	0xbf0ee354	-0.55815625
95	0xbecc3e15	-0.39891115
96	0x3d82347b	0.06357666
97	0x3e175d05	0.14781578
98	0xbf31a84b	-0.6939742
99	0xbe499784	-0.19686705
100	0x3eff2750	0.4983468
101	0x3ed3c55b	0.41361508
102	0x3dc7e853	0.09761109
103	0xbdd2a443	-0.10285237
104	0xbf34e01c	-0.70654464
105	0x3e1bcaed	0.15214129
106	0xbdc88913	-0.0979177
107	0xbd4801ba	-0.04882977
108	0x3ccaf583	0.024775272
109	0x3e211665	0.15731199
110	0xbea40c83	-0.32040796
111	0x3e90b922	0.28266245
112	0xbe032de5	-0.12810476
113	0x3eb68589	0.35648754
114	0x3d4f8d3b	0.050671797
115	0xbead589c	-0.33856666
116	0xbf0ee4cf	-0.55817884
117	0x3db93e90	0.09045136
118	0x3ed571c1	0.4168835
119	0x3cf99250	0.030465275
120	0xbc8985f6	-0.01678751
121	0x3e517823	0.20455985
122	0xbd684ecb	-0.056715768
123	0xbaaabe28	-0.0013026642
124	0xbf3f3ff8	-0.74706984
125	0xbdcd32e9	-0.10019476
126	0xbca3b4a1	-0.019983592
127	0xbdcfe863	-0.10151746
128	0x3ccbd799	0.024883078
129	0x3ddb450e	0.107065305
130	0x3e1832de	0.14863154
131	0x3eb935cd	0.3617386
132	0xbedddc5e	-0.4333219
133	0xbe907cd0	-0.28220224
134	0x3e5596ba	0.20858279
135	0xbda9bc5c	-0.0828788
136	0x3c468a9d	0.012118009
137	0xbdaaf011	-0.0834657
138	0x3ec034a6	0.37540168
139	0x3ef1cb87	0.47225592
140	0x3f2d4df6	0.67697084
141	0x3e6a6885	0.22891434
142	0x3f199854	0.5999806
143	0x3dfb77e8	0.1227873

pre.bias f4 [48]
0	0xbf25fefb	-0.64842194
1	0xbe96eeaf	-0.29478976
2	0x3f29db88	0.66350603
3	0xbda8e33e	-0.08246468
4	0xbeba0e12	-0.3633886
5	0xbe9a9c66	-0.30197448
6	0xbf3603f4	-0.7109978
7	0xbecaf88a	-0.39642745
8	0xbe43c675	-0.19118674
9	0x3eea1c96	0.45724934
10	0x3eba2626	0.3635723
11	0xbef27c94	-0.4736067
12	0x3ed01a2e	0.40644974
13	0xbf03698d	-0.5133293
14	0xbdd3a2e1	-0.10333801
15	0xbeca2ba4	-0.3948642
16	0xbedda5ac	-0.4329046
17	0xbdfb97a9	-0.12284786
18	0xbf1354ea	-0.57551444
19	0xbf03b194	-0.5144284
20	0xbeb9f3db	-0.3631886
21	0x3d9bc8a0	0.076066256
22	0xbedbc0df	-0.42920586
23	0x3e88fca9	0.26755264
24	0xbf229e0a	-0.635224
25	0x3d69a0fc	0.057038292
26	0x3f0f2203	0.5591127
27	0xbe20e4db	-0.15712301
28	0x3f1e8460	0.6192074
29	0x3e943804	0.28948987
30	0xbf01f38e	-0.5076226
31	0x3ed741d2	0.42042404
32	0xbd4c67ab	-0.049903553
33	0xbeb0e410	-0.34548998
34	0x3f130af5	0.57438594
35	0xbf174ace	-0.5909852
36	0x3e3005a4	0.17189652
37	0xbe93ad02	-0.28842932
38	0x3f1d5a4c	0.6146591
39	0x3ebc9935	0.36835638
40	0x3f098645	0.53720504
41	0x3e560ec4	0.2090407
42	0xbef166c4	-0.47148716
43	0xbdd49906	-0.103807494
44	0xbf289415	-0.65850955
45	0x3f0a241c	0.5396135
46	0x3f12ccde	0.5734385
47	0x3f09f6ae	0.5389203

norm.weight f4 [48]
0	0x3fb98d47	1.449624
1	0x3f903295	1.1265436
2	0x3f9b5247	1.2134484
3	0x3f8ee4dd	1.1163594
4	0x3f81e141	1.0146867
5	0x3f8282f3	1.0196213
6	0x3f7b6112	0.9819499
7	0x3f829005	1.0200201
8	0x3f7cdf6b	0.9877841
9	0x3f6cf7c7	0.9256558
10	0x3f768b0e	0.9630593
11	0x3f60df16	0.878404
12	0x3f79b39d	0.97539693
13	0x3f87947c	1.0592189
14	0x3f60d9bc	0.87832236
15	0x3f6fd486	0.9368366
16	0x3fad9279	1.3560325
17	0x3f7aac93	0.9791958
18	0x3f79771f	0.9744739
19	0x3f60b385	0.87773925
20	0x3fc7b4bb	1.560203
21	0x3f7d687d	0.9898756
22	0x3f757da8	0.9589486
23	0x3f7c3611	0.9852
24	0x3fa04c67	1.2523316
25	0x3f9fdc50	1.2489109
26	0x3f8a320f	1.0796527
27	0x3f8efc36	1.1170719
28	0x3f9f0e36	1.2426212
29	0x3f83aa13	1.0286278
30	0x3f85628f	1.0420703
31	0x3f88c752	1.0685828
32	0x3f8d06e6	1.101773
33	0x3f80a25b	1.0049547
34	0x3f92f998	1.148242
35	0x3f90a871	1.1301404
36	0x3f8553b1	1.0416166
37	0x3f747d92	0.95504105
38	0x3f984016	1.1894557
39	0x3f9c63f3	1.2218002
40	0x3fa1edf9	1.2650748
41	0x3f89ed60	1.0775566
42	0x3fa6ba33	1.3025573
43	0x3f87878e	1.0588243
44	0x3f986de5	1.1908537
45	0x3f9a657d	1.2062222
46	0x3f92a314	1.1456017
47	0x3f8e7fb1	1.1132718

norm.bias f4 [48]
0	0xbd8a0ecd	-0.06741104
1	0x3cbf36b4	0.023341514
2	0x3d94c9e7	0.07265072
3	0xbda15767	-0.07877999
4	0x3c5fbb12	0.013655441
5	0x3d00cac2	0.031443365
6	0xbccdbee2	-0.025115434
7	0x3c8bcd43	0.01706565
8	0x3d72cb06	0.05927565
9	0x3c52774b	0.0128458245
10	0xbd87cac6	-0.06630473
11	0xbc70c2f1	-0.014694915
12	0x3cabc8ae	0.020969715
13	0xbd49f3d1	-0.049304787
14	0xbd9df3df	-0.0771253
15	0xbca7b0f4	-0.02047012
16	0x3dd1196b	0.10209926
17	0x3cd2f3cc	0.025751017
18	0x3d6777b0	0.056510627
19	0xbd34f5e3	-0.04417981
20	0xbc35b396	-0.01109018
21	0x3d825c40	0.063652515
22	0xbd37d381	-0.04487944
23	0xbd609910	-0.05483347
24	0xbcba3239	-0.022729026
25	0x3d6d477c	0.0579295
26	0xbbe6a820	-0.007039085
27	0x3d7ea7e2	0.062171824
28	0x3cc0c9c2	0.023533706
29	0x3d97075d	0.07374451
30	0x3cd07845	0.025447974
31	0xbd5e8665	-0.054327387
32	0xbcf75117	-0.030190034
33	0xbcac9867	-0.021068765
34	0xbccef49c	-0.025263123
35	0xbd9b07f2	-0.07569875
36	0x3c833fe6	0.01602168
37	0xbc0e3a4d	-0.008680892
38	0xbca03f01	-0.019561293
39	0x3d47baa2	0.04876197
40	0x3d45db21	0.04830468
41	0xbcb4bdd8	-0.02206318
42	0xbdae1258	-0.084995925
43	0x3d7f4792	0.062324114
44	0xbcf6cf2e	-0.030128088
45	0x3d82df62	0.06390263
46	0x3d141c70	0.036159933
47	0x3c9da280	0.019242525

gru.weight_ih_l0 f4 [48, 48]
0	0x3ee3561e	0.4440164
1	0x3e9af98c	0.30268514
2	0xbea3dd28	-0.32004666
3	0xbdd5fcbd	-0.104485966
4	0xbd941645	-0.0723081
5	0x3d2d719b	0.04234467
6	0xbd7872fd	-0.060656536
7	0xbd0b3409	-0.03398517
8	0xbb604cb7	-0.0034225413
9	0x3e66a7d7	0.22524963
10	0xbe0771c4	-0.13226992
11	0xbdddadba	-0.10824151
12	0xbe65d593	-0.22444753
13	0x3e06558b	0.1311857
14	0xbdd29005	-0.10281376
15	0x3e5bb4c6	0.21455678
16	0x3e81a04d	0.25317612
17	0x3d3fb799	0.04680595
18	0x3b992521	0.0046736156
19	0xbd784ce8	-0.06062022
20	0xbdfc88bf	-0.1233077
21	0xbdc50823	-0.096206926
22	0xbd6e13b9	-0.058124278
23	0xbe11f20c	-0.1425249
24	0xbeb8ff41	-0.36132243
25	0xbe4c0857	-0.19925056
26	0x3d10aa39	0.035318587
27	0x3e3ae2b7	0.18250547
28	0x3db646c2	0.08900215
29	0x3eb73a39	0.35786608
30	0x3dbb339d	0.09140704
31	0xbdefc425	-0.117073335
32	0xbe29a442	-0.16566566
33	0x3dc98b30	0.09841001
34	0xbe52d402	-0.20588687
35	0xbdef495f	-0.11683916
36	0xbe873777	-0.26409504
37	0xbe03c10f	-0.12866615
38	0xbe511f90	-0.20422196
39	0x3e12338a	0.14277473
40	0xbcd0d58e	-0.025492456
41	0xbe0766ac	-0.1322276
42	0x3d6291c6	0.0553148
43	0xbe9084bf	-0.28226277
44	0x3d5c6c42	0.05381418
45	0xbe95b0da	-0.2923649
46	0xbe4758ed	-0.19467516
47	0x3c53870e	0.0129106175
48	0xbe654912	-0.22391155
49	0x3e315ebf	0.17321299
50	0xbf35d79a	-0.71032107
51	0x3f0bd1e9	0.5461717
52	0x3e87ef5f	0.26549813
53	0xbe980384	-0.29690182
54	0x3c9db6fa	0.01925229
55	0xbe50b485	-0.20381363
56	0xbd700348	-0.05859688
57	0xbd36389f	-0.04448759
58	0xbe38c6d9	-0.18044604
59	0xbd4142b3	-0.04718275
60	0x3e9a5128	0.30140042
61	0xbdadd60a	-0.0848809
62	0xbe437ee7	-0.19091378
63	0xbdf79014	-0.120880276
64	0xbe5f65c3	-0.21816163
65	0x3e15081e	0.14553878
66	0xbe12889a	-0.14309922
67	0xbe24fcf6	-0.16112122
68	0xbee49f04	-0.4465257
69	0x3e724f67	0.23663102
70	0x3e733973	0.23752384
71	0xbb43b268	-0.0029860977
72	0x3efaf3c3	0.490141
73	0x3f0d0639	0.5508762
74	0x3e950ded	0.29112187
75	0xbe90580e	-0.2819218
76	0xbe82a46d	-0.25516072
77	0xbd02b9ab	-0.031915348
78	0xbeb9a478	-0.36258292
79	0x3e57de31	0.21080853
80	0xbf18a955	-0.5963338
81	0xbde179c1	-0.11009551
82	0xbcfdeae2	-0.03099579
83	0xbe8012a8	-0.25014234
84	0xbd4bf5cb	-0.049794953
85	0xbe0a82ba	-0.1352643
86	0xbd898c61	-0.06716228
87	0xbd952ae5	-0.07283572
88	0xbda00b2d	-0.078146316
89	0x3d1f7110	0.038926184
90	0xbe95fbc0	-0.29293633
91	0x3eb93ff8	0.36181617
92	0x3ab5a3b7	0.0013857995
93	0x3dd6edab	0.1049455
94	0x3dd9c1a9	0.10632641
95	0x3e2c0c0a	0.16801468
96	0x3ca3655a	0.01994579
97	0x3dcdd97c	0.100512475
98	0xbe8251a3	-0.2545291
99	0x3dc00bac	0.09377226
100	0x3d1d8754	0.038459137
101	0x3d127ee5	0.035765547
102	0xbdb1cceb	-0.08681663
103	0xbdeb7407	-0.1149674
104	0x3e66803c	0.22509855
105	0xbe4475c5	-0.1918555
106	0x3da51032	0.0805973
107	0xbe014b3e	-0.12626359
108	0xbda9d8dc	-0.08293316
109	0x3c7ddf5c	0.015495148
110	0xbe190dfb	-0.1494674
111	0x3d922840	0.07136583
112	0x3d9debdc	0.07711002
113	0xbe34dfb7	-0.17663465
114	0x3d21bb26	0.03948512
115	0x3df11c11	0.11772931
116	0x3e0f15c4	0.13973147
117	0xbd577796	-0.05260428
118	0xbe7673dc	-0.24067634
119	0xbd2ed333	-0.042681884
120	0xbc6adceb	-0.0143348975
121	0xbd44823e	-0.04797577
122	0x3e145a73	0.14487629
123	0x3e044358	0.12916315
124	0xbdc4dfd7	-0.096130066
125	0x3cf4d72d	0.02988776
126	0x3df63a4e	0.120228395
127	0x3bcbead9	0.0062230644
128	0xbd8112d7	-0.063024215
129	0x3cf657e9	0.030071216
130	0xbe3916b9	-0.18075074
131	0x3bdb51d1	0.006693103
132	0x3e54c6f4	0.2077902
133	0x3e1d6ceb	0.1537358
134	0x3e04201a	0.12902871
135	0x3d4adc86	0.049526714
136	0x3e1b7d2c	0.15184468
137	0xbdc04e57	-0.09389942
138	0xbe9868c7	-0.2976744
139	0xbe08bb14	-0.13352615
140	0x3e707c70	0.23484969
141	0x3e30a638	0.17250907
142	0xbe26d007	-0.16290294
143	0x3dd7e66d	0.10541997
144	0xbd29f3be	-0.041492216
145	0x3e45dff9	0.1932372
146	0x3e8c8fea	0.27453548
147	0x3e55b2ed	0.20869036
148	0xbdb137b5	-0.086532034
149	0xbd5e941b	-0.054340463
150	0x3d22bbd4	0.039729908
151	0x3e1b3340	0.15156269
152	0xbe20673f	-0.15664385
153	0x3e5fac44	0.21843058
154	0x3e2545a2	0.16139844
155	0x3db9998c	0.0906249
156	0xbe2579ae	-0.16159698
157	0xbcda69c9	-0.02666177
158	0xbdcff7fc	-0.10154721
159	0x3e4e895e	0.20169589
160	0xbe9a69a2	-0.30158716
161	0x3e165650	0.14681363
162	0xbcc8db98	-0.024518773
163	0x3ca9e02f	0.020736782
164	0xbf54de07	-0.83151287
165	0x3ea57e4d	0.32322922
166	0xbb136fda	-0.0022497089
167	0xbe4bbf44	-0.19897181
168	0xbe9133e3	-0.283599
169	0xbec43627	-0.38322565
170	0x3c952585	0.018206367
171	0x3dcf715c	0.101290435
172	0x3eb9c384	0.3628198
173	0x3e98e0e5	0.2985908
174	0xbc95bd6a	-0.018278796
175	0x3cb724da	0.02235644
176	0xbe190ccb	-0.14946286
177	0xbe7ecf2f	-0.24883722
178	0x3de9fc58	0.11425084
179	0x3d1d3359	0.038379047
180	0xbe32ee02	-0.17473605
181	0xbe89041d	-0.2676095
182	0xbc37ff44	-0.011230294
183	0xbd88deab	-0.066830955
184	0x3ec649f6	0.38728303
185	0x3ddfc727	0.10926657
186	0x3b8ae661	0.004238889
187	0x3ea490f0	0.3214183
188	0xbc49da2c	-0.012320083
189	0xbc80955c	-0.01569622
190	0x3f3839e9	0.71963364
191	0x3f3b632d	0.73198205
192	0x3df459d4	0.11931196
193	0x3ec0461d	0.37553492
194	0x3d80806a	0.06274493
195	0x3e997006	0.2996828
196	0x3db3fd33	0.08788528
197	0x3d04ed0c	0.032452628
198	0x3e813ddf	0.25242516
199	0xbe592c6a	-0.21208349
200	0xbe820104	-0.253914
201	0xbc656698	-0.014001511
202	0xbdadf0f4	-0.08493224
203	0x3e9750d1	0.29553846
204	0x3dc3a2ce	0.09552537
205	0xbe86436b	-0.2622331
206	0xba56ff56	-0.00082015
207	0x3dd67b0a	0.104726866
208	0x3ecd0293	0.40041026
209	0xbe3b8801	-0.183136
210	0xbea87388	-0.32900643
211	0x3ed777dc	0.42083633
212	0xbdff3386	-0.12460999
213	0xbee4059d	-0.44535533
214	0x3ddf038d	0.10889349
215	0xbda70eb0	-0.08157098
216	0xbe5ac19d	-0.2136292
217	0x3d8308b7	0.063981466
218	0x3dc21e54	0.09478441
219	0x3df56ce3	0.11983659
220	0x3e59c069	0.21264805
221	0xbc242ce7	-0.010020471
222	0xbdf2c6ef	-0.1185435
223	0xbe479f4f	-0.19494365
224	0x3e973654	0.29533637
225	0xbdfbeb24	-0.12300709
226	0x3e59b897	0.21261822
227	0x3e5bdaba	0.21470156
228	0x3d91c03c	0.07116744
229	0xbd5d919a	-0.054093935
230	0xbdf51491	-0.11966813
231	0x3c135116	0.0089915
232	0x3e0e128e	0.13874266
233	0xbf077cb3	-0.5292465
234	0xbdbd0499	-0.092293926
235	0xbe973c98	-0.29538417
236	0xbde3594c	-0.111010164
237	0x3ca57cd4	0.020201124
238	0xbe8128fe	-0.25226587
239	0x3d84066b	0.06446537
240	0x3edac24a	0.42726356
241	0x3ec19805	0.37811294
242	0xbeb16890	-0.34650087
243	0x3e0f041c	0.13966411
244	0x3e64a7e6	0.22329673
245	0xbebefbb6	-0.37301415
246	0x3e5bd96e	0.21469662
247	0xbe90f354	-0.28310645
248	0xbeb6944e	-0.35660022
249	0xbc87076a	-0.016483027
250	0x3e0f0956	0.13968405
251	0x3eab809f	0.33496568
252	0xbe92de92	-0.28685433
253	0x3d656db5	0.056012828
254	0xbbe6aebe	-0.007039874
255	0xbda9652b	-0.082712494

gru.weight_hh_l0 f4 [48, 16]
0	0x3e18bf16	0.14916644
1	0x3e78d9ba	0.24301806
2	0xbeb90a40	-0.36140633
3	0xbd8ca07f	-0.0686655
4	0xbe40866f	-0.18801282
5	0xbd0c2e42	-0.034223802
6	0xbef0ab43	-0.47005662
7	0x3cb04ab1	0.02151999
8	0x3cad6e8e	0.02117088
9	0xbeb1fe1e	-0.3476419
10	0x3e56caee	0.20975849
11	0x3ea8c710	0.32964373
12	0xbe84e20c	-0.2595371
13	0xbcb3795a	-0.02190845
14	0xbe2bce04	-0.16777807
15	0x3e02ba09	0.1276628
16	0x3dae6631	0.08515585
17	0x3ca79544	0.020456918
18	0xbe0e8959	-0.13919581
19	0xbd2376ee	-0.039908342
20	0x3ed94313	0.42433986
21	0xbdf10859	-0.1176917
22	0x3e8af2e1	0.27138427
23	0xbea2488b	-0.3169597
24	0xbe3a0087	-0.18164264
25	0xbe5901eb	-0.21192138
26	0xbdc3734a	-0.09543474
27	0xbde9fa6c	-0.11424717
28	0xbce1e38a	-0.02757432
29	0xbe791f45	-0.24328335
30	0x3e2e42e3	0.17017703
31	0x3e5cbc52	0.21556213
32	0xbe5e5273	-0.2171114
33	0x3d968aaf	0.073506705
34	0x3ce929e2	0.028462354
35	0xbe082ff8	-0.13299549
36	0x3cc6b06c	0.024254046
37	0xbd560206	-0.052248023
38	0x3dae2c8c	0.085045904
39	0xbe5d75a5	-0.21626909
40	0xbdebdf09	-0.1151715
41	0x3c4cd8b3	0.012502837
42	0x3dae25dd	0.085033156
43	0xbe3dd5e3	-0.18538623
44	0xbeb9920c	-0.36244237
45	0xbedddfca	-0.433348
46	0xbe3281b6	-0.17432293
47	0xbdd174f3	-0.102273844
48	0xbe9e2c10	-0.30892992
49	0xbea8ef31	-0.3299499
50	0x3d2e7b04	0.042597786
51	0xbe8f26e6	-0.27959365
52	0xbdd9b887	-0.10630899
53	0xbd854d25	-0.06508855
54	0xbe4d8c8a	-0.20073143
55	0xbdb98f45	-0.090605296
56	0xbe6713dc	-0.2256617
57	0xbdf39506	-0.11893658
58	0x3e47ed86	0.19524202
59	0x3e084bc5	0.13310154
60	0xbe67a912	-0.22623089
61	0xbe3d40af	-0.18481706
62	0xbe87358a	-0.26408035
63	0x3e444473	0.19166736
64	0xbbf1ec7a	-0.0073829265
65	0xbe607995	-0.2192138
66	0xbcc8147a	-0.024423826
67	0x3d920854	0.07130495
68	0xbe0da368	-0.13831866
69	0x3e74724d	0.23871727
70	0x3d3b6b3b	0.04575656
71	0x3e330e11	0.17485835
72	0x3ea7b145	0.32752433
73	0xbcecdc65	-0.028913686
74	0xbe4b3041	-0.19842626
75	0x3d814a4b	0.063129984
76	0x3e3ad2b1	0.18244435
77	0x3ee29985	0.4425775
78	0x3e9e6b41	0.30941203
79	0x3e23ed0f	0.160084
80	0xbe863861	-0.2621489
81	0xbd898c90	-0.06716263
82	0xbd08d1cd	-0.033403207
83	0x3cf942ab	0.030427298
84	0xbe8407fe	-0.25787348
85	0x3c13e32a	0.009026328
86	0xbd10e14a	-0.035371102
87	0x3e7d3f54	0.24731189
88	0x3e0d4b8a	0.13798347
89	0x3e19d9c5	0.15024479
90	0x3dda93e2	0.10672738
91	0xbd06eca0	-0.032940507
92	0xbec5568a	-0.38542587
93	0x3dc9c72b	0.098524414
94	0x3eb91df6	0.3615567
95	0x3e30fdad	0.1728427
96	0xbe58b82b	-0.21164005
97	0xbd89a9e3	-0.067218564
98	0xbe329301	-0.1743889
99	0x3e6795d1	0.22615744
100	0x3ea2c412	0.31790215
101	0x3e8e6bcb	0.27816615
102	0xbdefff5e	-0.11718629
103	0x3e705f94	0.2347396
104	0x3e56efaa	0.20989862
105	0xbddfbd4d	-0.10924778
106	0xbe7e35ea	-0.24825254
107	0xbde21148	-0.110384524
108	0xbd539dfd	-0.05166434
109	0x3cb3ca2b	0.021946987
110	0x3daa1475	0.08304683
111	0xbe704dda	-0.23467198
112	0x3e534d12	0.20634869
113	0xbe6721c9	-0.22571482
114	0xbe585738	-0.21127021
115	0x3ecf0612	0.4043432
116	0xbea32b47	-0.31868955
117	0x3d9bf5df	0.076152556
118	0xbee9acab	-0.45639548
119	0xbe94ddec	-0.29075563
120	0xbdc59020	-0.0964663
121	0xbef6131f	-0.48061463
122	0x3f059ed2	0.52195466
123	0x3ebb0cd9	0.3653324
124	0xbf07f467	-0.53107303
125	0x3ec85d96	0.391339
126	0x3e4ecb43	0.20194726
127	0xbda82216	-0.082096264
128	0xbdd4beb3	-0.103879355
129	0xbebd9e7a	-0.3703497
130	0xbe3c9a3e	-0.18418214
131	0xbe434092	-0.190676
132	0xbe74f1ec	-0.23920411
133	0xbdb4fba3	-0.088370584
134	0x3bb16e43	0.0054147555
135	0xbe9e7006	-0.30944842
136	0xbdec917c	-0.115511864
137	0xbe03984d	-0.12851067
138	0x3e109844	0.14120585
139	0x3da8e4ab	0.0824674
140	0xbe15dedc	-0.14635795
141	0xbd91045c	-0.070809096
142	0x3e1c87e6	0.15286216
143	0x3d7772b2	0.060412116
144	0xbd258024	-0.040405408
145	0xbe068b62	-0.13139108
146	0xbe8bf1f1	-0.27333024
147	0x3d78e0f6	0.060761414
148	0xbdd6559b	-0.10465547
149	0x3ebe48b8	0.37164855
150	0x3dc1f1c9	0.09469945
151	0x3e676ddd	0.22600503
152	0x3ec6acd2	0.38803726
153	0xbdbb868f	-0.091565244
154	0xbd747fbc	-0.05969213
155	0x3db2b95e	0.08726762
156	0xbd0c60c8	-0.034271985
157	0xbeb78a55	-0.35847726
158	0x3e66da3b	0.22544186
159	0x3df3b876	0.119004175
160	0xbe07f1ce	-0.13275835
161	0xbeb772ba	-0.35829717
162	0xbd3e6510	-0.0464831
163	0x3e9e9b73	0.30977973
164	0xbecd8032	-0.40136868
165	0x3d9d6de7	0.07686978
166	0x3b324317	0.0027200633
167	0xbca0291b	-0.01955085
168	0x3e3b248b	0.18275659
169	0xbbf4f979	-0.0074760285
170	0xbc8f7f02	-0.017516617
171	0xbe65de2c	-0.22448033
172	0xbe9201f8	-0.28517127
173	0xbdc2e296	-0.09515874
174	0x3e77d07a	0.24200621
175	0x3e630819	0.22171058
176	0x3d73fdc1	0.05956817
177	0x3ed9ee97	0.42564842
178	0xbe9c629e	-0.3054399
179	0xbd7ef395	-0.062244017
180	0xbdc66abd	-0.096883275
181	0xbe3969ac	-0.18106717
182	0xbde2fffb	-0.11083981
183	0x3ee12208	0.43971276
184	0xbd891fc0	-0.06695509
185	0xbddfd7a6	-0.109298036
186	0xbe26c9a1	-0.16287853
187	0x3eb65854	0.35614264
188	0xbea9a2f1	-0.33132127
189	0xbea3b9d0	-0.319777
190	0xbeeecd19	-0.46640852
191	0xbecafc92	-0.3964582
192	0xbeb20329	-0.34768036
193	0xbe58df05	-0.21178825
194	0xbd949e49	-0.07256753
195	0xbdac35b4	-0.084086806
196	0xbe907d3f	-0.28220555
197	0xbf39701c	-0.7243669
198	0x3e8f16fc	0.27947223
199	0xbe53f0b2	-0.20697287
200	0x3efcd148	0.4937842
201	0xbe428bb7	-0.1899861
202	0x3f3b5ffc	0.73193336
203	0xbc950b79	-0.018193947
204	0xbe1b8f56	-0.15191397
205	0xbf08eed4	-0.5348942
206	0x3d6faeee	0.058516435
207	0xbe2ed0fb	-0.17071907
208	0xbea7cb6d	-0.3277239
209	0xbe7490c8	-0.23883355
210	0xbdfc756d	-0.12327085
211	0x3e959858	0.29217792
212	0x3dd10647	0.102062754
213	0x3dd10dc6	0.10207705
214	0xbe1a5222	-0.15070394
215	0xbe30f617	-0.17281376
216	0xbdbd6028	-0.09246856
217	0xbce8b363	-0.02840585
218	0xbe779a0a	-0.24179855
219	0xbecc9fed	-0.39965764
220	0xbe924271	-0.28566316
221	0xbebbce84	-0.36680996
222	0x3cd29d1d	0.025709683
223	0xbc6b80f7	-0.014374009
224	0xbe4758b1	-0.19467427
225	0xbc150dde	-0.0090975445
226	0xbce5f535	-0.028071025
227	0x3e80f5df	0.25187585
228	0xbd9caa71	-0.076496966
229	0xbd2e65bd	-0.042577494
230	0xbeda7c11	-0.4267278
231	0xbf1ea592	-0.6197139
232	0xbe75c06c	-0.23999184
233	0xbd8807e4	-0.0664213
234	0x3ce0df2d	0.027450169
235	0xbebdaf0a	-0.37047607
236	0x3e579b67	0.21055375
237	0xbd6f6e41	-0.058454756
238	0x3ea290ca	0.3175109
239	0x3c86735d	0.016412431
240	0xbe6b2f7e	-0.22967336
241	0xbe2fbe71	-0.17162491
242	0x3e11b196	0.142279
243	0x3d84b9cd	0.06480751
244	0x3e0099f3	0.12558727
245	0xbe896cf7	-0.26840946
246	0x3d5dc306	0.054141067
247	0x3cf78df3	0.030219054
248	0x3e6fa5e6	0.23403129
249	0xbebb9c65	-0.36642757
250	0xbe77eeae	-0.24212143
251	0x3e165ada	0.14683095
252	0xbf0030fe	-0.50074756
253	0xbe9f2656	-0.31083935
254	0xbc79dc3d	-0.015250263
255	0xbe12e4fa	-0.1434516

gru.bias_ih_l0 f4 [48]
0	0x3e8a4226	0.27003592
1	0x3dac21ad	0.08404861
2	0xbe3eaf7f	-0.18621634
3	0xbe24cc90	-0.1609366
4	0xbde7f8bd	-0.1132674
5	0x3e784f26	0.24248943
6	0xbd9c0bce	-0.07619439
7	0x3d356a86	0.04429104
8	0x3dd49f79	0.103819795
9	0x3c20c740	0.00981313
10	0x3c00a1f8	0.007851116
11	0xbe13d0ab	-0.1443507
12	0xbdd0e92a	-0.102007225
13	0x3e43a0d6	0.19104323
14	0xbdcc9af9	-0.09990496
15	0x3d75900c	0.059951827
16	0xbdd11478	-0.10208982
17	0x3e943e00	0.28953552
18	0x3e262781	0.16226007
19	0x3e83f18c	0.25770223
20	0x3d55344a	0.05205182
21	0xbe93d6ef	-0.2887492
22	0x3e96e7a5	0.29473606
23	0xbdad2585	-0.08454422
24	0x3eb03213	0.34413204
25	0xbd6d36c8	-0.05791357
26	0x3d0a302b	0.033737343
27	0x3e8ab662	0.27092272
28	0x3d5a817f	0.053346153
29	0x3e0ca8f9	0.13736333
30	0x3ec29edc	0.38011825
31	0x3e74be76	0.2390078
32	0xbe898977	-0.2686269
33	0xbab7c937	-0.0014021759
34	0xbe8b8351	-0.27248624
35	0x3e2ac6e1	0.16677429
36	0xbd0ed97f	-0.03487539
37	0xbd0946a5	-0.033514638
38	0xbe150f26	-0.1455656
39	0xbe77a7dc	-0.24185127
40	0x3dcdce73	0.10049143
41	0x3e327485	0.17427261
42	0xbd8719bb	-0.065967046
43	0xbd7d8672	-0.061895795
44	0x3e56cca6	0.20976505
45	0x3e40cde9	0.18828548
46	0xbdb365f7	-0.087596826
47	0x3e9cfce5	0.30661693

gru.bias_hh_l0 f4 [48]
0	0x3e0cb161	0.1373954
1	0x3e628453	0.2212079
2	0x3cc615a7	0.024180247
3	0xbe5fa8c1	-0.21841718
4	0x3cfd2cc4	0.030905135
5	0x3e90069d	0.28130046
6	0x3e2272a4	0.15864044
7	0xbe50ced2	-0.20391396
8	0x3eacf832	0.33783108
9	0x3b8f8303	0.0043796315
10	0x3ec166ea	0.3777383
11	0x3e97aa99	0.29622343
12	0x3d83b1d0	0.064303994
13	0x3dd6fdb1	0.104976065
14	0x3e1f0af8	0.15531528
15	0xbbaee7ae	-0.005337677
16	0xbe83c08a	-0.25732833
17	0xbdeea2ea	-0.11652167
18	0x3ec99cb1	0.3937736
19	0x3e5ae144	0.21374995
20	0x3e8218f8	0.25409675
21	0xbea526fb	-0.32256302
22	0xbd03f32a	-0.03221432
23	0x3b938ab2	0.0045026178
24	0x3eb3a35c	0.3508557
25	0xbdb089ed	-0.08620057
26	0xbdc41557	-0.09574383
27	0xbddcc20e	-0.107792005
28	0x3e7685dc	0.24074501
29	0x3c96f068	0.018425182
30	0x3dc26ef5	0.094938196
31	0xbe038cb2	-0.1284664
32	0xbe9beb69	-0.3045304
33	0x3dd1d2de	0.10245298
34	0x3cf8ea5c	0.030385189
35	0x3dcdd665	0.10050658
36	0xbe8ccc33	-0.27499542
37	0x3c36956c	0.011144023
38	0x3c18e0d4	0.009330947
39	0x3d9e1af4	0.07719985
40	0xbdada8c2	-0.084794536
41	0x3c7cf535	0.015439321
42	0x3e2581fb	0.16162865
43	0x3dab0aa1	0.08351637
44	0xbeb66e96	-0.35631245
45	0x3d504f33	0.05085678
46	0xbdfe1877	-0.1240701
47	0x3d1ed8cf	0.038780984

fc.weight f4 [1, 16]
0	0xbec9c50a	-0.3940814
1	0xbe8912c9	-0.26772144
2	0xbcec445c	-0.02884119
3	0xbd89688d	-0.067093946
4	0xbdae3d2d	-0.08507762
5	0xbe0fe04e	-0.14050409
6	0xbdfa28c0	-0.12214804
7	0xbeaeea74	-0.3416325
8	0x3cfd4d0f	0.030920533
9	0xbf068937	-0.52553123
10	0x3eabd88c	0.3356365
11	0xbe1029c6	-0.14078435
12	0xbe861b4c	-0.261927
13	0xbeca602a	-0.39526492
14	0x3c1b5027	0.009479559
15	0x3e6fef41	0.23431112
