models/GRU_VAD/training_checkpoints/tiny_vad_epoch_006_f1_0.9317.pth (torch, 14933 bytes, 9 tensors)

pre.weight f4 [32, 1, 3]
0.0010007308 0.21960828 -0.75075597 -0.46317565 -0.2737712 0.037103783 0.09333718 0.559069
0.11207428 0.09902235 -0.22409335 -0.19947615 -0.45929337 -0.29236355 -0.20331901 -0.03154673
0.17207266 0.3129237 -0.3703617 -0.2332676 0.21208051 0.29917362 -0.29892448 0.25903684
-0.1884273 -0.028331177 0.43331182 -0.3704039 -0.19536836 0.007737349 -0.2142627 0.50757164
-0.37014836 -0.14973952 -0.2793939 -0.41771984 -0.3650193 0.46799505 0.23709297 0.26114216
0.009659341 -0.32529315 0.11479448 -0.5166876 -0.3901435 -0.34719545 0.3158252 0.29030898
0.122388296 0.37312534 0.66301435 0.12638003 0.32958788 0.78603524 -0.004099515 0.020419575
0.56317383 -0.12550011 -0.3434073 -0.7250621 0.002985942 -0.07042356 -0.6156807 0.03237938
0.36746702 0.8369137 0.22142425 0.38206792 0.7792294 0.07039559 -0.42903882 -0.7360071
0.23290022 0.49438664 0.6744664 0.10682479 0.110644445 -0.54113126 -0.19639452 -0.6020428
-0.413413 0.6136453 0.56255406 -0.08851457 -0.11068064 -0.5538575 -0.51188076 -0.5305945
-0.13365282 -0.6511819 -0.4219465 -0.60884637 -0.22460566 0.37671039 -0.16693607 0.28035837
00000000: f42a 833a fee0 603e 8b31 40bf 5c25 edbe
00000010: bd2b 8cbe 23fa 173d 9027 bf3d 251f 0f3f
00000020: 3387 e53d 3bcc ca3d ba78 65be 7a43 4cbe
00000030: 8028 ebbe adb0 95be dc32 50be 2537 01bd
00000040: d133 303e 8937 a03e 0ca0 bdbe b4dd 6ebe
00000050: a22b 593e 492d 993e a10c 99be 7aa0 843e
00000060: 16f3 40be c916 e8bc 0cdb dd3e 94a5 bdbe
00000070: a50e 48be 9689 fd3b ae67 5bbe 37f0 013f
00000080: 1684 bdbe 5155 19be b80c 8fbe 60df d5be
00000090: cfe3 babe 0c9d ef3e 80c8 723e 6db4 853e
000000a0: 3642 1e3c d38c a6be 5e19 eb3d a345 04bf
000000b0: e4c0 c7be 9ac3 b1be d7b3 a13e 61a3 943e
000000c0: b7a6 fa3d 490a bf3e 4fbb 293f c469 013e
000000d0: bebf a83e 9b39 493f 3955 86bb f446 a73c
000000e0: 292c 103f 1a83 00be 15d3 afbe ab9d 39bf
000000f0: cbaf 433b 3a3a 90bd 409d 1dbf 3ea0 043d
00000100: a324 bc3e fa3f 563f 0abd 623e 689e c33e
00000110: 947b 473f 902b 903d faaa dbbe f66a 3cbf
00000120: 657d 6e3e 3f20 fd3e d4a9 2c3f f5c6 da3d
00000130: 8e99 e23d 9487 0abf a51b 49be 7a1f 1abf
00000140: deaa d3be dc17 1d3f 8b03 103f 2047 b5bd
00000150: 88ac e2bd 9bc9 0dbf 9e0a 03bf 0bd5 07bf
00000160: 49dc 08be dbb3 26bf 5f09 d8be 5bdd 1bbf
00000170: 07ff 65be 2fe0 c03e 4af1 2abe 228b 8f3e

pre.bias f4 [32]
0.19273499 0.063397996 -0.3745409 -0.36033309 0.626241 0.4280263 -0.119552664 -0.21077064
-0.59200466 0.06500905 -0.54481995 -0.19178163 -0.16172989 0.08326896 -0.04649033 0.23573618
-0.47909224 0.59168005 0.51927215 -0.6138687 -0.2884314 0.0070703197 0.14896923 0.13714162
0.5333717 0.023042863 -0.42862839 0.41676024 -0.7016893 -0.37684616 -0.29064196 -0.28340188
00000000: 525c 453e cfd6 813d d3c3 bfbe 947d b8be
00000010: 5551 203f 4326 db3e 07d8 f4bd 42d4 57be
00000020: 9e8d 17bf 7723 853d 5279 0bbf 6762 44be
00000030: 859c 25be eb88 aa3d a56c 3ebd d364 713e
00000040: 944b f5be 5878 173f 05ef 043f 8026 1dbf
00000050: 48ad 93be 24ae e73b 648b 183e da6e 0c3e
00000060: 0c8b 083f 63c4 bc3c 2e75 dbbe 9961 d53e
00000070: e9a1 33bf fbf1 c0be 06cf 94be 0d1a 91be

norm.weight f4 [32]
1.5147537 1.0252873 1.0684677 1.1417574 0.92831564 0.97329694 0.9626328 0.8981288
1.052911 0.9572054 1.1676309 0.9325883 0.9868066 1.0824486 0.9652243 0.9788664
1.3237358 1.5816706 1.3650789 1.1490179 1.1080126 1.0456623 1.0450529 1.0218468
1.179815 0.86961555 1.052014 1.0980883 1.0982727 1.0066965 1.0654418 0.92730004
00000000: 73e3 c13f 9d3c 833f 8dc3 883f 1b25 923f
00000010: 18a6 6d3f fd29 793f 1a6f 763f c5eb 653f
00000020: cac5 863f 6a0b 753f ee74 953f 1bbe 6e3f
00000030: 5b9f 7c3f ad8d 8a3f f118 773f fd96 7a3f
00000040: 2d70 a93f 2f74 ca3f e8ba ae3f 0513 933f
00000050: 5bd3 8d3f 43d8 853f 4bc4 853f e0cb 823f
00000060: 2e04 973f 209f 5e3f 65a8 863f 288e 8c3f
00000070: 3394 8c3f 6edb 803f 6660 883f 8963 6d3f

norm.bias f4 [32]
-0.14490975 -0.035657763 0.111070655 -0.035592385 -0.038928263 0.027273653 -0.02688846 0.028407855
-0.071724206 -0.0062222863 -0.052281514 0.0047191875 -0.014641875 -0.021157267 -0.0037733268 -0.01925707
0.13929085 0.016102731 0.030457458 -0.055192415 -0.147711 -0.0013032667 0.015897444 -0.0037167917
0.09596496 -0.027022464 -0.02996653 0.035808757 -0.034627803 -0.0017254382 -0.0638914 0.017983852
00000000: 3963 14be e00d 12bd 0379 e33d 52c9 11bd
00000010: 3e73 1fbd ff6c df3c 3045 dcbc 97b7 e83c
00000020: 24e4 92bd 52e4 cbbb 2425 56bd 6aa3 9a3b
00000030: 7ae4 6fbc 0152 adbc eb49 77bb 01c1 9dbc
00000040: 43a2 0e3e e0e9 833c eb81 f93c 7111 62bd
00000050: 8d41 17be 60d2 aaba 5b3b 823c 6b95 73bb
00000060: 4789 c43d 375e ddbc 5e7c f5bc 34ac 123d
00000070: e2d5 0dbd 1928 e2ba 7fd9 82bd df52 933c

gru.weight_ih_l0 f4 [48, 32]
0.24354023 0.08201682 -0.30255693 0.17895572 0.029984808 -0.15364112 0.30761588 -0.19331993
-0.19943433 0.14052646 -0.22848995 0.35701826 0.0043863044 0.04700685 0.5046407 -0.28490838
-0.33568138 -0.19846377 0.12645647 -0.303757 -0.39847857 -0.44275397 -0.47369742 -0.4248797
-0.090897925 -0.09637144 -0.13474515 -0.20987423 -0.091549836 -0.43340808 -0.33022746 -0.35522845
0.697289 0.3064827 -0.33022764 -0.25259516 -0.036499314 0.05015251 -0.19307287 0.08138948
-0.23829536 -0.014715695 0.010577292 -0.07927096 0.20233482 -0.9411465 -0.18686883 0.120875336
0.010387459 -0.12897126 0.13694912 -0.23945297 -0.046627183 -0.15447345 0.020285578 0.01993022
0.15049993 0.041638467 -0.15204291 0.25349885 -0.32104385 -0.033372436 0.059484374 0.10906185
-0.008103497 0.0063977735 -0.23730315 -0.1569483 -0.024515837 0.062322795 -0.15514679 -0.09504404
-0.16521554 0.27650625 -0.49645618 -0.016291592 -0.31476364 -0.010034562 0.06620602 0.060750023
-0.14124133 0.14339407 0.054977648 -0.1850116 -0.11471311 -0.2718586 -0.21373852 0.16922934
-0.23726916 -0.070487514 0.10421778 -0.11428166 -0.21508853 0.066159315 -0.12751126 -0.18188025
-0.28152537 0.31640115 -0.1626036 -0.31173342 0.0038406637 -0.1254478 0.1295886 0.11914396
-0.13389836 0.30260694 -0.11777801 -0.039597735 -0.047446672 -0.1925425 0.0073485966 -0.05613912
0.12390874 0.67888343 0.3865563 -0.28342077 -0.16803515 -0.3094576 0.13305315 -0.11016459
0.2684309 -0.17772949 -0.31760877 0.36335832 -0.04579589 -0.32332236 -0.41202584 -0.1988534
-0.013167018 0.24948023 -0.31647927 -0.20887354 0.10736942 -0.07909198 0.36561972 -0.03988391
-0.23778217 0.16168977 -0.54537565 0.3516998 -0.116956376 0.07255649 0.16842279 -0.3941527
-0.5503216 0.54128885 0.21381573 -0.5272941 -0.09429741 -0.4100484 -0.2907883 0.05323442
0.19329615 -0.25126237 -0.5216661 0.51035213 -0.36116594 -0.17421158 -0.46125087 -0.25183415
0.6355159 0.07830785 -0.23039657 0.112493485 0.16264307 -0.07620232 0.0045277462 -0.24215548
0.034872685 -0.07813394 0.022480926 0.04229949 -0.24298906 0.16500099 -0.0818756 0.0051871254
-0.3006869 -0.72881687 0.051441915 0.00030946016 0.059384692 -0.27057067 -0.48949647 -0.08826893
-0.15571585 -0.1533778 0.022524672 0.06504368 -0.16950677 0.007457745 -0.015846463 -0.16333528
0.027609428 0.086067274 -0.19892332 -0.19431221 0.30611566 0.10188415 0.2901393 -0.08237269
-0.059823982 -0.0047008083 -0.47430632 -0.06154204 0.057285458 0.21247715 -0.023805082 -0.056580793
0.11489266 0.64073634 0.42827109 0.0066447533 -0.21838948 -0.2575165 0.042359903 0.15288477
0.03595809 0.14431052 -0.06754199 0.34365925 -0.38354945 -0.13297646 -0.31095052 0.012577532
-0.27277976 0.1324952 0.005962666 0.032541618 0.0005461139 0.06746236 -0.12409806 -0.036666743
-0.243388 -0.16342044 -0.35234657 0.29811823 0.010487757 0.37825793 0.3863184 -0.3760013
-0.13265245 0.02110759 0.0048810137 -0.011435993 -0.3668994 -0.25845015 -0.30826828 -0.29496458
0.17812751 0.042737707 0.043885194 -0.027523495 0.12946774 -0.10850575 0.032910608 0.06789194
00000000: 9c62 793e 6ff8 a73d bee8 9abe 2b40 373e
00000010: b3a2 f53c 1954 1dbe d47f 9d3e a9f5 45be
00000020: 8338 4cbe 2be6 0f3e 45f9 69be 19cb b63e
00000030: fdba 8f3b 418a 403d 2230 013f 83df 91be
00000040: 6ede abbe 163a 4bbe ce7d 013e 0a86 9bbe
00000050: 6205 ccbe a6b0 e2be 7888 f2be d589 d9be
00000060: b128 babd 645e c5bd a2fa 09be 45e9 56be
00000070: 7b7e bbbd aae7 ddbe 9313 a9be 81e0 b5be
00000080: 8881 323f 4deb 9c3e 9913 a9be 2754 81be
00000090: 4e80 15bd b86c 4d3d e5b4 45be 87af a63d
000000a0: b303 74be 191a 71bc 614c 2d3c d058 a2bd
000000b0: dc30 4f3e faee 70bf 8b5a 3fbe 7d8d f73d
000000c0: 2930 2a3c 0b11 04be 643c 0c3e 2933 75be
000000d0: 25fc 3ebd 4a2e 1ebe f12d a63c b344 a33c
000000e0: a71c 1a3e 198d 2a3d 23b1 1bbe 9aca 813e
000000f0: dc5f a4be 89b1 08bd e3a5 733d d25b df3d
00000100: 88c4 04bc 6aa4 d13b 99ff 72be 0eb7 20be
00000110: 70d5 c8bc 3046 7f3d cdde 1ebe 73a6 c2bd
00000120: 432e 29be 3a92 8d3e 812f febe f275 85bc
00000130: b328 a1be 0168 24bc 0697 873d 04d5 783d
00000140: 91a1 10be e5d5 123e 3e30 613d ae73 3dbe
00000150: b5ee eabd 0d31 8bbe 45de 5abe 754a 2d3e
00000160: b0f6 72be c25b 90bd 2270 d53d 810c eabd
00000170: 2b40 5cbe 897e 873d 5092 02be d13e 3abe
00000180: 1824 90be 55ff a13e 8f81 26be 869b 9fbe
00000190: a5b3 7b3b 6375 00be e0b2 043e c001 f43d
000001a0: a71c 09be 4cef 9a3e 9935 f1bd 3c31 22bd
000001b0: 7157 42bd dc29 45be 7fcc f03b 22f2 65bd
000001c0: dec3 fd3d 4ecb 2d3f b5ea c53e 871c 91be
000001d0: 6811 2cbe 3a71 9ebe 163f 083e f99d e1bd
000001e0: c66f 893e b8fe 35be 9e9d a2be 1a0a ba3e
000001f0: 7994 3bbd 828a a5be 0df5 d2be 3aa0 4bbe
00000200: 7aba 57bc bf77 7f3e 9209 a2be f2e2 55be
00000210: 80e4 db3d fafa a1bd 8232 bb3e 505d 23bd
00000220: 2b7d 73be 0192 253e bd9d 0bbf ff11 b43e
00000230: d386 efbd 7f98 943d 0677 2c3e 62ce c9be
00000240: e0e1 0cbf e891 0a3f 83f2 5a3e bffc 06bf
00000250: 001f c1bd ddf1 d1be 34e2 94be 560c 5a3d
00000260: 6def 453e 76a5 80be e98b 05bf 70a6 023f
00000270: beea b8be 8564 32be 1329 ecbe 68f0 80be
00000280: 2cb1 223f de5f a03d 14ed 6bbe fc62 e63d
00000290: e88b 263e f60f 9cbd 7d5d 943b 9bf7 77be
000002a0: a9d6 0e3d b004 a0bd eb29 b83c 3b42 2d3d
000002b0: 20d2 78be 05f6 283e 65ae a7bd c3f8 a93b
000002c0: a2f3 99be be93 3abf c2b4 523d 0a3f a239
000002d0: 5d3d 733d 3d88 8abe 489f fabe 57c6 b4bd
000002e0: fa73 1fbe 120f 1dbe a985 b83c 9f35 853d
000002f0: 2f93 2dbe 1960 f43b 71d0 81bc 5d41 27be
00000300: 2b2d e23c 0a44 b03d 8eb2 4bbe c8f9 46be
00000310: 31bb 9c3e a3a8 d03d 238d 943e 03b3 a8bd
00000320: fe09 75bd 3d09 9abb 47d8 f2be 8213 7cbd
00000330: 28a4 6a3d 9c93 593e e002 c3bc 43c1 67bd
00000340: d84c eb3d 4c07 243f 5946 db3e 3bbc d93b
00000350: 7ea1 5fbe 34d9 83be 9481 2d3d d38d 1c3e
00000360: ca48 133d 23c6 133e 7453 8abd 1bf4 af3e
00000370: 9860 c4be fb2a 08be e834 9fbe fe11 4e3c
00000380: caa9 8bbe d2ac 073e 7862 c33b 5c4a 053d
00000390: 1529 0f3a b529 8a3d 2027 febd de2f 16bd
000003a0: b43a 79be b057 27be c566 b4be f4a2 983e
000003b0: d7d4 2b3c 06ab c13e 86cb c53e 3e83 c0be
000003c0: 0bd6 07be d3e9 ac3c e9f0 9f3b 085e 3bbc
000003d0: 3dda bbbe 9453 84be 57d5 9dbe 9905 97be
000003e0: 0f67 363e bc0d 2f3d f6c0 333d f478 e1bc
000003f0: 3193 043e 4338 debd 46cd 063d ee0a 8b3d

gru.weight_hh_l0 f4 [48, 16]
-0.06395872 0.08760832 -0.06974862 0.36700597 0.05151738 -0.010993655 0.067624845 0.13955255
-0.110280275 0.08924003 0.029441245 -0.19099064 0.21889111 -0.15568592 -0.26442355 -0.110237464
-0.41921535 0.09368871 -0.4616264 -0.35989746 -0.22346173 -0.54075646 -0.056832217 0.15947811
-0.14798783 0.14403015 0.5163789 -0.124198124 -0.024375027 0.080445945 -0.3825303 0.651602
0.26968595 0.5219152 -0.29371324 -0.23772201 -0.14840437 -0.056680128 0.33623156 -0.28037205
-0.30002803 0.020400323 -0.14551945 -0.29629847 -0.1438998 -0.009036285 -0.11031445 -0.11153389
0.03397037 0.047919087 -0.034547746 -0.116466165 0.112890884 0.26883116 0.3960824 -0.4264874
0.09982753 0.03687653 -0.20651351 -0.2716411 -0.38029557 -0.14135231 -0.19998805 -0.23583597
0.34532306 0.14623162 0.07894934 0.15441737 0.051839676 0.26777753 0.38655144 0.09341048
-0.09899816 0.0877171 -0.09894086 -0.014421051 -0.15776609 0.11097415 -0.26634586 -0.27249977
-0.11618694 -0.06734442 -0.391486 -0.17606315 -0.12709975 -0.049329814 -0.11723298 0.29036495
0.1835486 -0.37988964 0.10499828 -0.1708635 0.019893372 -0.06737016 -0.04466169 0.10470212
0.064329274 0.2355632 -0.32473075 -0.12512009 0.17047256 0.13384381 0.24996044 0.114609234
-0.11392118 -0.021494353 -0.29324895 -0.30817395 -0.2567216 -0.17185253 -0.29809263 0.0020020523
0.020140924 0.012171907 0.2515301 0.16116081 0.15755588 0.16683583 0.1528873 -0.2613458
0.056866966 0.07846642 -0.18337701 -0.23988552 -0.53372425 -0.07995448 -0.12394534 0.09060607
0.3477645 0.1694691 0.2781352 0.063290425 0.037973493 0.10789286 0.10767009 -0.000956667
-0.013347897 0.08483457 -0.4083827 -0.016256642 -0.18636927 0.009623525 -0.14204589 -0.19689326
-0.05129578 0.38020805 -0.111814834 0.028202362 0.05749068 0.19388708 0.16453072 0.15148522
0.13776 0.03443067 -0.027500434 -0.2840477 -0.14728872 -0.036852006 -0.25325167 -0.1384261
-0.26969343 -0.30732355 -0.21517715 0.4674495 -0.17513134 -0.033234626 -0.24325326 -0.124261394
-0.046539936 0.010705464 0.31723338 -0.8939448 0.11589252 0.2935503 -0.30252585 0.34108508
-0.040409304 -0.13282362 -0.15340814 0.03812508 0.083315134 -0.12195702 0.18415064 0.07464382
0.22799243 -0.051619038 0.13677143 0.32510328 0.07944095 -0.12969822 0.14557499 0.16176715
0.42662388 0.30786127 -0.004649122 0.12648663 -0.28160456 0.3363105 0.49894664 0.23105325
-0.2580863 0.060874376 -0.12733534 -0.14260739 -0.026859175 -0.009813229 -0.073126316 -0.18709339
-0.26818475 -0.18861686 -0.38431385 -0.101820424 -0.0637205 -0.2834439 -0.17059276 -0.026100654
0.37677026 -0.24257432 0.14346397 -0.5828287 -0.0015201399 -0.13988216 -0.13230063 0.063895725
-0.16062377 0.46943587 0.08853522 -0.28316772 0.021977529 -0.118897445 -0.06279903 -0.14038369
-0.26921856 0.078485936 -0.040579684 0.19804399 0.08753123 0.24881473 -0.47388858 -0.0677635
0.0076816925 -0.4172361 -0.82360697 0.039146576 0.18900417 0.3752215 0.034510393 -0.40874586
0.1158175 -0.14761847 0.531295 0.17262946 -0.19758701 -0.31826946 0.027952477 0.08276632
00000000: cafc 82bd fe6b b33d 5dd8 8ebd 35e8 bb3e
00000010: e303 533d bb1e 34bc e57e 8a3d dde6 0e3e
00000020: a0da e1bd 7ac3 b63d c42e f13c 0d93 43be
00000030: fe24 603e 216c 1fbe 8662 87be 2ec4 e1bd
00000040: 65a3 d6be dedf bf3d 4c5a ecbe 7b44 b8be
00000050: 27d3 64be 046f 0abf e6c8 68bd 3b4e 233e
00000060: 1f8a 17be a47c 133e 6831 043f 965b febd
00000070: 23ae c7bc d8c0 a43d 03db c3be 64cf 263f
00000080: 4714 8a3e 3c9c 053f 9561 96be 666d 73be
00000090: 51f7 17be 6c29 68bd 8b26 ac3e ed8c 8fbe
000000a0: 469d 99be 941e a73c 0d03 15be 6fb4 97be
000000b0: 785a 13be ed0c 14bc 8bec e1bd e16b e4bd
000000c0: 8424 0b3d ce46 443d f081 0dbd d085 eebd
000000d0: 5633 e73d 3da4 893e 50cb ca3e 8e5c dabe
000000e0: 6072 cc3d d80b 173d 4778 53be 8b14 8bbe
000000f0: 1ab6 c2be a9be 10be abc9 4cbe fc7e 71be
00000100: 2fce b03e bebd 153e 31b0 a13d 961f 1e3e
00000110: d755 543d 231a 893e 12ea c53e fe4d bf3d
00000120: 8cbf cabd 06a5 b33d 81a1 cabd 4646 6cbc
00000130: 6f8d 21be 6a46 e33d 7c5e 88be 1785 8bbe
00000140: 6bf3 edbd dfeb 89bd da70 c8be e649 34be
00000150: 7026 02be 0f0e 4abd d817 f0bd b7aa 943e
00000160: 2af4 3b3e e580 c2be 5709 d73d d7f6 2ebe
00000170: 6df7 a23c 5ef9 89bd 2def 36bd 116e d63d
00000180: 11bf 833d 7b37 713e 1c43 a6be 7b1f 00be
00000190: 5c90 2e3e 5a0e 093e a1f5 7f3e 3fb8 ea3d
000001a0: 824f e9bd ed14 b0bc ba24 96be fac8 9dbe
000001b0: 0371 83be 1cfa 2fbe 999f 98be dd34 033b
000001c0: 94fe a43c ae6c 473c 8ec8 803e 5707 253e
000001d0: 5456 213e 03d7 2a3e 7d8e 1c3e 1ecf 85be
000001e0: 56ed 683d 01b3 a03d 2fc7 3bbe 8da4 75be
000001f0: 27a2 08bf 2dbf a3bd 0ed7 fdbd ad8f b93d
00000200: 300e b23e 4f89 2d3e bd67 8e3e 699e 813d
00000210: 188a 1b3d eff6 dc3d 2382 dc3d d6c8 7aba
00000220: 23b1 5abc bfbd ad3d 8a17 d1be a62c 85bc
00000230: 96d7 3ebe fdab 1d3c 7a74 11be 639e 49be
00000240: 861b 52bd a1aa c23e 2dff e4bd a408 e73c
00000250: 597b 6b3d 568a 463e be7a 283e f11e 1b3e
00000260: f510 0d3e 2d07 0d3d 9748 e1bc b36e 91be
00000270: dbd2 16be 21f2 16bd 34aa 81be 92bf 0dbe
00000280: 4215 8abe 8359 9dbe 6657 5cbe 8a55 ef3e
00000290: a155 33be 0821 08bd 6217 79be c27c febd
000002a0: a9a0 3ebd f865 2f3c 6a6c a23e 91d9 64bf
000002b0: 0f59 ed3d 3a4c 963e abe4 9abe b4a2 ae3e
000002c0: 3a84 25bd ea02 08be 0617 1dbe 0b29 1c3d
000002d0: 20a1 aa3d 9ac4 f9bd fc91 3c3e dcde 983d
000002e0: d976 693e 7c6e 53bd cf0d 0c3e f073 a63e
000002f0: f0b1 a23d 9ccf 04be 9c11 153e 4aa6 253e
00000300: 726e da3e fe9f 9d3e a957 98bb b685 013e
00000310: 792e 90be e430 ac3e ef75 ff3e 3999 6c3e
00000320: e323 84be 6957 793d 3264 02be ac07 12be
00000330: c607 dcbc aac7 20bc 40c3 95bd 6995 3fbe
00000340: 834f 89be c724 41be c9c4 c4be 3a87 d0bd
00000350: e57f 82bd 8f1f 91be deaf 2ebe 0ad1 d5bc
00000360: 08e8 c03e 6765 78be 38e8 123e 4334 15bf
00000370: 6e3f c7ba 453d 0fbe d179 07be c3db 823d
00000380: 8f7a 24be e659 f03e f451 b53d 5cfb 90be
00000390: 380a b43c 8180 f3bd c79c 80bd bec0 0fbe
000003a0: 04d7 89be 3cbd a03d e236 26bd 0bcc 4a3e
000003b0: 9343 b33d 4ac9 7e3e 86a1 f2be 97c7 8abd
000003c0: b5b6 fb3b f89f d5be e8d7 52bf 2958 203d
000003d0: 4f8a 413e 081d c03e c55a 0d3d 2347 d1be
000003e0: ba31 ed3d 4c29 17be f302 083f c7c5 303e
000003f0: 4054 4abe 37f4 a2be 98fc e43c 6381 a93d

gru.bias_ih_l0 f4 [48]
0.24400726 0.16337602 0.45846832 0.38046607 0.56897193 0.002934057 0.09285707 0.07894979
0.31591466 0.27782202 -0.0095245885 -0.046727385 -0.024795208 0.22069845 0.082619764 0.0020862909
-0.11344337 -0.24286084 0.41634622 -0.0026722022 0.011794571 -0.11338132 0.19326979 -0.15130691
-0.25708959 -0.029648632 0.13996318 0.3570205 0.09045545 -0.12621678 0.21586876 -0.1004034
0.23113605 0.08657636 -0.035888985 -0.009858642 -0.17849319 0.28042442 0.15069236 -0.20317759
-0.2410509 -0.046866156 0.093457274 -0.13813779 0.2097281 -0.16263705 -0.20907167 0.08204908
00000000: 0add 793e 0b4c 273e 5cbc ea3e 73cc c23e
00000010: 25a8 113f 4f49 403b d92b be3d 6db0 a13d
00000020: 91bf a13e b03e 8e3e 050d 1cbc 3765 3fbd
00000030: 521f cbbc c6fe 613e 8d34 a93d 27ba 083b
00000040: ff54 e8bd 83b0 78be 552b d53e 1d20 2fbb
00000050: 043e 413c 7734 e8bd 84e8 453e 33f0 1abe
00000060: 3fa1 83be b0e1 f2bc 8252 0f3e 64cb b63e
00000070: b540 b93d f93e 01be b30c 5d3e 4ca0 cdbd
00000080: eeae 6c3e f24e b13d 5400 13bd 2486 21bc
00000090: ebc6 36be ca93 8f3e 194f 1a3e c90d 50be
000000a0: 0cd6 76be baf6 3fbd 8766 bf3d fe73 0dbe
000000b0: f7c2 563e 548a 26be e216 56be 5909 a83d

gru.bias_hh_l0 f4 [48]
0.10602535 -0.007965079 0.1379885 0.15239818 0.12395857 -0.14199021 0.28565508 0.07827127
0.0912182 0.1702587 -0.21542355 0.18111454 0.28255624 0.2224729 -0.053834353 0.0055641974
0.1754451 0.11019383 0.1835686 -0.0017283065 0.21384172 0.1293539 -0.17712407 0.15585186
-0.17945896 -0.1445317 -0.048283163 0.51440793 -0.10964316 0.03838841 0.03101504 0.103318766
0.25426772 0.03669144 -0.31257382 -0.19870298 0.020399809 -0.25005782 0.09084478 -0.17636797
-0.05425713 0.14827475 -0.28596997 -0.16089246 0.086169764 -0.21242775 0.21075271 -0.12764038
00000000: d223 d93d f67f 02bc db4c 0d3e 450e 1c3e
00000010: fedd fd3d e265 11be 6241 923e b04c a03d
00000020: 9cd0 ba3d 4c58 2e3e fe97 5cbe 1776 393e
00000030: 36ab 903e f0cf 633e 6981 5cbd df53 b63b
00000040: e1a7 333e 4ead e13d 68f9 3b3e 5888 e2ba
00000050: 53f9 5a3e 5975 043e 0360 35be a197 1f3e
00000060: 17c4 37be 1e00 14be 91c4 45bd 3db0 033f
00000070: 988c e0bd 2a3d 1d3d 4113 fe3c ca98 d33d
00000080: 612f 823e c349 163d ad09 a0be cb78 4bbe
00000090: 801d a73c 9407 80be d40c ba3d ce99 34be
000000a0: b93c 5ebd 56d5 173e a86a 92be fec0 24be
000000b0: c679 b03d a986 59be 8fcf 573e 29b4 02be

fc.weight f4 [1, 16]
0.14251392 0.53117377 0.27921665 -0.75224787 -0.30789283 0.4608302 0.7149445 -0.32450205
-0.5444444 0.83571845 -0.36787397 -0.39189968 -0.5349833 -0.53127044 -0.56797224 -0.70794076
00000000: 2bef 113e 01fb 073f 7cf5 8e3e 5193 40bf
00000010: 21a4 9dbe f0f1 eb3e 9a06 373f 2225 a6be
00000020: b560 0bbf a5f1 553f fa59 bcbe 13a7 c8be
00000030: aaf4 08bf 5701 08bf a166 11bf 9b3b 35bf
