models/GRU_VAD/tiny_vad_best.pth (torch, 14111 bytes, 9 tensors)

pre.weight f4 [32, 1, 3]
00000000: 4d20 d239 42a8 943e c639 f8be a3b3 eebe
00000010: 2246 89be c107 d63d 881d 1d3d a73b 023f
00000020: ec7c 283b a7df e43d 3343 5cbe 0c19 23be
00000030: c551 09bf a655 bcbe 21c8 67be c2e2 ad3c
00000040: c9cc 683e 3330 b23e 0678 d7be 9c62 90be
00000050: 6e98 353e f7a3 eb3e 76a2 0cbe 043e d33e
00000060: ddbd f7bd 12f2 123d 9aff fd3e bc6b f2be
00000070: bf2b 9abe 13f2 acbd cebd 56be 41bc 033f
00000080: d530 b6be 1ce7 5ebe 319d b6be 7920 fcbe
00000090: bc03 bcbe 92cc ed3e 030a 683e e3a6 9e3e
000000a0: d77f 7e3d dffe 86be 4318 823d 4525 13bf
000000b0: 8950 e8be bfd2 87be 917c cb3e 0860 be3e
000000c0: ec35 a9be 79f8 f9bd 5ab6 aa3e 53eb 153f
000000d0: bbf9 753e cfa9 5e3d 42ec b33e a1cb 9abe
000000e0: ae9d ac3c ea15 e6be 5b08 e1be 149b 45be
000000f0: 138b 9f3e f28f 6a3e 1bb0 bdbe 5cb8 0f3e
00000100: 3a92 953e 5a3c 323c e609 93bc 99cd b73d
00000110: f40f e33e eb41 fc3e 9345 cdbe 1ccd 8dbe
00000120: 2d0a 123e 99d2 fc3e 9b3b d83e 2fba 083f
00000130: 8c8b ab3d 2263 f5be 2de4 d83d 7a3c c9be
00000140: db7a e7be e60a f63e 7ba7 d03e 3d3b 05bf
00000150: d94a 093e cbf2 94bd 7c49 c1bc 9667 8ebe
00000160: 0eae 303e 6b92 91be 2f89 9c3e 62cb c13e
00000170: 6830 063f 5734 e23d f4be 29bf 7310 f2be
0.00040078387 0.2903462 -0.48481578 -0.46621427 -0.2681132 0.10450698 0.03835824 0.5087227
0.0025709225 0.11175471 -0.2151001 -0.15927523 -0.53640395 -0.36784095 -0.22634937 0.02122629
0.2273437 0.34802398 -0.42083758 -0.28200233 0.17733929 0.46023533 -0.13733849 0.41258252
-0.120967604 0.035875387 0.4960907 -0.4734782 -0.301115 -0.084446095 -0.20970842 0.5145913
-0.3558413 -0.21767849 -0.35666803 -0.49243525 -0.367216 0.46445137 0.22660069 0.309867
0.062133636 -0.26366326 0.06352284 -0.57478744 -0.45373943 -0.26527974 0.39743474 0.3718264
-0.33048952 -0.122055955 0.33342248 0.585622 0.24021046 0.05436116 0.35141188 -0.30233482
0.021071281 -0.44938594 -0.43951687 -0.19297439 0.31160793 0.22906473 -0.3704842 0.14035171
0.29213125 0.010878647 -0.017949056 0.089747615 0.4434811 0.4926904 -0.40092143 -0.2769555
0.14261694 0.49379423 0.42232975 0.53409094 0.08376226 -0.47927195 0.10590396 -0.39303952
-0.4521092 0.4805519 0.40752777 -0.52043515 0.13407458 -0.072728716 -0.02359461 -0.27813405
0.17253897 -0.2843202 0.30573413 0.3785048 0.5241761 0.11045139 -0.66306996 -0.47278175

pre.bias f4 [32]
00000000: 53fb 9b3e 8599 213e c68f f5be 4a5b 8ebe
00000010: 4800 103f 979d b93e 6ccc 53be 6981 1cbe
00000020: 0e9a 11bf ba6c 8cbd a750 e2be eec0 03bf
00000030: ddd9 5cbd ada2 013e 72f3 95be e88b cb3e
00000040: cedc a4be 4fbf 043f 8538 c63e 83e0 fbbe
00000050: 3d24 aabd 9bfa 2fbc 9f23 5d3d 59a6 3d3e
00000060: 1a7a 8c3e 1534 303d 3561 75be ce2b 8b3e
00000070: a7c9 0bbf cff0 a5be ce61 f0bd cae7 9cbe
0.30465183 0.1578122 -0.47961253 -0.27804023 0.5625043 0.36253044 -0.2068345 -0.15283741
-0.56875694 -0.068566754 -0.44202158 -0.5146626 -0.053918708 0.12659712 -0.29287297 0.39755177
-0.3219971 0.51854414 0.38714996 -0.49194726 -0.08307693 -0.010740901 0.05398905 0.18520488
0.27436906 0.04301842 -0.23962863 0.27181858 -0.5460457 -0.32410285 -0.11737405 -0.3064559

norm.weight f4 [32]
00000000: 3cf2 863f 6b53 873f c4cf 863f 660b 853f
00000010: a256 813f eaf6 803f 94f6 853f 544c 833f
00000020: 2a6a 843f bc77 783f b958 823f 61e9 7b3f
00000030: f425 7f3f 6bea 833f 87a4 863f d417 873f
00000040: ed60 7f3f f68d 823f a524 7d3f e42e 823f
00000050: c20b 863f 85c7 7d3f 3c3b 833f de0e 813f
00000060: 131d 893f dbbd 823f ac77 763f 2159 7a3f
00000070: 1659 803f f581 7a3f 8f1a 863f e940 823f
1.0542674 1.0572332 1.0532155 1.0394104 1.0104563 1.0075352 1.0465875 1.0257668
1.0344899 0.970577 1.0183326 0.9840298 0.99667287 1.0305914 1.051896 1.0554147
0.9975727 1.0199573 0.9888404 1.017056 1.0472338 0.9913257 1.0252452 1.0082662
1.0711998 1.0214189 0.96276355 0.9779225 1.0027187 0.9785455 1.0476855 1.0176059

norm.bias f4 [32]
00000000: dabb 9dbc 0047 fe3a 6508 6fbb 7536 3c3c
00000010: e009 c4ba d568 0f3b 091e b53c 758f 87bb
00000020: 5362 aebc 7db6 a4bc 8fda 1cbd ba5d 04bc
00000030: be6c 89bc 8f78 73bb 8780 c6bb 3c6f 3bba
00000040: e99e b8bb 88ca 75bc be83 25bd 00d0 0a3c
00000050: e885 a53b 8611 c4bb 4def 68bc 2ca7 f33b
00000060: b0e2 573b 1426 863b 5dd0 873c d401 013c
00000070: 3ba9 9cbc 44db a53c be54 85bc 3b31 153c
-0.019254614 0.0019399822 -0.003647351 0.011487593 -0.0014956556 0.0021882553 0.022109048 -0.0041369745
-0.021287119 -0.020106548 -0.03829437 -0.008078987 -0.016775485 -0.0037150716 -0.006057802 -0.0007150059
-0.005634178 -0.0150019005 -0.040408842 0.008472443 0.0050513633 -0.0059835343 -0.01421721 0.0074357
0.0032941513 0.0040938947 0.016578848 0.007873971 -0.019123664 0.020246156 -0.01627576 0.009105976

gru.weight_ih_l0 f4 [48, 32]
00000000: 0206 c1bc 9dd3 0ebe 0665 d7bd 683d 023e
00000010: 737b dabd 00d0 86bd 4612 6e3e e39c 9bbd
00000020: 4703 1dbd 2c0d a23c 0470 363b 2a12 503e
00000030: db4f 463e dcaa c03d 0da3 903e 553b 8abd
00000040: a5ad 88be 0461 0dbe b11c 083e 76ac 0ebd
00000050: ab88 39be 5f01 80be 8ae5 99be e6cb 7fbe
00000060: 1f5a bbbd 7b04 c83d 5832 c73d 9e2f 82be
00000070: ce77 e73d 0bdc 73be 6f96 d1bd eba8 17be
00000080: ef26 aa3d 094a 1d3d 8a76 9bbe f5e3 20be
00000090: 4bf7 6e3c 5f25 5cbd 0040 38bd 57d9 e83c
000000a0: 689d 96be 0581 533d 9211 0f3e 0900 3bbd
000000b0: 64e5 3a3e e14c 443d afae 67be e264 213e
000000c0: ac96 c4bd d961 f9bc 58dd 9d3e 03db 89be
000000d0: 9861 eabc f17c d4bd d1ad 063e ecca 0f3e
000000e0: aea9 233e 8e92 3f3d a543 03be 5116 b93c
000000f0: ee3a 90be 29eb 683d 1475 293e 8b62 b83d
00000100: 0277 28be 6e41 233c d508 37be 34fd d3bd
00000110: 1f07 28be 3ad0 c63d 9de1 18be fb4b 253c
00000120: 2a5c dd3c 7281 193e ea9a 2fbe f553 47be
00000130: 0510 ecbd 1563 653e 9af9 08be a092 833e
00000140: 5df3 d53d 4f58 033d 20b4 e0bb 8b43 0dbd
00000150: 9d2e 683d 34ec a6bc d288 043d f304 333d
00000160: c956 1ebe 9779 d3bd 79d8 583e 3193 23be
00000170: 4a4e 2abb 5e5c 863e 1f23 0c3e 9b53 343c
00000180: f675 01be 37cb 653e a664 88be 9553 a9bd
00000190: 407b bebb 9c95 e6bd 6a8a 953d b822 0b3e
000001a0: b48f 10bd c4f7 943e 44e1 c23d a036 b8bd
000001b0: a3aa 393d 5f35 8cbe 852a 18bd 142c 8039
000001c0: bb89 883c 297e 4f3e c240 aebd f1b0 84bd
000001d0: fb31 473d eb3c a9be 1f16 c13d 6736 86be
000001e0: e0ca 13bb 0a98 febd 201f 4bbe f038 df3c
000001f0: bb98 123e 10ca 0fbe 3240 65be a535 26be
00000200: fe85 8fbe 1c12 173e 718c 1ebe 8939 28be
00000210: 9a99 92bd 3454 9e3d a371 373e f363 133e
00000220: 93cd 343d bc09 23bd ec06 00be a1fb fa3d
00000230: 979f 173e 18f9 18ba ebb3 4dbd daca 42be
00000240: f7e0 92be 2eee 6a3d 0932 2ebe 1b06 86be
00000250: 4d37 203e 8c55 75be efd7 d1bd 0385 223d
00000260: 1fb1 b0bd 2bb0 76be 2ebb 75be a7fb 063e
00000270: ec78 3b3b 2964 273e f7a6 21be 2956 683d
00000280: c395 203d cb51 453d 0f08 4cbe 70e4 093e
00000290: ef42 c13d 4f46 ccbc 0220 a6bc fd8a 38be
000002a0: 2962 163e 2d2d 21be 3e43 ce3d e6b8 a3bd
000002b0: 8dda d8bd 0199 8f3d 5a74 3abe 0332 e03d
000002c0: 5db0 1b3d 74bd 32be b10f b33d 2ca8 b93d
000002d0: 8970 c23d 960a b1bc 8346 46be c26a bcbb
000002e0: 82ac 1a3e 2ab4 c3bd 2caa 903d 56ad 663e
000002f0: 6cc7 1fbe 5b78 b6bc 0793 fd3d 38bf 1abc
00000300: de1b ce3d 6595 eb3d bfa7 88be 94c7 de3c
00000310: f9b4 893e d8a8 043e 0c9e 713e 2f6b 6abd
00000320: 40d4 fa3c 8173 28bd f992 90be 99e0 ffbd
00000330: 5589 1d3e b842 503d 567b 8ebd ca25 01bc
00000340: 3437 c13d 1fad a03e d0f2 363e 97f8 e03d
00000350: a497 19be 0f52 45be 2210 bb3d bbb0 803d
00000360: 965e 67be 5531 113e c780 1f3d 8af2 173e
00000370: 4ced 73be 4027 34bc 19d4 43be 75ab eb3d
00000380: 9c42 12be 105c 433d dda6 ba3d 6073 923d
00000390: 4121 b5bd e510 083e 2e41 53be f606 a23d
000003a0: d22e 15be ad1f 8abe 28fa 4fbe 2138 413e
000003b0: b5af 013e 05c5 5b3e bbe1 773e a599 88be
000003c0: 34ce 11be fe1b d4bd 10a0 65be 91e8 4f3e
000003d0: 91b5 4cbe b9a1 17be 7e21 78be 45a2 3ebe
000003e0: f34e 0e3e 0ac2 273e fa85 4a3e 5e04 983d
000003f0: f101 823e 63c8 16bd 2455 c43d 7ce7 813e
-0.023562435 -0.13947912 -0.105173156 0.12718737 -0.10668077 -0.065826416 0.23249158 -0.07598283
-0.038333204 0.019781671 0.0027837763 0.20319429 0.193664 0.09407589 0.28249398 -0.06749598
-0.2669498 -0.1380654 0.13292195 -0.03483244 -0.18118541 -0.25001046 -0.30057937 -0.24980125
-0.091480486 0.097664796 0.09726399 -0.25426954 0.11302148 -0.23814408 -0.10233771 -0.14810531
0.08308207 0.038400684 -0.30363876 -0.15711959 0.014585326 -0.053746577 -0.04498291 0.028423948
-0.29416966 0.051636714 0.13971546 -0.04565433 0.18251568 0.04792488 -0.2262523 0.1576114
-0.09599051 -0.030442165 0.30832934 -0.26924905 -0.02861099 -0.10375393 0.13152243 0.14042252
0.15982696 0.046770625 -0.12818773 0.02259365 -0.2816996 0.05686489 0.16548568 0.090031706
-0.16451648 0.00996433 -0.17874463 -0.10351029 -0.16408966 0.09707685 -0.14929815 0.010088916
0.027021486 0.14990786 -0.17148939 -0.19465621 -0.11526493 0.22401078 -0.13376465 0.25697803
0.104468085 0.03206664 -0.00685741 -0.034488242 0.05668508 -0.020376302 0.032357045 0.04370589
-0.15462793 -0.10325926 0.21176328 -0.15974118 -0.0025986605 0.26242346 0.13685273 0.011006261
-0.12642655 0.22440802 -0.2663929 -0.08267895 -0.0058130324 -0.112590045 0.07301791 0.13587463
-0.035293296 0.2909528 0.09515622 -0.08994794 0.045328747 -0.2738447 -0.037149925 0.00024446903
0.016667238 0.2026297 -0.08508445 -0.064790614 0.04863165 -0.3305429 0.094280474 -0.2621338
-0.0022551343 -0.12431343 -0.19836092 0.02724883 0.14316075 -0.14041924 -0.2238777 -0.16231401
-0.28031915 0.14753002 -0.15483262 -0.16428198 -0.071582034 0.07730904 0.17914443 0.14393596
0.044141363 -0.039804205 -0.1250264 0.12255026 0.14806972 -0.00058354577 -0.05022041 -0.19022694
-0.2868726 0.057356052 -0.17011274 -0.26176533 0.15646096 -0.23958415 -0.10246264 0.03967763
-0.08627533 -0.2409064 -0.23997185 0.13181935 0.002860601 0.16346802 -0.15786348 0.056722794
0.039205324 0.048173707 -0.19924949 0.13466048 0.09436595 -0.02493587 -0.020278934 -0.1802177
0.14685883 -0.1573989 0.10071419 -0.07994251 -0.1058856 0.07011605 -0.18208447 0.10947039
0.03800999 -0.17455083 0.08743227 0.09065279 0.09494121 -0.021611493 -0.19362836 -0.005750031
0.15104869 -0.09555848 0.07063708 0.2252706 -0.15603417 -0.022274187 0.12381559 -0.009445004
0.10063909 0.11503104 -0.2669048 0.027194776 0.26895884 0.12955034 0.23595446 -0.057231124
0.030618787 -0.041125778 -0.2823713 -0.124940105 0.1538442 0.050844878 -0.06957118 -0.007882545
0.09434357 0.3138208 0.17866063 0.10984915 -0.14999253 -0.19269584 0.091339365 0.06283709
-0.22594675 0.14178975 0.03894117 0.14838615 -0.2382099 -0.010995686 -0.19123878 0.11507312
-0.14283222 0.04769522 0.09113858 0.07150912 -0.08844233 0.13287695 -0.20630333 0.07911484
-0.14568642 -0.26977292 -0.20310271 0.18869068 0.12664683 0.21461876 0.24207203 -0.2667972
-0.14238816 -0.103569016 -0.2242434 0.20303561 -0.19991137 -0.14807786 -0.24231526 -0.18616588
0.13897304 0.16382614 0.1977767 0.07422708 0.25392106 -0.036812197 0.09586552 0.2537192

gru.weight_hh_l0 f4 [48, 16]
00000000: 1a45 98bd c3a9 ea3d 787d d7bd 7277 9b3e
00000010: 6aae f23d 6704 0d3c 8074 4c3d c237 c93d
00000020: d9e3 2ebe b764 1cbc fe34 6e3b 8f2c c0bd
00000030: 266a 733e 229c 96bd 3497 35be 9567 d0bd
00000040: 0c7b 88be 06a5 203e 421c 5ebd 606b 0abe
00000050: a577 a3bd c1e4 7cbe 1010 5bbe 9527 573e
00000060: f4df 71be 7a70 03bc 9ee3 ff3d 20e2 59bd
00000070: b44b 463e 9f31 4bbd f5f0 9e3e 593e 773e
00000080: 2a30 983c eb18 2c3e 239e 8dbe 5673 7fbd
00000090: 0d60 b43d a3d5 77be 4f5a 923d 78dd 02bd
000000a0: 7fb2 6dbd be87 8dbe 72ee 043e d2b1 1dbe
000000b0: 382d 0b3c 63f1 283e b112 7f3e 2ccd c13d
000000c0: bf02 3abd bab4 6ebd 7aa6 5c3e 2577 003e
000000d0: 3e16 033e d82f 253d aac1 663e 05b3 68be
000000e0: 42b8 0b3e b6e4 81bd 1277 19be ebe2 85bd
000000f0: 078b b7bd 8909 6d3c 12cf 3b3e bbfa 46be
00000100: b5dc e83d 740c fabd 035a c73d 4256 8e3e
00000110: 68c3 d63d 28f8 363e 7802 383e c3ef 36bd
00000120: a09b 8d3c af1b 0dbc cd30 183e 7d5d 923d
00000130: 0225 66be ece6 263e 4d31 96bd bd74 55bd
00000140: 2a1d 00be 81e7 00be ead8 a13c 9d37 12be
00000150: 1646 62be 9222 3cbe 33a2 febd a4b8 843e
00000160: bc97 443e 2017 7bbe 041b 4abc b559 9abd
00000170: 19f8 7cbd 6535 e23c e630 d33b 7b7f 333e
00000180: f3d0 2fbd 2939 dd3d a518 41bd b7cb 013d
00000190: 32de b93d b10b 31be a5f7 ffba 7d6f 6c3e
000001a0: 7cf2 0d3a 64d1 55bd 005f 80be e2f1 31be
000001b0: 626a 02be 157d 9b3d a18c d1bd 1467 1a3e
000001c0: 127a acbd 1c6f a3bc e18d ad3d 28ad 603e
000001d0: 5ead 6c3e 70d7 bd3d ea9f ad3d fcf0 41be
000001e0: 0137 0a3e 0885 1ebd b29c 85bd 9803 52be
000001f0: 3dc8 a1be f31c 803d 55c0 99bd e1d3 333e
00000200: 8d74 5e3e d477 3d3e 4fad 3a3e 89a2 103d
00000210: 8761 0c3d 680a 833d 3625 703d 17d4 373c
00000220: 80d7 d0bc 377a 803c 4b99 8ebe 2008 47bc
00000230: 9fbf 39be 20b4 053e e50d 2abe c880 f3bd
00000240: 1e2b 83bd e6df 8d3e 3d64 02be a1ad 573e
00000250: 68dc 803d 7148 413e 09dc f33d a3a0 a23d
00000260: 9738 1b3e f566 1c3e 0df8 fe3c b272 77be
00000270: b07a 04be 0f4b 1dbd 9cb3 58bd 5922 06be
00000280: 8a61 63be 4d0b 9ebc e6f5 073e a776 863e
00000290: e215 88be 2313 d03d 1bb2 55be 3d10 87be
000002a0: 71a8 3fbe 2d7c 383c 9644 fb3c d5b6 65be
000002b0: b7fb 2b3e 106a 463e 8b86 a7bc d7dc 353e
000002c0: 2a70 15bd 6c3b 36bd 82cc 14bd bc5e 443d
000002d0: ecbd 3ebe 0807 0dbe e6d9 363e 4080 1dbc
000002e0: 5da9 6a3e 3d08 a43b 58d4 b23d 0a6b ccbd
000002f0: 0ecf 1a3d d887 c6bd 9a18 b83d a167 c63d
00000300: 19cf 7b3e 2d30 533e 3d3f 6c3d e3ea 8d3e
00000310: 1448 4dbe cda9 5d3e 43d9 953e 8e5f 4c3e
00000320: 22f8 20be 4cab 41bd d0ac 1cbd 8088 053d
00000330: fac8 993d 9004 463d bc94 133e 92bc cbbd
00000340: 13b5 04be 5e7f 8d3d 5bf8 8e3d 70e4 1dbe
00000350: 22af 173d ea5a 5dbe a200 05be 4758 43bd
00000360: 2e35 723e 2f65 8dbe 4037 15be 454e 76be
00000370: d98e de3d 22e0 15be 3b2d 073e 857a 1abe
00000380: 0fb4 60be 4785 5cbe 2d75 fe3c 81d2 533e
00000390: a26d 843e a6b6 a0bd f932 a8be 166b 773b
000003a0: fec9 8bbd 1191 2abe 2832 d63d 0222 0d3e
000003b0: 63d7 483e 9db0 1f3e ce97 583b 524a 533d
000003c0: 416e 673d b10b c1bd 3337 5b3d 38c2 1d3d
000003d0: 0580 a2be f399 cb3d 195e 8dbd f512 2bbe
000003e0: a22e 013e 2b78 3dbe d35c 7c3c 1d56 353e
000003f0: 163d 7d3d ac9e e13d 8115 013e af6e 223e
-0.07435055 0.11458161 -0.10521978 0.30364567 0.11849673 0.008607007 0.04991579 0.09825088
-0.17079104 -0.009545497 0.0036347504 -0.09383499 0.23770961 -0.07353999 -0.1773346 -0.10176007
-0.26656377 0.15687951 -0.054226168 -0.13517523 -0.07981805 -0.24696638 -0.21392846 0.21011193
-0.23620588 -0.008022422 0.124945864 -0.053194165 0.19364816 -0.04960787 0.3104321 0.24144877
0.018577654 0.1680638 -0.2765971 -0.062365852 0.08807383 -0.2420259 0.07146131 -0.03194949
-0.058031555 -0.27642626 0.12981585 -0.15399864 0.008494668 0.16498332 0.24909474 0.094629616
-0.045412775 -0.058277823 0.21547881 0.1254545 0.12801453 0.04032883 0.22534814 -0.2272454
0.13644508 -0.06342451 -0.14986828 -0.06537422 -0.08962064 0.014467605 0.1834071 -0.19431584
0.113702215 -0.122094065 0.09733965 0.27800184 0.104864895 0.17868102 0.17969692 -0.04466225
0.017286122 -0.008612557 0.14862366 0.07146738 -0.22475055 0.16299027 -0.07333622 -0.052113283
-0.12511125 -0.12588312 0.019756753 -0.14279027 -0.22097048 -0.18372563 -0.12433281 0.2592212
0.19198507 -0.2452054 -0.012335543 -0.075366415 -0.061760042 0.027613351 0.006445038 0.17529099
-0.04292388 0.10801918 -0.047142643 0.03168842 0.090755835 -0.17289616 -0.001952876 0.23089404
0.0005414856 -0.052201644 -0.2507248 -0.17377427 -0.12735894 0.07592217 -0.10231901 0.15078384
-0.084217206 -0.019950442 0.08474327 0.21941054 0.2311301 0.09269607 0.08477767 -0.18939584
0.13497545 -0.038701087 -0.06524028 -0.20509183 -0.31598082 0.062555216 -0.075073875 0.17561294
0.21724148 0.18502742 0.18230174 0.035311256 0.034272697 0.06398469 0.058629237 0.01122
-0.025493383 0.015683277 -0.27851328 -0.012147933 -0.18139504 0.13056993 -0.16606863 -0.118897974
-0.06404708 0.27709883 -0.1273355 0.21062328 0.06292039 0.1887529 0.11907203 0.07940795
0.15158306 0.1527365 0.03112414 -0.24164847 -0.12937427 -0.03840166 -0.052905664 -0.1309904
-0.22205177 -0.019292498 0.13277397 0.262624 -0.26579195 0.101599 -0.20868723 -0.26379576
-0.18716599 0.011260075 0.030672353 -0.22433026 0.1679524 0.19376397 -0.020449897 0.17760025
-0.03648392 -0.044490263 -0.036327846 0.04794191 -0.18627137 -0.13772213 0.17856559 -0.009613097
0.2291617 0.005005865 0.087319076 -0.099813536 0.03779512 -0.09693879 0.089890674 0.096877344
0.2459072 0.20623846 0.057677496 0.27718267 -0.20047027 0.21646805 0.2926732 0.19958326
-0.15719655 -0.047282502 -0.038250744 0.03260088 0.07509036 0.048344195 0.14412206 -0.09948076
-0.129597 0.06909059 0.06980964 -0.15419173 0.037032254 -0.21616712 -0.12988523 -0.04769161
0.23653099 -0.2761626 -0.14571857 -0.24053295 0.1086709 -0.14636281 0.13200848 -0.150858
-0.21943687 -0.21535216 0.031061733 0.2068577 0.25864893 -0.078473374 -0.3285139 0.0037753037
-0.06825636 -0.16656901 0.10458785 0.13782504 0.19613414 0.15594716 0.0033049467 0.05158455
0.05650163 -0.09426058 0.05351944 0.0385153 -0.31738296 0.09941473 -0.06902713 -0.1670645
0.12615445 -0.18502872 0.01540299 0.17708631 0.061825834 0.110165924 0.1260586 0.15862535

gru.bias_ih_l0 f4 [48]
00000000: ae42 153d a78e 433e ee74 593e e893 8f3e
00000010: 198d 913e 5006 a2bd c01f 2c3c b082 07bd
00000020: 80a4 203e 174f 1c3e 1f10 6e3c 6512 28be
00000030: ac7d 0fbe f08a 763e f7f6 9abd b50b 313d
00000040: 8a7e 44be 6d9d 35be 2e97 313e f7d5 bf3d
00000050: 8af4 02be 0306 b8bd 13b1 0c3e 4507 11be
00000060: cd7c 21be d5d6 debd 951e 5d3e e33c b43d
00000070: 5234 bcba 6141 e0bc d401 fc3d 2617 23be
00000080: 0c71 2d3e 359b 3c3d de26 343d 172f 0d3d
00000090: 4f4d 45be 3c99 573e ffb3 043e b064 56be
000000a0: 96cc 61be 7d23 91bd 4ba4 ff3d ca19 d5bd
000000b0: 1c73 6b3e b46d f5bd 29d2 54be 2444 223e
0.036440544 0.19097386 0.21236011 0.2804253 0.2842796 -0.0791136 0.010505617 -0.033083618
0.15687752 0.15264545 0.014530211 -0.16413267 -0.14012784 0.24076438 -0.07566636 0.043224055
-0.19188896 -0.17735834 0.17342827 0.093669824 -0.12788597 -0.08985522 0.13739423 -0.1416293
-0.15770264 -0.1088082 0.21593697 0.08800676 -0.0014358854 -0.027374925 0.12305036 -0.15926799
0.16937655 0.046046454 0.04398238 0.034468736 -0.19267772 0.21054548 0.12959288 -0.20936847
-0.220507 -0.07086847 0.12482508 -0.104053095 0.2299313 -0.11983815 -0.20783295 0.15846306

gru.bias_hh_l0 f4 [48]
00000000: f6f4 cfbd bed4 a03c aa6d ddbd 3c74 563d
00000010: 2797 24be 446a 65be ce2e 503e 2f4a 0abd
00000020: 10e5 8abd 0ea8 383d 35f6 43be 177a 823d
00000030: 7c3c 2b3e 1c5c 783e 3136 59be 8f4a 3f3d
00000040: d2a7 c63d dde9 333e 8f18 73bd dfc4 c13d
00000050: ace1 973d b98c 1c3e 7397 6ebe 6f80 293e
00000060: f6fc a3bd 5c0f 65be 89d6 e23c b648 7b3e
00000070: 155f 4ebe 1386 0c3e 6525 7dbd 5315 363d
00000080: 1d69 4c3e 7d2e 70ba fc97 5ebe 9e80 9fbd
00000090: 53f5 103c 763e 73be ae8c 353c d1ed 33be
000000a0: 64d0 0ebd 7076 ce3d 5c25 7fbe b57d 28be
000000b0: 762b c83d df47 73be 7b46 573e c748 0fbe
-0.101541445 0.019632693 -0.108119324 0.052356943 -0.16073285 -0.22403818 0.20330355 -0.033762153
-0.067819715 0.045082144 -0.1913689 0.06370943 0.16722292 0.24253887 -0.21212079 0.046701964
0.09699978 0.1756968 -0.059349593 0.09461378 0.0741609 0.15288056 -0.23299961 0.165529
-0.08007233 -0.2236914 0.027690189 0.24539456 -0.20153458 0.1372302 -0.06180324 0.04445393
0.19961973 -0.0009162201 -0.21737665 -0.07788204 0.008847552 -0.23754296 0.011080904 -0.17571189
-0.034866706 0.10081184 -0.24916595 -0.16454203 0.097739145 -0.23757885 0.2102298 -0.13992606

fc.weight f4 [1, 16]
00000000: 0fc7 793d 9814 dc3d d802 aa3d d0fd 10be
00000010: d691 a03c 4a8c 2b3e 3527 943e b22f 85be
00000020: 84ad 11be 469a 243e ab4d 963a 112e 21be
00000030: 5185 90be d7a3 94be 4c6a 87be 8b2a 19be
0.060980853 0.107461154 0.08301324 -0.14159322 0.01960079 0.16752735 0.28936163 -0.2601295
-0.14226347 0.16074476 0.0011467239 -0.15740229 -0.28226712 -0.2903125 -0.26448286 -0.14957635
