models/GRU_NoiseEst/training_checkpoints/noise_gru_epoch_024_mse_0.2174.pth (torch, 14133 bytes, 10 tensors)

pre.weight f4 [22, 1, 3]
-0.009004221 0.29666743 -0.47176585 -0.43972868 -0.2456779 0.11088482 -0.06364186 0.39824247
-0.10273571 0.23679057 -0.08454327 -0.011251643 -0.5885754 -0.42346507 -0.30048716 0.060867894
0.2747184 0.41423827 -0.4311908 -0.2955406 0.157882 0.402162 -0.19410932 0.35930043
0.0059559676 0.16038695 0.6278715 -0.46654028 -0.2953442 -0.0823879 -0.24452831 0.47242993
-0.3949844 -0.28738979 -0.41914833 -0.5642082 -0.2859188 0.53862876 0.29890096 0.2614574
0.014417498 -0.29783776 0.07586121 -0.5569357 -0.4374498 -0.3290113 0.3257723 0.30856267
-0.22198424 0.010841171 0.40809083 0.55416155 0.21054868 0.058302872 0.41711593 -0.30928397
0.13604645 -0.42714873 -0.37933934 -0.2784673 0.22561975 0.20030893 -0.37155357 0.13712625
0.27936363 -0.11044036
00000000: 7186 13bc cbe4 973e 4b8b f1be 1e24 e1be
00000010: fd92 7bbe 9517 e33d aa56 82bd 70e6 cb3e
00000020: 1a67 d2bd 3a79 723e 0625 adbd d058 38bc
00000030: e1ac 16bf 6ad0 d8be 74d9 99be 9d50 793d
00000040: e4a7 8c3e 0a17 d43e 0ac5 dcbe 1951 97be
00000050: d2ab 213e 2de8 cd3e 98c4 46be 3af6 b73e
00000060: 472a c33b 7a3c 243e 30bc 203f 5ede eebe
00000070: 5b37 97be fdba a8bd a165 7abe 56e2 f13e
00000080: 653b cabe c124 93be 9c9a d6be f36f 10bf
00000090: f363 92be 93e3 093f 8c09 993e bfdd 853e
000000a0: 5f37 6c3c 317e 98be 1f5d 9b3d 5793 0ebf
000000b0: 6cf9 dfbe 2b74 a8be a0cb a63e edfb 9d3e
000000c0: d64f 63be 2b9f 313c 48f1 d03e 88dd 0d3f
000000d0: 139a 573e fece 6e3d 3890 d53e 785a 9ebe
000000e0: c34f 0b3e 3db3 dabe c438 c2be 4493 8ebe
000000f0: dd08 673e c91d 4d3e 453c bebe d36a 0c3e
00000100: c008 8f3e 8e2e e2bd

pre.bias f4 [22]
-0.059418824 0.12129629 0.2871698 0.6500061 -0.47695237 -0.22976726 0.21780862 0.39178327
0.5846867 0.58730966 0.1262098 -0.44592673 -0.035578564 -0.33472136 -0.5125913 0.5370334
0.5113332 -0.5859883 0.022339363 -0.09072617 -0.014799153 -0.21349947
00000000: 2761 73bd 306a f83d ec07 933e cd66 263f
00000010: 1a33 f4be 1c48 6bbe 3909 5f3e d197 c83e
00000020: 07ae 153f ed59 163f 243d 013e 8250 e4be
00000030: d4ba 11bd 9960 abbe 2f39 03bf 057b 093f
00000040: bce6 023f 5403 16bf 0a01 b73c a4ce b9bd
00000050: 2678 72bc 9b9f 5abe

norm.weight f4 [22]
0.9813925 0.9895306 0.9367401 1.0993938 1.0425208 1.0331254 1.0423126 0.9278715
1.0845212 0.9421675 0.9757757 0.9377597 0.9880982 0.955679 0.9624977 0.9679444
1.0920588 0.9777972 1.0114144 0.99058497 0.96144557 0.97690904
00000000: 8a3c 7b3f e151 7d3f 33ce 6f3f f0b8 8c3f
00000010: 5271 853f 743d 843f 806a 853f fd88 6d3f
00000020: 97d1 8a3f e431 713f 70cc 793f 0511 703f
00000030: 01f4 7c3f 61a7 743f 4066 763f 34cb 773f
00000040: 95c8 8b3f eb50 7a3f 0776 813f fa96 7d3f
00000050: 4c21 763f b616 7a3f

norm.bias f4 [22]
-0.054105815 -0.009221635 -0.053606942 0.087769076 -0.057661768 0.042655613 -0.044545345 -0.0306222
0.10146869 0.025862098 -0.017751638 0.03350341 -0.04945032 0.026399137 -0.011505106 0.048131466
0.052334312 -0.016782366 -0.034175266 0.00081228436 0.041592915 -0.0012378471
00000000: 0f9e 5dbd 5716 17bc f492 5bbd 46c0 b33d
00000010: bf2e 6cbd a7b7 2e3d 2e75 36bd 68db fabc
00000020: d1ce cf3d c0dc d33c e26b 91bc df3a 093d
00000030: 6b8c 4abd 0143 d83c ea7f 3cbc 8025 453d
00000040: 815c 563d 2c7b 89bc 5dfb 0bbd 7bef 543a
00000050: 555d 2a3d 423f a2ba

gru.weight_ih_l0 f4 [48, 22]
0.011406616 -0.23880328 0.17839868 0.18819539 0.08427218 0.216652 -0.38617384 -0.04492761
0.25304452 -0.056944836 -0.2892932 -0.14271046 0.26828718 0.09053036 -0.19820942 0.048388705
-0.11680442 -0.011596166 -0.20668456 -0.18753287 -0.031677835 0.017464072 -0.13307144 0.0559081
-0.06267841 0.26750168 0.075009316 -0.094826005 -0.17806166 0.12479125 0.15760942 0.0077325045
0.034407508 -0.030335652 -0.071057595 0.09453367 -0.31679088 -0.06533519 0.040762916 -0.092096426
-0.0571632 -0.23726322 -0.016778937 0.07933913 -0.19840571 -0.040820878 0.20640951 0.011814515
-0.015229367 -0.024058878 0.07061528 0.16813241 0.27106914 0.16189288 0.23369412 -0.045708634
-0.19319837 -0.1580799 0.15555462 0.014136102 -0.08054281 -0.1894118 -0.23733161 -0.21627957
-0.046718046 0.14399791 0.21942137 -0.1941379 0.17541888 -0.09555138 -0.12872246 -0.02037602
-0.10956643 -0.009925771 -0.17424324 -0.2563014 -0.08725207 0.011365401 -0.110137396 0.005632692
-0.272007 0.024136107 0.30117562 -0.1188081 0.19408296 0.13772796 -0.2686844 0.10750708
0.024709223 -0.09003362 0.27335173 -0.09540071 -0.07006546 0.033769205 0.15126058 0.10600155
0.15680617 0.095177926 -0.014996156 -0.08980574 -0.18232428 0.09838604 0.21180919 0.18403453
-0.088865526 -0.044390064 -0.22527525 -0.06630998 -0.18781799 0.028786236 -0.21448763 -0.00070525066
-0.022132542 0.19097327 -0.16549446 -0.19530359 -0.18021587 0.20861879 -0.050655004 0.22080846
0.12472059 0.062394943 -0.050327502 -0.06405946 0.09036543 -0.10835643 -0.0989408 -0.037426364
-0.26931193 -0.056322146 0.14455009 -0.26503435 0.022807563 0.29804537 0.012672974 -0.019097993
-0.15428364 0.06200851 -0.103189185 -0.13126624 -0.12267048 0.028758856 -0.0035829735 0.2872853
-0.040059898 0.14753737 0.17697461 -0.2018792 0.08932771 -0.19597599 -0.145014 0.07310427
0.05021463 0.17153154 -0.0783751 -0.011801044 0.15022773 -0.26665977 0.163627 -0.18679477
-0.0016690588 -0.033434365 -0.13272938 0.017525824 0.19251603 -0.102208026 -0.12410802 -0.058186434
-0.26127014 0.13034861 -0.114526555 -0.14938512 -0.13172552 0.13262282 0.15797672 0.21151558
0.096417874 -0.052789185 -0.09850121 0.07156639 0.2883411 -0.022398049 -0.033377003 -0.19435556
-0.33293816 0.12294972 -0.049370043 -0.19221699 0.18207952 -0.14466096 0.036810342 0.0060861926
-0.096737556 -0.20676805 -0.23081793 0.22953057 0.019606115 0.18402758 -0.06739888 0.10406929
-0.03176753 0.058335867 -0.2153356 0.15783611 -0.017267795 0.08955861 0.05017775 -0.22632083
0.10378668 -0.19647177 0.121936716 -0.18297674 -0.179674 0.13209166 -0.051384944 0.019445054
0.0007712554 -0.16422452 0.009523218 0.07532384 0.097369164 -0.10477282 -0.12190675 0.05378201
-0.020067532 0.013439505 -0.00892523 0.2621089 -0.015221989 -0.07032137 0.061167654 0.003838279
0.04632855 -0.04226878 -0.254143 0.09316341 0.27649176 0.19430295 0.12589063 0.06634334
0.09027663 -0.15846035 -0.1454501 -0.26839778 0.35580054 0.25094706 -0.29836816 0.21620691
0.10707786 0.35872644 0.3374722 0.15635243 -0.115499705 -0.084534556 0.20376195 0.03921065
00000000: d1e2 3a3c d988 74be 25ae 363e 4bb6 403e
00000010: e596 ac3d 06da 5d3e 94b8 c5be 0306 38bd
00000020: 0d8f 813e fd3e 69bd 3d1e 94be b122 12be
00000030: f05c 893e fb67 b93d 69f7 4abe 3c33 463d
00000040: 2837 efbd d8fd 3dbc 1ea5 53be 9e08 40be
00000050: 9ec0 01bd d010 8f3c e143 08be e4ff 643d
00000060: 8a5d 80bd fbf5 883e 7c9e 993d 2334 c2bd
00000070: cc55 36be 8e92 ff3d 5d64 213e f360 fd3b
00000080: e3ee 0c3d 7982 f8bc a586 91bd de9a c13d
00000090: 6a32 a2be 75ce 85bd 04f7 263d 0d9d bcbd
000000a0: f623 6abd 21f5 72be fb73 89bc 8e7c a23d
000000b0: de2a 4bbe cb33 27bd 045d 533e ab91 413c
000000c0: 9884 79bc 2017 c5bc be9e 903d e72a 2c3e
000000d0: 93c9 8a3e 3fc7 253e 834d 6f3e fa38 3bbd
000000e0: cbd5 45be b3df 21be b649 1f3e 1c9b 673c
000000f0: a1f3 a4bd 2bf5 41be 0f07 73be 6478 5dbe
00000100: 6c5b 3fbd 3074 133e ffaf 603e 16cc 46be
00000110: 02a1 333e 71b0 c3bd d2cf 03be 9ceb a6bc
00000120: 5d64 e0bd b39f 22bc d26c 32be f039 83be
00000130: 37b1 b2bd f235 3a3c b78f e1bd 7292 b83b
00000140: 8044 8bbe 16b9 c53c b133 9a3e a951 f3bd
00000150: afbd 463e 8f08 0d3e 0091 89be ac2c dc3d
00000160: ff6a ca3c 8c63 b8bd c2f4 8b3e 7361 c3bd
00000170: 7b7e 8fbd 9451 0a3d 0ee4 1a3e 5717 d93d
00000180: cc91 203e a5ec c23d 70b2 75bc 12ec b7bd
00000190: 37b3 3abe 9f7e c93d 82e4 583e 8c73 3c3e
000001a0: 21ff b5bd 5bd2 35bd 8eae 66be 87cd 87bd
000001b0: 5c53 40be 1dd1 eb3c a5a2 5bbe 92e0 38ba
000001c0: 4e4f b5bc 7f8e 433e 6177 29be aafd 47be
000001d0: 828a 38be 2aa0 553e 9f7b 4fbd 9d1b 623e
000001e0: 826d ff3d d791 7f3d 3624 4ebd 9b31 83bd
000001f0: 8311 b93d fae9 ddbd 79a1 cabd 634c 19bd
00000200: 41e3 89be 0db2 66bd f004 143e 95b2 87be
00000210: edd6 ba3c 6799 983e 4ea2 4f3c 6573 9cbc
00000220: 88fc 1dbe a3fc 7d3d da54 d3bd a86a 06be
00000230: a93a fbbd b197 eb3c 52d0 6abb 0f17 933e
00000240: d915 24bd 0914 173e d538 353e 6cb9 4ebe
00000250: 72f1 b63d eead 48be 8d7e 14be b1b7 953d
00000260: dbad 4d3d f7a5 2f3e 2083 a0bd 2b59 41bc
00000270: 4cd5 193e a187 88be d68d 273e 2147 3fbe
00000280: 52c4 daba 79f2 08bd 36ea 07be 5192 8f3c
00000290: ec22 453e 7152 d1bd 582c febd e654 6ebd
000002a0: 33c5 85be 1b7a 053e e68c eabd 6af8 18be
000002b0: 0ee3 06be 47ce 073e a6c4 213e 8a97 583e
000002c0: bc76 c53d 7939 58bd 01bb c9bd 6691 923d
000002d0: 72a1 933e 1d7c b7bc 53b6 08bd 2505 47be
000002e0: df76 aabe 10cd fb3d 3e38 4abd 88d4 44be
000002f0: 0e73 3a3e 0122 14be 71c6 163d af6e c73b
00000300: 571e c6bd 01bb 53be 895b 6cbe 100a 6b3e
00000310: 019d a03c ba71 3c3e 6d08 8abd 4822 d53d
00000320: ab1e 02bd 97f1 6e3d ef80 5cbe ca9f 213e
00000330: 3175 8dbc 816a b73d 2f87 4d3d a6c0 67be
00000340: 1c8e d43d e52f 49be f5b9 f93d 415e 3bbe
00000350: 76fc 37be 0943 073e 0579 52bd 3c4b 9f3c
00000360: 132e 4a3a 792a 28be 4507 1c3c 6343 9a3d
00000370: 7c69 c73d 2293 d6bd 3faa f9bd 864a 5c3d
00000380: aa64 a4bc 5f31 5c3c 213b 12bc 2333 863e
00000390: a665 79bc a704 90bd ef8a 7a3d a38b 7b3b
000003a0: 01c3 3d3d 0722 2dbd 081f 82be 75cc be3d
000003b0: 5490 8d3e 5af7 463e 79e9 003e 04df 873d
000003c0: f4e2 b83d 6e43 22be dff0 14be 6f6b 89be
000003d0: 7d2b b63e 227c 803e b6c3 98be 5865 5d3e
000003e0: a34b db3d feaa b73e 28c9 ac3e da1a 203e
000003f0: 1c8b ecbd 7420 adbd f9a6 503e 599b 203d

gru.weight_hh_l0 f4 [48, 16]
0.20813318 -0.14004049 0.13663456 -0.27130666 0.08847545 -0.21628217 0.026666231 -0.19427823
-0.16520193 -0.07160437 0.17540202 -0.104497895 -0.12049501 0.18852836 0.05583973 0.1150931
-0.17463887 -0.00245362 -0.0942226 0.13081367 0.08092456 -0.14236361 -0.06571607 0.018629847
-0.097270675 -0.17555301 -0.09635095 0.2988359 -0.14640206 -0.16800597 0.016134812 -0.015821481
0.0830781 0.056996204 -0.09898236 -0.1616624 -0.029300526 -0.10053421 0.18313158 -0.24180731
-0.14367028 -0.19233492 -0.066931024 0.19588983 0.21256436 -0.21752784 0.0044665965 0.15625872
0.15762523 0.29886794 0.049214132 -0.18658581 0.19853249 -0.123088785 0.07593163 -0.018833397
0.16826904 0.1287209 0.14895906 -0.14866795 -0.17926298 -0.17287968 -0.0816622 0.29443562
0.073140465 -0.048671562 -0.043419212 -0.1327381 0.14861715 -0.28015572 -0.25358105 -0.16798466
0.13310085 0.020134345 -0.24776351 0.15452863 0.21549496 -0.042641778 0.046555568 0.078543685
0.05953686 0.17686999 -0.104263306 0.076988705 0.16397749 -0.22975272 0.21138895 0.31482437
-0.047569092 -0.15648958 0.065122396 -0.16511141 0.05792698 -0.012820045 0.18721984 -0.17352816
-0.28364307 0.07187538 0.0903747 -0.24352084 -0.04993426 -0.22088125 -0.13742194 -0.13055676
0.29013202 -0.019381063 0.17609733 0.16961212 0.056993384 -0.21973859 0.047782544 0.1351003
0.21248195 -0.2608572 0.11921884 0.1926477 -0.24875908 0.038685862 0.1984542 -0.16311593
0.049957268 0.12723833 0.07446002 0.25913993 0.22057854 0.2308581 -0.010900762 0.18648322
-0.26112714 -0.18993324 -0.06262618 -0.040822238 0.26124722 0.093825065 0.23596789 0.17508031
-0.17898993 -0.023673637 0.0049777725 -0.025851533 0.09735127 -0.12430751 -0.14358053 0.2338649
-0.014481332 -0.05539123 0.23682481 0.07380842 -0.041730084 -0.08625261 -0.2878579 -0.17296357
0.18804817 -0.15169168 0.15899628 -0.1167062 -0.04190756 -0.028710388 0.1975307 0.24467506
0.28036228 0.21152583 -0.014121514 -0.19842544 -0.23943904 0.0009890837 0.13417767 0.028757691
0.022362877 -0.27837902 0.015599748 0.27192494 -0.20452961 -0.222039 0.29738247 0.084905684
0.10184447 0.17862533 0.06020454 -0.2524495 -0.23688644 0.1804844 -0.114688225 -0.044496868
0.013301159 -0.22489382 -0.15111211 -0.1030657 0.2423508 0.065966986 -0.008423355 -0.061192214
0.0021668172 -0.1763443 -0.029514614 0.10874338 -0.13731425 0.0917982 0.1141106 0.14657424
-0.13591069 0.0366582 0.2783729 -0.3019628 -0.023940425 0.2948717 -0.21292491 0.21452768
0.34900647 0.36668074 0.06487214 0.19093129 -0.15671313 -0.1250947 0.013560261 0.11227447
0.16487004 0.10858887 -0.28858954 0.25818396 0.1493893 0.0504264 0.24532853 -0.058736015
-0.07715706 0.28070977 -0.090950795 0.051319618 -0.29077965 -0.030083476 -0.08544365 0.07734767
0.017516518 0.015285475 -0.07565164 0.16756867 0.2689649 -0.17591603 0.09912245 -0.12764451
0.22610506 0.23639569 0.021008423 -0.14657798 -0.05578728 0.13501117 0.022046046 0.25802
0.21000096 0.16993289 0.14151902 -0.17954722 -0.015505865 -0.16636671 0.11447678 0.048600197
00000000: dd20 553e c666 0fbe eee9 0b3e b5e8 8abe
00000010: 9e32 b53d 1379 5dbe 2473 da3c dff0 46be
00000020: b22a 29be 50a5 92bd 969c 333e fe02 d6bd
00000030: 16c6 f6bd 940d 413e 33b8 643d eeb5 eb3d
00000040: 88d4 32be eacc 20bb c7f7 c0bd 05f4 053e
00000050: c7bb a53d c4c7 11be 2696 86bd 9f9d 983c
00000060: d935 c7bd 2bc4 33be a653 c5bd 0501 993e
00000070: 6cea 15be c209 2cbe 272d 843c 0d9c 81bc
00000080: da24 aa3d da74 693d 43b7 cabd d48a 25be
00000090: a807 f0bc e1e4 cdbd d886 3b3e 569c 77be
000000a0: 4d1e 13be 72f3 44be 2213 89bd 5897 483e
000000b0: 79aa 593e 9ebf 5ebe 875c 923b 4902 203e
000000c0: 8268 213e 3805 993e c294 493d 5a10 3fbe
000000d0: 1a4c 4b3e f915 fcbd 0b82 9b3d 7f48 9abc
000000e0: b84e 2c3e 69cf 033e b988 183e 693c 18be
000000f0: b790 37be 5f07 31be 833e a7bd 44c0 963e
00000100: abca 953d d55b 47bd 58d8 31bd 7fec 07be
00000110: 182f 183e 9270 8fbe 60d5 81be 2c04 2cbe
00000120: 974b 083e c8f0 a43c b8b5 7dbe c13c 1e3e
00000130: b6aa 5c3e 25a9 2ebd 0db1 3e3d 83db a03d
00000140: ecdc 733d 681d 353e 0088 d5bd 41ac 9d3d
00000150: b7e9 273e 4c44 6bbe 5876 583e a930 a13e
00000160: cfd7 42bd ce3e 20be e45e 853d f712 29be
00000170: d744 6d3d 2b0b 52bc 8fb6 3f3e 5eb1 31be
00000180: aa39 91be 6633 933d 5f16 b93d 875d 79be
00000190: de87 4cbd b22e 62be 56b8 0cbe acb0 05be
000001a0: 2f8c 943e 09c5 9ebc dc52 343e cdae 2d3e
000001b0: e571 693d 2703 61be a1b7 433d bc57 0a3e
000001c0: de94 593e 138f 85be 0229 f43d 7045 453e
000001d0: b3ba 7ebe 1175 1e3d 9437 4b3e dd07 27be
000001e0: fe9f 4c3d c44a 023e 7f7e 983d fdad 843e
000001f0: 57df 613e 1166 6c3e 1c99 32bc 75f5 3e3e
00000200: 75b2 85be dc7d 42be 2842 80bd 3835 27bd
00000210: 32c2 853e 5b27 c03d 91a1 713e 4148 333e
00000220: 2349 37be 37ef c1bc 951c a33b 98c6 d3bc
00000230: 1a60 c73d f094 febd c606 13be 487a 6f3e
00000240: 1c43 6dbc eae1 62bd 3482 723e de28 973d
00000250: 2aed 2abd 35a5 b0bd 1c62 93be 5d1d 31be
00000260: b38f 403e 1055 1bbe eccf 223e a903 efbd
00000270: 43a7 2bbd 0c32 ebbc 7d45 4a3e 198c 7a3e
00000280: a58b 8f3e 3a9a 583e ec5d 67bc 0a30 4bbe
00000290: 822f 75be 24a4 813a df65 093e 4095 eb3c
000002a0: 5a32 b73c b287 8ebe 1696 7f3c bf39 8b3e
000002b0: 3670 51be 315e 63be 8442 983e 08e3 ad3d
000002c0: d593 d03d 8fe9 363e 0999 763d 1041 81be
000002d0: 5c92 72be e7d0 383e a9e1 eabd 5942 36bd
000002e0: 1bed 593c 914a 66be 22bd 1abe 1c14 d3bd
000002f0: cf2a 783e b319 873d 1d02 0abc b0a4 7abd
00000300: 2901 0e3b 9a93 34be a2c8 f1bc d9b4 de3d
00000310: 1b9c 0cbe b200 bc3d d1b2 e93d 8f17 163e
00000320: 2c2c 0bbe e926 163d e586 8e3e de9a 9abe
00000330: b61e c4bc 6cf9 963e fd08 5abe 25ad 5b3e
00000340: fab0 b23e 94bd bb3e afdb 843d 7e83 433e
00000350: 6879 20be d318 00be db2b 5e3c 28f0 e53d
00000360: b1d3 283e d763 de3d 02c2 93be b030 843e
00000370: 82f9 183e ea8b 4e3d 6737 7b3e 2d95 70bd
00000380: 8504 9ebd 31b9 8f3e 6944 babd 8534 523d
00000390: 12e1 94be 9f71 f6bc 15fd aebd 7568 9e3d
000003a0: cd7e 8f3c ee6f 7a3c 3fef 9abd 1f97 2b3e
000003b0: c4b5 893e 5523 34be b600 cb3d 3eb5 02be
000003c0: 1688 673e b611 723e db19 ac3c 8a18 16be
000003d0: 3481 64bd 5e40 0a3e e999 b43c 331b 843e
000003e0: 7e0a 573e e302 2e3e 5dea 103e 3adb 37be
000003f0: 500c 7ebc 095c 2abe cd72 ea3d 0011 473d

gru.bias_ih_l0 f4 [48]
0.21550696 -0.15101172 0.10339863 0.307533 0.06806529 0.11320094 0.1422939 0.16356844
-0.05677123 -0.100050114 0.01401322 0.22169414 -0.011943756 0.19471732 -0.04378858 0.12599546
-0.0034391908 -0.06470267 -0.23517829 -0.21215457 0.103359535 0.18973893 0.098744124 0.07932943
0.08674919 0.040614966 -0.28185955 -0.3301511 -0.11458298 -0.053690515 -0.23752151 -0.03687933
0.012989681 0.16129214 0.10438388 0.17287256 0.2877061 -0.15210654 -0.08339826 0.06489424
0.231067 -0.14661019 -0.121076375 -0.15560296 0.14287747 -0.11433605 -0.050713968 0.19395812
00000000: dbad 5c3e d1a2 1abe a9c2 d33d f774 9d3e
00000010: d165 8b3d e5d5 e73d 7eb5 113e 7c7e 273e
00000020: f388 68bd 13e7 ccbd b497 653c ca03 633e
00000030: beaf 43bc fa63 473e a75b 33bd f404 013e
00000040: 0c64 61bb d582 84bd 94d2 70be 0c3f 59be
00000050: 2aae d33d ec4a 423e 5c3a ca3d 7877 a23d
00000060: 8fa9 b13d e15b 263d e54f 90be 9109 a9be
00000070: 7baa eabd 96ea 5bbd d738 73be c80e 17bd
00000080: acd2 543c c429 253e 37c7 d53d 8105 313e
00000090: 374e 933e d1c1 1bbe b5cc aabd 45e7 843d
000000a0: d49c 6c3e fb20 16be e4f6 f7bd 6256 1fbe
000000b0: 794e 123e 0529 eabd 73b9 4fbd f59c 463e

gru.bias_hh_l0 f4 [48]
0.24775447 -0.02702843 -0.1613389 0.26330096 -0.02900907 -0.07393118 -0.13279426 -0.14561312
-0.1758568 -0.10367393 -0.19416207 -0.024206769 0.06707954 -0.16876687 -0.042279013 -0.042900033
0.108792245 0.14504118 -0.030414185 -0.119420946 -0.109514005 -0.08087499 0.0029867296 0.12584296
0.116001144 -0.10109169 0.06241173 -0.3331485 0.1464584 0.18470979 -0.32686707 -0.086657986
0.22825117 0.009760455 -0.090412565 0.09265957 0.07981212 0.019620402 -0.15372887 0.21688995
0.117009364 -0.047335476 -0.007004478 0.19232461 0.13526501 -0.14014141 0.042679656 0.09500829
00000000: 59b3 7d3e ba6a ddbc 0636 25be 62cf 863e
00000010: 6ea4 edbc 3b69 97bd 38fb 07be 9b1b 15be
00000020: ce13 34be ff52 d4bd 6cd2 46be 464d c6bc
00000030: ff60 893d 39d1 2cbe c22c 2dbd f2b7 2fbd
00000040: 78ce de3d ad85 143e 2b27 f9bc f892 f4bd
00000050: e148 e0bd c9a1 a5bd 02bd 433b fadc 003e
00000060: 0292 ed3d 2909 cfbd 71a3 7f3d 7192 aabe
00000070: 31f9 153e 9024 3d3e 1f5b a7be be79 b1bd
00000080: adba 693e 51ea 1f3c 392a b9bd 4dc4 bd3d
00000090: 8974 a33d f7ba a03c 1a6b 1dbe 6618 5e3e
000000a0: 9ba2 ef3d d8e2 41bd d285 e5bb bef0 443e
000000b0: e982 0a3e 3b81 0fbe ddd0 2e3d b593 c23d

fc.weight f4 [22, 16]
-0.046426535 0.28137922 -0.06568689 0.09107103 -0.13791864 0.06564351 0.11800974 0.09288951
-0.003988388 0.080608785 -0.19597375 -0.074042074 -0.16388373 -0.15563147 0.07394181 -0.07321059
-0.019526754 -0.045373894 0.20748682 -0.027586017 -0.014284131 0.12736209 -0.009096783 0.25457364
-0.064083554 -0.0018155728 -0.07472073 0.041345205 0.055282515 -0.15276788 0.08853029 0.026994146
0.039183002 0.097608685 0.22879197 0.2160368 0.08473888 0.06363902 0.09050373 -0.013034416
-0.15683107 -0.115516044 -0.18033278 0.19962184 0.06541224 -0.0716899 0.07978712 -0.027667128
0.30237335 0.31465188 -0.08822156 0.11555212 0.12434433 0.0347952 -0.09965542 0.15346849
0.10047576 0.13492975 -0.33001634 0.008166855 -0.12466578 -0.19687381 0.14659497 0.20787226
-0.07094929 0.27858323 0.322106 -0.13038884 0.091502175 -0.22389771 -0.06736532 -0.014546276
-0.0037324682 -0.285051 -0.32286295 0.30758086 -0.0044216434 -0.11493469 -0.010494845 0.27059272
-0.022292357 0.014115652 -0.08018752 -0.2419863 0.21647458 -0.25123057 -0.15865266 0.017929645
0.16244799 -0.049008153 -0.28757182 0.33599585 -0.20793194 -0.064985804 0.09739143 0.013580142
0.2568799 0.29019913 0.13468246 -0.121463016 0.17545147 0.08451219 -0.06968586 0.013211394
0.12262021 0.1178221 -0.0650924 0.056577224 -0.18047602 -0.21668325 0.27965724 0.075373694
0.10945729 0.20080623 -0.054963842 -0.09166042 -0.09892376 0.11614977 0.087258466 0.23754717
0.22075114 -0.3277509 -0.13271862 0.14550783 -0.17671864 0.025693415 -0.038830522 0.10315394
0.30678806 -0.11174568 0.29609692 0.085483566 -0.17736697 0.18427089 -0.31835616 -0.1026382
-0.031197984 -0.10231348 -0.042539086 0.026898751 -0.19999309 -0.100081205 0.2926694 0.2281539
0.17698082 0.10736582 0.12080197 -0.1290585 0.08107784 -0.24881865 -0.14983028 -0.0090304045
0.18061115 -0.041797668 -0.10050248 0.09110618 -0.16643757 -0.0751143 0.11534659 0.0015237107
-0.0074930787 0.2197679 -0.15540466 -0.048495542 0.28398097 -0.019547682 0.009430579 0.19390973
0.19494082 -0.09342668 -0.15321419 -0.036861748 0.05961909 -0.09301255 0.13259898 -0.12284396
-0.08330932 0.21248204 -0.013046113 0.11397031 0.08875476 -0.090129994 -0.05238939 0.112080656
-0.040526472 -0.066405036 -0.002214225 0.014803113 0.026019538 -0.16396026 -0.01468446 -0.088490464
0.09632529 -0.119770594 0.09928755 0.15937209 -0.16549881 0.16481464 -0.20493032 -0.022890346
-0.15965693 -0.13477007 0.024770834 -0.10423412 0.18598884 -0.14069353 0.18596902 0.0993038
0.22136718 0.01661038 -0.11400884 -0.08450946 0.13138343 -0.11251264 -0.08290424 0.0388175
-0.010800153 -0.23552041 0.12199208 -0.0785085 0.26779765 -0.10612047 -0.013952077 0.00039614586
0.1586543 0.05218091 -0.17786637 0.10618285 0.1841587 0.13774796 0.1685825 0.10927498
-0.03831707 -0.2296416 -0.20579 -0.07455305 -0.021107182 0.14532872 -0.010971967 -0.038675953
-0.056869656 -0.22035114 -0.05994531 0.21692134 0.14597544 0.21894562 -0.048687678 -0.051256493
0.101950355 -0.005378901 -0.041293092 0.15632771 0.028666563 -0.11020423 0.15690099 0.0019693032
00000000: c029 3ebd f010 903e d986 86bd 7383 ba3d
00000010: 8b3a 0dbe 1b70 863d 17af f13d db3c be3d
00000020: 06b1 82bb 3816 a53d 58ad 48be 5fa3 97bd
00000030: 23d1 27be db5d 1fbe ce6e 973d 6fef 95bd
00000040: 92f6 9fbc fad9 39bd 6d77 543e 12fc e1bc
00000050: fd07 6abc 356b 023e ac0a 15bc 7a57 823e
00000060: 3d3e 83bd 84f8 edba 2f07 99bd 9759 293d
00000070: eb6f 623d 2f6f 1cbe 5e4f b53d d422 dd3c
00000080: 5b7e 203d 10e7 c73d 7148 6a3e c038 5d3e
00000090: 948b ad3d 2d55 823d 055a b93d 4e8e 55bc
000000a0: 5398 20be ad93 ecbd 28a9 38be ab69 4c3e
000000b0: daf6 853d 27d2 92bd 6e67 a33d 2ca6 e2bc
000000c0: aed0 9a3e 0d1a a13e 81ad b4bd 97a6 ec3d
000000d0: 3da8 fe3d 6985 0e3d 2418 ccbd d826 1d3e
000000e0: 3cc6 cd3d 062b 0a3e e7f7 a8be 46ce 053c
000000f0: c650 ffbd 4a99 49be fe1c 163e 77dc 543e
00000100: dd4d 91bd 76a2 8e3e 14eb a43e a784 05be
00000110: 7e65 bb3d 7145 65be d4f6 89bd 8153 6ebc
00000120: 6d9c 74bb 34f2 91be 4b4e a5be 3d7b 9d3e
00000130: 6fe3 90bb e162 ebbd 92f2 2bbc 218b 8a3e
00000140: 769e b6bc 5645 673c 5b39 a4bd 42cb 77be
00000150: 83ab 5d3e 4ba1 80be d875 22be 31e1 923c
00000160: c458 263e c6bc 48bd 9d3c 93be a607 ac3e
00000170: 1cec 54be 4717 85bd 2875 c73d 3e7f 5e3c
00000180: c385 833e fb94 943e 33ea 093e 9ac1 f8bd
00000190: 8da9 333e ba14 ad3d 76b7 8ebd 9a74 583c
000001a0: 4e20 fb3d b74c f13d 2a4f 85bd 85bd 673d
000001b0: b5ce 38be 37e2 5dbe 3c2f 8f3e 865d 9a3d
000001c0: 252b e03d 26a0 4d3e c421 61bd 75b8 bbbd
000001d0: 8a98 cabd eedf ed3d 91b4 b23d 913f 733e
000001e0: 960c 623e f7ce a7be 64e7 07be 0100 153e
000001f0: bbf5 34be ff7a d23c c10c 1fbd 5f42 d33d
00000200: 5313 9d3e ebda e4bd 049a 973e 0212 af3d
00000210: b09f 35be 82b1 3c3e 94ff a2be fa33 d2bd
00000220: ea92 ffbc bb89 d1bd 773d 2ebd c55a dc3c
00000230: fdca 4cbe 60f7 ccbd c3d8 953e 2da1 693e
00000240: 763a 353e 9ce2 db3d 0667 f73d e927 04be
00000250: 230c a63d 51ca 7ebe 1c6d 19be 43f4 13bc
00000260: 21f2 383e 0834 2bbd 3fd4 cdbd e095 ba3d
00000270: 9c6e 2abe 87d5 99bd d53a ec3d 3fb7 c73a
00000280: 8088 f5bb d60a 613e 6622 1fbe 43a3 46bd
00000290: f465 913e 7622 a0bc b782 1a3c 4690 463e
000002a0: 919e 473e 7d56 bfbd 2ee4 1cbe 58fc 16bd
000002b0: 2633 743d 5d7d bebd 07c8 073e 9d95 fbbd
000002c0: 149e aabd e494 593e 5dbf 55bc 4469 e93d
000002d0: 0ec5 b53d 1396 b8bd 4296 56bd 8b8a e53d
000002e0: 16ff 25bd 5dff 87bd 881c 11bb c288 723c
000002f0: ed26 d53c 33e5 27be 1797 70bc 7d3a b5bd
00000300: 3246 c53d 494a f5bd 4557 cb3d 7032 233e
00000310: 8578 29be 2bc5 283e 41d9 51be 8984 bbbc
00000320: 1b7d 23be 2a01 0abe 34ec ca3c b378 d5bd
00000330: dc73 3e3e f711 10be aa6e 3e3e ca5f cb3d
00000340: 14ae 623e 7e12 883c 777d e9bd 4c13 adbd
00000350: 6189 063e 076d e6bd b3c9 a9bd 19ff 1e3d
00000360: 20f3 30bc 432c 71be fcd6 f93d 10c9 a0bd
00000370: c61c 893e b055 d9bd 4197 64bc ccb1 cf39
00000380: 4676 223e a6bb 553d 9a22 36be 6576 d93d
00000390: 1994 3c3e cd0d 0d3e e4a0 2c3e 90cb df3d
000003a0: 5cf2 1cbd 2b27 6bbe 9dba 52be 45af 98bd
000003b0: f8e8 acbc 0dd1 143e c4c3 33bc ad6a 1ebd
000003c0: 28f0 68bd bba3 61be 3789 75bd a120 5e3e
000003d0: 967a 153e 4833 603e bb6c 47bd 54f2 51bd
000003e0: 59cb d03d 7e41 b0bb f222 29bd 5f14 203e
000003f0: 24d6 ea3c c1b2 e1bd a7aa 203e 6d0f 013b

fc.bias f4 [22]
-0.03588225 0.03346146 0.17610343 -0.117171906 -0.066714905 0.09706273 -0.010092737 0.031435214
0.28207082 0.007320794 -0.13425756 -0.068645865 0.21915835 -0.01720197 -0.14297508 0.07642584
-0.013068162 -0.15229475 0.13239565 0.08590817 0.13670714 0.045612857
00000000: 44f9 12bd e20e 093d 7554 343e d3f7 efbd
00000010: d3a1 88bd d3c8 c63d 025c 25bc 36c2 003d
00000020: 966b 903e 45e3 ef3b d07a 09be 3496 8cbd
00000030: 0c6b 603e 25eb 8cbc 0f68 12be 2785 9c3d
00000040: d81b 56bc 28f3 1bbe ba92 073e 9ff0 af3d
00000050: f5fc 0b3e 8cd4 3a3d
