models/GRU_NoiseEst/training_checkpoints/noise_gru_epoch_003_mse_0.1549.pth (torch, 14133 bytes, 10 tensors)

pre.weight f4 [22, 1, 3]
0	0xbc12ef93	-0.008968252
1	0x3e9c3509	0.30509213
2	0xbef5afe3	-0.47985753
3	0xbed87459	-0.42276266
4	0xbe610109	-0.21973051
5	0x3e218cc3	0.15776353
6	0xbc870f01	-0.016486647
7	0x3ee7ca37	0.45271465
8	0xbd667d03	-0.056271564
9	0x3e216015	0.15759309
10	0xbe2dcfbb	-0.16973774
11	0xbdde9959	-0.108690925
12	0xbf0bf281	-0.54666907
13	0xbec1416c	-0.37745225
14	0xbe6eaca1	-0.2330804
15	0x3ca3dcb5	0.020002702
16	0x3e6b077c	0.22952074
17	0x3eb2d822	0.3493052
18	0xbec5b943	-0.38617906
19	0xbe7c1753	-0.24618272
20	0x3e5c18f3	0.21493892
21	0x3ef2d0e1	0.47424987
22	0xbdfde17d	-0.12396524
23	0x3eda9207	0.42689535
24	0xbdc92f82	-0.098235145
25	0x3d6505bc	0.05591367
26	0x3f048146	0.51759756
27	0xbf07c5bf	-0.5303611
28	0xbeb76eb8	-0.3582666
29	0xbe105c47	-0.14097701
30	0xbe6bd295	-0.2302955
31	0x3efcb778	0.49358726
32	0xbec24a4c	-0.3794731
33	0xbe8a29b2	-0.26984936
34	0xbed099e0	-0.40742397
35	0xbf0b7618	-0.5447707
36	0xbeaee829	-0.341615
37	0x3efbc826	0.4917614
38	0x3e818a6c	0.2530092
39	0x3e8cae40	0.27476692
40	0x3ccf4a82	0.025304083
41	0xbe9a2304	-0.3010484
42	0x3dbd5cc0	0.09246206
43	0xbf0b56c3	-0.5442926
44	0xbed843d5	-0.42239252
45	0xbe989a18	-0.29805064
46	0x3ebaad7a	0.36460477
47	0x3ead986f	0.3390536
48	0xbe856833	-0.2605606
49	0xbccfb7bb	-0.025356164
50	0x3ebabf0c	0.36473882
51	0x3f144a65	0.5792602
52	0x3e701015	0.23443635
53	0x3daa94b7	0.08329146
54	0x3ec4b10d	0.3841633
55	0xbeaf9c57	-0.34298965
56	0x3dd609dd	0.104511
57	0xbee569b9	-0.44807222
58	0xbecd1871	-0.4005771
59	0xbe98e7ac	-0.29864252
60	0x3e881b9c	0.26583564
61	0x3e7294b1	0.23689534
62	0xbeacad18	-0.3372581
63	0x3e370225	0.17871912
64	0x3ea47e06	0.32127398
65	0xbd8c5421	-0.06851984

pre.bias f4 [22]
0	0x3caa40cf	0.020782856
1	0x3e0dee56	0.13860449
2	0x3eb66922	0.35627085
3	0x3f0f0239	0.55862767
4	0xbee666e1	-0.45000365
5	0xbe5a16b3	-0.21297722
6	0x3e66ffc4	0.22558504
7	0x3ef3101e	0.47473234
8	0x3f01acd1	0.5065432
9	0x3f0359ed	0.5130909
10	0x3df4c65c	0.119518965
11	0xbefef1a4	-0.49793732
12	0x3d55b81e	0.05217754
13	0xbeb66b19	-0.35628584
14	0xbf08821e	-0.53323543
15	0x3f02ca1a	0.5108963
16	0x3ee13766	0.43987578
17	0xbf14cb0f	-0.5812234
18	0x3ddb54c1	0.10709525
19	0xbdc34b09	-0.09535796
20	0xbdc329c0	-0.095294476
21	0xbe880cb0	-0.2657218

norm.weight f4 [22]
0	0x3f806fcd	1.0034119
1	0x3f7ece6f	0.9953374
2	0x3f7eba0a	0.99502623
3	0x3f802641	1.0011674
4	0x3f7ea9df	0.9947795
5	0x3f7ebc1f	0.995058
6	0x3f7eaafb	0.99479645
7	0x3f7ea9f5	0.99478084
8	0x3f7ea536	0.9947084
9	0x3f7ea0a9	0.994639
10	0x3f80a9a0	1.0051765
11	0x3f7ecd6f	0.99532217
12	0x3f7eac1f	0.99481386
13	0x3f7eb48b	0.99494237
14	0x3f7ea3eb	0.9946887
15	0x3f7eabdb	0.9948098
16	0x3f7ebad5	0.99503833
17	0x3f809b4a	1.004739
18	0x3f7eec61	0.99579436
19	0x3f7ebdb6	0.99508226
20	0x3f80731b	1.0035127
21	0x3f80768e	1.003618

norm.bias f4 [22]
0	0x3abaadc2	0.0014242458
1	0xbb24730a	-0.0025092983
2	0x3a5c6e30	0.0008408753
3	0xba198929	-0.0005856925
4	0xbbaac00c	-0.005210882
5	0x3bafcf37	0.005365278
6	0xbb9907aa	-0.004670103
7	0x3b094906	0.0020948066
8	0x3ba9e3a4	0.0051846076
9	0xbb694af2	-0.003559765
10	0x3ba6f48f	0.0050950716
11	0xbb615550	-0.0034383126
12	0x3ba2aeb1	0.0049646725
13	0x3ba8e136	0.0051538004
14	0xbb969a19	-0.0045960066
15	0x3ba915e8	0.005160082
16	0x3b86a9a2	0.0041095773
17	0xbba13d27	-0.00492062
18	0x3b436614	0.0029815482
19	0xbb9fc55c	-0.004875822
20	0xbb552833	-0.0032525181
21	0xbb8605fa	-0.004090068

gru.weight_ih_l0 f4 [48, 22]
0	0x3dc149ca	0.09437902
1	0xbe1a1f2e	-0.15050957
2	0x3dbefd56	0.09325664
3	0x3df842b6	0.12122099
4	0x3e37d3c4	0.17951876
5	0x3dc48d3c	0.09597251
6	0xbe813704	-0.25237286
7	0xbe21743a	-0.15766993
8	0x3e04bff6	0.12963852
9	0x3d40c39f	0.04706156
10	0xbe4d0d6c	-0.20024651
11	0xbe18b63c	-0.14913267
12	0x3e7630b4	0.24042016
13	0x3e31b95c	0.17355865
14	0xbde9dff5	-0.114196695
15	0xbd6cd6a8	-0.0578219
16	0xbe712ab0	-0.2355144
17	0x3a4ba63c	0.00077686063
18	0xbe3b68c5	-0.18301685
19	0xbe4ac71c	-0.19802517
20	0xbc0cd01b	-0.008594538
21	0x3d2eca0c	0.042673156
22	0xbdd21c1c	-0.10259268
23	0x3e146bee	0.14494297
24	0xbe186eac	-0.14885968
25	0x3e62f1f8	0.22162616
26	0x3e2cd428	0.16877806
27	0xbe5314a2	-0.2061334
28	0xbd89be07	-0.06725698
29	0x3c80b14d	0.015709544
30	0x3d281c57	0.041042652
31	0x3d5d9bb2	0.05410356
32	0x3dbe2fdb	0.092864715
33	0x3c1efde4	0.009704087
34	0xbdef1457	-0.116738014
35	0x3dfd0419	0.12354297
36	0xbe7afd60	-0.24510717
37	0xbe125bc4	-0.14292818
38	0xbd7094f7	-0.058735814
39	0xbdee92fe	-0.1164913
40	0xbda84cd1	-0.082177766
41	0xbe57342c	-0.21015996
42	0xbd4418e1	-0.04787529
43	0x3d707d03	0.05871297
44	0xbe21c11b	-0.1579632
45	0xbbf8fe0d	-0.0075986446
46	0x3e31da36	0.17368397
47	0xbcaa0c36	-0.020757776
48	0x3c487f29	0.012237349
49	0xbcdbf3c6	-0.026849639
50	0x3d64c8d0	0.055855572
51	0x3e1d5dec	0.1536786
52	0x3e6d1996	0.23154292
53	0x3e27eea9	0.16399635
54	0x3e786d79	0.2426051
55	0xbc537340	-0.012905896
56	0xbe6b457e	-0.22975728
57	0xbdfd2cff	-0.12362098
58	0x3e33a787	0.17544375
59	0xbbe0a826	-0.0068559824
60	0xbe04a330	-0.12952876
61	0xbe496612	-0.19667843
62	0xbe74d530	-0.2390945
63	0xbe52d549	-0.20589174
64	0xbd64dbf1	-0.055873815
65	0x3e072481	0.13197519
66	0x3e0f3cd5	0.1398805
67	0xbe71b431	-0.23603894
68	0x3e1a9517	0.15095936
69	0xbe43c1c6	-0.19116887
70	0xbd4591a1	-0.048234586
71	0xbdd9ff9b	-0.10644456
72	0xbd30166a	-0.042990126
73	0xbd5de20c	-0.054170653
74	0xbe6aef6c	-0.22942895
75	0xbe579eca	-0.21056667
76	0xbd0c20aa	-0.03421084
77	0x3c0a77e0	0.008451432
78	0xbdf357c8	-0.11881977
79	0x3db7aeb4	0.08968869
80	0xbe60fd03	-0.21971516
81	0xbcb5cd07	-0.022192491
82	0x3e5bfb9e	0.21482703
83	0xbddb6543	-0.107126735
84	0x3e61e092	0.22058323
85	0x3dc3a1c6	0.0955234
86	0xbe6c3aa3	-0.23069243
87	0x3e1d07ea	0.1533505
88	0xbce8799d	-0.028378302
89	0xbddcde06	-0.10784535
90	0x3e490170	0.19629455
91	0xbe498c17	-0.19682346
92	0x3cf3485e	0.029697593
93	0xbd695b94	-0.0569721
94	0x3e3c0de3	0.18364672
95	0x3d853266	0.06503753
96	0x3dec49dd	0.11537526
97	0x3dbf8c92	0.093529835
98	0xbd60926c	-0.05482714
99	0xbd419933	-0.047265243
100	0xbe585ed3	-0.21129923
101	0x3e05491b	0.13016169
102	0x3e50baa4	0.20383698
103	0x3e29bdae	0.16576263
104	0xbe38a23e	-0.1803064
105	0x3bbeb416	0.0058198078
106	0xbe39ec25	-0.18156488
107	0xbe07815a	-0.13232937
108	0xbe1aa64b	-0.15102498
109	0x3da418d4	0.08012548
110	0xbe178bc7	-0.14799415
111	0xba1daec3	-0.0006015116
112	0x3bab4529	0.0052267504
113	0x3e2a916c	0.16657037
114	0xbe3c1654	-0.18367893
115	0xbe354e08	-0.17705548
116	0xbe0f238d	-0.13978405
117	0x3e2dcf20	0.16973543
118	0xbdc2deab	-0.09515127
119	0x3e5d8014	0.21630889
120	0x3dc4566e	0.09586798
121	0x3d17fe49	0.03710774
122	0xbbef8bbe	-0.0073103597
123	0xbd60ac3c	-0.054851755
124	0x3d16c2f8	0.03680703
125	0xbd800f17	-0.06252878
126	0xbbeb49e1	-0.007180438
127	0x3cd8b239	0.02645217
128	0xbe4dd171	-0.20099427
129	0xbe0098a6	-0.12558231
130	0x3e492103	0.19641499
131	0xbe555818	-0.20834386
132	0xbc957199	-0.018242644
133	0x3e80853b	0.25101647
134	0x3daf21d6	0.085513756
135	0x3b4f5e2a	0.003164182
136	0xbe58c15f	-0.21167515
137	0x3df3354d	0.11875401
138	0xbe3195a9	-0.17342247
139	0xbd9be193	-0.07611384
140	0xbdb5f299	-0.088841625
141	0xbd02ba69	-0.031916056
142	0x3b1fb1a8	0.0024367366
143	0x3e57fc80	0.21092415
144	0x3cd7e191	0.026352676
145	0x3e65b50e	0.22432348
146	0x3e1f0fe7	0.1553341
147	0xbe26ecba	-0.16301242
148	0x3ddbb53c	0.10727927
149	0xbe339075	-0.17535575
150	0xbdd9878b	-0.10621556
151	0x3d924b22	0.07143237
152	0x3daa795d	0.083239295
153	0x3e41c9f0	0.1892469
154	0xbda857f3	-0.082199
155	0xbb91730c	-0.0044387635
156	0x3e08db01	0.13364793
157	0xbe7ced69	-0.2469994
158	0x3e345297	0.1760963
159	0xbe4e99a7	-0.20175801
160	0xbac6d967	-0.0015170992
161	0xbd19cdd8	-0.037549824
162	0xbe01c8b5	-0.1267422
163	0x3ce5205a	0.027969528
164	0x3e4e4336	0.20142826
165	0xbda05e23	-0.07830455
166	0xbe12a6e4	-0.14321476
167	0xbdb2a632	-0.087231055
168	0xbe8180f6	-0.25293702
169	0x3df1a637	0.11799281
170	0xbdebc536	-0.115122244
171	0xbe258c17	-0.16166721
172	0xbe0e2d6e	-0.13884518
173	0x3e0dd638	0.13851249
174	0x3e0cf11a	0.13763848
175	0x3e49dd4a	0.19713321
176	0x3dc0665d	0.09394524
177	0xbda08118	-0.07837123
178	0xbd99be16	-0.07506959
179	0x3da22c1b	0.07918569
180	0x3e57d00f	0.21075462
181	0x3d8055fb	0.062663995
182	0xbde763df	-0.11298346
183	0xbdfb8cfc	-0.1228275
184	0xbe777934	-0.24167329
185	0x3d730cd5	0.05933841
186	0xbe0a1fe5	-0.1348873
187	0xbe5ec5c4	-0.21755129
188	0x3e5b066f	0.21389173
189	0xbe2bb243	-0.1676722
190	0xbcbd17cc	-0.023082636
191	0x3d87bb2d	0.06627498
192	0x3b310c26	0.0027015298
193	0xbe31bbd4	-0.17356807
194	0xbe5463b9	-0.20741166
195	0x3e518600	0.20461273
196	0x3d10d068	0.035355
197	0x3e4ee74b	0.20205419
198	0xbda87acc	-0.08226547
199	0x3d9ff475	0.07810298
200	0xbd7e61c3	-0.06210495
201	0xbc487648	-0.012235232
202	0xbe16d16f	-0.1472833
203	0x3da40277	0.08008283
204	0x3da63b94	0.081168324
205	0xbc07fdd3	-0.0083002625
206	0xbd73b903	-0.059502613
207	0xbe1c9280	-0.1529026
208	0x3e2e97d6	0.17050108
209	0xbe3b8166	-0.1831108
210	0x3dcc584f	0.09977781
211	0xbdaffae0	-0.085927725
212	0xbdf52b6c	-0.11971173
213	0x3d3290ca	0.043595113
214	0xbe0951c6	-0.134101
215	0x3d702106	0.058625244
216	0x3d451bc2	0.048122175
217	0xbe3ffa8d	-0.18747921
218	0x3d288e29	0.0411512
219	0x3ddc7df8	0.10766214
220	0x3dc32063	0.09527662
221	0xbd14c540	-0.036320925
222	0xbe4c8823	-0.19973807
223	0xbd29b153	-0.041428875
224	0x3da72255	0.08160845
225	0xbdafd20e	-0.085849866
226	0x3db75304	0.08951381
227	0x3e2ff375	0.17182715
228	0xbe0036e8	-0.12520945
229	0xbb3c9b8c	-0.0028779237
230	0x3dccd66e	0.10001837
231	0x3c7202f8	0.014771216
232	0x3cd4c483	0.02597261
233	0x3d0b6a98	0.034037203
234	0xbe4e97d3	-0.20175104
235	0x3cccbdee	0.02499291
236	0x3e36a8cf	0.17837833
237	0x3e6ac5c0	0.22926998
238	0x3e1b04cf	0.15138553
239	0x3cf57cfe	0.029966827
240	0x3df78807	0.12086492
241	0xbdf1d302	-0.11807825
242	0xbe517dbb	-0.20458119
243	0xbe588dcc	-0.21147841
244	0x3e7c2da0	0.2462678
245	0x3e27d8ac	0.16391248
246	0xbe2ea861	-0.17056419
247	0x3dbf3905	0.093370475
248	0x3e46a35b	0.19398253
249	0x3e7abbc3	0.24485688
250	0x3e5ab135	0.21356662
251	0x3e4bbeff	0.19897078
252	0xbd5528c4	-0.05204083
253	0xbda8dc4d	-0.08245144
254	0x3e4cc65d	0.19997545
255	0x3e0a1538	0.13484657

gru.weight_hh_l0 f4 [48, 16]
0	0x3dfed090	0.12442124
1	0xbe76dc8e	-0.24107572
2	0x3d64ac3f	0.05582833
3	0xbe4ac661	-0.19802238
4	0x3df41dcd	0.119197465
5	0xbe558876	-0.20852837
6	0x3e180343	0.14844994
7	0xbe743e0f	-0.23851798
8	0xbe5c8782	-0.21536067
9	0x3c0b5938	0.008505158
10	0x3e4f1aa1	0.20225002
11	0xbe592eb5	-0.21209224
12	0xbddd6f92	-0.10812296
13	0x3e662cac	0.22477978
14	0xbd25d99e	-0.04049074
15	0x3dc95804	0.09831241
16	0xbe726bd5	-0.23673947
17	0xbda8472b	-0.08216699
18	0xbe055ba2	-0.13023236
19	0x3e52fcfd	0.2060432
20	0x3dca319b	0.09872743
21	0xbe3567b9	-0.17715348
22	0x3d0f70ac	0.03501956
23	0xbb64370d	-0.0034822852
24	0xbddd2b70	-0.10799301
25	0xbe0cfa7f	-0.13767432
26	0xbd9f192d	-0.07768474
27	0x3e4d9670	0.20076919
28	0xbe3331b2	-0.17499426
29	0xbe30f241	-0.17279913
30	0xbd964398	-0.07337111
31	0xba77c04f	-0.00094509585
32	0x3d81116c	0.06302151
33	0x3c4b1f32	0.012397574
34	0xbd859588	-0.065226614
35	0xbe168a3f	-0.14701174
36	0xbd226326	-0.039645337
37	0xbdd891bf	-0.10574674
38	0x3e54233a	0.20716563
39	0xbe7e7f9f	-0.24853371
40	0xbe1e023f	-0.15430544
41	0xbe558bd5	-0.20854123
42	0xbd503e11	-0.05084044
43	0x3e421416	0.18952975
44	0x3e5b048c	0.21388453
45	0xbe642630	-0.22280192
46	0xbc83955e	-0.016062435
47	0x3e1b8d6e	0.1519067
48	0x3dd827c0	0.10554457
49	0x3e55804e	0.20849726
50	0xbc28ef85	-0.010311012
51	0xbe287bb0	-0.16453433
52	0x3e2eb969	0.17062916
53	0xbdb9fb37	-0.090811186
54	0x3e09f9b3	0.13474159
55	0xbd804e2d	-0.06264911
56	0x3de46c58	0.111534774
57	0x3e631b99	0.22178496
58	0x3e68b3f6	0.227249
59	0xbe6de704	-0.23232657
60	0xbe2e976d	-0.17049952
61	0xbddde1c6	-0.108340785
62	0xbe283699	-0.16427077
63	0x3e7af132	0.24506071
64	0xbcd24fe2	-0.025672857
65	0xbe25a24b	-0.16175191
66	0xbdde962a	-0.10868485
67	0xbe089cd2	-0.13341072
68	0x3ddb50ff	0.10708808
69	0xbe64bcfc	-0.22337717
70	0xbe693bf5	-0.22776778
71	0xbe7c0aad	-0.24613447
72	0x3de75340	0.112951756
73	0x3df2a2a8	0.118474305
74	0xbe2471b5	-0.16059001
75	0x3d6dcac0	0.058054686
76	0x3e388eda	0.18023244
77	0x3cfdeb38	0.03099595
78	0xbd67bd7c	-0.05657719
79	0x3cc31431	0.023813339
80	0xbd03536e	-0.032061987
81	0x3e04c77c	0.12966722
82	0xbe2a50d7	-0.166324
83	0x3e07498f	0.13211654
84	0x3e15d544	0.14632136
85	0xbe20abc2	-0.1569052
86	0x3e5698f8	0.2095679
87	0x3e774caf	0.24150346
88	0xbdbeb5e9	-0.0931204
89	0xbd9a8d00	-0.07546425
90	0x3df40bd2	0.11916317
91	0xbe4dfdad	-0.20116301
92	0x3dbf7111	0.093477376
93	0x3d5892b5	0.052874286
94	0x3e1be01d	0.15222211
95	0xbe58c86e	-0.21170208
96	0xbe59fbae	-0.21287414
97	0x3dedd555	0.116129555
98	0x3dafe095	0.085877575
99	0xbe72c06f	-0.2370622
100	0xbe096daf	-0.13420747
101	0xbe699274	-0.22809774
102	0xbe351795	-0.17684777
103	0xbdf112b2	-0.11771144
104	0x3e570cbb	0.2100095
105	0xbd462014	-0.048370436
106	0x3e13ffd4	0.1445306
107	0x3e6dd99e	0.23227546
108	0x3ddec97a	0.10878272
109	0xbe6445af	-0.22292207
110	0x3df7299c	0.12068483
111	0x3dc3f363	0.09567907
112	0x3e4b6c5f	0.19865559
113	0xbe80ab48	-0.25130677
114	0x3e1df011	0.1542361
115	0x3e4cabed	0.1998746
116	0xbe735382	-0.23762324
117	0x3d005bca	0.031337537
118	0x3e555522	0.20833257
119	0xbe35b532	-0.17744902
120	0x3d9d79a3	0.07689216
121	0x3ded02df	0.11572813
122	0x3d90b116	0.070650265
123	0x3e81c5c0	0.25346184
124	0x3e56bcb5	0.20970424
125	0x3e610282	0.21973613
126	0xbcd6d596	-0.026224893
127	0x3e51620e	0.20447561
128	0xbe73be47	-0.23803054
129	0xbe056442	-0.13026527
130	0xbd5cc70b	-0.05390076
131	0xbd8d4be0	-0.06899238
132	0x3e71e642	0.23622993
133	0x3de69948	0.11259705
134	0x3e2a485e	0.16629168
135	0x3e29a3bb	0.16566364
136	0xbe39c625	-0.18141992
137	0xbd0caf36	-0.03434678
138	0x3cff68c0	0.031177878
139	0x3d74bd55	0.059750874
140	0x3dfc7d28	0.12328559
141	0xbdd6b080	-0.104828835
142	0xbda50df1	-0.080593
143	0x3e5bacb0	0.21452594
144	0xbd93bb1f	-0.07213425
145	0xbe2d6898	-0.1693443
146	0x3e284023	0.16430716
147	0x3e28aade	0.1647143
148	0xbd9a7e5c	-0.075436324
149	0xbd4ea34f	-0.050448712
150	0xbe3b29cd	-0.18277664
151	0xbe5b0480	-0.21388435
152	0x3dc49b90	0.09599984
153	0xbdd1139b	-0.102088176
154	0x3e4cf5d6	0.20015654
155	0xbe51c1e1	-0.20484115
156	0xbd1fd0e5	-0.039017577
157	0x3bc86946	0.006116065
158	0x3dfcfacf	0.123525254
159	0x3e5040ed	0.20337267
160	0x3e32ad15	0.17448838
161	0x3dd6ff9f	0.104979746
162	0xbde21ea6	-0.11041002
163	0xbe356e59	-0.17717876
164	0xbe6a7d7c	-0.22899431
165	0x3c89345f	0.016748605
166	0x3e73141b	0.23738138
167	0xbd2ea7af	-0.042640384
168	0xbc7c70b8	-0.015407734
169	0xbe397fe6	-0.18115196
170	0x3da6c172	0.081423655
171	0x3e27bcfb	0.16380684
172	0xbe76e9b7	-0.24112593
173	0xbe300692	-0.17190006
174	0x3e431143	0.19049554
175	0x3d602e97	0.05473193
176	0xbca67c4e	-0.020322945
177	0x3d4a15c9	0.049337182
178	0xbd1086a0	-0.03528464
179	0xbe2df4f4	-0.16987973
180	0xbe69d4f6	-0.22835144
181	0x3e22fe49	0.15917315
182	0xbcc832c7	-0.024438275
183	0xbdbd0bc3	-0.09230759
184	0xbd72a20e	-0.05923658
185	0xbe10d575	-0.14143927
186	0xbda2723a	-0.07931943
187	0xbe60bf89	-0.21948065
188	0x3e3aa5a8	0.18227255
189	0x3dc63efc	0.09679982
190	0xbe059148	-0.13043702
191	0xbda3e718	-0.08003062
192	0x3ddafdf8	0.10692972
193	0xbdb33136	-0.087496206
194	0x3d7b2586	0.061315082
195	0x3d877801	0.06614686
196	0xbe1bb56f	-0.1520593
197	0x3d735213	0.059404444
198	0x3ca3c5c0	0.019991755
199	0x3e5a7fa5	0.21337755
200	0xbdb19c79	-0.08672423
201	0xbd80050d	-0.06250963
202	0x3e585b01	0.21128465
203	0xbe568910	-0.20950723
204	0x3c4f3162	0.012646051
205	0x3e73b921	0.2380109
206	0xbdf0a441	-0.11750079
207	0x3e78c37c	0.24293321
208	0x3e6707ad	0.22561522
209	0x3e6c42c6	0.23072347
210	0xbca17564	-0.019709297
211	0x3e6bd3b4	0.23029977
212	0xbde3ebe1	-0.11128975
213	0xbdb92fd8	-0.090423286
214	0x3dc88b11	0.0979215
215	0x3d686164	0.056733504
216	0x3e1298ad	0.14316054
217	0x3e6ef028	0.233338
218	0xbe256e53	-0.16155367
219	0x3e0ba633	0.13637619
220	0x3db1d1bb	0.08682581
221	0x3e024a36	0.12723622
222	0x3df98a23	0.121845506
223	0xbdb55641	-0.08854342
224	0xbe454924	-0.19266182
225	0x3e4807c1	0.19534208
226	0xbe0d90a8	-0.13824713
227	0x3e1eb478	0.15498531
228	0xbe7919bd	-0.24326225
229	0xbd1c6e72	-0.038191266
230	0xbb2117d5	-0.0024580855
231	0x3d457721	0.048209313
232	0x3c77b16c	0.015117984
233	0x3dabeea7	0.08395129
234	0xbcba7dd2	-0.022765074
235	0x3d87ea0d	0.066364385
236	0x3e814852	0.2525049
237	0xbe206a10	-0.1566546
238	0xbc0c67a4	-0.008569632
239	0xbdcde4c6	-0.10053401
240	0x3e5d13d6	0.21589598
241	0x3e5daa13	0.2164691
242	0xbc3036d8	-0.010755263
243	0xbdb7f2c5	-0.089818515
244	0xbe1936e1	-0.14962341
245	0x3e397456	0.18110785
246	0xbc88cbde	-0.016698774
247	0x3e6d6156	0.23181662
248	0x3e100767	0.14065324
249	0x3e63b4f9	0.22237004
250	0x3e4ba203	0.19886021
251	0xbe2acca5	-0.16679628
252	0x3d8d2151	0.0689112
253	0xbdcfa915	-0.10139672
254	0x3df888f2	0.12135495
255	0xbcc0b367	-0.023523046

gru.bias_ih_l0 f4 [48]
0	0x3e453a30	0.19260478
1	0xbe0f269b	-0.1397957
2	0x3dbfd602	0.093669906
3	0x3e815f76	0.25268143
4	0x3c8a5c10	0.016889602
5	0x3d9e778b	0.07737645
6	0x3dc9ecf8	0.09859651
7	0x3e3c1978	0.1836909
8	0xbd922409	-0.071357794
9	0xbe1091ad	-0.14118071
10	0xbcc0246e	-0.023454871
11	0x3e4da003	0.20080571
12	0x3cc55d51	0.024092348
13	0x3e368359	0.17823543
14	0xbbe42742	-0.0069626877
15	0x3d97c81b	0.07411214
16	0x3c5d6924	0.013513837
17	0x3c40f419	0.011776947
18	0xbe6f03c6	-0.23341283
19	0xbe5a798b	-0.21335427
20	0x3cd00553	0.025393164
21	0x3e0349fc	0.12821192
22	0x3e282731	0.164212
23	0x3c8457f5	0.016155222
24	0x3ddfe502	0.10932352
25	0x3de09128	0.10965186
26	0xbe5934be	-0.21211526
27	0xbe655445	-0.22395428
28	0xbe419af2	-0.18906763
29	0x3c02ce79	0.007983797
30	0xbe1c83ad	-0.15284605
31	0xbd9af3bb	-0.07566019
32	0xbd0612fe	-0.032732956
33	0x3dc4a7d6	0.09602325
34	0x3d812fe6	0.06307964
35	0x3e682f18	0.22674215
36	0x3e65960a	0.22420517
37	0xbe1dd4d8	-0.15413225
38	0xbbca64d8	-0.0061765723
39	0x3d3985b4	0.045293525
40	0x3e5a164c	0.21297568
41	0xbda52da6	-0.080653474
42	0xbdc2b97f	-0.09508037
43	0xbe1cc97a	-0.15311232
44	0x3e3f2b3e	0.1866884
45	0xbd98c07b	-0.07458588
46	0xbdb5446b	-0.0885094
47	0x3e2ce936	0.16885838

gru.bias_hh_l0 f4 [48]
0	0x3e663fae	0.2248523
1	0xbc81894a	-0.015812535
2	0xbe2f2c5b	-0.17106764
3	0x3e5573cf	0.20844959
4	0xbda437e6	-0.08018474
5	0xbde0c795	-0.10975567
6	0xbe34ba3a	-0.17649165
7	0xbe00809f	-0.12549065
8	0xbe430397	-0.19044338
9	0xbe1447a3	-0.14480452
10	0xbe6d3076	-0.23163018
11	0xbd38b5d1	-0.04509527
12	0x3dd32e51	0.103115685
13	0xbe3db1db	-0.18524878
14	0xbbb2b002	-0.0054531107
15	0xbdc21dc5	-0.09478334
16	0x3e00c363	0.12574534
17	0x3e62d65b	0.22152083
18	0xbceab0b3	-0.02864871
19	0xbdf707f8	-0.12062067
20	0xbe3ffade	-0.18748042
21	0xbe11d1d2	-0.14240196
22	0x3d8c31f6	0.06845467
23	0x3d805879	0.06266875
24	0x3e0de6bc	0.1385755
25	0xbd034bdf	-0.03205478
26	0x3e0753f4	0.1321562
27	0xbe686603	-0.22695164
28	0x3d9366ea	0.07197364
29	0x3e7c4c18	0.24638402
30	0xbe78010f	-0.24219154
31	0xbe007309	-0.12543882
32	0x3e28e4e8	0.16493571
33	0xbd2f348b	-0.04277472
34	0xbe0336b7	-0.12813841
35	0x3e16d294	0.14728767
36	0x3c6d1900	0.0144712925
37	0x3c7882e0	0.015167922
38	0xbda6897c	-0.08131692
39	0x3e45384b	0.19259755
40	0x3e0885a3	0.13332228
41	0x3d27916e	0.040910177
42	0x3d2a0e0a	0.041517295
43	0x3e09842d	0.13429327
44	0x3e212904	0.15738302
45	0xbdd9aec6	-0.106290385
46	0xbcb732c8	-0.022363082
47	0x3dde1fff	0.108459465

fc.weight f4 [22, 16]
0	0xbded9859	-0.11601324
1	0x3e6a2dee	0.22869083
2	0xbe2a4e22	-0.16631368
3	0x3de4e317	0.111761265
4	0xbe3d4007	-0.18481456
5	0x3daee08f	0.08538925
6	0x3e2d70e7	0.169376
7	0x3d1115e2	0.03542126
8	0xbcf7de6e	-0.03025743
9	0x3e27e624	0.16396385
10	0xbe32817f	-0.17432211
11	0xbe274467	-0.16334687
12	0xbe54c43a	-0.2077798
13	0xbe1841c6	-0.1486884
14	0x3c40c244	0.0117650665
15	0xbdf2baff	-0.11852073
16	0x3d4f41e2	0.05059994
17	0x3c548007	0.012969977
18	0x3e54d42c	0.20784062
19	0xbdd3277b	-0.10310265
20	0xbd8121ff	-0.06305312
21	0x3e23da97	0.16001354
22	0xbd6cf92e	-0.057854824
23	0x3e7104bc	0.23536962
24	0xbdc068dc	-0.09395
25	0xbc057b77	-0.008147112
26	0xbd8441c2	-0.06457855
27	0x3de400f8	0.11132997
28	0x3db954d5	0.090493836
29	0xbe0dd274	-0.13849813
30	0x3e2356f8	0.15951145
31	0xbc2c73ca	-0.010525653
32	0xbd6daac4	-0.058024183
33	0xbc25397c	-0.010084506
34	0x3e359c90	0.17735505
35	0x3e7832b2	0.24238089
36	0x3dee2717	0.116285495
37	0x3d48a07e	0.048981182
38	0x3e21a2c2	0.15784743
39	0xbdcba611	-0.09943784
40	0xbe0b3704	-0.13595206
41	0xbd89abfe	-0.06722258
42	0xbe205179	-0.1565608
43	0x3de73435	0.112892546
44	0x3ceebb2c	0.029141985
45	0xbda46f5b	-0.08029052
46	0xbca3e38b	-0.020005962
47	0xbc271f65	-0.010200356
48	0x3e60e14c	0.21960944
49	0x3e5f3c07	0.21800242
50	0xbe4095ba	-0.18807116
51	0x3dc3d542	0.0956216
52	0x3dbad61b	0.091228686
53	0x3dc7af0a	0.09750183
54	0xbd1ace3d	-0.03779434
55	0x3d89df01	0.06731988
56	0x3d70f023	0.058822762
57	0x3e779a91	0.24180056
58	0xbe7312e5	-0.23737676
59	0xbdb78653	-0.08961167
60	0xbe26cb80	-0.16288567
61	0xbdf507c7	-0.11964374
62	0x3d5e7dfd	0.05431937
63	0x3e199701	0.1499901
64	0xbe3c4c49	-0.18388475
65	0x3e2162c7	0.15760337
66	0x3e5a3497	0.21309124
67	0xbdf3d79a	-0.11906357
68	0x3d1d2716	0.038367353
69	0xbe03ed36	-0.12883458
70	0x3d4b8c77	0.049694505
71	0xbde3e5d9	-0.11127824
72	0xbdcbb8db	-0.09947368
73	0xbe2f0c68	-0.17094576
74	0xbe562f19	-0.20916404
75	0x3e514d7e	0.20439717
76	0xbcd94b48	-0.026525155
77	0xbc068307	-0.00820995
78	0xbdf4a1d0	-0.11944926
79	0x3e32aa04	0.17447668
80	0xbe0d2a95	-0.13785775
81	0xbdd94ed7	-0.10610741
82	0xbe4362fb	-0.19080727
83	0xbe536af1	-0.20646264
84	0x3e5dcbe3	0.21659808
85	0xbe4220a7	-0.18957768
86	0xbd230f4c	-0.03980951
87	0xbd8a8c4b	-0.0676504
88	0x3db18501	0.086679466
89	0x3d862df7	0.06551736
90	0xbe3f9bcb	-0.18711774
91	0x3e6b2048	0.22961533
92	0xbe799e59	-0.24376811
93	0x3cda2a11	0.026631387
94	0xbc80cc92	-0.015722547
95	0xbd7b43d3	-0.06134398
96	0x3e33bbdb	0.1755213
97	0x3e532bdd	0.20622201
98	0x3d17a160	0.037019134
99	0xbdab6fca	-0.083709314
100	0x3e392ec8	0.18084252
101	0x3e1c344e	0.15254328
102	0x3d455ed7	0.04818615
103	0xbd827e24	-0.06371716
104	0x3c72c582	0.014817597
105	0x3e5fc62c	0.2185294
106	0x3cbba069	0.022903638
107	0xbd35e01a	-0.044403173
108	0xbe53add4	-0.20671779
109	0xbe0d6c8a	-0.13810936
110	0x3e3dcd28	0.18535292
111	0xbb94704f	-0.00452999
112	0xbc3b6a81	-0.011438967
113	0x3dbd0f78	0.09231466
114	0xbe23fe0b	-0.16014878
115	0xbc845103	-0.01615191
116	0xbd9b0f4b	-0.07571276
117	0x3e0ab18d	0.13544293
118	0x3e4ad371	0.19807221
119	0x3e25b911	0.16183878
120	0x3e39a148	0.1812793
121	0xbe649de3	-0.22325854
122	0xbdaaf87c	-0.08348176
123	0x3d0ee0ad	0.034882236
124	0xbe53ef23	-0.20696692
125	0x3d9430b6	0.072358534
126	0xbe2251e4	-0.15851551
127	0x3dd15d97	0.10222929
128	0x3e4fd11c	0.20294613
129	0xbe5cb170	-0.21552062
130	0x3e5acd58	0.21367395
131	0x3df8090a	0.12111099
132	0xbe279bac	-0.16367978
133	0x3e6ff73d	0.23434158
134	0xbe588f43	-0.211484
135	0xbe282075	-0.16418631
136	0xbdf45cba	-0.11931749
137	0xbc8b11d8	-0.016976282
138	0x3d233357	0.039843883
139	0xbd91b664	-0.071148664
140	0xbe70ddf8	-0.23522174
141	0xbd09c1cf	-0.033632096
142	0x3e435cad	0.19078322
143	0x3e4a018f	0.19727157
144	0x3e058233	0.13037948
145	0x3d014112	0.031556197
146	0x3d87b3db	0.066261016
147	0xbe445c27	-0.19175778
148	0x3dc4430d	0.095831014
149	0xbe79a5c7	-0.24379645
150	0xbdde6ec9	-0.10860974
151	0xbd78d1f7	-0.060747113
152	0x3e368b7a	0.17826644
153	0xbb800681	-0.0039070253
154	0xbdde61df	-0.10858511
155	0x3d48d414	0.04903038
156	0xbe4ee9bf	-0.20206355
157	0xbd7a7d3b	-0.061154585
158	0x3d98c216	0.07458894
159	0xbcb251a7	-0.02176745
160	0xbcf8f57f	-0.0303905
161	0x3e20f73e	0.15719315
162	0xbe3df2c1	-0.18549635
163	0xbdf81875	-0.1211404
164	0x3e7d41c3	0.24732117
165	0x3d35b681	0.044363502
166	0xbd0fa6e2	-0.03507126
167	0x3e06b137	0.1315354
168	0x3e1f84f3	0.1557806
169	0xbd40ebeb	-0.04709999
170	0xbde04cbb	-0.10952135
171	0xbd3a1d07	-0.04543784
172	0x3dafd3f0	0.08585346
173	0xbd18d8b7	-0.03731605
174	0x3e10b831	0.14132763
175	0xbe4b3a78	-0.19846523
176	0xbe008b9b	-0.12553255
177	0x3e480264	0.19532162
178	0x3d094763	0.033515345
179	0x3d62f7f5	0.05541225
180	0x3db36354	0.0875918
181	0xbd8405f9	-0.06446452
182	0xbdc1ad81	-0.09456921
183	0x3d972feb	0.073821865
184	0xbd795654	-0.060873345
185	0xbddea941	-0.10872126
186	0x3ce295dd	0.027659351
187	0x3d6372ef	0.05552953
188	0xbce0ca91	-0.027440341
189	0xbe32a934	-0.17447358
190	0xbd281f4e	-0.04104548
191	0xbe0b8b21	-0.13627292
192	0x3e019b9a	0.12657014
193	0xbe248820	-0.16067553
194	0x3e4704af	0.1943538
195	0x3dd5d0e1	0.10440231
196	0xbe55ec20	-0.20890856
197	0x3e38c1ba	0.18042651
198	0xbe77da7a	-0.24204436
199	0xbc9a3ed4	-0.018828787
200	0xbe1a9758	-0.15096796
201	0xbe61425b	-0.21997969
202	0x3ca0c405	0.01962472
203	0xbe015f02	-0.12633899
204	0x3e33caf7	0.17557894
205	0xbe4e7493	-0.20161657
206	0x3e4f5f52	0.20251206
207	0x3e1fa5d6	0.15590605
208	0x3e655b27	0.22398053
209	0xbd9fef8c	-0.07809362
210	0xbe18cf55	-0.14922841
211	0xbe258773	-0.16164951
212	0x3e4f8c58	0.2026838
213	0xbdfff746	-0.124983355
214	0xbced75a4	-0.02898676
215	0xbd0aacf3	-0.033856343
216	0x3d2d46fb	0.04230402
217	0xbe544dd4	-0.20732814
218	0x3e4a5c8b	0.19761865
219	0xbe382dd4	-0.17986232
220	0x3e7f3dc2	0.24925902
221	0xbdcc1f86	-0.0996695
222	0xbdda52fb	-0.106603585
223	0xbd00677d	-0.031348694
224	0x3da20d74	0.07912722
225	0xbd51573b	-0.05110858
226	0xbe7b8e75	-0.24566062
227	0x3e2eda43	0.17075448
228	0x3e780de9	0.24224056
229	0x3e06a321	0.13148166
230	0x3e74fad0	0.23923802
231	0x3d95f879	0.07322783
232	0xbccc85a3	-0.024966067
233	0xbe465c25	-0.19371088
234	0xbe5a3ec6	-0.21313009
235	0xbe2abd0d	-0.1667368
236	0xbd6dce5b	-0.058058124
237	0x3e1a929b	0.15094988
238	0xbdc84e4b	-0.09780558
239	0xbc771d52	-0.015082674
240	0x3ac23bec	0.0014818884
241	0xbe2a0e75	-0.16607077
242	0xbc2a9e59	-0.01041373
243	0x3e71b4df	0.23604153
244	0x3e470c48	0.19438279
245	0x3e488340	0.19581318
246	0xbcf675a7	-0.030085398
247	0x3ab8f66e	0.0014111528
248	0x3e0665de	0.13124797
249	0xbd9f2be4	-0.07772043
250	0xbdc46692	-0.09589876
251	0x3e609146	0.21930417
252	0x3ca12503	0.019670969
253	0xbe274a94	-0.16337043
254	0x3e5d2097	0.21594463
255	0x3d13bb74	0.03606744

fc.bias f4 [22]
0	0xbd7a6162	-0.061128028
1	0xbc2e8e7b	-0.010654087
2	0x3e4810f1	0.19537713
3	0xbe4f5bee	-0.20249912
4	0xbe2f987a	-0.17148009
5	0x3c8a7cc0	0.016905189
6	0xbdc22d7c	-0.09481332
7	0x3c260784	0.010133628
8	0x3e66f65f	0.2255492
9	0xbd0a7477	-0.033802476
10	0xbe54c0db	-0.20776694
11	0xbdddb2fd	-0.10825155
12	0x3e7060d7	0.23474441
13	0xbd548d78	-0.051892728
14	0xbdeb77e7	-0.11497479
15	0x3ddb59a7	0.10710459
16	0x3cd10956	0.025517147
17	0xbe5c2c00	-0.2150116
18	0x3e511e0e	0.20421621
19	0x3e0adea5	0.13561495
20	0x3e58f997	0.21188961
21	0x3dd4f47a	0.10398193
