models/GRU_NoiseEst/training_checkpoints/noise_gru_epoch_038_mse_0.0563.pth (torch, 14133 bytes, 10 tensors)

pre.weight f4 [22, 1, 3]
-0.025226634 0.28088295 -0.4906585 -0.45901877 -0.26488692 0.09329539 -0.059939522 0.40199402
-0.09847636 0.22431645 -0.09945262 -0.026672488 -0.59324044 -0.42572924 -0.2982031 0.07815836
0.29262617 0.43059608 -0.41643074 -0.28039056 0.17377618 0.39867288 -0.19668682 0.35506573
-0.006084455 0.14745066 0.6146485 -0.46014902 -0.28864712 -0.07290178 -0.23163366 0.4861963
-0.38259998 -0.2769634 -0.4100817 -0.55170566 -0.28678608 0.5410955 0.30428916 0.24707827
-0.0013347336 -0.31639656 0.07032822 -0.5628668 -0.44699228 -0.31466693 0.34136143 0.32321712
-0.22182661 0.010754902 0.40727174 0.56232834 0.21881165 0.066843614 0.41392127 -0.31209984
0.13338229 -0.43095103 -0.38317177 -0.28160113 0.24532449 0.21973169 -0.35212308 0.14602998
0.28817508 -0.10084019
00000000: 16a8 cebc e4cf 8f3e 9737 fbbe 8204 ebbe
00000010: 429f 87be a711 bf3d 2583 75bd 29d2 cd3e
00000020: f9ad c9bd 36b3 653e d1ad cbbd 4380 dabc
00000030: 9bde 17bf 2ff9 d9be 14ae 98be 7e11 a03d
00000040: 19d3 953e 1777 dc3e 6936 d5be 5a8f 8fbe
00000050: 62f2 313e da1e cc3e 4568 49be 2dcb b53e
00000060: 1c60 c7bb 4efd 163e 9b59 1d3f a798 ebbe
00000070: 8ec9 93be 874d 95bd 6031 6dbe b9ee f83e
00000080: 25e4 c3be 26ce 8dbe 3bf6 d1be 953c 0dbf
00000090: a0d5 92be 3c85 0a3f cacb 9b3e 1602 7d3e
000000a0: 3af2 aeba bbfe a1be 3e08 903d 0a18 10bf
000000b0: 2cdc e4be 061c a1be edc6 ae3e b77c a53e
000000c0: 8426 63be 5435 303c ec85 d03e c0f4 0f3f
000000d0: 2910 603e 4ee5 883d 7ded d33e 8dcb 9fbe
000000e0: 5e95 083e 9da5 dcbe 172f c4be 062e 90be
000000f0: 5836 7b3e 5801 613e 7a49 b4be e288 153e
00000100: af8b 933e 4d85 cebd

pre.bias f4 [22]
-0.050442178 0.13826267 0.2969684 0.6451651 -0.48443192 -0.22535616 0.23121406 0.3986544
0.58175796 0.5840474 0.103287205 -0.4566383 -0.025764503 -0.31941083 -0.52091646 0.5256002
0.4814848 -0.5926078 0.032494396 -0.087869406 -0.030746091 -0.21809995
00000000: 759c 4ebd bb94 0d3e 3e0c 983e 8a29 253f
00000010: 7607 f8be c4c3 66be 61c3 6c3e 6e1c cc3e
00000020: 17ee 143f 2184 153f 3e88 d33d 7fcc e9be
00000030: 1410 d3bc d189 a3be c85a 05bf bc8d 063f
00000040: 2d85 f63e 25b5 17bf d818 053d e0f4 b3bd
00000050: 3adf fbbc 9855 5fbe

norm.weight f4 [22]
1.0143614 1.0076045 0.9373239 1.0882056 1.0329541 1.0041039 1.0248992 0.9202497
1.0653818 0.9367346 0.98314184 0.9432378 1.0015943 0.944946 0.95968145 0.9581408
1.0710047 0.97677356 1.0105814 0.97910243 0.96586657 0.9766711
00000000: 98d6 813f 2ff9 803f 76f4 6f3f 524a 8b3f
00000010: d737 843f 7a86 803f e62f 833f 7c95 6b3f
00000020: 6e5e 883f d7cd 6f3f 2faf 7b3f 0878 713f
00000030: 3e34 803f fbe7 713f afad 753f b748 753f
00000040: af16 893f d50d 7a3f bb5a 813f 75a6 7a3f
00000050: 0843 773f 1e07 7a3f

norm.bias f4 [22]
-0.04060346 0.0070244977 -0.03652212 0.0787317 -0.053449646 0.058598254 -0.031599667 -0.014265162
0.09495939 0.014109072 -0.032833457 0.010129845 -0.038904548 0.04271678 -0.030413449 0.04691064
0.021855839 -0.0060652955 -0.020909918 -0.010670391 0.028420217 0.0038912762
00000000: d04f 26bd c22d e63b 3898 15bd 163e a13d
00000010: 04ee 5abd b904 703d a76e 01bd 6db8 69bc
00000020: 127a c23d bd29 673c 607c 06bd a6f7 253c
00000030: 605a 1fbd caf7 2e3d a025 f9bc 5f25 403d
00000040: 040b b33c 63bf c6bb 474b abbc ddd2 2ebc
00000050: 84d1 e83c c804 7f3b

gru.weight_ih_l0 f4 [48, 22]
0.014419362 -0.23287034 0.16168317 0.14674091 0.12380353 0.18734616 -0.36333165 -0.051523242
0.25338113 -0.036256135 -0.2664688 -0.15094155 0.25477174 0.1210829 -0.17868946 0.011331486
-0.13407901 0.015320835 -0.18000796 -0.21028364 0.0017894126 0.051200353 -0.15166715 0.058630224
-0.06352247 0.2539304 0.07275096 -0.10600874 -0.16460595 0.116299495 0.14357227 0.010488711
0.036549132 -0.021998558 -0.07651475 0.08946135 -0.3107288 -0.07021295 0.030239848 -0.093510374
-0.0630048 -0.23004797 -0.019440314 0.07778695 -0.21148634 -0.041864138 0.1990455 -0.00782658
0.008150092 -0.042540878 0.08213915 0.15056081 0.24394241 0.17386334 0.24972992 -0.036806654
-0.20478213 -0.14172477 0.16573247 0.003134889 -0.10721315 -0.19027098 -0.23840116 -0.21402644
-0.044295274 0.14476417 0.18468581 -0.22736283 0.1694688 -0.103273615 -0.12672612 -0.024330312
-0.105615616 -0.0118533755 -0.17324908 -0.24716611 -0.0798402 0.028231902 -0.1137949 -0.0017706183
-0.26074553 0.018430024 0.28568065 -0.118688926 0.1926093 0.13684581 -0.2704068 0.11006467
-0.042885806 -0.111403935 0.2528214 -0.098562784 -0.06558974 0.022705995 0.14614202 0.11341317
0.17741685 0.09137415 -0.013937539 -0.048243567 -0.21250288 0.09194885 0.22725351 0.17008433
-0.12962915 -0.048213653 -0.23127158 -0.06592413 -0.20180276 0.024554243 -0.1926122 0.010921563
-0.013899743 0.18413408 -0.15709522 -0.19527748 -0.16060887 0.19856247 -0.06361702 0.21822879
0.11853284 0.05314335 -0.04220293 -0.049940538 0.080029234 -0.103393406 -0.08018478 -0.02906014
-0.2532175 -0.06791416 0.15392686 -0.2527139 0.021861643 0.31238204 -0.0023095366 0.0018396061
-0.123359784 0.030581586 -0.0843158 -0.1633561 -0.17186955 0.05304815 0.049800973 0.30163738
-0.0576212 0.13540466 0.20946746 -0.22876415 0.038586248 -0.22223563 -0.17339358 0.10400212
0.033404455 0.14690652 -0.059644073 -0.019685203 0.15915214 -0.2680905 0.1518524 -0.17491382
-0.016488193 -0.019865604 -0.11375587 0.007786228 0.18383822 -0.110432096 -0.11417663 -0.056273267
-0.27100366 0.13707912 -0.093073525 -0.14129026 -0.12022019 0.12192812 0.16328168 0.21900862
0.12876502 -0.036396462 -0.1049237 0.05507179 0.29979354 -0.026935121 -0.026812222 -0.20201306
-0.33728918 0.12579611 -0.05009694 -0.20871869 0.194124 -0.12622385 0.03637919 -0.00022938085
-0.09184681 -0.19410254 -0.21118411 0.21093184 0.03092898 0.19942215 -0.08510271 0.105755486
-0.054922268 0.046750348 -0.19378681 0.13267083 0.012823553 0.07348665 0.032185804 -0.19918218
0.12226932 -0.17076777 0.0989906 -0.1923204 -0.16195954 0.10552628 -0.09197476 0.0180896
-0.007608071 -0.15779053 0.007448191 0.072494105 0.07538696 -0.09831873 -0.12740704 0.0403529
-0.015747659 0.008577254 0.003494936 0.25416976 -0.025400802 -0.054837044 0.06508294 0.02567111
0.02524963 -0.035165306 -0.2426035 0.08251229 0.26159143 0.1932226 0.119020164 0.07247738
0.087474175 -0.15840198 -0.17455252 -0.26886764 0.3489079 0.23316172 -0.29264733 0.20374803
0.122792535 0.34562156 0.32231927 0.17117149 -0.114288636 -0.07455027 0.19614594 0.035157844
00000000: 303f 6c3c 9075 6ebe 4690 253e 4043 163e
00000010: b58c fd3d acd7 3f3e 9b06 babe 090a 53bd
00000020: 2cbb 813e 5081 14bd 996e 88be 6c90 1abe
00000030: 7171 823e 50fa f73d 5ffa 36be b2a7 393c
00000040: 024c 09be 3d04 7b3c 0254 38be 9854 57be
00000050: b98a ea3a 76b7 513d a24e 1bbe 3f26 703d
00000060: 1218 82bd 2a03 823e 75fe 943d 1c1b d9bd
00000070: 768e 28be 6e2e ee3d 9c04 133e d8d8 2b3c
00000080: 8bb4 153d 5236 b4bc c4b3 9cbd 8337 b73d
00000090: d817 9fbe cfcb 8fbd 8fb9 f73c 5e82 bfbd
000000a0: a908 81bd b291 6bbe 4b41 9fbc c44e 9f3d
000000b0: e08f 58be bb79 2bbd 95d2 4b3e 0e3b 00bc
000000c0: f787 053c 583f 2ebd 9238 a83d 9d2c 1a3e
000000d0: 0acc 793e 3b09 323e 33b9 7f3e 93c2 16bd
000000e0: 68b2 51be 4c20 11be c6b5 293e b672 4d3b
000000f0: 9192 dbbd 65d6 42be 6f1f 74be bf29 5bbe
00000100: f66e 35bd 0f3d 143e 471e 3d3e cdd1 68be
00000110: 3b89 2d3e 1e81 d3bd 7ec4 01be 5d50 c7bc
00000120: 004d d8bd a934 42bc 3568 31be 1d19 7dbe
00000130: 4283 a3bd 9746 e73c 4d0d e9bd 1714 e8ba
00000140: 7080 85be 90fa 963c bc44 923e 2e13 f3bd
00000150: 5f3b 453e 4f21 0c3e c372 8abe 9669 e13d
00000160: 07a9 2fbd bf27 e4bd ce71 813e 49db c9bd
00000170: ea53 86bd ec01 ba3c 41a6 153e 2a45 e83d
00000180: c3ac 353e 5f22 bb3d 475a 64bc 0c9b 45bd
00000190: 5b9a 59be ae4f bc3d 25b5 683e 962a 2e3e
000001a0: 81bd 04be ae7b 45bd 75d2 6cbe 3b03 87bd
000001b0: 62a5 4ebe fb25 c93c 223c 45be 5bf0 323c
000001c0: bfbb 63bc a58d 3c3e 92dd 20be d2f6 47be
000001d0: a776 24be f653 4b3e a449 82bd 5e77 5f3e
000001e0: 58c1 f23d d7ac 593d fbdc 2cbd 738e 4cbd
000001f0: 5ee6 a33d ecbf d3bd eb37 a4bd 880f eebc
00000200: b9a5 81be 9416 8bbd 019f 1d3e b763 81be
00000210: 3017 b33c 8af0 9f3e 985b 17bb f01e f13a
00000220: 0ea4 fcbd 3c86 fa3c c3ad acbd d246 27be
00000230: 92fe 2fbe 0449 593d 1bfc 4b3d 3770 9a3e
00000240: 3504 6cbd 85a7 0a3e a37e 563e 2641 6abe
00000250: 9d0c 1e3d bd91 63be 168e 31be 10ff d43d
00000260: 1cd3 083d aa6e 163e 584d 74bd dd42 a1bc
00000270: c7f8 223e 2843 89be 327f 1b3e 9c1c 33be
00000280: 3f12 87bc 31bd a2bc d6f8 e8bd 9d23 ff3b
00000290: 1640 3c3e 392a e2bd 70d5 e9bd cc7e 66bd
000002a0: fec0 8abe 785e 0c3e 559d bebd 65ae 10be
000002b0: 0136 f6bd 73b5 f93d 5033 273e cc43 603e
000002c0: fada 033e 7514 15bd 3de2 d6bd f592 613d
000002d0: 8a7e 993e 0ba7 dcbc 4ea5 dbbc 83dc 4ebe
000002e0: 2bb1 acbe b2d0 003e 7332 4dbd 5aba 55be
000002f0: 71c8 463e d340 01be 5802 153d f485 70b9
00000300: 2e1a bcbd d1c2 46be a640 58be 84fe 573e
00000310: c65e fd3c 5235 4c3e 544a aebd 5596 d83d
00000320: 2cf6 60bd 4b7d 3f3d 0d70 46be ddda 073e
00000330: e119 523c 2b80 963d 43d5 033d 6af6 4bbe
00000340: 5668 fa3d bfdd 2ebe 95bb ca3d a4ef 44be
00000350: b9d8 25be 2a1e d83d 435d bcbd a430 943c
00000360: 204d f9bb d793 21be f40f f43b ca77 943d
00000370: 7a64 9a3d 555b c9bd fe76 02be 1549 253d
00000380: 3c01 81bc 9c87 0c3c 4c0b 653b 8a22 823e
00000390: 5815 d0bc cf9c 60bd 344a 853d 384c d23c
000003a0: 50d8 ce3c 7f09 10bd 0d6d 78be 34fc a83d
000003b0: 50ef 853e 25dc 453e d8c0 f33d 056f 943d
000003c0: a925 b33d 2134 22be e5bd 32be 05a9 89be
000003d0: 0ea4 b23e f2c1 6e3e dfd5 95be 53a3 503e
000003e0: a77a fb3d 4ff5 b03e 0807 a53e 9447 2f3e
000003f0: 2910 eabd d0ad 98bd 7bda 483e ac01 103d

gru.weight_hh_l0 f4 [48, 16]
0.13280107 -0.15831116 0.089724794 -0.24693742 0.08550342 -0.20043583 0.06613056 -0.23860992
-0.20388556 -0.028857872 0.21829584 -0.13800271 -0.13856131 0.22463384 0.012740892 0.08908487
-0.2299525 -0.0100119645 -0.1007118 0.1493139 0.08168486 -0.1482368 -0.049813677 0.022552889
-0.106668256 -0.16998075 -0.09422361 0.2953145 -0.14859621 -0.1686038 0.016659955 -0.011006243
0.06026955 0.027635764 -0.10855011 -0.14476077 -0.027007923 -0.098023005 0.20269606 -0.24972
-0.15308218 -0.18652785 -0.059838433 0.17007364 0.20342925 -0.21472153 -0.016462777 0.15275888
0.09444158 0.31068587 0.048278395 -0.16604875 0.1977973 -0.12170806 0.08764354 -0.014547923
0.1535548 0.1425018 0.15912467 -0.14859964 -0.18338315 -0.16669613 -0.08037597 0.29168597
0.06134973 -0.038839947 -0.036048505 -0.15042782 0.14502457 -0.2782908 -0.24158533 -0.16764039
0.1358112 0.0130315265 -0.2516098 0.15488428 0.19549373 -0.048387043 0.041867167 0.08003289
0.039284866 0.15898377 -0.12525621 0.09500262 0.15554018 -0.22762746 0.21552746 0.29642427
-0.057123356 -0.12937266 0.081581384 -0.17223653 0.074657686 0.0013346138 0.17095327 -0.18856853
-0.32159063 0.061960354 0.11225791 -0.20720817 -0.03781579 -0.2509498 -0.119504966 -0.109584756
0.2923461 -0.042938273 0.16841935 0.13547663 0.027784683 -0.24101113 0.019923128 0.14890912
0.22499403 -0.25390232 0.11447144 0.19531678 -0.26248533 0.043333035 0.18921687 -0.16060534
0.050171923 0.13615462 0.07736838 0.2753441 0.2328911 0.23834117 0.001388248 0.17833985
-0.23457372 -0.20909418 -0.09004496 -0.041027144 0.25003904 0.106403254 0.23842064 0.13937154
-0.18417989 0.0020761322 0.02079287 -0.035961527 0.11209189 -0.10419857 -0.15434818 0.21858838
-0.07933298 -0.06547146 0.23358132 0.0976132 -0.043621436 -0.09010645 -0.2610911 -0.18080206
0.18065181 -0.1437954 0.17273174 -0.1307322 -0.060676653 -0.029144587 0.17076705 0.24501845
0.22650132 0.20113277 -0.026153883 -0.19046459 -0.22258037 -0.0054316605 0.15654555 0.02868082
0.012032287 -0.27094424 0.024224019 0.2660559 -0.21576694 -0.22189632 0.29063195 0.090246946
0.014805721 0.16936748 0.054949705 -0.25080633 -0.22225308 0.16961244 -0.09580565 -0.051452518
0.00906571 -0.21719374 -0.14647049 -0.11318364 0.23390551 0.065948054 -0.01995462 -0.05173652
0.03561116 -0.16702358 -0.016924435 0.0990001 -0.14084423 0.09578469 0.093154274 0.15024883
-0.12473804 0.025198765 0.26841167 -0.29623926 -0.025900183 0.28967836 -0.20486656 0.21957515
0.33739465 0.35128614 0.054821406 0.18891254 -0.12553687 -0.14138484 0.040620737 0.12287174
0.16933607 0.11368428 -0.29198426 0.25724354 0.14902505 0.038245566 0.24097867 -0.03976813
-0.10098262 0.21050614 -0.15877327 0.06616362 -0.30040345 -0.020437054 -0.048489377 0.03472398
-0.0069538457 0.09390271 -0.034109812 0.13154492 0.29081315 -0.13425392 0.070209876 -0.14070474
0.1592108 0.156865 -0.0314624 -0.07042937 -0.064731546 0.12587509 0.057303842 0.23453386
0.18579829 0.20525597 0.17830707 -0.2592638 -0.019857572 -0.15895464 0.034583986 0.040290374
00000000: 01fd 073e 521c 22be a2c1 b73d 2add 7cbe
00000010: 6b1c af3d 0d3f 4dbe 766f 873d 2956 74be
00000020: 60c7 50be 5867 ecbc f288 5f3e 9550 0dbe
00000030: 04e3 0dbe 6a06 663e 2dbf 503c 2172 b63d
00000040: ab78 6bbe 3909 24bc fd41 cebd bee5 183e
00000050: 644a a73d 63cb 17be 6d09 4cbd d6c0 b83c
00000060: e374 dabd 6f0f 2ebe 4ff8 c0bd 7633 973e
00000070: 9b29 18be 79a6 2cbe 757a 883c 8753 34bc
00000080: 34dd 763d 6664 e23c 854f debd 2b3c 14be
00000090: b83f ddbc 49c0 c8bd 8e8f 4f3e 9ab6 7fbe
000000a0: 93c1 1cbe 2801 3fbe 2519 75bd c927 2e3e
000000b0: c24f 503e f6df 5bbe f2dc 86bc d36c 1c3e
000000c0: 966a c13d 3812 9f3e 91bf 453d af08 2abe
000000d0: 608b 4a3e 1342 f9bd 757e b33d 695a 6ebc
000000e0: 783d 1d3e feeb 113e 94f1 223e 812a 18be
000000f0: cbc8 3bbe 64b2 2abe 289c a4bd dd57 953e
00000100: db49 7b3d a316 1fbd 99a7 13bd c009 1abe
00000110: 5281 143e 227c 8ebe 2562 77be eca9 2bbe
00000120: 1712 0b3e 2f82 553c 00d3 80be fc99 1e3e
00000130: 822f 483e 7e31 46bd e87c 2b3d 49e8 a33d
00000140: 2be9 203d a4cc 223e 2a43 00be bc90 c23d
00000150: ed45 1f3e 2c17 69be 3bb3 5c3e ecc4 973e
00000160: 2efa 69bd 447a 04be 2414 a73d c65e 30be
00000170: 21e6 983d 35ee ae3a 600e 2f3e 1c18 41be
00000180: 87a7 a4be 24ca 7d3d 7ae7 e53d 612e 54be
00000190: bbe4 1abd 7e7c 80be 05bf f4bd f96d e0bd
000001a0: 63ae 953e 0be0 2fbd 1f76 2c3e 63ba 0a3e
000001b0: b49c e33c 9fcb 76be d435 a33c a27b 183e
000001c0: d664 663e 7cff 81be 0170 ea3d 1f01 483e
000001d0: 7a64 86be fb7d 313d 11c2 413e ba75 24be
000001e0: 1381 4d3d 1e6c 0b3e 5073 9e3d e7f9 8c3e
000001f0: 017b 6e3e b50f 743e e0f5 b53a b99e 363e
00000200: 1834 70be c91c 56be 7e69 b8bd 140c 28bd
00000210: 1e05 803e f3e9 d93d 8a24 743e 6ab7 0e3e
00000220: a799 3cbe b80f 083b cf55 aa3c 654c 13bd
00000230: 6f90 e53d 0f66 d5bd 730d 1ebe a2d5 5f3e
00000240: 5479 a2bd e715 86bd f12f 6f3e 6ee9 c73d
00000250: 64ac 32bd bb89 b8bd bcad 85be 2d24 39be
00000260: cafc 383e 1a3f 13be 97e0 303e a9de 05be
00000270: 1588 78bd a1c0 eebc 8fdd 2e3e 1ee6 7a3e
00000280: f6ef 673e c0f5 4d3e ab40 d6bc 2609 43be
00000290: 1cec 63be 12fc b1bb 7a4d 203e 0af4 ea3c
000002a0: 1223 453c 34b9 8abe 7371 c63c 7b38 883e
000002b0: 02f2 5cbe ca38 63be b6cd 943e 64d3 b83d
000002c0: b293 723c ab6e 2d3e f112 613d b069 80be
000002d0: 5096 63be e2ae 2d3e c135 c4bd e0bf 52bd
000002e0: 5888 143c 0968 5ebe 5cfc 15be d3cc e7bd
000002f0: ed84 6f3e c60f 873d df77 a3bc ace9 53bd
00000300: 02dd 113d 3b08 2bbe 1da5 8abc 90c0 ca3d
00000310: 7839 10be c32a c43d abc7 be3d d4da 193e
00000320: a876 ffbd a46d ce3c 416d 893e acac 97be
00000330: 9f2c d4bc b950 943e 8ac8 51be 4fd8 603e
00000340: febe ac3e c7db b33e 698c 603d 4a72 413e
00000350: bd8c 00be 30c7 10be ee61 263d 2ea4 fb3d
00000360: 6f66 2d3e 4ed3 e83d f67e 95be 6db5 833e
00000370: 069a 183e 62a7 1c3d 1dc3 763e e8e3 22bd
00000380: facf cebd ec8e 573e 7695 22be cb80 873d
00000390: 7bce 99be 9c6b a7bc cc9c 46bd bb3a 0e3d
000003a0: 16dd e3bb 1050 c03d bbb6 0bbd b6b3 063e
000003b0: 76e5 943e dc79 09be 32ca 8f3d e714 10be
000003c0: 2808 233e 38a1 203e b8de 00bd 463d 90bd
000003d0: f991 84bd 66e5 003e 6fb7 6a3d a529 703e
000003e0: e841 3e3e 9f2e 523e 2196 363e 3abe 84be
000003f0: 59ac a2bc 01c5 22be f0a7 0d3d 8507 253d

gru.bias_ih_l0 f4 [48]
0.183149 -0.15317006 0.09844157 0.29725242 0.063470125 0.09903713 0.16706525 0.15685192
-0.06862233 -0.099228285 0.012953717 0.22360872 -0.0036900667 0.19966067 -0.064485244 0.13436571
0.046355188 -0.059279487 -0.18632352 -0.1986768 0.09894843 0.18495832 0.13488778 0.07589885
0.08448563 0.05672097 -0.27401716 -0.32455114 -0.120986655 -0.059025392 -0.23181611 -0.0865523
-0.008860324 0.15502301 0.09219949 0.17838283 0.28004155 -0.14640568 -0.08266835 0.0639132
0.21699277 -0.13526216 -0.12001525 -0.14549132 0.1551363 -0.10067624 -0.053110056 0.14235313
00000000: 698b 3b3e 9dd8 1cbe bc9b c93d 7831 983e
00000010: a0fc 813d fbd3 ca3d 2713 2b3e ca9d 203e
00000020: dd89 8cbd 3338 cbbd d43b 543c aff9 643e
00000030: 0cd5 71bb d973 4c3e d710 84bd 2a97 093e
00000040: f0de 3d3d 0ccf 72bd 98cb 3ebe ee71 4bbe
00000050: 79a5 ca3d b765 3d3e 0620 0a3e db70 9b3d
00000060: cd06 ad3d 3f54 683d fa4b 8cbe 912b a6be
00000070: dac7 f7bd 9cc4 71bd 3461 6dbe 5542 b1bd
00000080: e42a 11bc 5abe 1e3e 16d3 bc3d fda9 363e
00000090: 9b61 8f3e 5feb 15be 064e a9bd ece4 823d
000000a0: 5a33 5e3e 2a82 0abe 8eca f5bd adfb 14be
000000b0: 0ddc 1e3e 582f cebd ee89 59bd 05c5 113e

gru.bias_hh_l0 f4 [48]
0.21539654 -0.029186968 -0.16629598 0.25302055 -0.033604197 -0.088094965 -0.10802291 -0.15232964
-0.18770789 -0.10285209 -0.19522163 -0.02229229 0.075333275 -0.16382352 -0.06297565 -0.03452975
0.15858668 0.15046442 0.018440662 -0.10594328 -0.11392518 -0.08565559 0.039130416 0.122412354
0.11373764 -0.084985614 0.07025427 -0.32754853 0.1400547 0.17937489 -0.3211616 -0.13633096
0.20240177 0.0042056213 -0.10352525 0.09993296 0.06994966 0.0254624 -0.1545921 0.21588367
0.10980089 -0.04049478 -0.0017959817 0.18710174 0.14113012 -0.12818223 0.030997049 0.047309697
00000000: e990 5c3e 8219 efbc 7e49 2abe e98b 813e
00000010: 8ea4 09bd 226b b4bd 1e3b ddbd 4dfc 1bbe
00000020: 7f36 40be 1ea4 d2bd 2ee8 47be 529e b6bc
00000030: 5548 9a3d 5ac1 27be 61f9 80bd 116f 0dbd
00000040: 8c64 223e 5813 1a3e df10 973c caf8 d8bd
00000050: 9b51 e9bd 336c afbd 3747 203d 54b3 fa3d
00000060: 48ef e83d f00c aebd 79e1 8f3d 71b4 a7be
00000070: 806a 0f3e 0dae 373e 4b6f a4be 589a 0bbe
00000080: 6942 4f3e 4fcf 893b 0c05 d4bd a7a9 cc3d
00000090: c441 8f3d 8696 d03c 644d 1ebe 9c10 5d3e
000000a0: 4adf e03d dbdd 25bd 2567 ebba 9997 3f3e
000000b0: 6a84 103e 3442 03be 86ed fd3c d0c7 413d

fc.weight f4 [22, 16]
-0.074164905 0.2703069 -0.07295182 0.09479118 -0.13874003 0.063704655 0.1321899 0.08587674
-0.0074522183 0.09036567 -0.18656494 -0.078149855 -0.16180702 -0.15344957 0.06281076 -0.0795232
-0.01675189 -0.047895215 0.20493956 -0.023997802 -0.013808777 0.12853262 -0.008852624 0.24582765
-0.06334736 -0.007171375 -0.07085327 0.03647722 0.048340805 -0.15229455 0.085416615 0.026847417
-0.010984321 0.08169335 0.19622004 0.23698877 0.07409463 0.075088836 0.0991079 -0.03540503
-0.16615403 -0.08332207 -0.15941623 0.19390626 0.07017511 -0.05567628 0.06886785 -0.039282445
0.25095636 0.3010176 -0.10108049 0.13203083 0.13054697 0.039002743 -0.05965424 0.15203683
0.09208655 0.14520274 -0.31803253 0.0033454662 -0.13055432 -0.18831134 0.1361559 0.20765965
-0.11302602 0.25601813 0.30284703 -0.10953619 0.093730815 -0.21432461 -0.029281933 -0.020394562
-0.0147871785 -0.27014473 -0.3121295 0.29641995 -0.013557671 -0.10285277 -0.02406934 0.25959417
-0.07464299 -0.00395378 -0.0951074 -0.22943044 0.20119931 -0.2342462 -0.14244835 0.007953779
0.14290877 -0.030963723 -0.26891434 0.3305708 -0.20324244 -0.046750803 0.09252183 -0.006107141
0.15724415 0.27909267 0.12730514 -0.11232486 0.17590375 0.08098223 -0.0551396 0.009698217
0.11503874 0.123009704 -0.056924947 0.054291926 -0.18706922 -0.2113982 0.2762588 0.0689639
0.06681709 0.18609011 -0.065580405 -0.07792777 -0.0965111 0.11583726 0.09895548 0.23178008
0.20825863 -0.31304565 -0.11308171 0.13948393 -0.17630334 0.038532894 -0.047983103 0.09726138
0.30457175 -0.11451751 0.29642192 0.09407008 -0.18002796 0.17656213 -0.30708754 -0.101922974
-0.03610133 -0.0988586 -0.023873655 0.03226404 -0.18809861 -0.09026297 0.29846248 0.20980999
0.1537098 0.10169412 0.11186352 -0.12452593 0.07505101 -0.24205513 -0.15394868 -0.012630531
0.17148067 -0.036432452 -0.09194159 0.096932635 -0.16769944 -0.064358056 0.11476372 -0.013789552
-0.0412322 0.20814413 -0.16272652 -0.042522684 0.2727604 -0.013432437 0.0075704786 0.1848593
0.18810317 -0.08272301 -0.14612865 -0.0381276 0.052422516 -0.08462922 0.113903254 -0.1361983
-0.08624307 0.1935022 -0.008059848 0.12623431 0.08368073 -0.07580066 -0.054137018 0.10382221
-0.046458565 -0.052805815 0.00419671 0.0020620092 0.014044376 -0.15625218 -0.022109935 -0.10810679
0.08408766 -0.118043214 0.1065498 0.16294442 -0.172812 0.17443953 -0.21464276 -0.024811363
-0.16283728 -0.13711382 0.026625507 -0.097254746 0.1819756 -0.14291145 0.1953789 0.10614541
0.14254288 0.01639876 -0.10975706 -0.08049823 0.13485226 -0.10539577 -0.07938258 0.046797343
-0.017847016 -0.22866637 0.11375714 -0.072542876 0.24948002 -0.10377697 -0.0057673543 0.0010933054
0.13082708 0.04827754 -0.18079066 0.118923575 0.18713233 0.13198052 0.17239131 0.11158071
-0.038866423 -0.22493704 -0.20659941 -0.073797345 -0.021097463 0.1432297 -0.013803301 -0.038323775
-0.053352885 -0.22197233 -0.05247392 0.22329949 0.14745152 0.22211033 -0.05231561 -0.05322049
0.10325051 -0.0057212943 -0.036738526 0.1600249 0.024412207 -0.10735043 0.16569245 -0.00208126
00000000: c5e3 97bd aa65 8a3e c467 95bd e121 c23d
00000010: de11 0ebe 9677 823d ca5c 073e 25e0 af3d
00000020: bd31 f4bb a311 b93d e10a 3fbe 080d a0bd
00000030: bdb0 25be e221 1dbe eea2 803d 0fdd a2bd
00000040: 423b 89bc c62d 44bd addb 513e 0a97 c4bc
00000050: 353e 62bc 0e9e 033e 990a 11bc 3eba 7b3e
00000060: 43bc 81bd dbfd eabb 851b 91bd 2369 153d
00000070: 0201 463d 1af3 1bbe e8ee ae3d 1def db3c
00000080: 95f7 33bc d84e a73d e8ed 483e 2fad 723e
00000090: edbe 973d 2dc8 993d 15f9 ca3d dd04 11bd
000000a0: 4824 2abe c3a4 aabd 023e 23be 5d8f 463e
000000b0: f8b7 8f3d d00c 64bd 960a 8d3d a1e6 20bd
000000c0: 5a7d 803e fb1e 9a3e 4a03 cfbd 1733 073e
000000d0: 1bae 053e 57c1 1f3d 0158 74bd 8baf 1b3e
000000e0: e097 bc3d 07b0 143e 29d5 a2be 9c3f 5b3b
000000f0: 08b0 05be b0d4 40be 746c 0b3e bba4 543e
00000100: 307a e7bd cf14 833e c40e 9b3e 8354 e0bd
00000110: f1f5 bf3d e977 5bbe aae0 efbc 7f12 a7bc
00000120: ec45 72bc 6950 8abe 70cf 9fbe 5bc4 973e
00000130: fe20 5ebc 79a4 d2bd 112d c5bc 87e9 843e
00000140: 6dde 98bd b68e 81bb abc7 c2bd d0ef 6abe
00000150: 3107 4e3e 3cde 6fbe fbdd 11be 9150 023c
00000160: ad56 123e a2a7 fdbc 24af 89be 9340 a93e
00000170: c91e 50be c57d 3fbd 167c bd3d 691e c8bb
00000180: 9c04 213e 3ce5 8e3e 475c 023e 940a e6bd
00000190: 1d20 343e 03da a53d 10da 61bd 45e5 1e3c
000001a0: 6e99 eb3d 83ec fb3d 222a 69bd 3661 5e3d
000001b0: 138f 3fbe c578 58be cb71 8d3e f23c 8d3d
000001c0: 66d7 883d 688e 3e3e 054f 86bd 9898 9fbd
000001d0: 9da7 c5bd 163c ed3d 2ca9 ca3d c257 6d3e
000001e0: c041 553e 8547 a0be 6297 e7bd e0d4 0e3e
000001f0: dd88 34be abd4 1d3d ee89 44bd f930 c73d
00000200: d4f0 9b3e 2888 eabd 9dc4 973e d0a7 c03d
00000210: 4059 38be b4cc 343e 943a 9dbe febc d0bd
00000220: fdde 13bd 6176 cabd af92 c3bc 4c27 043d
00000230: ec9c 40be cbdb b8bd 13d0 983e 6ed8 563e
00000240: 1a66 1d3e 0245 d03d b418 e53d 7307 ffbd
00000250: 58b4 993d 4ddd 77be b9a4 1dbe 49f0 4ebc
00000260: a198 2f3e 323a 15bd df4b bcbd 9e84 c63d
00000270: 67b9 2bbe 28ce 83bd 3e09 eb3d 93ed 61bc
00000280: 18e3 28bd bc23 553e c8a1 26be 442c 2ebd
00000290: 40a7 8b3e b913 5cbc c711 f83b c24b 3d3e
000002a0: 1e9e 403e ae6a a9bd c0a2 15be b02b 1cbd
000002b0: feb8 563d 1652 adbd 1c46 e93d 9177 0bbe
000002c0: 35a0 b0bd 7125 463e 740d 04bc 9143 013e
000002d0: cd60 ab3d 603d 9bbd c7be 5dbd bda0 d43d
000002e0: 564b 3ebd e94a 58bd 8e84 893b c622 073b
000002f0: 621a 663c 9200 20be e51f b5bc 1867 ddbd
00000300: 2736 ac3d a4c0 f1bd c836 da3d e7da 263e
00000310: a1f5 30be 47a0 323e 50cb 5bbe 3341 cbbc
00000320: d1be 26be 9167 0cbe bc1d da3c 7f2d c7bd
00000330: d057 3a3e 6157 12be 6811 483e c462 d93d
00000340: c3f6 113e b156 863c 4fc8 e0bd 42dc a4bd
00000350: b616 0a3e bdd9 d7bd 5693 a2bd 92ae 3f3d
00000360: e833 92bc 8427 6abe 81f9 e83d 5c91 94bd
00000370: b177 7f3e 0589 d4bd 13fc bcbb 3e4d 8f3a
00000380: 89f7 053e abbe 453d 3021 39be 348e f33d
00000390: 9e9f 3f3e e725 073e 5987 303e 6d84 e43d
000003a0: 6632 1fbd e555 66be cc8e 53be 1023 97bd
000003b0: 96d4 acbc ceaa 123e 3e27 62bc 64f9 1cbd
000003c0: 8e88 5abd b74c 63be e5ee 56bd 9fa8 643e
000003d0: 88fd 163e e470 633e e548 56bd bbfd 59bd
000003e0: 0175 d33d b279 bbbb 237b 16bd 91dd 233e
000003f0: 1cfc c73c 8bda dbbd 48ab 293e c065 08bb

fc.bias f4 [22]
-0.040560275 0.03485877 0.16296436 -0.12377771 -0.074823946 0.07358274 -0.017436348 0.016568556
0.26759395 -0.010453414 -0.14313345 -0.081065 0.21014093 -0.02917329 -0.14192854 0.07857507
-0.007983968 -0.1503762 0.13432619 0.08725066 0.13886666 0.046007603
00000000: 8822 26bd 12c8 0e3d 21e0 263e 2b7f fdbd
00000010: 4c3d 99bd 8cb2 963d acd6 8ebc c8ba 873c
00000020: 1302 893e cc44 2bbc 9391 12be 6805 a6bd
00000030: 2f2f 573e d3fc eebc b755 11be f7eb a03d
00000040: 30cf 02bc 38fc 19be ce8c 093e 79b0 b23d
00000050: 1033 0e3e 7872 3c3d
