models/GRU_NoiseEst/training_checkpoints/noise_gru_epoch_035_mse_0.2050.pth (torch, 14133 bytes, 10 tensors)

pre.weight f4 [22, 1, 3]
00000000: 2ba2 e63b ec72 9c3e 869c e5be b71b f2be
00000010: f0e0 91be c690 773d 8d00 43bd 3d2f d03e
00000020: 60e7 afbd 573e 7b3e fd84 8fbd 8084 943c
00000030: ea11 0dbf 4d80 c7be b4f1 94be d353 833d
00000040: 23cf 8f3e 0eeb e13e 2f50 ecbe 1d32 a8be
00000050: 6d1e ec3d 5117 d23e de46 3dbe 330d c13e
00000060: fef3 ca3c 5eec 363e d7ef 273f 3c12 f9be
00000070: d327 a1be 50a3 d6bd 5061 86be 1168 e53e
00000080: 2531 d8be 5550 9abe 7b85 dcbe 6c80 14bf
00000090: 697a 82be 879a 103f 2a6d a53e 6908 863e
000000a0: 8105 783c 3011 98be 07af 2e3d 6e93 16bf
000000b0: 2bd2 f2be 84cc a3be a005 a93e e1ef a53e
000000c0: deb4 51be 7c87 cd3c 103a db3e 17f4 063f
000000d0: 6462 3d3e 22eb 013d 44bd d03e 3d86 a2be
000000e0: 0d06 013e def3 cbbe 0f82 b3be debb 80be
000000f0: ac72 443e 7fbd 2d3e 9ae5 cebe b555 e43d
00000100: 8bbd 813e 542c 0dbe
0.007038375 0.30556428 -0.4484598 -0.4728677 -0.28491926 0.0604408 -0.047607947 0.4066104
-0.08589053 0.245355 -0.070077874 0.018129587 -0.5510546 -0.38965073 -0.29090655 0.064124726
0.2808772 0.44124645 -0.46154925 -0.32850733 0.11529241 0.41033414 -0.18484065 0.37705383
0.024774548 0.17863604 0.6560034 -0.48646724 -0.31475696 -0.10480368 -0.2624612 0.4480596
-0.42224994 -0.30139413 -0.43070588 -0.58008456 -0.25484017 0.5648579 0.32309848 0.2617829
0.015138031 -0.29700613 0.042647388 -0.5881871 -0.4742597 -0.3199197 0.33012104 0.32409576
-0.20479152 0.025089018 0.42817736 0.527162 0.18494564 0.03171838 0.40769398 -0.3174304
0.12599964 -0.39834493 -0.35060164 -0.2514333 0.19184369 0.16966818 -0.40409547 0.1114916
0.25339922 -0.13786441

pre.bias f4 [22]
00000000: 593f a0bd 15eb c33d 19b1 8a3e ad98 273f
00000010: fc5f debe 1c52 80be 7482 683e b548 b83e
00000020: b3d1 123f 4ebb 1e3f d4b8 d63d 8a69 dcbe
00000030: 7d24 63bd f287 bcbe 565b 06bf 3480 113f
00000040: 57ac 023f 9fd5 0fbf 7aba 533c 540a 00be
00000050: 0b3d c53c 81e6 42be
-0.078245826 0.09566323 0.2708824 0.6546734 -0.43432605 -0.25062644 0.22706014 0.3599297
0.57351226 0.62004554 0.10484472 -0.4304927 -0.05545472 -0.36822468 -0.5248312 0.5683625
0.5104422 -0.56185335 0.012922877 -0.1250394 0.02407696 -0.19033243

norm.weight f4 [22]
00000000: ebf1 763f 85aa 833f befe 6f3f 342b 8e3f
00000010: dcf3 823f 1f78 853f e0b4 883f fa87 6e3f
00000020: f127 8d3f d0eb 703f ff08 813f ab53 6c3f
00000030: 4b95 7e3f aebe 7e3f 9473 7c3f 675a 7c3f
00000040: f6e2 8d3f d7dd 773f 5470 813f 8fdc 7f3f
00000050: 3e28 753f 496f 783f
0.9646289 1.0286413 0.9374808 1.1106935 1.023067 1.0427283 1.0680199 0.93176234
1.1027814 0.9410982 1.008087 0.9231517 0.99446553 0.99509704 0.9861386 0.98575443
1.1084888 0.96822876 1.0112405 0.9994592 0.9576453 0.9704481

norm.bias f4 [22]
00000000: 7a33 a2bd 0052 1bbc 79c8 97bd 8665 db3d
00000010: 4919 8bbd fb72 773d 361d 84bd 6135 04bd
00000020: bb27 013e 33f9 6a3d 85cc 2ebd 6102 7d3d
00000030: 1e62 b9bd c8ab 8cbc 21a8 5b3b a881 993d
00000040: fd96 983d babf 21bd ebd5 7fbd 4187 0e3c
00000050: dcc2 863d 159e 4cbc
-0.079199746 -0.00948 -0.07411284 0.107127234 -0.06791932 0.06041239 -0.06450884 -0.03227747
0.12612812 0.05736656 -0.042675514 0.061769847 -0.090519175 -0.017171755 0.003351696 0.07495433
0.07450674 -0.039489485 -0.062459867 0.008699239 0.06580135 -0.012488862

gru.weight_ih_l0 f4 [48, 22]
00000000: 41d7 a8bc 9b4b 94be 2dae 5d3e d5a8 5c3e
00000010: 79a6 043d 3469 903e 0288 ebbe 99b8 5a3c
00000020: f07f a23e 5bb3 d6bd 2dc3 afbe 5c8a 17be
00000030: 75ae 943e d6ec 603d d194 81be 255e d93d
00000040: 6490 6ebd c24e ff3a 55a4 48be d8d4 52be
00000050: c169 53bd c71f b23c b68f 00be 662c 383a
00000060: e376 45bc 3367 a03e 9ff1 bc3c 3c97 31bd
00000070: a9ee 70be d627 393e df56 573e 712d 843b
00000080: 1ed3 84bb 6375 3bbd 360b 52bd 5544 913d
00000090: f900 b5be 4250 d9bc b29a b93d 4bd1 a3bd
000000a0: 4f31 34bd f7b5 82be c3c8 74bc 69f1 b73d
000000b0: db41 3cbe 56de b6bd 836c 833e 61c0 3a3d
000000c0: 6ca6 70bd 3ce7 4e3c f569 3d3d e989 583e
000000d0: ab9e a73e 5847 0b3e 8508 3f3e 43b5 b8bd
000000e0: 4072 13be 4d30 2cbe a84e e13d c58b 643d
000000f0: 7bc1 66bc 6405 29be 3017 5abe d51c 77be
00000100: a63d 40bd fce8 283e 2a95 873e 3505 6dbe
00000110: 636f 603e b1a5 cabd 7331 37be 33ee 403d
00000120: f0f4 3dbe f16c 6b3d db4b cfbd 0127 a6be
00000130: 40ad 32be 9489 27bd 466b 22bd 07a3 943c
00000140: 15e1 b3be 6cc2 c63d b033 c23e 3392 66bd
00000150: 85d5 813e a9cf a23d f243 8ebe f02b 1d3e
00000160: 1020 823c 0565 dcbd 876a 9b3e 8071 3abd
00000170: d17d f4bd 416a ae3d 82d4 b63d 129d 123e
00000180: 694a 4b3e 720d a43d 663c 13bc 6143 c9bd
00000190: 9d24 3cbe b284 a03d 8280 5e3e ec78 4a3e
000001a0: ad39 8fbd 4ad8 92bd c92b 89be 24c1 f4bc
000001b0: 8d4f 37be 343d 723b fabd 77be 1251 f2bc
000001c0: 0e07 083c ce4f 803e 3c9c 58be 2a44 1abe
000001d0: 7e26 70be b618 7b3e 609a cfbb 2e6a 4c3e
000001e0: 0d64 ec3d 0371 373d f3cc 3cbd f3d9 61bd
000001f0: 052d d53d c670 d9bd 5b0f e0bd 580c 7dbd
00000200: 2604 98be ad6b bfbc ce95 1d3e f6b4 91be
00000210: 3e05 363d 9841 973e 4258 693c ccf9 38bb
00000220: dc80 36be 995e b93d a19e f0bd abaf debd
00000230: 5e5d b2bd 67f8 ad3c 7160 0ebd 5f5f 963e
00000240: c6c3 1fbd a791 d03d 9b45 2f3e cb44 3fbe
00000250: d023 f83d c4dc 51be 74a5 24be 8050 953d
00000260: 52f3 153d 5bfa 263e b60f c3bd 20b6 4c3d
00000270: c1cb d03d 6035 9cbe b56e 623e 7f2e 79be
00000280: 59f7 8d3d 152a b4bd 7dce 55be adba 663d
00000290: e917 823e 7a9c 8cbd 6edc 2abe 3cd5 89bd
000002a0: 1f09 59be dc53 bc3d 6f30 3cbe c598 38be
000002b0: 4fab 2fbe aa23 2b3e 6ae0 1b3e e77b 3e3e
000002c0: 8cdf 733d 8178 ebbc 21e9 19be 9c57 c53c
000002d0: 06d8 ba3e 4aaf d8bd 698c 393d d94a 89be
000002e0: 74b9 d4be 58cc 313e ce3d d23c e71d 18be
000002f0: 2669 063e 2bae f5bd 38cc b53d a07f 5fbd
00000300: 2450 36be d21e 64be 6899 79be db21 793e
00000310: fe8f 623c 52f7 313e 44ce 56bd 2fa4 a23d
00000320: ab44 903c ae6a c03d 7338 8bbe 6f91 613e
00000330: 1fea a6bd eaad 1a3e de25 ec3d 12c2 88be
00000340: 09f2 2e3d d25e 6ebe 3ce7 213e b652 59be
00000350: b8de 63be 016d 393e 9c5f 103b e505 cf3c
00000360: 539e 053c 32a4 37be 0a1f 8a3b 0898 ad3d
00000370: 91e2 d33d 0907 16be 6ef9 c0bd 760e ae3d
00000380: 8957 5bbd be6a 5a3d 4a7e 74bd 13e3 963e
00000390: d1cf f43c 7708 cabd a3fb 383c 9035 6ebc
000003a0: 14c7 923d 60c3 62bd 726e 94be 14d3 fe3d
000003b0: 31d9 a13e 4280 543e 6154 133e 41a5 4e3d
000003c0: 96ed b53d 5247 18be bf39 08be d4a3 8ebe
000003d0: 87ff c03e 4acd 8c3e 7905 b3be 6bd0 893e
000003e0: 0520 713d 7ba2 ce3e b2ae c23e 3250 213e
000003f0: b6f3 0bbe 8503 88bd 1b96 403e 0a1c 883b
-0.020610454 -0.28963932 0.21648474 0.2154878 0.032385323 0.28205264 -0.46002203 0.013349676
0.31738234 -0.10483428 -0.34328595 -0.14798874 0.2903935 0.054913364 -0.2530885 0.1061366
-0.05824317 0.0019478428 -0.19593938 -0.20589006 -0.051614527 0.021743668 -0.12554821 0.0007025659
-0.012052271 0.31328735 0.023064433 -0.04335712 -0.23528542 0.18081602 0.21029232 0.0040337374
-0.0040534874 -0.045766246 -0.051280223 0.070931114 -0.35352305 -0.026527528 0.09062709 -0.07998904
-0.043992337 -0.25529453 -0.014940443 0.08981592 -0.18384497 -0.08929126 0.25668725 0.045593623
-0.058752462 0.012628373 0.046243627 0.21146359 0.32738242 0.13601434 0.18655594 -0.09018948
-0.14399052 -0.168153 0.110013306 0.055797357 -0.014084215 -0.16505963 -0.21297908 -0.24132092
-0.046933793 0.16495126 0.2648099 -0.23146518 0.2191749 -0.098948844 -0.17889957 0.047102164
-0.18550467 0.05747694 -0.1012189 -0.32451633 -0.17448902 -0.04090269 -0.039653085 0.018144144
-0.3513266 0.09705052 0.3793006 -0.05629177 0.25358215 0.07949764 -0.27786213 0.15348792
0.01588443 -0.107614554 0.3035471 -0.0455184 -0.1193806 0.0851636 0.089272514 0.1431773
0.19852604 0.08010377 -0.008986568 -0.09827305 -0.18373342 0.078378096 0.2172871 0.1977269
-0.06993423 -0.0717016 -0.26791218 -0.029877253 -0.1790144 0.003696275 -0.24193564 -0.029579673
0.008302463 0.25060886 -0.21153349 -0.15065065 -0.23452184 0.24521145 -0.0063355416 0.1996238
0.11542521 0.04478551 -0.046093892 -0.055139493 0.104089774 -0.10617213 -0.10940429 -0.06177935
-0.29690665 -0.023366774 0.15389177 -0.28458375 0.044438593 0.29542232 0.014242234 -0.0028225062
-0.17822593 0.09051246 -0.11749006 -0.1087335 -0.08709215 0.021236612 -0.034759942 0.29369637
-0.039005063 0.10184031 0.17116396 -0.18678586 0.12116206 -0.20494372 -0.1607874 0.07290745
0.036609 0.1630644 -0.09524481 0.049978375 0.10195113 -0.30509472 0.22112544 -0.24334143
0.069319434 -0.08797089 -0.2087955 0.05633037 0.25408867 -0.06865783 -0.1668565 -0.06730124
-0.21194886 0.091956824 -0.18377851 -0.18027027 -0.17155193 0.16712824 0.15222326 0.18601952
0.059539363 -0.028743984 -0.15030338 0.024089627 0.36492938 -0.10580309 0.04529992 -0.26814917
-0.4154774 0.17363107 0.025664236 -0.14855157 0.13126048 -0.119961105 0.08876842 -0.054565072
-0.17804009 -0.22277382 -0.24374926 0.24329321 0.013828276 0.17379501 -0.052442804 0.07941472
0.017610868 0.093953475 -0.27191505 0.22028135 -0.08150124 0.15105405 0.1153066 -0.26710564
0.04271129 -0.23278359 0.15810865 -0.21222958 -0.22252929 0.18107988 0.0022029644 0.025271365
0.008155423 -0.1793373 0.004215126 0.08476263 0.103459485 -0.14651121 -0.09422575 0.08498852
-0.053550277 0.053324454 -0.05969075 0.2947012 0.02988425 -0.09864896 0.011290464 -0.0145391375
0.071668774 -0.055362105 -0.28990513 0.12442604 0.31611016 0.20752051 0.14387657 0.050450567
0.088832065 -0.14870957 -0.13303278 -0.27859366 0.37694952 0.27500373 -0.34965113 0.26916823
0.058868427 0.40358338 0.38023907 0.15753248 -0.13667187 -0.06641296 0.1880726 0.004153733

gru.weight_hh_l0 f4 [48, 16]
00000000: 46c1 873e e2b9 c5bd 5df3 313e f814 a8be
00000010: d039 ac3d 70f3 50be 407d 18bd bb51 2bbe
00000020: 5bb1 e1bd 2d8c dabd 62ca 1b3e 98ea 25bd
00000030: 706a 10be 4c83 3a3e 2114 f43d 4c8f eb3d
00000040: 23e7 fcbd 63ce 123d d769 8bbd 2f02 c43d
00000050: 4e0a c53d bffa 0ebe cab3 f9bd 49e8 423d
00000060: 0a20 6ebd 2b5f 4cbe f3d8 eebd aa74 ba3e
00000070: f0a1 0dbe 3b96 34be 8008 a23d ad2b 5cbc
00000080: 1265 f43d ccaa a83d e9df cebd 9afe 22be
00000090: 2e37 f6bc b367 c0bd 68bb 093e 970c 66be
000000a0: 6b9c 05be 15d4 43be ce91 90bd b0da 843e
000000b0: 798f 753e 8ce5 57be 9819 703d cea0 143e
000000c0: 1cf7 523e 7b78 a83e cffb 5d3d faa5 67be
000000d0: 3cd6 253e 733a acbd 6921 6d3b 660f 18bd
000000e0: 149f 5b3e fe62 f23d a720 233e 9d39 8fbd
000000f0: a6b7 0cbe 5f55 13be 3b1d 57bc 3727 823e
00000100: 740a 033e fd0d a53b 234b 913c 4f3b 48be
00000110: e41b 423e 6443 a5be ee38 96be 4d32 ffbd
00000120: 7c20 213e 256a 17bd b4ee 97be d5b1 453e
00000130: 968c 2a3e 1357 a1bd 8d53 c23d 0308 e83d
00000140: 8089 f33d df5d 6e3e 8d09 78bd c50d 303c
00000150: ab05 2c3e e9c9 8abe 2c93 373e 6b3c b83e
00000160: f1b0 08bd 19f0 53be f67f 5f3c ad66 0fbe
00000170: 83bb 9e3c c271 0dbd e684 773e 806d 20be
00000180: 765f 83be a7c4 b83d 338b ea3d 3c15 89be
00000190: 5860 c2bc 580e 73be d9b5 2cbe 885d dfbd
000001a0: a072 ae3e 9bad f1bc 6991 273e 8f4e 533e
000001b0: 5c81 593d 53fb 73be 1895 903d 391c 1b3e
000001c0: 5ccd 183e 6b29 a4be 0b1a d93d b4e4 6b3e
000001d0: 2b1d 69be e1e5 cf3c 5957 823e 8ec8 2abe
000001e0: 5ff3 0b3d ec82 143e a988 9e3d 35ec 383e
000001f0: 50b1 4f3e 664c 5a3e c8f0 b5bd dcfa 533e
00000200: 6e19 adbe 6503 81be caff bfbd 6a2f 963c
00000210: 8d88 803e 0b82 e53d 414d a23e 072e 153e
00000220: eeed 6ebe 3d71 383c f750 013d 29ac f4bd
00000230: 2c94 b53d bc19 ecbd 1842 70be f797 6f3e
00000240: 28d1 3a3d 6730 cabb e954 883e 1f5e b73c
00000250: e9f7 27bd f919 bbbd 2dee b3be 7056 14be
00000260: 000d 733e 8e40 38be 40f6 083e 60bc 48bd
00000270: 1a7b 05bd f982 02bd 28f9 873e 5709 763e
00000280: d26c a83e 284a 7c3e 1d05 243c 824b 74be
00000290: 5567 78be de61 f93b 10bf b93d 1c38 2a3d
000002a0: ad2d 433d 8418 9abe 2ddc 5dbb 738a a03e
000002b0: fe50 4fbe d09b 63be f065 af3e 09c8 a33d
000002c0: 1447 153e 8b6e 5d3e a820 c23d 4fcc 98be
000002d0: 64bd 66be 4e53 3d3e 6f31 1dbe b006 f0bc
000002e0: 2243 743d bbe8 81be d11a 36be 8993 73bd
000002f0: 88aa 6d3e 1976 553d 9aa7 083d 58a0 4cbd
00000300: 1d0d f1bc 99f3 47be 09d1 3ebd 6a41 0f3e
00000310: d85d 19be 119a c93d 3962 0d3e efe7 0a3e
00000320: ee40 2cbe c557 4e3d d8ba 943e cb3f a4be
00000330: f78b 9ebc 4e15 9c3e a1f2 6ebe cd26 543e
00000340: ca1d cb3e 3b1c d43e 8e2f 013e 6adb 0a3e
00000350: e6e3 2abe 2719 0bbe 0538 d0bc bd06 113e
00000360: 944f 453e e9da 623d 5c5b acbe 8951 963e
00000370: 4332 fa3d 4833 183d 17e5 923e 5776 6ebd
00000380: 0f96 22bc f791 b03e 712d d7bc b872 8dbc
00000390: 5bd2 88be e87c 59bd 6579 1cbe bc35 083e
000003a0: fef2 a73d f818 3bbd 464b 03be dbed 733e
000003b0: 0220 693e 320e 5abe 7d65 2d3e 58b9 cfbd
000003c0: 2b38 9b3e 05e0 a03e d47a bc3d ddb0 6bbe
000003d0: a8d1 1bbd bcf7 b23d f014 3dbd f8b9 9e3e
000003e0: 917a 883e faae c63d ddae 913d 758d eabd
000003f0: 98d3 84bd ec37 52be afac 423e 375f a43d
0.26514643 -0.09654595 0.17377992 -0.32828498 0.08409464 -0.20405364 -0.037228823 -0.16730396
-0.11020156 -0.10671268 0.15213922 -0.04050693 -0.14103103 0.18214148 0.11917902 0.11501941
-0.12348773 0.035841357 -0.06807297 0.09570729 0.09621106 -0.1396284 -0.12192495 0.047584806
-0.058136024 -0.19958179 -0.116624735 0.36417133 -0.13831306 -0.17635433 0.079117775 -0.0134381475
0.1193334 0.08235702 -0.10101301 -0.15917435 -0.030055609 -0.09394779 0.13450396 -0.2246574
-0.1304795 -0.19123872 -0.0705906 0.25948095 0.23980512 -0.21083659 0.058618158 0.14514467
0.20602077 0.3290442 0.05419522 -0.22621909 0.16195005 -0.08409586 0.0036183244 -0.03712406
0.21447402 0.118352875 0.15930425 -0.06993411 -0.13741931 -0.14388035 -0.013129528 0.25420544
0.12796956 0.005037068 0.017736023 -0.19553874 0.18955952 -0.32277977 -0.2934031 -0.12460766
0.15735048 -0.03696646 -0.29674304 0.19306119 0.16655192 -0.07877936 0.09488592 0.11329653
0.118914604 0.23277996 -0.060555983 0.01074547 0.16799037 -0.2710717 0.17927235 0.35983595
-0.03337187 -0.20697059 0.013641348 -0.14004011 0.019376522 -0.034532316 0.2417179 -0.15666771
-0.25658768 0.090218835 0.114523314 -0.26774013 -0.02372758 -0.2373594 -0.16866244 -0.109065115
0.34071827 -0.029501727 0.16364063 0.20635436 0.053101882 -0.23826341 0.070596874 0.15147485
0.14922088 -0.3206285 0.106006704 0.23036462 -0.22765033 0.02537817 0.25457266 -0.16678068
0.034167644 0.14503068 0.077409096 0.18058856 0.20282483 0.21318206 -0.08883816 0.20701164
-0.33808464 -0.25197902 -0.0937496 0.018333156 0.2510418 0.11206444 0.31699565 0.1456834
-0.2333295 0.011257467 0.031571355 -0.119468994 0.08866152 -0.11528346 -0.23462713 0.23397814
0.045609623 -0.006170321 0.2662728 0.022383748 -0.04100791 -0.09135813 -0.3514265 -0.14486098
0.23735428 -0.17993376 0.13375187 -0.049007773 -0.032588102 -0.031863187 0.2655728 0.24027
0.32895523 0.24637663 0.010010985 -0.23856929 -0.24258168 0.0076105436 0.090696454 0.041557416
0.04765098 -0.3009683 -0.0033853159 0.31355628 -0.2024574 -0.22227407 0.3425746 0.07997138
0.14577895 0.216242 0.09478885 -0.29843375 -0.22533184 0.1848881 -0.15350889 -0.029300064
0.059634335 -0.25372872 -0.17783667 -0.059466872 0.23209584 0.05211458 0.033362962 -0.049957603
-0.029425198 -0.19526519 -0.04658607 0.13989797 -0.14977205 0.09843839 0.13807 0.13565038
-0.16821644 0.050376672 0.290488 -0.3207992 -0.01935385 0.30485004 -0.23334743 0.20717926
0.39671165 0.41427788 0.12615797 0.13560262 -0.16688499 -0.13583814 -0.025417337 0.14162727
0.19268638 0.05538455 -0.33663452 0.2935908 0.12216618 0.03715828 0.28690407 -0.058218326
-0.009923472 0.34486362 -0.026266785 -0.017266616 -0.26722988 -0.053097636 -0.15280683 0.13301748
0.08200644 -0.04567811 -0.12821683 0.23821203 0.22766116 -0.21294478 0.16933246 -0.101427734
0.3031629 0.31420913 0.09203115 -0.23016687 -0.03804174 0.08738658 -0.046162546 0.31001258
0.2665601 0.09701343 0.07113431 -0.11452762 -0.06485671 -0.20529145 0.19011186 0.08025973

gru.bias_ih_l0 f4 [48]
00000000: b2f8 553e d152 14be 1996 ca3d 798d 883e
00000010: 1d56 b33d 5ab3 eb3d 568d 2b3e 4b1f 3f3e
00000020: 93e4 6fbd 56f7 d4bd 4b9a bd3b aa04 6c3e
00000030: d5b5 b9bc c2f4 393e 4f7f ddbc 7035 0c3e
00000040: 5585 e8bc cb21 bcbd d319 87be 8afb 72be
00000050: 3d5d 8a3d ad0f 103e 53fc 823d 11c9 8c3d
00000060: cca3 243d 6cad 653c 4f35 98be 2dbc babe
00000070: 6c65 03be 6f96 84bd 8f5e 8ebe bb6d 84bd
00000080: e6d8 e43c 4e4e 373e a87e 023e 15a7 173e
00000090: c1c3 993e 5796 36be 1ee7 c9bd e5f2 c23d
000000a0: ec9c 883e bb2b 20be 1640 08be 0bc9 2cbe
000000b0: db5c 003e d669 02be 572d 44bd 319c 5f3e
0.20895651 -0.14484717 0.0989191 0.26670435 0.08756659 0.11508818 0.16753134 0.18664281
-0.058567595 -0.10398738 0.0057862154 0.23048654 -0.022669712 0.18159774 -0.027038245 0.1369226
-0.02838389 -0.09186133 -0.2638689 -0.23728767 0.06756065 0.1406848 0.06395783 0.06874288
0.04019527 0.014018398 -0.2972817 -0.36471692 -0.12831658 -0.064740054 -0.27806517 -0.06466242
0.027935456 0.17900965 0.12743628 0.1480983 0.3003216 -0.17830788 -0.09858535 0.09518985
0.26682222 -0.15641682 -0.13305697 -0.16873567 0.12535422 -0.12735686 -0.047894802 0.21836926

gru.bias_hh_l0 f4 [48]
00000000: 30fe 763e b0ea aabc 50cc 29be c5cf 633e
00000010: 88c6 1bbc c68b 93bd b846 dcbd 9cf5 fabd
00000020: b4ea 35be 4163 dcbd 123f 4fbe 9a8c 7cbc
00000030: 02d3 663d 7140 3abe 8921 d1bc f8f5 02bd
00000040: 46b8 ab3d 5c6c f13d de17 72bd f805 14be
00000050: e5cc 14be 240c 05be 4240 02bd 8f0b ec3d
00000060: 583a 8e3d b5c0 02be fd77 403d 0d45 bcbe
00000070: fee8 073e fed3 313e 441d bcbe 1460 eabd
00000080: 09d9 7f3e 68c2 233d 6894 8ebd dc21 973d
00000090: 37cb c53d df38 a4bb e8f6 28be 63e6 763e
000000a0: 1988 ff3d 1d01 87bd 20bf 9ebc c5cc 5a3e
000000b0: c8ca 0a3e 9a95 16be d3ef 813d 301b f83d
0.24120402 -0.02086386 -0.16581845 0.22247227 -0.009507783 -0.07204394 -0.10755676 -0.122538775
-0.17765313 -0.10761119 -0.20238903 -0.015414381 0.056353576 -0.18188645 -0.025528686 -0.031972855
0.08384757 0.11788246 -0.059104793 -0.14455402 -0.14531286 -0.12992913 -0.031799562 0.11525642
0.06944722 -0.12768824 0.04698943 -0.36771432 0.13272473 0.17366025 -0.36741078 -0.11444107
0.24985136 0.039980322 -0.069619 0.07379505 0.09657901 -0.0050116624 -0.16500437 0.24111323
0.124771304 -0.06592009 -0.019378245 0.21367176 0.13553917 -0.14705506 0.06344571 0.121145606

fc.weight f4 [22, 16]
00000000: cbc6 01bd f126 823e f21d 29bd 991e a13d
00000010: 70c1 e3bd 658b 893d 6bc9 bd3d 865b c33d
00000020: 0ef6 eb3b 86ab 903d 64db 37be 1e2d 49bd
00000030: d3c9 17be f010 06be db41 783d d9ba 7abd
00000040: 0b51 79bc ca5c b7bc 81b6 543e aeba 0abb
00000050: 61d5 86bb 2385 ec3d 6f0d c8bb 1963 893e
00000060: b232 8dbd 1f68 afbb 7ee2 a3bd 9422 0c3d
00000070: a82a 4b3d 00e5 14be 7372 ac3d 774c ef3c
00000080: a159 9b3d a50d 103e 13a9 8a3e 1078 433e
00000090: 89b9 d53d aaec 223d 2d20 9d3d 4e70 f23c
000000a0: c26f 11be e323 1bbe b545 56be 1f68 463e
000000b0: c37e 373d fe21 b8bd edb0 da3d da40 d8bb
000000c0: 5553 a63e 62fc af3e c450 60bd 0ff2 d93d
000000d0: a6bb 243e 61dd 813b 4ca6 d7bd 449d 3a3e
000000e0: 6929 cb3d 34cc db3d 0ba1 b6be 3325 f63c
000000f0: c830 06be 8cda 5bbe fe01 293e bf01 643e
00000100: 4c4e 75bc b61b a63e 48e0 be3e 9d34 3ebe
00000110: 66fe 173e 0796 90be 21c8 d7bd 3dab e53c
00000120: 7956 603d 40eb a7be 87f0 bbbe f033 ab3e
00000130: 072d 30bd 40aa 21be dddc 023d 455a 9f3e
00000140: 0390 0a3d 8ab3 763d 2fbe debc 437f 9abe
00000150: 4f16 8c3e 7981 9ebe a23c 44be fd91 833d
00000160: d1ed 673e c723 c0bd e486 aabe d395 b83e
00000170: a334 7bbe fa1d e3bd 10ec 0b3e d1e8 813d
00000180: 3aeb 933e f783 9b3e 7f28 273e d073 26be
00000190: 8e26 5c3e 435b 543d 4eef c4bd b42f 393d
000001a0: 39fa 373e cf79 c23d f101 aebd 89a4 a33d
000001b0: 81cf 53be 9f76 74be c94a 933e 28a3 d13d
000001c0: b749 2d3e 713f 7e3e 219e bfbb ec41 1dbe
000001d0: 2825 66bd 8b9f 983d bb15 343d 0a98 923e
000001e0: cf64 8f3e a8a8 bdbe 067d 34be c53e 3d3e
000001f0: 19db 59be e74f 49bc f8ee 4f3c 86c0 083e
00000200: 7988 b13e 6665 a3bd d79e a73e cb1e 3a3d
00000210: 9342 fdbd 8759 193e 505d aebe 5e95 89bd
00000220: 3965 bf3c 5c66 02be abab 91bd d707 633d
00000230: f5cf 6abe 44e6 02be d033 a13e 1916 7e3e
00000240: ccab 3d3e afdf dc3d 1152 fb3d 26ca e5bd
00000250: a0af cf3d 4322 84be 2cc3 14be 91f0 213b
00000260: 3458 4c3e 9f1f 16bd e353 c2bd 1320 af3d
00000270: 9702 29be 5ec1 b3bd 542a d73d 63b3 973c
00000280: 95ae c03a 725f 5f3e 285f 22be 2d38 e6bc
00000290: 8507 943e e295 3dbd 22a2 723c 1268 543e
000002a0: e05d 433e 26ac babd 57bd 21be b387 05bd
000002b0: 30f0 4f3d f325 dbbd 3952 e73d c8cf ccbd
000002c0: 272a 7fbd 0401 5b3e c21b dfbc 2f88 e73d
000002d0: 84ce c93d e2e0 e3bd 4ca7 2dbd d44b 053e
000002e0: 4e06 1fbd 7acb 7abd 5ebf 98bc af11 873c
000002f0: f4c1 3d3d fd08 22be 0cd9 7aba c400 84bd
00000300: 3d7e d43d 4620 a2bd f450 b13d a117 243e
00000310: 201f fbbd b3e3 003e fcf3 32be a337 233c
00000320: 9bde 15be 1c3c 03be 2f6d b73b 713b 4bbd
00000330: ae9d 373e 853a 03be 9c72 323e cb23 b53d
00000340: 45bd 4c3e 97e5 fe3c 4c4e e4bd 36ac 5abd
00000350: 2776 023e 2d10 e9bd d1dd 8bbd ed05 7b3d
00000360: d69e bebc 74b1 66be 358c da3d 237f 32bd
00000370: 6212 723e 4672 c8bd c519 cd3b e415 5b3c
00000380: 05f3 243e fa7f 643d de29 1fbe 7830 a03d
00000390: 73e8 303e d37c 023e 5baf 193e 3b6f da3d
000003a0: e35d 82bc 8b2b 66be 4ed1 47be 5c9e 65bd
000003b0: 3e94 bdbc b53a 013e 216b b7bb f4fc fdbc
000003c0: 673d a5bc 874e 31be 117e e6bc d076 393e
000003d0: 9afa 133e 84f2 463e 9e28 2ebd e7b4 f2bc
000003e0: cdc6 d83d 1770 eabc e498 6ebd 0af6 013e
000003f0: 3a82 643b aae2 ebbd 08e5 0d3e c327 6e3c
-0.031683724 0.25420335 -0.041288324 0.07867164 -0.1112088 0.067160405 0.09266933 0.09538941
0.007200963 0.070639655 -0.17954785 -0.049115293 -0.14823084 -0.13092399 0.06060968 -0.061213348
-0.015217076 -0.022383112 0.20772745 -0.0021168399 -0.004114792 0.11548831 -0.006105117 0.26833418
-0.06894435 -0.0053529884 -0.08002184 0.034212664 0.049601227 -0.14540482 0.08420267 0.029211266
0.07585455 0.14067705 0.27082118 0.19088769 0.10435779 0.03977648 0.07672153 0.029594567
-0.14202788 -0.15150408 -0.20925029 0.19375657 0.044798624 -0.089908585 0.10678277 -0.006599528
0.32485452 0.3437224 -0.054764524 0.10641872 0.16087207 0.003963158 -0.105297655 0.18224055
0.09920008 0.10732308 -0.3566974 0.030047035 -0.13104546 -0.21470088 0.16504666 0.22266291
-0.014972281 0.32443017 0.37280488 -0.18574758 0.14843139 -0.28239462 -0.105362184 0.028035754
0.054769967 -0.3279667 -0.36706945 0.33438063 -0.04301169 -0.15787601 0.031948913 0.31123558
0.033828747 0.060229816 -0.027190296 -0.30175218 0.2736077 -0.30958155 -0.19163755 0.064243294
0.22649314 -0.09381824 -0.33306038 0.36051807 -0.24531798 -0.11089702 0.1366427 0.06343234
0.288904 0.3037412 0.16324042 -0.16255116 0.21499082 0.051844846 -0.09615956 0.04521151
0.17966546 0.094958894 -0.08496464 0.07990367 -0.20684625 -0.23873375 0.28767994 0.10236198
0.16922651 0.24828888 -0.005847708 -0.15357178 -0.05618778 0.074523054 0.043966036 0.28631622
0.28006598 -0.37042737 -0.17625818 0.18480976 -0.21274985 -0.012287117 0.012691252 0.13354692
0.34674433 -0.079783246 0.32738373 0.045439523 -0.12366214 0.14975558 -0.34055567 -0.06717943
0.023363696 -0.1273436 -0.07112821 0.0554274 -0.22930892 -0.12783152 0.31484842 0.24813117
0.18522567 0.10784852 0.12271512 -0.112201974 0.1014092 -0.2580739 -0.14527577 0.002471004
0.19955522 -0.03665125 -0.09488656 0.085510395 -0.16504894 -0.08777116 0.1050612 0.018518155
0.0014700467 0.21813753 -0.15856612 -0.028102959 0.28911987 -0.046285518 0.014809163 0.20742825
0.19078779 -0.09114866 -0.15794884 -0.032600116 0.05076617 -0.107005976 0.112949796 -0.10000569
-0.06229606 0.21387106 -0.027234916 0.11305272 0.09853843 -0.11126877 -0.042395875 0.13017207
-0.038824372 -0.061229207 -0.018645938 0.016487924 0.046327546 -0.15823741 -0.00095690857 -0.064454585
0.103756405 -0.07916312 0.08658019 0.16024639 -0.12261796 0.1258686 -0.17475885 0.009961995
-0.14635698 -0.12815899 0.0055977325 -0.049617235 0.17931244 -0.12815292 0.17426533 0.088447176
0.19994076 0.031115336 -0.111477464 -0.05338689 0.12740384 -0.113800384 -0.068294175 0.06128495
-0.023269098 -0.2252863 0.106712736 -0.04357828 0.23639825 -0.09787421 0.0062591755 0.013371918
0.1610833 0.05578611 -0.15543315 0.07821745 0.17276172 0.12742929 0.15008299 0.10665747
-0.01591391 -0.22477548 -0.19513437 -0.056059226 -0.023141976 0.12620051 -0.0055974876 -0.031004407
-0.02017088 -0.17315112 -0.028136285 0.1811173 0.14451066 0.1942845 -0.042519204 -0.029627277
0.10584793 -0.028617902 -0.058251277 0.12691513 0.003486766 -0.11517842 0.138569 0.014535847

fc.bias f4 [22]
00000000: e5cd 06bd 3b4a 213d 2542 493e f350 afbd
00000010: 99de a8bc 4468 163e 663f e83c 693e 893d
00000020: 7040 a23e 261e 1b3d b25c dfbd 5631 3cbd
00000030: f39b 6d3e 517e 5bb9 20ed 09be 1247 b93d
00000040: 551c 2abc 5de8 15be cf35 fb3d 0b72 ab3d
00000050: 5b8f 033e 4e45 473d
-0.0329112 0.039377432 0.19654138 -0.08560362 -0.020613955 0.14688212 0.028350543 0.06701357
0.31689787 0.03787055 -0.10906352 -0.045945488 0.23204021 -0.00020932524 -0.13469362 0.09046759
-0.010382731 -0.14639421 0.122661225 0.08371361 0.12847655 0.04865008
