models/GRU_NoiseEst/training_checkpoints/noise_gru_epoch_011_mse_0.0891.pth (torch, 14133 bytes, 10 tensors)

pre.weight f4 [22, 1, 3]
00000000: 71df 94bc 9165 973e fb83 fabe 9d25 dbbe
00000010: 43ee 65be c585 1e3e 7b4a 06bd f259 df3e
00000020: 0f8c 94bd 555e 303e f4ec 1ebe 8d03 bebd
00000030: 3d26 0cbf 56a7 c1be 958d 70be f5b7 2f3d
00000040: 6530 823e 57ee bf3e f04c c1be 4158 73be
00000050: 22ec 643e 82df e73e e394 14be 43ae cf3e
00000060: 5ae0 c3bd a3b7 6e3d 583e 053f 5007 02bf
00000070: 8cf7 abbe 78fc f2bd 0909 6ebe 25ab fb3e
00000080: 8571 c3be fbc8 93be 152f dabe ff43 10bf
00000090: 79c7 abbe 11b1 ff3e b0f4 843e 4b24 873e
000000a0: 7049 6d3c 773f 9fbe 08e4 af3d a33b 0dbf
000000b0: cfac dbbe 268a a0be 9dae b23e 5fb2 a53e
000000c0: 5e0c 7dbe 2e10 45bc e9ac c13e 4a6f 163f
000000d0: 159a 783e c59d bb3d 6c7f bf3e 2bf8 b4be
000000e0: 9725 c03d 4275 eebe 0027 d6be 6cf4 a1be
000000f0: 6283 8f3e 53f4 803e 4fe4 a4be 7f9c 323e
00000100: 8053 a23e b981 94bd
-0.018172951 0.29569677 -0.48928818 -0.42802134 -0.22454171 0.15480717 -0.032785874 0.4362331
-0.072532766 0.17223485 -0.15520078 -0.09278021 -0.54745847 -0.3782298 -0.2349151 0.042900044
0.25427547 0.37486526 -0.3775401 -0.23764135 0.22355703 0.4528771 -0.14509921 0.4056264
-0.09564276 0.0582806 0.52048254 -0.5079241 -0.335873 -0.11864561 -0.23245634 0.4915401
-0.38172546 -0.28864273 -0.42614046 -0.56353754 -0.33550623 0.49939778 0.25967932 0.26394877
0.014482841 -0.31103107 0.085884154 -0.55169123 -0.4290528 -0.313554 0.34898844 0.3236265
-0.24711749 -0.012027783 0.37827232 0.58763564 0.24277528 0.091609515 0.37401903 -0.35345587
0.0938217 -0.46573836 -0.4182663 -0.31631792 0.28029925 0.25186405 -0.32205436 0.17442511
0.3170433 -0.07251305

pre.bias f4 [22]
00000000: f520 a93b 988d 1f3e 4618 ad3e 0e5b 143f
00000010: 7f01 ebbe e325 6ebe e78e 753e f1bb e93e
00000020: 9899 033f 1883 073f c0d9 db3d e899 f5be
00000030: 633d 033d 9410 b2be 7096 04bf f213 053f
00000040: e83e d93e fa52 16bf de86 c83d eadd 9dbd
00000050: 951f babd 59fc 80be
0.0051613995 0.15581357 0.33807582 0.5795144 -0.4589958 -0.2325664 0.23980294 0.456512
0.5140624 0.5293441 0.10734892 -0.47968984 0.032040965 -0.34778273 -0.5179205 0.5198356
0.42430806 -0.5872036 0.09791349 -0.077083424 -0.09088055 -0.25192526

norm.weight f4 [22]
00000000: b8cc 803f 8cdd 7c3f 79e0 793f 42c9 823f
00000010: d429 7c3f 5950 7e3f fb70 7c3f 35e8 783f
00000020: e5fe 7b3f 7c7f 793f 2ad1 7f3f 8742 7c3f
00000030: c866 7a3f fb78 7a3f 085c 793f a7d7 783f
00000040: 4f8f 803f ee37 7d3f 911d 7a3f f4a6 7c3f
00000050: 43b1 803f 1701 7e3f
1.0062475 0.98775554 0.97608143 1.0217669 0.98501325 0.9934135 0.98609895 0.9722932
0.98435813 0.9746015 0.99928534 0.9853901 0.9781308 0.9784085 0.97406054 0.9720406
1.0043734 0.98913467 0.97701365 0.9869225 1.0054096 0.9922041

norm.bias f4 [22]
00000000: ead1 d2ba b7d0 083c e392 0abc 62f7 943c
00000010: 7b00 83bc 189a 6b3c 924c bebb e5a4 703b
00000020: 47e2 cb3c 06a2 0cbc fd58 0fbb 9945 6dbb
00000030: 1096 a03c 122b b13c b341 a4bc c430 de3c
00000040: cf15 87bb ab78 0f3c dbca 9b3c 6b7a 6cbc
00000050: 5e22 eebb 3932 1b3b
-0.0016084288 0.008350543 -0.008457872 0.018184368 -0.01599144 0.0143800005 -0.0058074677 0.0036719379
0.02488817 -0.008583551 -0.002187311 -0.0036204814 0.019602805 0.021626983 -0.02005086 0.027122863
-0.004122473 0.008756797 0.019017627 -0.014433484 -0.0072672805 0.0023681058

gru.weight_ih_l0 f4 [48, 22]
00000000: f6b2 9c3d af8f 2abe 8c24 d03d b871 d13d
00000010: bdd3 3d3e d10c e13d 362e 8dbe f690 09be
00000020: c617 1d3e 6ce2 c63c 6457 64be 09d6 2cbe
00000030: 3baf 853e 6de4 403e 7f83 0bbe c931 13bd
00000040: 4ca1 5fbe 9e42 ad3c 8a4e 27be 34ac 5fbe
00000050: f14b 493c c4b9 803d 645f dbbd 5829 063e
00000060: a540 10be ba83 4f3e 4c20 2c3e 533a 44be
00000070: e4f7 aabd c237 e23c 4213 5e3d 0908 133d
00000080: 000e 943d 6926 1cbc ef9f c8bd 4cc2 103e
00000090: ea77 87be 214d ffbd 3bbb 48bd baaf c5bd
000000a0: c68f 82bd 052e 6bbe 1d68 ddbc a8a9 a03d
000000b0: a538 2dbe 509b 07bc 5472 2c3e 59cb dfbc
000000c0: a346 be3c 384f 0fbd 00bf 813d 9bc3 153e
000000d0: 23fd 653e 503f 2c3e 5575 773e cd11 6cbc
000000e0: c980 6abe 1007 fbbd 8430 333e 0f1a 0cbc
000000f0: 8109 0abe c5d2 44be ea5f 73be cfcc 57be
00000100: c036 52bd 1b14 0c3e 01eb 213e ad90 62be
00000110: 4d3b 0f3e bfb3 32be 4dbd 20bd 7d03 f1bd
00000120: 08ce ecbc 8589 8abd c2ce 77be 5086 4abe
00000130: 31bf a3bc 8630 b43c 6304 07be 2a15 9d3d
00000140: 6af1 52be 4625 12bd d720 533e b06d fbbd
00000150: 83b5 523e eb5d e53d 6aeb 7cbe dd1c 0d3e
00000160: 6a63 b6bc 498b c1bd 017f 453e 403f 35be
00000170: 0ede c43c df4d 7cbd 76a6 473e c892 6d3d
00000180: 5678 dd3d bc9c dc3d 10d0 12bd 6078 00bd
00000190: d60b 68be 677e e73d e386 623e b268 1a3e
000001a0: 78fc 39be 10cc 5ebc 3164 4bbe a979 e7bd
000001b0: 40e7 2ebe 0a36 793d cdda 15be a422 a43c
000001c0: d799 86bc d60d 403e 8a61 26be b3d2 4bbe
000001d0: bad6 f6bd 0e7d 1b3e c535 e9bd 8347 733e
000001e0: 7036 f33d 116a 743d d8b4 f5bc fb5c 9cbd
000001f0: 3e1c 743d 529a adbd c1ee fcbc 30f5 4c3b
00000200: 40d2 64be e474 d1bd b0cd 303e 6e1a 6dbe
00000210: 8145 dfbc 634e 853e a80a 853d da16 47bc
00000220: f7af 41be 61b9 c43d 77f2 24be 1de7 c8bd
00000230: 0cfb e2bd 2c9c 37bc 95da a73b 10fd 693e
00000240: 5bd4 193c 7267 6b3e f217 203e 39ac 37be
00000250: 26c1 ae3d e900 2bbe b7d5 d2bd 8280 773d
00000260: 0651 b83d d2b6 4b3e 2ece afbd 448e 8ebc
00000270: e4ae 163e 10e6 85be d6f7 283e 1e07 41be
00000280: 7bd6 5fbc 811c cdbc 9bb2 eabd 397c 743c
00000290: 9121 3d3e 28fe bfbd 5f84 03be 3dc5 94bd
000002a0: c380 88be e059 063e cc25 d1bd 5a51 17be
000002b0: 5964 00be e626 ff3d 15c5 1c3e 64f4 583e
000002c0: cb47 de3d f719 75bd 96cb bfbd ce4a c53d
000002d0: ae0f 6c3e 7f68 2e3d 7072 c0bd 529f 11be
000002e0: 2aad 85be 48f9 a03d ce7c e8bd e542 4bbe
000002f0: 89d3 473e 60d8 3cbe bcf8 66bb e3a8 413d
00000300: c823 8fbc 1567 45be babb 66be 6d91 643e
00000310: 534a 7f3c 79b2 3b3e 6429 b6bd 7dc9 ba3d
00000320: c968 a5bd d9da c5bc 95e4 03be 287d 8c3d
00000330: 88f6 a53d 1093 2ebc 4052 7dbd d3c7 1fbe
00000340: b364 223e d00c 39be ecf0 ca3d 1931 b3bd
00000350: b16c febd ea18 443d 0f18 15be 5ebc 863d
00000360: 913c 513d b307 4abe ac51 3a3d af6e ec3d
00000370: caf5 b73d 3bab 56bd bb9a 37be 444d 24bd
00000380: 17f4 743d 23c2 82bd a8f3 8c3d aedf 453e
00000390: 9473 d4bd e6a6 b9bc bfbd b43d 9ec8 a239
000003a0: 8e38 2d3d 0065 093d 1efb 60be 5cf5 343d
000003b0: 355b 4c3e 8cc6 713e ebaf 253e a820 d73c
000003c0: c11d 033e c938 e9bd f9a7 49be bfc7 5fbe
000003d0: d5e7 843e 261d 2d3e 7f5d 3fbe b351 d73d
000003e0: c928 453e 23bc 803e b932 623e 080a 4d3e
000003f0: 81f0 54bd 7106 a5bd 75a6 4a3e 4f5c fe3d
0.076513216 -0.16656373 0.10163221 0.10226768 0.18537803 0.10988773 -0.2757432 -0.13434204
0.153411 0.024277888 -0.22298962 -0.16878523 0.26110253 0.18837138 -0.1362438 -0.03593615
-0.21838874 0.02114993 -0.16338554 -0.21843034 0.012286172 0.06285432 -0.10711554 0.13101709
-0.1408716 0.20265093 0.16809195 -0.19162874 -0.08348063 0.027614478 0.054217584 0.035896335
0.07229233 -0.009530642 -0.0979613 0.14136618 -0.26458675 -0.12465883 -0.049006682 -0.09652658
-0.06375079 -0.22966774 -0.027027184 0.07844859 -0.1691614 -0.0082767755 0.16840488 -0.027318643
0.023227042 -0.03498766 0.063352585 0.14625399 0.22459845 0.16821027 0.24165852 -0.014408541
-0.2290069 -0.122572064 0.17498976 -0.008551135 -0.13480188 -0.19221027 -0.23767057 -0.21074222
-0.051321745 0.13679545 0.15812303 -0.22125502 0.13987465 -0.1745138 -0.03924303 -0.117682435
-0.028906837 -0.06764511 -0.24199966 -0.19777799 -0.019988628 0.021995794 -0.13185267 0.07670052
-0.20599905 -0.035680078 0.20617996 -0.122767806 0.20577054 0.11199554 -0.24699178 0.13780542
-0.022264201 -0.09450395 0.1928673 -0.17699909 0.024031665 -0.0615977 0.19497094 0.05800131
0.10813968 0.10772082 -0.035842955 -0.0313648 -0.22660765 0.11303406 0.22121768 0.15079
-0.18162715 -0.013598457 -0.19862439 -0.11302502 -0.17080402 0.06084255 -0.14634247 0.02003605
-0.016430778 0.18755278 -0.16248146 -0.19904594 -0.120526746 0.15184423 -0.11387209 0.23757748
0.118756175 0.059671465 -0.02999346 -0.07634922 0.059597246 -0.084767 -0.030875565 0.0031274073
-0.22345829 -0.10227373 0.17265964 -0.23154613 -0.027254822 0.26036367 0.06496173 -0.012151444
-0.18914782 0.09605671 -0.16108118 -0.09809706 -0.1108304 -0.011206668 0.0051224926 0.22850442
0.009389008 0.2298868 0.15634134 -0.17936791 0.08532934 -0.16699566 -0.10294669 0.06042529
0.08999829 0.19893959 -0.085842475 -0.017401822 0.14715153 -0.26152086 0.16500792 -0.18850371
-0.013661976 -0.025038006 -0.114598475 0.014922195 0.18469836 -0.09374648 -0.12843464 -0.07264183
-0.26660737 0.13120222 -0.10212287 -0.14777127 -0.1253828 0.12458591 0.15309556 0.21186978
0.10853537 -0.059839215 -0.09365003 0.096334085 0.23052856 0.042580124 -0.09396827 -0.14220932
-0.26108676 0.078600466 -0.113519296 -0.19849737 0.19514288 -0.18441916 -0.0035243472 0.047280204
-0.017473117 -0.19277604 -0.2253255 0.223211 0.015581685 0.183298 -0.088946134 0.09120462
-0.08076627 -0.024152206 -0.12880166 0.06859809 0.08103663 -0.01065518 -0.061846018 -0.1560357
0.15858726 -0.18071294 0.099092335 -0.08749599 -0.12423075 0.047875322 -0.14559959 0.06578897
0.05108315 -0.197295 0.045488045 0.11544549 0.089824274 -0.05240939 -0.17930119 -0.04011275
0.059803095 -0.06384685 0.06882411 0.19323608 -0.10373607 -0.022662591 0.08825254 0.0003104852
0.042290263 0.033543587 -0.21970794 0.044179305 0.19956668 0.23610896 0.16180389 0.026260689
0.12804319 -0.11387784 -0.19692983 -0.21853541 0.25958124 0.1690565 -0.1868801 0.1051363
0.1925384 0.25143537 0.22089662 0.20023358 -0.051987175 -0.08057869 0.19790061 0.1241995

gru.weight_hh_l0 f4 [48, 16]
00000000: 5839 e23d 293a 6cbe e289 1d3d 3988 5abe
00000010: 7a55 c63d d06b 42be c75d 013e 0d43 83be
00000020: 209d 70be 85aa c83c aec2 643e 513c 5abe
00000030: 76ca d4bd cefd 7a3e b849 4fbd 4acf 9e3d
00000040: 1584 75be 2975 afbd 2d23 1abe 700c 443e
00000050: 9407 a83d bfe5 23be 5d6e 833c c223 9abc
00000060: 355f 01be 1e5a f7bd e024 75bd a2ce 4d3e
00000070: 1647 2ebe e940 1dbe 9db4 92bd ea5b a7bc
00000080: b942 4a3d 77b6 a63c aa30 b6bd fff1 21be
00000090: d372 13bd c926 d5bd d230 543e c057 8abe
000000a0: 99d0 1dbe 06a9 4fbe e160 51bd c86a 323e
000000b0: 3ed2 4f3e 2187 61be 05dc ecbc 6f25 1a3e
000000c0: 8454 d93d b2a7 583e 9f38 18bc 2a14 18be
000000d0: d284 3c3e 0e44 d9bd d41a 193e fc55 60bd
000000e0: 8c83 003e a377 593e 6cfb 583e 20bf 74be
000000f0: 3e65 39be a47f fdbd 6e79 2ebe 513c 853e
00000100: 5655 8bbc e199 1abe 0fb1 b3bd 142b eebd
00000110: d0d9 f33d 0961 76be f63d 58be 1fa6 6abe
00000120: 4c94 043e e003 ce3d 9212 37be 9ede 813d
00000130: d7e0 393e bd0e 473c 4ce5 50bd 133d 2c3d
00000140: 64a8 1dbd 22f4 f13d f576 11be df88 163e
00000150: 2e75 2b3e a66f 37be 9bea 6c3e 3f16 823e
00000160: 558a 91bd a4a8 c5bd 0749 ca3d 9cc7 5ebe
00000170: 4a09 993d 8f26 f83c 657b 083e a8cd 41be
00000180: d4df 71be 7343 de3d f5f6 953d 29be 82be
00000190: 9b26 e6bd c8e9 5ebe a7d7 32be 020e 0cbe
000001a0: 2374 5b3e eabd 1fbd 679f 203e ae61 553e
000001b0: 1a64 ae3d 4c04 5cbe baf1 c63d dab7 bc3d
000001c0: 29c5 563e 07c4 85be 5862 0c3e 2db3 433e
000001d0: 4051 80be 4e38 313d 6dfa 473e ccb4 2ebe
000001e0: 2737 823d 2e58 053e 7bb0 a83d 8ab1 873e
000001f0: 551e 633e e3e2 6f3e e64b 61bc 115c 423e
00000200: cfcf 7dbe 7451 05be c523 07bd 1e33 69bd
00000210: 2085 823e 7b02 c53d 09e5 3d3e 3a23 2d3e
00000220: c359 27be 8631 4cbd e6b5 663c 4e5b 2b3d
00000230: 0f1f da3d a759 fcbd 14e4 c6bd b7ef 6e3e
00000240: aaee bfbd 7469 24be 2f6f 1e3e 18c0 153e
00000250: f0f3 95bd 2b6b 30bd 29dd 3dbe e89f 6ebe
00000260: b4f2 c13d 664f b6bd c17d 5a3e ff03 62be
00000270: 135c 55bd ca53 703c 73aa d43d 3deb 4c3e
00000280: ca25 423e 7afa d53d b320 c4bd c2c7 25be
00000290: 1d2f 7ebe 8c69 cc3c fc1e 613e 14a9 cbbc
000002a0: dc41 eebc 87f5 42be 5bbf b93d fd62 3e3e
000002b0: 5fcb 61be d9a6 28be 9b68 583e 3022 353d
000002c0: 7af5 dabc 7642 913d d5d4 c7bc 1b06 2dbe
000002d0: 3168 6abe 73a2 213e 2566 bfbc 8f75 b2bd
000002e0: a1d5 60bd 2cc3 1dbe d7a5 b2bd 337a 5bbe
000002f0: 821e 433e c229 bd3d 0eb3 fdbd 9910 9bbd
00000300: ea04 b03d 7933 9fbd 0577 2d3d 0a39 403d
00000310: 7630 06be 369c 6d3d 4adf 173d a6f8 443e
00000320: 7f18 9fbd 303b 3fbd 6e33 523e 56a1 6fbe
00000330: ddaa 31bc 0c8c 713e f5fc 10be 8910 803e
00000340: e8e3 763e 8bae 713e 463e 623a 1ad9 7c3e
00000350: 967c dabd 62c2 e8bd 69c0 f53d 2a16 993d
00000360: 71e4 2c3e a72a 5b3e b09f 3ebe cd7c 1a3e
00000370: 63ed c73d eac4 d43d 2a7d 093e 8136 82bd
00000380: ca6a 39be 6a60 3e3e 75ef 05be c2ea 1c3e
00000390: 0f0c 81be 137b 00bd b12e 29bc 244e 803d
000003a0: 752b df3b 55fa ba3d e983 85bc 8208 9f3d
000003b0: cb84 863e 29f8 18be 52bd 583b 588b debd
000003c0: fecf 513e ec25 4f3e 26d4 87bc 96fc c2bd
000003d0: 6620 fbbd da57 2f3e 5432 a23b e8e6 653e
000003e0: bd14 1f3e 852a 693e e2c3 423e 799d 41be
000003f0: 66e7 3f3d 6d8f e7bd 333d ce3d c0c5 fcbb
0.11046094 -0.23069061 0.038461573 -0.21341027 0.09684272 -0.1898644 0.1263343 -0.25637093
-0.23497438 0.024495373 0.2233989 -0.21312071 -0.10390179 0.24510881 -0.050607413 0.07754381
-0.23976167 -0.085672684 -0.15052481 0.1914537 0.082045704 -0.1600561 0.016043836 -0.018815879
-0.12633975 -0.12077735 -0.05984962 0.20098355 -0.17019305 -0.15356793 -0.071633555 -0.02042957
0.049380038 0.020350678 -0.08896001 -0.1581497 -0.035998177 -0.10407788 0.20721748 -0.27020073
-0.15411605 -0.20279321 -0.05111778 0.17423546 0.20295045 -0.22024204 -0.028913507 0.15053342
0.10611823 0.2115772 -0.009290843 -0.14851442 0.18410042 -0.106086835 0.1495164 -0.0547695
0.12550181 0.21237044 0.2118966 -0.23901033 -0.18105027 -0.12377861 -0.17038509 0.2602258
-0.017008465 -0.15097763 -0.087740056 -0.1162931 0.11906779 -0.24060453 -0.21117386 -0.22914933
0.12947196 0.10059333 -0.17878178 0.06341289 0.18152176 0.01214951 -0.050999925 0.042050432
-0.038490668 0.11814143 -0.14205535 0.1470065 0.16743919 -0.17913684 0.2313637 0.25407597
-0.07106463 -0.09651306 0.0987721 -0.21755832 0.07472475 0.030291824 0.13328321 -0.18926108
-0.2362054 0.10852709 0.07322494 -0.25535706 -0.11237832 -0.21768868 -0.17465077 -0.13677219
0.21431021 -0.038999476 0.15685807 0.20838043 0.085151866 -0.21486014 0.097140744 0.092147544
0.20973648 -0.2612612 0.1370939 0.19111319 -0.2506199 0.043266587 0.19529124 -0.17061156
0.06358176 0.13021919 0.08236786 0.2650264 0.2217954 0.23426394 -0.013751006 0.18980433
-0.24786304 -0.13019353 -0.032993097 -0.056933515 0.2549219 0.09619614 0.18544401 0.16907969
-0.16342835 -0.049851917 0.014081454 0.04183512 0.10650455 -0.12321787 -0.09711471 0.23333631
-0.093716934 -0.16055852 0.154721 0.14624059 -0.07321918 -0.043070953 -0.18541397 -0.23303187
0.0947012 -0.08901863 0.21337034 -0.22071837 -0.052089762 0.014668414 0.10384073 0.20011611
0.18959728 0.10448165 -0.095765494 -0.16189483 -0.2482266 0.024952672 0.21984476 -0.024860896
-0.029084139 -0.19038974 0.09069701 0.18592449 -0.22050236 -0.16469897 0.21133654 0.044222057
-0.02672838 0.070927545 -0.024393478 -0.1689686 -0.22891308 0.15784626 -0.023364136 -0.08713829
-0.054891232 -0.15406483 -0.08723038 -0.21433334 0.19054607 0.0923648 -0.123876676 -0.07571525
0.08594687 -0.077734895 0.042349834 0.046929397 -0.13104424 0.058010302 0.03707818 0.19235477
-0.07768344 -0.046687305 0.20527431 -0.23401389 -0.01084396 0.2358858 -0.14158995 0.25012615
0.24110377 0.23601739 0.0008630495 0.24692193 -0.10668294 -0.113652006 0.1199959 0.074749306
0.16884018 0.2140299 -0.18615603 0.1508667 0.09762075 0.10389121 0.13426653 -0.06358052
-0.18107143 0.18591467 -0.13079627 0.15323928 -0.25204512 -0.031367373 -0.0103260735 0.06264904
0.0068106004 0.09129778 -0.016298251 0.077652946 0.26273188 -0.14938416 0.0033071828 -0.108664215
0.20489499 0.2022931 -0.016580652 -0.09520833 -0.12262039 0.17123356 0.0049498472 0.22451365
0.15535255 0.22770126 0.19020036 -0.18907727 0.046851538 -0.11306653 0.100702666 -0.0077140033

gru.bias_ih_l0 f4 [48]
00000000: aba5 303e f813 23be f72c bc3d d6c0 883e
00000010: 524b 113d 97b7 cc3d 4bff bd3d 5b71 2c3e
00000020: f80a 57bd 93ca 16be c1c0 fdbc 530e 533e
00000030: 4c65 ec3c 8ccc 4d3e b7cd 78bc d1f1 ad3d
00000040: f288 063d 5c84 ec3c 7812 58be 2938 41be
00000050: 3bb0 393d 039c 1a3e b6fc 183e b648 203d
00000060: be5e 003e 81c3 013e 8b95 50be 510e 79be
00000070: 1517 2bbe feb5 4d3c 8f99 10be ccb3 69bd
00000080: 7c65 18bd d171 e33d 1d0c 7d3d 2943 543e
00000090: 13b9 753e 2e3e 08be 426c 03bd edd2 263d
000000a0: 3cd9 443e f92d b1bd 3323 b1bd be5a 17be
000000b0: 4bab 3f3e a1e1 9cbd 8a2b b3bd bd22 223e
0.17250697 -0.15925586 0.09188264 0.26709622 0.03547222 0.099959545 0.09277209 0.16840117
-0.052500695 -0.14725713 -0.030975701 0.20610933 0.028856896 0.2009756 -0.015185765 0.084933884
0.032845445 0.028871708 -0.21100795 -0.1886908 0.045334082 0.15098576 0.14940152 0.039131843
0.12536141 0.12672235 -0.20369546 -0.24321868 -0.16708024 0.012555597 -0.14121078 -0.057056233
-0.037206158 0.11105693 0.06177913 0.20728745 0.23996381 -0.1330497 -0.032085665 0.0407285
0.19223493 -0.08651347 -0.08649292 -0.14780709 0.18717687 -0.07660223 -0.08748539 0.15833564

gru.bias_hh_l0 f4 [48]
00000000: 29ab 513e 257a 10bd e200 31be 8b36 643e
00000010: 8152 7cbd 8887 b2bd 10b1 3abe bc28 10be
00000020: 51b4 2fbe 8980 1abe 00e4 74be 94fc 22bd
00000030: 4ff0 dc3d a868 26be 1a12 60bc 0ff4 abbd
00000040: 0d8f 143e a557 743e fb98 ccbb 3885 c4bd
00000050: 798f 2bbe 98ff f4bd fdb9 5b3d d766 af3d
00000060: f952 1e3e 9e80 75bc 27f3 0f3e 0f20 7cbe
00000070: a36e c03d 4a7d 803e f116 6cbe 3ecc dabd
00000080: 3fae 293e 01bc 0ebd 0e53 05be c0ff 023e
00000090: 3f5c ea3c c76a 173d ab8d dbbd 2cf5 413e
000000a0: 74bd e33d c63d e03c b068 473d f225 153e
000000b0: 0ede 1e3e 7b34 ddbd cede b1bc 2256 ba3d
0.20475449 -0.035272736 -0.17285493 0.22286431 -0.06160212 -0.08717257 -0.18231606 -0.14078039
-0.17158629 -0.15088095 -0.239151 -0.03979166 0.10788023 -0.1625086 -0.013676191 -0.0839616
0.14507695 0.23861559 -0.0062438226 -0.09595722 -0.16753949 -0.11962813 0.05364417 0.08564537
0.15461339 -0.014984278 0.14057599 -0.24621604 0.09396102 0.25095588 -0.23055626 -0.10683487
0.16570376 -0.034847263 -0.13019964 0.12792873 0.02860844 0.036967065 -0.107203804 0.18941182
0.1112012 0.027373206 0.048683822 0.14565256 0.15514395 -0.108010255 -0.021712687 0.0909846

fc.weight f4 [22, 16]
00000000: 89bb cdbd c551 603e 395b 12be 3cc5 023e
00000010: 227d 44be 4843 b23d 18f9 233e c52b 6d3d
00000020: 9d71 12bd df66 213e 2628 2dbe a4a6 13be
00000030: 2e33 44be 7d9b 13be f7c3 e93c 1787 f3bd
00000040: 95eb 1b3d ae33 583c 1811 6c3e deb5 b3bd
00000050: 3633 30bd fda3 113e 8b11 1abd e75d 7a3e
00000060: 201a 99bd 9513 d0bc a5a6 a8bd 5fdf bd3d
00000070: 7c9c 943d 72b7 21be c20c 113e e542 203c
00000080: 49ed 39bd 22f6 32bc 04fb 233e f69d 743e
00000090: 1e21 bd3d 4f4d 903d 322c 093e 4f5b bcbd
000000a0: cd7f 22be d7cb 45bd b0b7 0abe a018 0b3e
000000b0: 1a8a 533d 076a 6abd 5b19 2f3b dd80 09bd
000000c0: 05b4 743e 5031 5c3e 2ced 2cbe 7f39 ea3d
000000d0: 3606 993d da2f b73d ee11 1ebd 35b6 b33d
000000e0: f0e4 633d a62f 663e 8dba 7abe 69ce 87bd
000000f0: 7878 10be e1d0 02be 54e9 9b3d 4e2b 1d3e
00000100: 510a 27be 2011 243e dfa0 6c3e b223 cfbd
00000110: b989 913c 9111 10be 4cdf 273d fb14 bcbd
00000120: d01e c3bd 7413 40be 61f4 64be 1e13 683e
00000130: 40e1 92bb 65d8 babc beed c7bd daa2 3c3e
00000140: b544 f5bd 8a16 dabd 4b2b 30be e25c 41be
00000150: c77b 493e 4f32 44be d40b 68bd 1d62 46bd
00000160: cc76 a13d 7a4b 4b3d fa48 3ebe c702 813e
00000170: 3772 63be 04ca 983c 9145 c13b 9a6a 70bd
00000180: 8fd7 463e 5512 493e 84ed 663d 7883 85bd
00000190: d0aa 203e 6970 0a3e de25 1e3d 8d50 34bd
000001a0: 9665 e43c b2c5 4c3e cb00 253c 9691 a9bc
000001b0: 6478 3bbe 4dbb 1cbe be78 553e 0653 1d3c
000001c0: fce6 3e3b 3d7e af3d fb25 17be 6adb 8cbb
000001d0: 747b cbbd c201 1a3e d9f3 313e e919 353e
000001e0: f742 253e 00dc 6cbe 68f9 81bd 9bcd 6e3d
000001f0: c6c2 3cbe 98e1 b43d 90e4 0abe 2f81 a83d
00000200: 3564 623e c2e5 57be de3c 6c3e 504e 0d3e
00000210: de64 3bbe 130e 603e fc92 5cbe 5939 16be
00000220: 8208 ddbd 883f 08bd 243f 0c3d df4d 4abd
00000230: 5d49 5abe 5694 41bd e667 583e 5385 513e
00000240: 8cb3 153e d567 343d 4a0d 933d 24a9 34be
00000250: cb15 983d 5706 6abe eaa7 04be ab3a 3bbd
00000260: 80a8 223e 3568 2f3a cc19 babd 699b 913d
00000270: 9374 39be 9286 37bd 027a c33d 3699 23bd
00000280: c8b6 b5bc f6d1 293e 5655 24be a08c cdbd
00000290: 85ed 8a3e 79d3 ad3c 5fa3 2fbc dd97 1d3e
000002a0: 41a0 373e a454 8dbd cad4 07be 1c3b 68bd
000002b0: 24fd 8b3d 9aa4 7dbd 793f 053e bda6 31be
000002c0: d1eb e0bd c434 523e b778 603d 5e71 983d
000002d0: 8183 df3d daad aebd 8b7b 93bd 9806 c23d
000002e0: c8ad 20bd c81f ffbd 2811 be3b bb1f 1f3d
000002f0: 571f 2abd 49f1 48be 38d8 31bd d4d7 e7bd
00000300: 9222 e43d 9453 15be d5c3 2d3e 29df d43d
00000310: 20f1 4fbe 521f 373e abb1 71be 4113 11bd
00000320: e5f2 17be 1168 55be ffd0 933c cf67 0bbe
00000330: a787 2a3e 5f28 48be 0b0a 463e 2056 1a3e
00000340: aee0 6a3e 1996 97bd 2f97 08be 7ba3 10be
00000350: 81c2 393e 4814 fcbd 837d ffbc 2b36 5abc
00000360: 3098 003d ff03 5bbe 5505 393e ff9a 1fbe
00000370: 8676 8a3e 8d6a d3bd 396f abbd 5754 adbc
00000380: 8725 bb3d 858b 42bd 8fb7 84be 36a8 273e
00000390: 6169 623e fc01 183e 781e 5f3e 845b a03d
000003a0: 28f4 34bd 383e 36be 0672 47be 28ca 14be
000003b0: 7f97 1cbd 25d6 2d3e 77f3 9ebd a5c3 0fbd
000003c0: c1a1 5dbb fb49 1cbe 7a98 0fbd 0911 5c3e
000003d0: 9b32 2e3e e1d6 5f3e f59b 5dbd 3e23 b9bc
000003e0: f031 dd3d 290f 63bd e75a 95bd 5c62 723e
000003f0: ed40 243d 616d 0ebe a60e 6f3e d6f3 403c
-0.10045535 0.21906193 -0.14292611 0.12770551 -0.1918836 0.08704239 0.1601299 0.05790307
-0.03575288 0.15761898 -0.16909847 -0.14419037 -0.19160149 -0.14414783 0.028535826 -0.11891001
0.038066465 0.013195915 0.23053396 -0.08774923 -0.04301759 0.14222713 -0.037614387 0.24449883
-0.07475686 -0.025399962 -0.0823491 0.0927112 0.072564095 -0.15792635 0.14165023 0.009781574
-0.04539231 -0.01092294 0.16013724 0.23888382 0.09234832 0.070459954 0.13395765 -0.09197103
-0.15869065 -0.0482901 -0.13546634 0.13583612 0.051645376 -0.05723002 0.0026717994 -0.03357016
0.23896797 0.21503186 -0.16887349 0.11436748 0.07471888 0.08944674 -0.038591318 0.087749876
0.055638254 0.22479114 -0.24485226 -0.066311665 -0.14108455 -0.12774993 0.07612863 0.1534855
-0.16312529 0.16022158 0.23108242 -0.1011423 0.017765867 -0.14069201 0.040984437 -0.09183689
-0.095273614 -0.18757421 -0.22358848 0.22663543 -0.0044824183 -0.022808263 -0.097621426 0.18421498
-0.119759955 -0.1064883 -0.17204015 -0.18883088 0.19676124 -0.19159816 -0.056651905 -0.048433412
0.07883987 0.049632527 -0.18582526 0.2519743 -0.22211538 0.018651016 0.0058981855 -0.058695413
0.19418167 0.196359 0.056378856 -0.06519216 0.1569016 0.13519444 0.03861033 -0.04402213
0.027880471 0.1999729 0.01007099 -0.020699304 -0.18307644 -0.15305825 0.2084684 0.009602314
0.0029129377 0.08569 -0.14760582 -0.004298617 -0.09935656 0.15039733 0.17378177 0.17685665
0.16138826 -0.23130798 -0.063463986 0.05830155 -0.18433675 0.08832091 -0.13563752 0.08227765
0.22108538 -0.2108374 0.23070094 0.13799405 -0.18300197 0.21880369 -0.21540445 -0.14670314
-0.10792638 -0.033263713 0.034239903 -0.04939067 -0.21317048 -0.047260605 0.21133384 0.20461015
0.14619273 0.044044334 0.07180269 -0.17642647 0.07426032 -0.22853981 -0.12954679 -0.045710247
0.1588459 0.0006691248 -0.090869516 0.0710972 -0.18110876 -0.04480607 0.095447555 -0.039941035
-0.022181883 0.16584 -0.16048178 -0.10036588 0.27134338 0.021219002 -0.010720103 0.15389962
0.17932226 -0.069009095 -0.13264766 -0.056696996 0.06835392 -0.061924554 0.13012494 -0.17348762
-0.109824784 0.20527941 0.054802623 0.07443498 0.10913754 -0.08529253 -0.07201298 0.09473914
-0.03922823 -0.12457234 0.005800385 0.03884862 -0.041533794 -0.19623293 -0.043419093 -0.11320463
0.11139406 -0.14582664 0.16969235 0.10394127 -0.20306826 0.17883042 -0.23602931 -0.035418753
-0.1483875 -0.2084048 0.018043993 -0.13613819 0.1665331 -0.1954665 0.19339769 0.15071917
0.22937271 -0.07401676 -0.13338922 -0.14124863 0.18140604 -0.12308556 -0.031187778 -0.013318579
0.031395137 -0.21388243 0.1806844 -0.1558647 0.2704355 -0.10323057 -0.083708234 -0.02115838
0.09138017 -0.047496337 -0.25921294 0.16372761 0.22110511 0.14844507 0.21788967 0.07829955
-0.044178158 -0.17797172 -0.1947709 -0.14530241 -0.038230415 0.16976221 -0.07761281 -0.03509869
-0.0033818337 -0.15262596 -0.035057522 0.21490873 0.17011492 0.21859314 -0.05410381 -0.022599813
0.108005404 -0.05543438 -0.07292729 0.23670334 0.04010098 -0.13908912 0.23345432 0.011776885

fc.bias f4 [22]
00000000: c9d4 82bd 80fb 203c 0031 303e 3da8 45be
00000010: 7d94 21be c4b8 c43c 0982 a3bd 906a d7bb
00000020: 9981 743e d4cd 4cbd e840 3bbe dbf0 aebd
00000030: cfc9 6f3e 0cef 2abd 2a49 0abe 2d61 a93d
00000040: 2069 1f3a 2a72 42be 423f 373e b2dd e83d
00000050: 73f2 3e3e 52c1 a13d
-0.06388242 0.009825587 0.17206192 -0.19302459 -0.157793 0.024013884 -0.079837866 -0.0065739825
0.23877563 -0.05000098 -0.18286479 -0.08542033 0.23416828 -0.04173188 -0.13504472 0.08270488
0.00060810335 -0.18988863 0.17895225 0.1137041 0.18647175 0.07898201
