models/GRU_NoiseEst/training_checkpoints/noise_gru_epoch_038_mse_0.2033.pth (torch, 14133 bytes, 10 tensors)

pre.weight f4 [22, 1, 3]
0	0x3c426fb4	0.011867452
1	0x3e9e0d12	0.30869347
2	0xbee2369c	-0.4418229
3	0xbef4dc0b	-0.4782413
4	0xbe954720	-0.29155827
5	0x3d4ee99e	0.050515763
6	0xbd1e2ddd	-0.038617957
7	0x3ed3c0ef	0.41358134
8	0xbd9d307d	-0.07675264
9	0x3e7cb80b	0.24679582
10	0xbd897953	-0.06712594
11	0x3ccbd482	0.024881605
12	0xbf0aa631	-0.5415984
13	0xbec329ae	-0.38117737
14	0xbe93ec6b	-0.2889131
15	0x3d7cc4b0	0.061711013
16	0x3e8ec8d8	0.27887607
17	0x3ee3f31c	0.44521415
18	0xbeee536d	-0.46548024
19	0xbeaa8ba8	-0.33309674
20	0x3ddc0cce	0.1074463
21	0x3ed40d7d	0.4141654
22	0xbe38dafb	-0.18052284
23	0x3ec4affa	0.3841551
24	0x3ccde517	0.025133653
25	0x3e36dbc3	0.1785727
26	0x3f28bc2f	0.65912145
27	0xbefd6fbe	-0.49499315
28	0xbea58092	-0.32324654
29	0xbde8b8cc	-0.11363372
30	0xbe88b472	-0.2670017
31	0x3ee24abb	0.4419764
32	0xbedbfda3	-0.42966947
33	0xbe9d37d1	-0.30706647
34	0xbedf3247	-0.43593046
35	0xbf16038a	-0.5859915
36	0xbe7e1daa	-0.24816003
37	0x3f1226cc	0.5709045
38	0x3ea83382	0.32851797
39	0x3e8662f5	0.26247373
40	0x3c86cf27	0.0164562
41	0xbe97f1c6	-0.29676646
42	0x3d036eca	0.03208808
43	0xbf192b2e	-0.5983151
44	0xbef8d0c2	-0.4859677
45	0xbea247ac	-0.31695306
46	0x3ea9d6ab	0.3317159
47	0x3ea85b58	0.3288219
48	0xbe4f07a6	-0.20217761
49	0x3cda2724	0.026629992
50	0x3edcd367	0.43130037
51	0x3f05a399	0.52202755
52	0x3e3891ba	0.1802434
53	0x3cdae6ff	0.026721476
54	0x3ecf5d8e	0.40501064
55	0xbea3b217	-0.3197181
56	0x3dfc4df1	0.12319554
57	0xbec9da1e	-0.39424223
58	0xbeb16ece	-0.3465485
59	0xbe7e01c6	-0.24805364
60	0x3e3a4138	0.18188941
61	0x3e244911	0.16043498
62	0xbed406a5	-0.4141132
63	0x3dd6a4f5	0.10480682
64	0x3e7c8c8e	0.24662992
65	0xbe1492c9	-0.14509119

pre.bias f4 [22]
0	0xbda4d988	-0.08049303
1	0x3db7f015	0.08981339
2	0x3e89238a	0.26784927
3	0x3f267692	0.65024674
4	0xbed76f6a	-0.4207719
5	0xbe8554e0	-0.26041317
6	0x3e71d021	0.23614551
7	0x3eb25b0d	0.3483509
8	0x3f109623	0.5647909
9	0x3f20a9cb	0.62759084
10	0x3ddf8a6a	0.10915072
11	0xbeda9dc3	-0.42698488
12	0xbd5f073f	-0.05445027
13	0xbebdf339	-0.37099627
14	0xbf056681	-0.52109534
15	0x3f11a578	0.5689311
16	0x3f0114b9	0.50422245
17	0xbf0d9298	-0.5530181
18	0x3c754dc2	0.014972152
19	0xbe04ad3f	-0.12956713
20	0x3d10640d	0.035251666
21	0xbe3ae141	-0.1824999

norm.weight f4 [22]
0	0x3f75aadd	0.9596384
1	0x3f84d856	1.037852
2	0x3f712488	0.9419637
3	0x3f8de7fb	1.108642
4	0x3f8222c9	1.0166866
5	0x3f858b89	1.0433208
6	0x3f88f653	1.0700172
7	0x3f6f0d76	0.93379915
8	0x3f8d166f	1.1022471
9	0x3f71f0bf	0.94507974
10	0x3f82611e	1.0185888
11	0x3f6c8d62	0.92403233
12	0x3f7f14fb	0.9964139
13	0x3f804741	1.0021745
14	0x3f7ee080	0.9956131
15	0x3f7c84a5	0.986399
16	0x3f8db2a7	1.1070145
17	0x3f7748ee	0.96595657
18	0x3f81510d	1.010286
19	0x3f8095e8	1.0045748
20	0x3f7613f6	0.9612421
21	0x3f77da10	0.9681711

norm.bias f4 [22]
0	0xbdaf3fdb	-0.08557101
1	0xbc0da402	-0.00864506
2	0xbda8a2bc	-0.08234164
3	0x3de147a0	0.109999895
4	0xbd8cc604	-0.06873706
5	0x3d80bc10	0.0628587
6	0xbd888d33	-0.066675566
7	0xbd169381	-0.036761764
8	0x3e0575c7	0.1303321
9	0x3d8ee6f2	0.06977643
10	0xbd3c8cc3	-0.04603268
11	0x3d943ade	0.072377905
12	0xbdcd46f4	-0.10023299
13	0xbcf3209e	-0.029678639
14	0x3c342034	0.010994006
15	0x3da38bd2	0.07985653
16	0x3da32539	0.07966084
17	0xbd39b51e	-0.045338742
18	0xbd8f001b	-0.06982442
19	0x3c1f2dd7	0.009715519
20	0x3d959746	0.07304244
21	0xbc784834	-0.015153933

gru.weight_ih_l0 f4 [48, 22]
0	0xbca0edb6	-0.0196446
1	0xbe97be6d	-0.2963747
2	0x3e6359fc	0.22202295
3	0x3e5c32db	0.21503775
4	0x3cc02181	0.023453476
5	0x3e97a816	0.29620427
6	0xbef41e1e	-0.47679228
7	0x3cdf84f5	0.027285079
8	0x3ea9caa3	0.33162412
9	0xbdeeb6b0	-0.116559386
10	0xbeb7deb3	-0.35912094
11	0xbe1b5f5f	-0.151731
12	0x3e99028e	0.29884762
13	0x3d59e6f7	0.05319878
14	0xbe88c6c0	-0.26714134
15	0x3df11ad0	0.11772692
16	0xbd3c3d07	-0.045956638
17	0x3c186ef4	0.009303797
18	0xbe4141f8	-0.18872821
19	0xbe5c1d1a	-0.21495476
20	0xbd817f6e	-0.063231334
21	0x3cdb3078	0.02675651
22	0xbdeebc89	-0.11657054
23	0xbc1aad0f	-0.009440674
24	0x3a4a8528	0.00077255303
25	0x3ea47989	0.32123974
26	0x3c3a2d98	0.011363409
27	0xbcf3e52b	-0.029772362
28	0xbe7e5a86	-0.2483922
29	0x3e47c03d	0.19506927
30	0x3e63a8d6	0.22232375
31	0x3a6c5a67	0.00090161565
32	0xbc8f75bb	-0.017512193
33	0xbd580543	-0.052739393
34	0xbd2ea281	-0.042635445
35	0x3d9492e3	0.07254579
36	0xbeb9fa48	-0.36323762
37	0xbc9611e1	-0.018319072
38	0x3dcee80b	0.101028524
39	0xbd986317	-0.07440775
40	0xbd1a1a6e	-0.03762286
41	0xbe865fc1	-0.2624493
42	0xbca03cc7	-0.01956023
43	0x3dc33f50	0.0953356
44	0xbe2f1857	-0.17099129
45	0xbdc58f12	-0.09646429
46	0x3e898956	0.26862592
47	0x3d4ab9a9	0.049493466
48	0xbd8a9cc9	-0.06768186
49	0x3cb67e1f	0.022276936
50	0x3d28aef4	0.041182473
51	0x3e63c043	0.22241311
52	0x3eae0177	0.33985493
53	0x3e0299de	0.12754008
54	0x3e2f4a55	0.17118199
55	0xbdd2da0a	-0.10295494
56	0xbe04c188	-0.12964451
57	0xbe276a36	-0.1634911
58	0x3dc7fe28	0.09765273
59	0x3d85b43b	0.06528517
60	0xb86fc6f0	-5.7167315e-05
61	0xbe1ff463	-0.1562057
62	0xbe50a3fb	-0.20375054
63	0xbe803534	-0.2504059
64	0xbd5373a1	-0.051623944
65	0x3e31142a	0.17292848
66	0x3e918a7d	0.2842597
67	0xbe73b10a	-0.23798004
68	0x3e6dce62	0.2322326
69	0xbddcd689	-0.10783107
70	0xbe43f530	-0.191365
71	0x3d880969	0.0664242
72	0xbe529788	-0.20565617
73	0x3d9e5212	0.077304974
74	0xbda5737e	-0.08078669
75	0xbeb100a0	-0.3457079
76	0xbe4cf395	-0.20014794
77	0xbd73abee	-0.059490137
78	0xbc901516	-0.01758818
79	0x3d08c24f	0.033388432
80	0xbebebd01	-0.37253574
81	0x3deda078	0.116028726
82	0x3eccc6c5	0.399954
83	0xbd180574	-0.037114576
84	0x3e8b9628	0.27262998
85	0x3d76fe9d	0.060301412
86	0xbe963ad9	-0.29341772
87	0x3e2ee078	0.17077816
88	0x3c44f775	0.012021889
89	0xbdf6665b	-0.120312415
90	0x3ea0ce4e	0.31407398
91	0xbd02c25a	-0.03192363
92	0xbe07fbf6	-0.13279709
93	0x3dce1e6a	0.10064395
94	0x3d8e82bf	0.069585316
95	0x3e1fbc2c	0.15599126
96	0x3e59eed1	0.21282507
97	0x3d94d226	0.07266645
98	0xbc69c400	-0.014267921
99	0xbdd28ca8	-0.10280734
100	0xbe389d2d	-0.18028708
101	0x3d9956a9	0.07487232
102	0x3e5a3c8c	0.2131216
103	0x3e527786	0.20553407
104	0xbd7f4ddc	-0.06233011
105	0xbd9af6c3	-0.07566597
106	0xbe8bb46b	-0.27286085
107	0xbcc0cb52	-0.02353445
108	0xbe32b6bd	-0.17452522
109	0xb9a3d7cd	-0.00031250567
110	0xbe7a20f4	-0.24426633
111	0xbd4599e7	-0.048242476
112	0x3ce52430	0.027971357
113	0x3e8d94fe	0.27652735
114	0xbe6fb6f0	-0.23409629
115	0xbe02b140	-0.12762928
116	0xbe839b93	-0.2570463
117	0x3e86524a	0.26234657
118	0x3c56b528	0.013104714
119	0x3e3e7cb3	0.18602256
120	0x3dc98293	0.09839358
121	0x3d059b5a	0.032618858
122	0xbd12bb23	-0.035823
123	0xbd564269	-0.052309427
124	0x3dc58f44	0.096464664
125	0xbdc05ccb	-0.09392699
126	0xbdc4379e	-0.09580921
127	0xbd81565a	-0.063152984
128	0xbe984577	-0.29740497
129	0xbc93248f	-0.017961768
130	0x3e235d49	0.15953554
131	0xbe92afb0	-0.28649664
132	0x3d571c3d	0.052517164
133	0x3e9613cd	0.29311982
134	0x3c95e82f	0.01829919
135	0xbb1473f9	-0.0022652133
136	0xbe3f1c40	-0.1866312
137	0x3dd2f8d4	0.103013664
138	0xbe03ed1e	-0.12883422
139	0xbdc892ea	-0.09793647
140	0xbd976e1c	-0.073940486
141	0x3c436e96	0.011928221
142	0xbd51a83f	-0.051185843
143	0x3e93e6a3	0.288869
144	0xbcf67a6f	-0.030087678
145	0x3dcc010f	0.099611394
146	0x3e2774d7	0.16353165
147	0xbe37c361	-0.17945625
148	0x3e0682c9	0.13135828
149	0xbe4e1391	-0.20124651
150	0xbe211b0a	-0.15732971
151	0x3d8ade0b	0.067806326
152	0x3d01061c	0.031499967
153	0x3e2a39a2	0.16623548
154	0xbddcd915	-0.107835926
155	0x3d87ae4d	0.06625042
156	0x3daea7dc	0.085281104
157	0xbea34bec	-0.3189386
158	0x3e754085	0.23950393
159	0xbe866bdc	-0.26254165
160	0x3db9f211	0.09079374
161	0xbdd96118	-0.10614222
162	0xbe6c2202	-0.23059848
163	0x3d8e76e2	0.06956269
164	0x3e8c934b	0.27456126
165	0xbd6a1a2f	-0.057153877
166	0xbe390973	-0.18070011
167	0xbd9500c1	-0.072755344
168	0xbe4a34c0	-0.19746685
169	0x3da483d4	0.08032957
170	0xbe4e5aab	-0.20151775
171	0xbe417e9e	-0.18895957
172	0xbe3a9ade	-0.1822314
173	0x3e351d86	0.17687044
174	0x3e1dd8ea	0.15414777
175	0x3e36a668	0.17836916
176	0x3d34752b	0.044057053
177	0xbcecb61d	-0.028895432
178	0xbe22d5ab	-0.1590182
179	0x3caa8098	0.020813271
180	0x3ec2cd40	0.38047218
181	0xbe020988	-0.12698948
182	0x3d86879d	0.06568835
183	0xbe94022f	-0.28907916
184	0xbedf1cff	-0.4357681
185	0x3e420a84	0.18949324
186	0x3d477e44	0.0487044
187	0xbe0a1ac8	-0.13486779
188	0x3deacc7d	0.11464784
189	0xbdfb5d49	-0.12273652
190	0x3dd5963f	0.10429048
191	0xbd8eaa3c	-0.069660634
192	0xbe481137	-0.19537817
193	0xbe6c19ec	-0.23056763
194	0xbe807e39	-0.250963
195	0x3e80a1f9	0.25123575
196	0x3ca7f683	0.020503288
197	0x3e2a9cae	0.16661331
198	0xbd331f59	-0.043731067
199	0x3d98521e	0.074375376
200	0x3ce1e570	0.027575225
201	0x3dc7c1f2	0.09753789
202	0xbe90dc46	-0.28293055
203	0x3e6f6e74	0.23381978
204	0xbdc0fa2e	-0.09422718
205	0x3e28afe6	0.1647335
206	0x3e03c2df	0.12867306
207	0xbe8d1f22	-0.27562815
208	0x3cd6c06b	0.026214799
209	0xbe76be10	-0.2409594
210	0x3e2afeb7	0.16698729
211	0xbe5a1660	-0.21297598
212	0xbe6cfe43	-0.23143868
213	0x3e40eb96	0.18839869
214	0x3c33a773	0.010965216
215	0x3cef43bd	0.029207105
216	0x3c5a5f31	0.013328359
217	0xbe3e5ef8	-0.18590915
218	0xbb71e093	-0.0036907538
219	0x3db7c46f	0.089730136
220	0x3ddd4bb6	0.10805456
221	0xbe1f6a0a	-0.15567794
222	0xbdb2b237	-0.08725398
223	0x3dbce44d	0.092232324
224	0xbd79ebe5	-0.061015982
225	0x3d80bac9	0.062856264
226	0xbd9114fe	-0.07084082
227	0x3e9aa4fd	0.30204
228	0x3d20c0ff	0.039246555
229	0xbdd639de	-0.10460256
230	0xbac64eac	-0.0015129647
231	0xbc9b9e6d	-0.018996442
232	0x3d9f72eb	0.07785591
233	0xbd64c12c	-0.055848286
234	0xbe97ebc3	-0.2967206
235	0x3e04b080	0.12957954
236	0x3ea5b9dd	0.32368365
237	0x3e57a049	0.21057238
238	0x3e17f6a7	0.14840184
239	0x3d3ec8dd	0.046578277
240	0x3db090d2	0.08621372
241	0xbe15bcab	-0.14622752
242	0xbdfa0d84	-0.12209609
243	0xbe8e4659	-0.27788046
244	0x3ec3f9a3	0.38276395
245	0x3e8bbd31	0.2729278
246	0xbeb6f05c	-0.35730255
247	0x3e9055c2	0.28190428
248	0x3d494cac	0.049145386
249	0x3ed42ef8	0.41442084
250	0x3ec6e79c	0.3884858
251	0x3e1e9dae	0.15489838
252	0xbe1597ac	-0.1460864
253	0xbd8b68c3	-0.06807091
254	0x3e43dc3b	0.1912698
255	0x3bc575b5	0.0060259947

gru.weight_hh_l0 f4 [48, 16]
0	0x3e8c4f18	0.27404094
1	0xbdbb8dea	-0.09157927
2	0x3e359ed8	0.17736375
3	0xbeac8213	-0.3369299
4	0x3da2e60a	0.07954033
5	0xbe4a85ae	-0.19777557
6	0xbd4eff56	-0.050536476
7	0xbe2a3c13	-0.16624479
8	0xbdc6e2ba	-0.097112134
9	0xbde2041c	-0.1103594
10	0x3e1b804b	0.15185659
11	0xbcecc00b	-0.028900167
12	0xbe0ed3f8	-0.13948047
13	0x3e3e2c39	0.18571557
14	0x3e05be91	0.13060977
15	0x3de1cc6b	0.11025318
16	0xbde6ebc6	-0.11275439
17	0x3d2ff3de	0.04295718
18	0xbd847519	-0.06467647
19	0x3db6389a	0.08897515
20	0x3dc7b260	0.09750819
21	0xbe0d340b	-0.13789384
22	0xbe0a46a8	-0.13503516
23	0x3d5110ea	0.05104152
24	0xbd47262a	-0.04862038
25	0xbe50f430	-0.2040565
26	0xbdf6da2d	-0.120533325
27	0x3ec1b439	0.3783281
28	0xbe079037	-0.13238607
29	0xbe33bd65	-0.17552717
30	0x3dbfc8cb	0.0936447
31	0xbc846a2b	-0.016163906
32	0x3e01ab29	0.12662949
33	0x3dae3f62	0.08508183
34	0xbdd5f589	-0.10447223
35	0xbe21627f	-0.1576023
36	0xbd056f39	-0.032576773
37	0xbdb795b0	-0.089640975
38	0x3dfc0cf3	0.12307157
39	0xbe662657	-0.22475563
40	0xbdff4777	-0.12464803
41	0xbe41f38c	-0.18940562
42	0xbd8f1005	-0.06985477
43	0x3e8b9c20	0.2726755
44	0x3e804428	0.25052
45	0xbe539459	-0.20662059
46	0x3d9022c6	0.070378825
47	0x3e0ea570	0.13930297
48	0x3e5d461f	0.2160878
49	0x3eaa091e	0.3321008
50	0x3d44a8da	0.048012592
51	0xbe6ee4f3	-0.23329525
52	0x3e16b999	0.14719237
53	0xbd8d6715	-0.06904427
54	0xbc833d3e	-0.016020413
55	0xbd483921	-0.048882607
56	0x3e69cc58	0.22831857
57	0x3df75ea0	0.12078595
58	0x3e2b66f7	0.16738497
59	0xbd504698	-0.050848573
60	0xbdf5577c	-0.11979577
61	0xbe042b88	-0.12907231
62	0x3ba33e5c	0.004981799
63	0x3e7310fd	0.2373695
64	0x3e0d9fe0	0.13830519
65	0x3c99b7e2	0.01876444
66	0x3d05ac6a	0.03263513
67	0xbe5608fd	-0.20901866
68	0x3e479ceb	0.19493453
69	0xbeaafb25	-0.33394733
70	0xbe9c4e96	-0.30528706
71	0xbde8e389	-0.11371524
72	0x3e2370ce	0.15961
73	0xbd4d3d13	-0.050107073
74	0xbe9d7cbc	-0.30759227
75	0x3e4f7cb0	0.20262408
76	0x3e1d187a	0.15341368
77	0xbdab8720	-0.083753824
78	0x3ddd4ab5	0.10805265
79	0x3df40bcd	0.11916313
80	0x3e0a883c	0.13528532
81	0x3e81c8b7	0.25348446
82	0xbd390305	-0.045168895
83	0xbbfdfac2	-0.00775084
84	0x3e2a325d	0.16620775
85	0xbe91cc28	-0.2847607
86	0x3e24e5cf	0.1610329
87	0x3ebf491e	0.3736047
88	0xbcfd9c35	-0.030958274
89	0xbe642f73	-0.22283725
90	0xbac4f5b3	-0.0015026837
91	0xbdfbf0f5	-0.12301818
92	0x3c10ace1	0.00883028
93	0xbd1515fa	-0.03639791
94	0x3e871aca	0.26387626
95	0xbe1f0915	-0.15530808
96	0xbe7e50fa	-0.24835578
97	0x3dc2543f	0.09488725
98	0x3df11f14	0.11773506
99	0xbe8d5275	-0.27601972
100	0xbcc2f941	-0.023800494
101	0xbe720e56	-0.23638281
102	0xbe38da15	-0.18051942
103	0xbddda010	-0.10821545
104	0x3eb4a609	0.35282925
105	0xbd03f72d	-0.032218147
106	0x3e258dac	0.16167325
107	0x3e5e7588	0.21724522
108	0x3d68953b	0.056782942
109	0xbe737256	-0.23774084
110	0x3da2e2f4	0.07953444
111	0x3e1935d9	0.14961948
112	0x3e04f6b5	0.12984736
113	0xbead368b	-0.33830675
114	0x3dcaed6a	0.099085644
115	0x3e79c098	0.24389875
116	0xbe653675	-0.22384055
117	0x3cc0e0d9	0.023544716
118	0x3e8bd6c4	0.2731229
119	0xbe2f02f5	-0.17090972
120	0x3cd1217a	0.025528658
121	0x3e1e62b1	0.15467335
122	0x3da67dc0	0.08129454
123	0x3e22bbea	0.15891996
124	0x3e4a52fb	0.19758217
125	0x3e559cfb	0.20860665
126	0xbde5cb72	-0.11220445
127	0x3e5a1c59	0.21299876
128	0xbeb4249a	-0.35184175
129	0xbe860a90	-0.26179934
130	0xbdc8019c	-0.09765932
131	0x3cfc054c	0.030764244
132	0x3e811251	0.25209287
133	0x3de6cee1	0.11269928
134	0x3eacadcc	0.33726346
135	0x3e12bdb6	0.14330181
136	0xbe805fc4	-0.25073063
137	0x3c8f56c0	0.01749742
138	0x3d126fe2	0.03575123
139	0xbe0daec9	-0.13836206
140	0x3da7c324	0.08191517
141	0xbdf03f29	-0.11730797
142	0xbe813c8b	-0.25241503
143	0x3e745c41	0.23863317
144	0x3d62194b	0.055199903
145	0x3a5e67f9	0.0008484121
146	0x3e8a0dd5	0.26963678
147	0x3c716c19	0.014735245
148	0xbd2db548	-0.04240921
149	0xbdb6b6c6	-0.0892158
150	0xbeba1d1f	-0.36350343
151	0xbe126dca	-0.14299694
152	0x3e7db66c	0.2477662
153	0xbe3bdf90	-0.18347001
154	0x3e06056d	0.13088007
155	0xbd1663d1	-0.036716286
156	0xbcdb7d21	-0.026793065
157	0xbcf207bd	-0.029544706
158	0x3e8e6d5e	0.27817816
159	0x3e722907	0.23648463
160	0x3ead0b1d	0.3379754
161	0x3e81aa7d	0.25325385
162	0x3c751253	0.014957982
163	0xbe7c2584	-0.24623686
164	0xbe781677	-0.2422732
165	0x3bfa53bc	0.0076393764
166	0x3da7c398	0.081916034
167	0x3d3463cf	0.044040497
168	0x3d5a0b58	0.053233474
169	0xbe9c9426	-0.30581778
170	0xbbfa6c53	-0.007642308
171	0x3ea4d664	0.32194817
172	0xbe4e31e5	-0.20136221
173	0xbe6339d4	-0.22190028
174	0x3eb47fe7	0.35253832
175	0x3da0f4fe	0.078592286
176	0x3e12abb8	0.14323318
177	0x3e5bf54e	0.21480295
178	0x3dc077cd	0.0939785
179	0xbe99aa31	-0.30012658
180	0xbe6a4a21	-0.2287984
181	0x3e45472f	0.19265436
182	0xbe221ced	-0.15831347
183	0xbd0b32b3	-0.033983897
184	0x3d861690	0.06547272
185	0xbe80f700	-0.25188446
186	0xbe349dd9	-0.17638339
187	0xbd608e76	-0.05482336
188	0x3e73f6f6	0.23824677
189	0x3d659489	0.056049857
190	0x3d1135c4	0.035451666
191	0xbd5d0174	-0.053956464
192	0xbd179940	-0.037011385
193	0xbe4bb366	-0.19892654
194	0xbd4c2500	-0.049839973
195	0x3e16744b	0.146928
196	0xbe1d0593	-0.15334158
197	0x3dcfdb06	0.10149197
198	0x3e12c4ab	0.14332835
199	0x3e085d12	0.13316754
200	0xbe343f00	-0.17602158
201	0x3d5a5e73	0.05331273
202	0x3e962cfa	0.2933119
203	0xbea67194	-0.32508528
204	0xbc9b80ca	-0.01898231
205	0x3e9d3820	0.30706882
206	0xbe73ec53	-0.2382062
207	0x3e52e62c	0.20595616
208	0x3ecec7cd	0.4038681
209	0x3ed890d1	0.42297986
210	0x3e0f03ab	0.13966243
211	0x3e010e56	0.12603125
212	0xbe2afc7a	-0.16697875
213	0xbe110739	-0.14162911
214	0xbd04ac7c	-0.032391056
215	0x3e1891f5	0.14899428
216	0x3e4b7a11	0.19870783
217	0x3d39f460	0.04539907
218	0xbeb08803	-0.3447877
219	0x3e99319c	0.2992066
220	0x3de676dd	0.1125314
221	0x3d0e1d41	0.034695867
222	0x3e96bb31	0.2943969
223	0xbd6713cb	-0.05641536
224	0xbb81dbd3	-0.0039629727
225	0x3eb287ac	0.34869134
226	0xbcba8ec2	-0.02277315
227	0xbcbf3bab	-0.023343882
228	0xbe8a435a	-0.2700451
229	0xbd443832	-0.047905155
230	0xbe283b43	-0.16428857
231	0x3e09287e	0.13394353
232	0x3dbd8f47	0.092558436
233	0xbd4863b6	-0.048923217
234	0xbe04195c	-0.12900299
235	0x3e7ee127	0.24890576
236	0x3e6b7868	0.2299515
237	0xbe570564	-0.2099815
238	0x3e3754a3	0.1790338
239	0xbdd81768	-0.105513394
240	0x3ea3bb8b	0.3197902
241	0x3eaadbec	0.33370912
242	0x3ddd23b5	0.10797826
243	0xbe7e046b	-0.24806373
244	0xbd2bbc28	-0.041927487
245	0x3d9f9486	0.077920005
246	0xbd8b5268	-0.06802827
247	0x3ea3cfc3	0.31994447
248	0x3e8d1e58	0.27562213
249	0x3da51cf3	0.08062162
250	0x3d6e77da	0.058219768
251	0xbdc0d7f6	-0.09416191
252	0xbd985778	-0.07438558
253	0xbe518804	-0.20462042
254	0x3e592f7a	0.21209517
255	0x3da1f33c	0.079077214

gru.bias_ih_l0 f4 [48]
0	0x3e4f976a	0.20272604
1	0xbe16f710	-0.14742684
2	0x3dc12fa6	0.09432916
3	0x3e7f0f1e	0.2490811
4	0x3db28130	0.08716047
5	0x3ddf86a6	0.10914354
6	0x3e2a2336	0.16614994
7	0x3e46d023	0.19415335
8	0xbd59fc5a	-0.053219177
9	0xbddd32e0	-0.10800719
10	0x3b59b8f6	0.0033221818
11	0x3e67c2a4	0.22632843
12	0xbccc01b2	-0.024903152
13	0x3e380e47	0.17974196
14	0xbd0508d7	-0.032479133
15	0x3e029a8b	0.12754266
16	0xbd09c0e1	-0.03363121
17	0xbdc29695	-0.095013775
18	0xbe89e2d9	-0.26930884
19	0xbe75b732	-0.23995665
20	0x3d59da61	0.053186778
21	0x3e04b7d0	0.12960744
22	0x3d6af169	0.057359133
23	0x3d730c30	0.059337795
24	0x3d01cedc	0.031691417
25	0x3c1940e5	0.009353851
26	0xbe98d33f	-0.29848668
27	0xbebe1133	-0.37122497
28	0xbe05a72f	-0.13052057
29	0xbd886f22	-0.06661822
30	0xbe924e20	-0.2857523
31	0xbd8fa69a	-0.070141986
32	0x3d04d649	0.03243092
33	0x3e3c05c4	0.18361574
34	0x3e089ba7	0.13340627
35	0x3e0fe1ac	0.1405093
36	0x3e9ba5d3	0.3039995
37	0xbe3d68bd	-0.18496986
38	0xbdc94e99	-0.098294444
39	0x3dd40978	0.103533685
40	0x3e8d3c7a	0.27585202
41	0xbe2289aa	-0.15872827
42	0xbe0bafb1	-0.1364124
43	0xbe32d7f0	-0.17465186
44	0x3df6b9bd	0.120471455
45	0xbe057ace	-0.13035128
46	0xbd4b1a87	-0.049585845
47	0x3e678109	0.22607817

gru.bias_hh_l0 f4 [48]
0	0x3e709ce8	0.23497355
1	0xbcc00ca3	-0.023443526
2	0xbe2e7f8a	-0.1704084
3	0x3e51c3f1	0.20484902
4	0xbc226def	-0.0099139055
5	0xbd9fb87a	-0.07798858
6	0xbddf1af4	-0.10893813
7	0xbdeb93f0	-0.11502826
8	0xbe3070a7	-0.17230473
9	0xbde49ecc	-0.111631006
10	0xbe51c4ff	-0.20485304
11	0xbca0567b	-0.019572487
12	0x3d5dad15	0.054120142
13	0xbe3c26ec	-0.18374223
14	0xbcfdb3e8	-0.030969575
15	0xbd29618b	-0.04135279
16	0x3da0f92b	0.07860025
17	0x3deaf792	0.114730015
18	0xbd843008	-0.06454474
19	0xbe16c1a0	-0.147223
20	0xbe2384ec	-0.15968674
21	0xbe106400	-0.14100647
22	0xbd1d477d	-0.038398255
23	0x3dd8c898	0.10585135
24	0x3d799fc4	0.06094338
25	0xbe07877e	-0.1323528
26	0x3d3b887a	0.04578445
27	0xbebf9a13	-0.37422237
28	0x3e05a73b	0.13052075
29	0x3e2fe7a5	0.17178209
30	0xbec00cd5	-0.3750979
31	0xbdf598f3	-0.119920634
32	0x3e80fe1d	0.25193873
33	0x3d37f790	0.04491383
34	0xbd869318	-0.06571025
35	0x3d9204a4	0.071297914
36	0x3dcb3bc2	0.09923507
37	0xbc291a07	-0.010321147
38	0xbe27611f	-0.16345643
39	0x3e7d613d	0.24744125
40	0x3e024ef7	0.12725435
41	0xbd8ba04f	-0.06817686
42	0xbcb0426e	-0.021516051
43	0x3e5b160d	0.2139513
44	0x3e09b5e0	0.13448286
45	0xbe17327f	-0.14765356
46	0x3d82ff5f	0.063963644
47	0x3e044fbd	0.12921043

fc.weight f4 [22, 16]
0	0xbce3c683	-0.027804619
1	0x3e7cbd5c	0.2468161
2	0xbd1281bb	-0.035768252
3	0x3d9d186f	0.07670676
4	0xbdd86ff5	-0.10568229
5	0x3d88fb15	0.06688515
6	0x3db0c3e1	0.08631111
7	0x3dc3ec48	0.095665514
8	0x3c0fe40c	0.008782398
9	0x3d8c4784	0.06849578
10	0xbe33edc8	-0.17571175
11	0xbd327380	-0.04356718
12	0xbe13a0fe	-0.14416882
13	0xbe002a00	-0.12516022
14	0x3d66127f	0.056169983
15	0xbd6f66d2	-0.058447666
16	0xbc5dde11	-0.013541714
17	0xbc7e1f53	-0.015510398
18	0x3e566be2	0.20939592
19	0x3b7fb484	0.0039017508
20	0xbac5396a	-0.0015047018
21	0x3de52624	0.11188915
22	0xbbb1cf3a	-0.0054263147
23	0x3e8ad093	0.27112255
24	0xbd8fb749	-0.07017381
25	0xbbe68677	-0.0070350724
26	0xbda7ca6d	-0.081929065
27	0x3d032b2c	0.032023594
28	0x3d43bb9f	0.04778635
29	0xbe130654	-0.14357883
30	0x3da8732e	0.08225094
31	0x3cf48ec7	0.029853238
32	0x3da5442d	0.08069644
33	0x3e16f872	0.14743212
34	0x3e8d92a5	0.27650943
35	0x3e452a82	0.19254497
36	0x3ddb3289	0.10702998
37	0x3d1274b1	0.035755817
38	0x3d960746	0.07325606
39	0x3d16c46f	0.036808427
40	0xbe0ecd72	-0.13945559
41	0xbe1f7c98	-0.15574872
42	0xbe59c43c	-0.21266264
43	0x3e41ea66	0.18937072
44	0x3d2cc9f8	0.0421848
45	0xbdba92b0	-0.0911001
46	0x3de284a9	0.11060459
47	0xbb832c02	-0.004003049
48	0x3ea8d1e0	0.32972622
49	0x3eb2de92	0.34935433
50	0xbd423dfc	-0.047422394
51	0x3dd81469	0.10550768
52	0x3e2dae4a	0.16961017
53	0xbb829ad4	-0.003985742
54	0xbdd27b66	-0.10277443
55	0x3e410092	0.18847874
56	0x3dc6d303	0.09708216
57	0x3dcfd666	0.10148315
58	0xbeb9c66e	-0.36284202
59	0x3d074234	0.03302212
60	0xbe066523	-0.13124518
61	0xbe5fd2e4	-0.21857792
62	0x3e2a8481	0.16652109
63	0x3e66c1c5	0.22534855
64	0xbb301254	-0.0026866393
65	0x3eaafcaa	0.33395892
66	0x3ec49590	0.38395357
67	0xbe4aae24	-0.19792992
68	0x3e261796	0.16219935
69	0xbe985c9b	-0.29758152
70	0xbde384a4	-0.111092836
71	0x3d1aca6a	0.037790693
72	0x3d8c5d85	0.06853775
73	0xbeacad15	-0.337258
74	0xbec126f1	-0.37725022
75	0x3eace64e	0.3376946
76	0xbd548a69	-0.05188981
77	0xbe2c28c7	-0.1681243
78	0x3d227830	0.0396654
79	0x3ea41491	0.3204694
80	0x3d3cc0b7	0.046082225
81	0x3d8ef1c5	0.06979708
82	0xbc7f4681	-0.015580774
83	0xbea1290a	-0.31476623
84	0x3e936390	0.28786898
85	0xbea64138	-0.32471633
86	0xbe495e28	-0.19664824
87	0x3d996c0a	0.0749131
88	0x3e7705a8	0.24123251
89	0xbdd3affa	-0.10336299
90	0xbeafb404	-0.3431703
91	0x3eba19b0	0.36347723
92	0xbe821362	-0.25405413
93	0xbdf91b8c	-0.12163457
94	0x3e12fe45	0.14354809
95	0x3d9918de	0.07475446
96	0x3e98a613	0.29814205
97	0x3e9c5759	0.3053539
98	0x3e2d728d	0.16938229
99	0xbe312cff	-0.17302321
100	0x3e685b9a	0.22691193
101	0x3d26cefa	0.040724732
102	0xbdca89c2	-0.098895565
103	0x3d5c4b4b	0.053782742
104	0x3e46c12f	0.19409631
105	0x3db74130	0.089479804
106	0xbdba7f23	-0.09106281
107	0x3daa3235	0.083103575
108	0xbe59c39f	-0.2126603
109	0xbe7b47ea	-0.24539152
110	0x3e9266b4	0.2859398
111	0x3ddfeff9	0.10934443
112	0x3e3be3a3	0.18348555
113	0x3e849ca0	0.25900745
114	0x3bb16e8b	0.005414789
115	0xbe2b8d49	-0.16753115
116	0xbd3703e7	-0.044681456
117	0x3d7a27b1	0.06107301
118	0x3d0865e9	0.033300314
119	0x3e98aed9	0.29820898
120	0x3e96b9fe	0.29438776
121	0xbec2c181	-0.38038257
122	0xbe3eb1d3	-0.18622522
123	0x3e469a72	0.19394854
124	0xbe624e14	-0.22100097
125	0xbcabe57e	-0.020983454
126	0x3ccbed50	0.024893433
127	0x3e0f7d05	0.14012535
128	0x3eb6941d	0.35659876
129	0xbd957cc1	-0.072991855
130	0x3eab10ee	0.33411354
131	0x3d14d019	0.03633127
132	0xbde2ba8d	-0.11070738
133	0x3e0e6eb1	0.13909413
134	0xbeafe1d3	-0.34351978
135	0xbd6f8f10	-0.058486044
136	0x3d16967d	0.03676461
137	0xbe0830c7	-0.13299857
138	0xbd9fc18d	-0.07800589
139	0x3d7a80b1	0.061157886
140	0xbe71286f	-0.2355058
141	0xbe09ea4c	-0.13468283
142	0x3ea2cd70	0.3179736
143	0x3e8164b0	0.2527213
144	0x3e42d31f	0.19025849
145	0x3dde6093	0.10858264
146	0x3dfd4953	0.12367501
147	0xbde271bf	-0.110568516
148	0x3ddbeaeb	0.107381664
149	0xbe85ac45	-0.26107994
150	0xbe125f09	-0.14294066
151	0x3bd19e48	0.0063970424
152	0x3e529078	0.20562923
153	0xbd17ebf7	-0.037090268
154	0xbdc3cf91	-0.095610745
155	0x3dab9029	0.08377106
156	0xbe28acab	-0.16472118
157	0xbdbcee01	-0.09225083
158	0x3dd1b342	0.10239269
159	0x3cbb7c1d	0.02288633
160	0x3be0da7c	0.006861983
161	0x3e5fd98d	0.21860333
162	0xbe21ed22	-0.15813115
163	0xbcd1efe6	-0.025627088
164	0x3e94d3ac	0.29067743
165	0xbd57cf27	-0.05268779
166	0x3c82d8f7	0.015972598
167	0x3e56f9bc	0.20993704
168	0x3e426f8d	0.18987866
169	0xbdbd719d	-0.09250186
170	0xbe244ee5	-0.16045721
171	0xbd006711	-0.03134829
172	0x3d48d9f5	0.049035985
173	0xbde2bc73	-0.110711
174	0x3ddc536d	0.107581
175	0xbdc19e2c	-0.09453997
176	0xbd6befc1	-0.057601694
177	0x3e582c5e	0.21110675
178	0xbd05cacc	-0.032664105
179	0x3de544a8	0.11194736
180	0x3dcb2214	0.09918609
181	0xbde87709	-0.11350829
182	0xbd1ec17b	-0.038758736
183	0x3e0618e0	0.13095427
184	0xbd142843	-0.03617121
185	0xbd6f7021	-0.058456544
186	0xbca9fc42	-0.020750169
187	0x3c78e21c	0.015190627
188	0x3d5dfcdb	0.05419622
189	0xbe1f2040	-0.15539646
190	0xba3ce9c2	-0.00072064635
191	0xbd773a59	-0.06035838
192	0x3dd754e1	0.10514236
193	0xbd93cdb2	-0.07216968
194	0x3daaf0f3	0.08346739
195	0x3e223112	0.15839031
196	0xbde982b3	-0.11401882
197	0x3deefa98	0.11668891
198	0xbe290b71	-0.16508271
199	0x3c82cbba	0.015966285
200	0xbe0f2159	-0.13977565
201	0xbe01a384	-0.12660033
202	0x3ae04bc9	0.001711243
203	0xbd264042	-0.040588625
204	0x3e35f716	0.17770037
205	0xbe00234b	-0.12513463
206	0x3e2a6963	0.16641764
207	0x3dafc616	0.08582704
208	0x3e4911e7	0.19635735
209	0x3d0c6ebd	0.034285296
210	0xbde06aad	-0.10957847
211	0xbd3ff5bc	-0.04686521
212	0x3e034bd4	0.12821895
213	0xbdeb612e	-0.11493145
214	0xbd7f8efd	-0.062392224
215	0x3d894ee8	0.06704503
216	0xbcc17460	-0.023615062
217	0xbe659a60	-0.2242217
218	0x3dd16c43	0.102257274
219	0xbd19e9e7	-0.037576582
220	0x3e6960c6	0.22790822
221	0xbdc5f52d	-0.09665904
222	0x3c1a508a	0.009418616
223	0x3c8a7907	0.016903413
224	0x3e2767f6	0.16348252
225	0x3d671812	0.05641944
226	0xbe1a72ea	-0.15082899
227	0x3d8e34ea	0.06943686
228	0x3e2e2f89	0.1701032
229	0x3dff2600	0.1245842
230	0x3e13fb17	0.14451252
231	0x3dd75bb5	0.105155386
232	0xbc1f0cc4	-0.009707633
233	0xbe653046	-0.22381696
234	0xbe450b5b	-0.19242613
235	0xbd519d47	-0.051175382
236	0xbcbd9bfd	-0.02314567
237	0x3df935de	0.121684775
238	0xbb72cbc9	-0.0037047735
239	0xbcf29678	-0.029612765
240	0xbc6da080	-0.014503598
241	0xbe289403	-0.16462712
242	0xbcc5921a	-0.024117518
243	0x3e32b902	0.17453387
244	0x3e11b5ad	0.1422946
245	0x3e417cb1	0.18895222
246	0xbd268767	-0.040656473
247	0xbcdfd074	-0.027321078
248	0x3dd84542	0.10560085
249	0xbcfe99c0	-0.031079173
250	0xbd79653e	-0.060887568
251	0x3df31373	0.11868944
252	0x38090870	3.2671203e-05
253	0xbdea7437	-0.114479475
254	0x3e05f093	0.13080053
255	0x3c83f4d8	0.016107962

fc.bias f4 [22]
0	0xbd038bdc	-0.032115802
1	0x3d279b51	0.040919606
2	0x3e4bdf9c	0.19909519
3	0xbd9f8f7e	-0.07791041
4	0xbc14e658	-0.009088121
5	0x3e230903	0.15921406
6	0x3d20db56	0.039271675
7	0x3d9a054a	0.0752054
8	0x3ea6c71a	0.32573777
9	0x3d3c6e92	0.046003886
10	0xbdd2941f	-0.10282158
11	0xbd282d5c	-0.041058883
12	0x3e710a1b	0.23539011
13	0x3b976ab2	0.0046208734
14	0xbe08499a	-0.13309327
15	0x3dbd9bfc	0.09258267
16	0xbc3482c8	-0.011017509
17	0xbe143f27	-0.14477216
18	0x3df67076	0.12033169
19	0x3daae3f6	0.08344261
20	0x3e01700a	0.12640396
21	0x3d4892a6	0.04896798
