models/GRU_NoiseEst/training_checkpoints/tiny_noise_gru_epoch_003_mse_0.570102.pth (torch, 35749 bytes, 10 tensors)

pre.weight f4 [48, 12, 3]
00000000: 3e29 97bb f071 ae3d 2009 11be 8af2 00be
00000010: d039 8cbd 9d64 243d 05d5 b3bb 1e8b 043e
00000020: d0ed 86bc 6aaf 343d 6a24 51bd 47ab 05bd
00000030: b38f 22be 1db1 e1bd 5cc2 8bbd 7eb5 cb3b
00000040: f11c 873d 4cdb cc3d 1c96 e8bd 7551 95bd
00000050: c25b 763d 4606 0d3e fe1e 0ebd 00d9 fe3d
00000060: 5499 e2bc db18 8b3c e11a 1a3e 4bb4 1ebe
00000070: 7d91 d7bd 45a4 2dbd 8f8b 85bd 7463 133e
00000080: f980 ddbd e70e 9fbd 2edd efbd 39a7 20be
00000090: 133f d6bd 5f4a 0c3e 4fdd 863d a98f 913d
000000a0: fea1 fb39 ba85 c5bd ae50 9c3c 77cd 27be
000000b0: 0d6a 05be a34d b8bd 632b d13d 03b7 c03d
000000c0: f9cc a0bd 9850 22bc 78e9 d23d 6bdf 253e
000000d0: a2ec 803d 3099 a53c 9724 e13d c78d cbbd
000000e0: 58d7 f93c af41 04be d0d9 eabd 7273 aebd
000000f0: 6124 9c3d 3aad 8c3d f22c c7bd 00d2 533d
00000100: 18a8 bf3d d25b 9cbc 7fd6 1d3c d9f6 2d3d
00000110: 3a9d db3d ba31 293e 1c39 fbbd 44cd 62bd
00000120: 4b04 8d3d 1517 113e 42a7 183e c271 1a3e
00000130: b775 183d f4b4 0fbe 0ce4 aa3c ccab c9bd
00000140: 7776 18be ef55 1c3e 2c6e 063e ad6b 25be
00000150: 4779 133d 94db bfbc a24d babc 4c1b 91bd
00000160: 440f 8e3d 8567 bfbd a823 883d 816f b73d
00000170: f94a ff3d b357 8a3d 9ead 23be d087 d2bd
00000180: e037 b43d bbc9 213d 1e28 00be 3722 bbbd
00000190: e43b 253e f198 ef3d 615d 8abd f2cd 16bd
000001a0: 5441 1dbe fac8 113b 7338 f6bd e23c fcbd
000001b0: 0a3c 69bc a926 9e3c f0f2 96bd d738 c33d
000001c0: ffdd d8bd 88a7 163e b571 df3d 1ffe 15be
000001d0: bdf6 40bd 62c7 4839 7b1b 8a3c 10c7 023d
000001e0: e7ce 6e3d ce93 383b 49a3 b5bd 72f4 923d
000001f0: 940b 2bbe 4c8e d9bd 3f6d 4abd b831 b6bd
00000200: badd 87bd 7f2b 14be 4f8e 32bd 5b81 df3c
00000210: b903 efbd 95b3 88bc cf62 e33d 89bc d0bc
00000220: f12a 75bb bc33 bbbc a2f1 c93c 9f67 c63d
00000230: 1e47 183e fc82 c43d 40e4 173e 7f8b b4bc
00000240: 9f3b 1ebe d655 a9bd c72e e13d 09b7 14bb
00000250: cea0 a9bd 793e 02be baf9 1ebe ff9d 0fbe
00000260: 20a0 06bd 0522 b33d 0f49 af3d 3d2d 29be
00000270: d93f d23d 53b5 07be 0a23 19bd 82f0 8bbd
00000280: 6b80 09bd b243 0dbd 9293 1cbe f26a 17be
00000290: 5a39 f8bc 0230 80bb 7a96 a8bd f75a 653d
000002a0: 5282 21be 538e 9fbc 137c 0d3e 75df 9bbd
000002b0: 2e57 113e 9879 533d dc3b 23be 4dc2 c43d
000002c0: 2b55 ebbc 9ff1 adbd aaea fa3d 120d 15be
000002d0: e6a2 8b3c af1f 11bd 5acc f23d fa81 473d
000002e0: 339b a93d 1a99 7c3d f2c0 16bd 542a 06bd
000002f0: 34bc 09be 24a8 b73d 5151 063e 5ac4 e73d
00000300: 6f16 edbd 165e 113c 63b6 eebd e6d6 babd
00000310: 3288 c6bd 6aa6 663d ebcd d1bd 9735 e9bb
00000320: 8923 3e3b 4734 d23d d0d4 06be d98e f6bd
00000330: 33b0 d2bd 13f3 e03d 12fd 88bd 0d72 093e
00000340: db3d 5b3d 08af 6c3c 04d6 02bc b8c9 22bd
00000350: 176c 683c 5955 41bd f565 26bc 72c7 543c
00000360: a323 fabd 3c27 a2bd 5219 123e a9a5 02be
00000370: 71bd 8fbb 6781 303e 0b0a 8a3d bddc 463c
00000380: 706f 0cbe 3db9 b83d 5c54 e3bd b755 22bd
00000390: 6e5b 47bd 94ad 8ebc 48c3 133c 1346 143e
000003a0: 4370 e63c 3b5e 203e 2927 e13d ba5d c7bd
000003b0: c99d a93d 6d4b e0bd e832 7fbd 17f4 6a3d
000003c0: 7bdf 813d 62a6 083e b489 39bd 1a40 103c
000003d0: c154 c13d 6550 1cbe 0b54 043e 9824 04be
000003e0: f269 343c 5351 a0bc f2c6 a1bd ec3f fc3c
000003f0: 0394 113e 719a 55bd 3b20 cbbd 159e 50bd
-0.0046130707 0.085178256 -0.14163637 -0.12592521 -0.06846964 0.040135015 -0.0054880404 0.12943694
-0.01647082 0.0441126 -0.051060118 -0.032634046 -0.1587513 -0.1102011 -0.068241805 0.006216704
0.06597317 0.10002765 -0.11356756 -0.07290927 0.0601461 0.13771924 -0.034697525 0.12443733
-0.027661003 0.016979625 0.15049316 -0.15498464 -0.105257966 -0.042392988 -0.06520759 0.14393407
-0.10815615 -0.07766514 -0.117121086 -0.1568879 -0.10461249 0.13700245 0.0658518 0.07107479
0.00047995144 -0.09644647 0.01908144 -0.16386972 -0.13028736 -0.08999183 0.102133535 0.09409907
-0.078515954 -0.00990691 0.10298437 0.16198508 0.06295134 0.020214647 0.10993307 -0.09939151
0.030498192 -0.12915681 -0.11467326 -0.08518113 0.07624126 0.06868978 -0.097253695 0.051713943
0.09358233 -0.019086752 0.009633659 0.04247174 0.10723348 0.16522875 -0.12266752 -0.055371538
0.068855844 0.14168961 0.14907554 0.15082458 0.037221637 -0.14033872 0.020860694 -0.09847221
-0.14888941 0.15267156 0.13127965 -0.16154356 0.03600433 -0.023420133 -0.022742096 -0.070852846
0.069365054 -0.09345917 0.06647426 0.089568146 0.12465472 0.067550085 -0.15984198 -0.102798104
0.0879972 0.039499026 -0.12515303 -0.09137385 0.16136128 0.11699093 -0.06756092 -0.0368175
-0.15356952 0.0022245036 -0.120224856 -0.123163 -0.014235506 0.019305544 -0.073705554 0.09532326
-0.105892174 0.14712346 0.1091036 -0.14647721 -0.047110308 0.00019147762 0.016858807 0.031928122
0.058302786 0.002816427 -0.08869035 0.071755305 -0.16703635 -0.10622844 -0.04942059 -0.08896202
-0.06634088 -0.14469717 -0.043592747 0.027283361 -0.11670632 -0.016687194 0.111028306 -0.025480526
-0.0037409628 -0.022851817 0.024651352 0.09687733 0.14870879 0.09595296 0.14833164 -0.022039173
-0.15452431 -0.08268325 0.1099525 -0.0022692105 -0.08282624 -0.12719144 -0.1552495 -0.14025114
-0.03286755 0.08746723 0.08558857 -0.16521163 0.10266084 -0.13252763 -0.03738693 -0.068329826
-0.033569735 -0.034488387 -0.15290669 -0.1478689 -0.030300785 -0.003911973 -0.08231826 0.055994954
-0.1577237 -0.019477045 0.13816862 -0.076109804 0.14193413 0.051629633 -0.15940803 0.096073724
-0.028727135 -0.08493351 0.1225179 -0.14555767 0.01704545 -0.035430606 0.11855383 0.04870794
0.08281555 0.061669447 -0.0368051 -0.03275521 -0.134507 0.08967617 0.13116957 0.11316748
-0.115765445 0.0088725295 -0.11655881 -0.0912302 -0.09693946 0.05631105 -0.10244354 -0.007116984
0.002901288 0.10263877 -0.13167119 -0.12038965 -0.102875136 0.10983863 -0.06688894 0.13422413
0.053525787 0.014446028 -0.007985596 -0.039743155 0.014185927 -0.047200534 -0.010156144 0.012987005
-0.122138284 -0.079176396 0.14267471 -0.12758507 -0.004386597 0.17236863 0.06740197 0.012137589
-0.13714385 0.090197064 -0.11100075 -0.039632525 -0.04867118 -0.017416753 0.009018727 0.14479856
0.028129702 0.15660946 0.10993797 -0.09734674 0.08282048 -0.10951886 -0.062304407 0.05736169
0.06341454 0.1334472 -0.04529734 0.0088043455 0.09439994 -0.15265043 0.12922685 -0.12904584
0.011011587 -0.019570028 -0.07899274 0.0307922 0.14216618 -0.05214924 -0.09918257 -0.05093201

pre.bias f4 [48]
00000000: 6737 613d c6fe 0fbe cb2c cf3c a158 173e
00000010: 791e 043e e493 213e f236 a33d 5d9a 663b
00000020: 9b8d 4e3d 7f3a 8abd 3001 0f3e d435 a83d
00000030: 3c1e 0abe 6d5c 183e f0bc 1cbc 9e86 60bc
00000040: 0d1c 2abd ccfb 4fbd 5a2b 68bb 0c4f 93bd
00000050: 14bd 1bbe 9dfc 97bd 1905 10bd 6066 fe3d
00000060: 57bd 0d3e 6859 c2bd 0ba3 90bc d476 7cbd
00000070: 4033 cbbd 4d92 b1bc 2f9b 70bd 805d c73d
00000080: 704f 9abd af26 f13c 8ad7 98bd 797d 36bd
00000090: 762c fe3d cf3a d0bd 77a0 70bc 4334 213e
000000a0: 5723 473d e9a6 9abd cace dbbd 0a06 93bd
000000b0: d885 0bbd 7d11 8f3d 2228 32bd 5859 123e
0.054984476 -0.14062032 0.025289914 0.14779903 0.1290225 0.15779072 0.07969464 0.0035187223
0.050428014 -0.067494385 0.13965297 0.08213392 -0.13488096 0.14879008 -0.009566531 -0.01370397
-0.041530658 -0.05077724 -0.003542623 -0.07192811 -0.15208846 -0.07421229 -0.03516111 0.1242187
0.13841759 -0.09489709 -0.01765587 -0.06163676 -0.099218845 -0.021676207 -0.058741745 0.097346306
-0.07534683 0.029437391 -0.07462986 -0.044553254 0.12410824 -0.10167467 -0.014686695 0.15742593
0.048617687 -0.07551367 -0.10732801 -0.07178886 -0.03406319 0.069857575 -0.043495305 0.14291894

norm.weight f4 [48]
00000000: 5ca2 7e3f 8a2a 7f3f 85f9 7d3f 959f 7c3f
00000010: f056 7b3f 1025 7c3f bd93 7d3f ca09 7d3f
00000020: f8c9 803f c47a 7e3f cd3e 803f 9e39 7c3f
00000030: 5cac 7d3f 9329 7e3f c5d3 7c3f 10c4 7e3f
00000040: 4713 7d3f 684a 803f 7efb 803f dfbc 7d3f
00000050: ff4c 7e3f e07e 7f3f afcb 7e3f 13c6 7d3f
00000060: fee0 813f b639 7a3f 5e3b 7d3f 8fa5 7d3f
00000070: 08e1 7c3f 0c95 813f 5114 803f a225 813f
00000080: 5a25 7c3f 26d4 803f a854 813f ec5a 7e3f
00000090: ecc0 7d3f 4af8 813f e8fb 813f 34a4 7e3f
000000a0: a21a 7e3f b711 7b3f f7a4 803f 5403 813f
000000b0: ea1b 813f 4e1b 7c3f 87ef 803f 5044 803f
0.9946649 0.99674284 0.9920886 0.98681 0.9817953 0.9849405 0.99053556 0.9884306
1.0061636 0.99406075 1.0019165 0.98525417 0.99091125 0.9928219 0.98760635 0.9951792
0.9885754 1.0022707 1.0076749 0.9911632 0.99336237 0.9980297 0.99529546 0.9913036
1.0146787 0.9774431 0.9891871 0.9908075 0.9878087 1.012361 1.00062 1.008961
0.98494494 1.0064743 1.010396 0.99357486 0.991225 1.0153897 1.0155001 0.99469304
0.9925939 0.98073906 1.0050343 1.0079141 1.0086644 0.98479164 1.0073098 1.0020847

norm.bias f4 [48]
00000000: 6482 7ebb 93df 3d3a d3c4 7bbb 9c07 313c
00000010: 1311 b33b ad3a a23b bb9e 11bc 88ab c0b9
00000020: bd7c b93b 31a4 b73b 05ac 2fbb 53b7 41bb
00000030: 0f49 1fbc 287a d23b 5bb3 09bc fdd7 abbb
00000040: 0188 16bc 99e3 86bb 61c8 09bc 57dc 1c3c
00000050: 6dc0 b13b a39f 15bb 7fea 0039 02ea e83b
00000060: ca48 8e3c 77a1 de3b cea1 ecbb 2f2a 5cbc
00000070: 9aab 13bc e28b 8839 3a62 1cbb 4ff4 8bbb
00000080: cb08 e13b 1c83 00bb cc05 113c 6579 723b
00000090: 85fc 88bb 5646 9dbc 5d93 ccbb 189c 723a
000000a0: 9a86 1ebc 0335 1c3c 8854 ecbb ccb1 22bc
000000b0: b2b4 383c 76a4 443b b994 cabb 2616 a23b
-0.0038835043 0.0007243093 -0.0038416877 0.010805037 0.005464682 0.0049508424 -0.008887942 -0.00036748894
0.005660622 0.00560429 -0.0026805412 -0.0029558733 -0.009722008 0.0064232536 -0.008404578 -0.0052442537
-0.009187699 -0.004116487 -0.00840959 0.0095740175 0.0054245503 -0.0022830747 0.00012294388 0.007107974
0.017368693 0.0067941505 -0.007221437 -0.013437792 -0.009013081 0.00026044162 -0.0023862259 -0.004271067
0.0068675033 -0.0019609397 0.00885148 0.0036998626 -0.0041804933 -0.019198578 -0.006243153 0.0009254827
-0.009675646 0.009534123 -0.0072122253 -0.009930085 0.01127355 0.0030005253 -0.00618228 0.004946488

gru.weight_ih_l0 f4 [72, 48]
00000000: 932e fbbd afb9 4ebd 6f76 873d 3f94 1f3e
00000010: dba8 3a3e 881a 3c3c 2009 fa3c 11d5 d3bd
00000020: fd26 cd3d d1ed dabd bbbe 1fbd fde4 30be
00000030: fe90 4dbe 8823 f73d 6cb5 01bb 5521 413e
00000040: 56e4 163e a870 f93d 9172 cb3d 7a88 65bd
00000050: ea01 c13d e2ef ae3d 83e8 b03d edad 9f3b
00000060: 2a5c af3c 9b74 94bc ea6e 25be 46b8 1c3d
00000070: bb12 2abe a249 ae3d 1842 16be 4917 65bd
00000080: e7a4 dbbd 80d1 113e 3347 0abe 9fa9 a03d
00000090: 8f4e b33d af87 163e 8391 653d 9646 cb3d
000000a0: f1ef 1b3e 8dc5 af3c 2168 713d e643 1fbe
000000b0: a83a 92bd 6cfb 3f3b af33 463c e0b0 b4bd
000000c0: a99a 41be 0ede 8abd c20f b83d c4d1 333e
000000d0: 21e0 2dbe 022a e83d dd9f 47be fb52 39be
000000e0: 0d46 e5bd be2c 27bd e637 2d3d c7c6 2dbe
000000f0: 0531 2d3e 8fff 333e 591a d43c fd4a 1a3e
00000100: 82bd 9ebd 6eac c3bd 796b 2dbd cc55 5b3c
00000110: c448 10be 1089 1bbe 85dd 853d ba32 403d
00000120: 6737 5a3e 26cd c6bd 4bc0 a23d 4f0a c0bd
00000130: 0ba8 b63d 3a80 33ba dafa 243e 6bb4 f93d
00000140: 86a4 243e 2ebe ed3d c236 61bb 2cd1 273e
00000150: a271 dabd 3d1f 383e c261 593e 5180 553e
00000160: fc95 abbd 7741 f0bd b5f8 e7ba 9abf 463d
00000170: 45e1 d93d ff48 c63d b2a0 3c3e dea0 19bd
00000180: d254 8cbd c5a6 8d3d bd73 5b3d ca87 fabd
00000190: d9a6 833c 8818 29be 12c1 64bd af1d b0bd
000001a0: ffc3 363e fa09 38be faa9 eabd ee9f 47be
000001b0: f0a7 463d 18a9 23be ba71 933d 26e0 21be
000001c0: ba8b 00be 98f0 d4bd 9148 c63c 8494 423e
000001d0: a989 3d3e 5fd8 57bc 097c 52be ca29 88bd
000001e0: 8118 81bd d3e5 0dbd dd2c bc3d 83a5 e83d
000001f0: 8250 c83d fbd5 503d 0b46 b4bd 22ad 203c
00000200: e4b2 973c cd46 d1bd 46cf 20bc d816 f5bc
00000210: d681 37be df9f 123e 57f6 2bbc 51af 27be
00000220: e3e4 303e 2ae0 d2bd 76a2 813d ad95 443e
00000230: 6f6b a43c 85ce 913d c0f0 b43d cea5 2a3e
00000240: 8220 7bbd b8c8 e4bd db3d 57bc 4818 183e
00000250: a5e9 473c 3ea5 ec3d ee61 713c b025 5b3d
00000260: a75a 0c3b 55fa 103c 3b6e 39be 6438 2abe
00000270: 3808 af3c caea be3d 7bca 113e 9d59 913a
00000280: af96 b73d d06a b33d b838 37be 0fa5 3fbe
00000290: 9a91 2fbe e94a 193c c54f 08be 92f3 8ebd
000002a0: 9a13 b0bc 70b2 933d 2e04 703d 1046 3d3e
000002b0: d87a 463e 5a74 f2bd 9e20 c5bb e0d3 2d3d
000002c0: 6a79 2c3e 97b1 58bd 8b40 92bd 78cf 12be
000002d0: d53a 213e 585d 8ebd 8090 89bd 7488 153e
000002e0: ae0f 483e 3021 81bc c25a 1fbe 008f 1d3e
000002f0: afb0 b2bd 958f b1bd 95a6 04be 038e bcbd
00000300: 4196 24be f6e4 febd 7a61 43be c37f e2bc
00000310: fdd7 c03d 8bbf 07be 1c48 8fbc 54c1 80bd
00000320: ddc4 df3d 039c 2a3e 1137 39bd 57dc e7bd
00000330: d969 22be 4f70 e4bd a80b 553d 25df 7a3d
00000340: ccb7 d13d 1570 00bd 1786 e63d db22 33be
00000350: cae6 8c3d 456f 433e a797 47be 0572 cdbd
00000360: dc5c e83d 48dc 72bc 8b09 f5bd cd91 113e
00000370: df70 033d 38ea 04bc 5a0b a2bd 1eec 163e
00000380: 43d8 e63d 7236 a53c 3379 433d 09cb ed3d
00000390: 35a9 f03d 9bb0 8fbd 5fbc efbc adf9 a13d
000003a0: e4a2 e1bd 43e0 563e 9c63 01be 8419 c53d
000003b0: e028 19be b077 693d 8220 0a3e be8c 593c
000003c0: 4004 c9bc fe61 073e 4a78 1bbe 0874 06be
000003d0: 8514 35be 4260 08be d5f2 bcba c0e7 c1bd
000003e0: c028 323d 82a8 2d3c 038a 303e acb2 cebd
000003f0: 95e5 76bd 85d2 0f3e ed93 61bd a2e5 443e
-0.12264743 -0.05047005 0.06614386 0.15583895 0.18228476 0.011480935 0.03052193 -0.103433736
0.10017202 -0.10689891 -0.039000254 -0.17274852 -0.20074841 0.12067324 -0.0019791974 0.18860371
0.14735541 0.121796906 0.09933961 -0.056038357 0.09424193 0.08541848 0.08638098 0.0048730285
0.021406252 -0.018122008 -0.16155592 0.038261674 -0.16608708 0.08510138 -0.1467365 -0.05593041
-0.10724812 0.14240074 -0.13503723 0.07844853 0.08755218 0.14700197 0.056046974 0.099255726
0.15228249 0.021456504 0.058937196 -0.15553245 -0.07140094 0.0029294146 0.012097283 -0.08822799
-0.18906654 -0.06780635 0.089873806 0.17560488 -0.1698003 0.11336137 -0.19494577 -0.18098061
-0.11195002 -0.040814154 0.042289637 -0.16970359 0.1691323 0.17577957 0.02589147 0.15067668
-0.077509895 -0.09554373 -0.042338822 0.013387155 -0.14090258 -0.15189004 0.06536392 0.046923377
0.21310197 -0.09707098 0.07946833 -0.09376966 0.089187704 -0.00068474154 0.16111317 0.12192615
0.16078386 0.116085395 -0.0034364914 0.16388386 -0.10666205 0.17980666 0.21228698 0.2084973
-0.083782166 -0.117312364 -0.0017698022 0.04852257 0.1063867 0.09681892 0.18420675 -0.03750693
-0.06852116 0.069165744 0.053577174 -0.12232931 0.01607077 -0.16513264 -0.05584819 -0.08599412
0.17848204 -0.17972556 -0.11458202 -0.19494602 0.0485 -0.15982473 0.07199426 -0.15808162
-0.12553301 -0.10397452 0.024204524 0.19001967 0.18509544 -0.0131741455 -0.20555128 -0.06648596
-0.06303502 -0.034643006 0.091882445 0.11359694 0.09780981 0.050985318 -0.08802422 0.009806903
0.018517919 -0.10218582 -0.009815043 -0.02991812 -0.17920622 0.14318798 -0.010495744 -0.16375472
0.17274813 -0.10296662 0.06329815 0.19197722 0.02007076 0.071194686 0.08834982 0.16664812
-0.0613103 -0.111710966 -0.013137306 0.14853013 0.012201701 0.11554955 0.014732821 0.05350274
0.0021416338 0.008848746 -0.18108456 -0.16623074 0.021366224 0.09322126 0.14237396 0.0011089329
0.089642875 0.08760607 -0.1789273 -0.18715309 -0.17145386 0.009356239 -0.1331168 -0.06980051
-0.021493722 0.072117686 0.058597736 0.18483758 0.19382799 -0.118385985 -0.006015851 0.042438388
0.16843191 -0.052903738 -0.07141217 -0.14336956 0.15745099 -0.06951398 -0.06717014 0.14602834
0.19537231 -0.015762895 -0.15561965 0.15386581 -0.08725106 -0.08669964 -0.12954171 -0.09206774
-0.16072942 -0.124460146 -0.19080153 -0.027648812 0.094161965 -0.13256662 -0.01749044 -0.062868744
0.109262206 0.16661076 -0.04521853 -0.11321323 -0.1586069 -0.11154234 0.05201307 0.061247963
0.102401346 -0.03135689 0.11256044 -0.17493765 0.06879957 0.19085415 -0.19491445 -0.10031513
0.113458365 -0.014823027 -0.11964711 0.14215775 0.032090064 -0.008112483 -0.079123214 0.14738509
0.112717174 0.020167563 0.047723006 0.116109915 0.11751024 -0.07016107 -0.029264627 0.0790895
-0.11017397 0.20983987 -0.12635654 0.09624007 -0.14956999 0.05699891 0.13488963 0.013278184
-0.02453816 0.13220975 -0.15182605 -0.131302 -0.17683609 -0.1331797 -0.0014415631 -0.09468031
0.043495893 0.010599257 0.17240147 -0.10092673 -0.06027754 0.1404515 -0.055072714 0.19228223

gru.weight_hh_l0 f4 [72, 24]
00000000: bbca 9f3d e252 0cbe a2d5 05bd 6163 1e3e
00000010: 2b0b c7bd 1cb6 323e 86c7 b13d a02c 97bd
00000020: 01a5 6c3d 92c5 edbd 8011 5c3c 7f21 9d3d
00000030: 7f8e 393e 08bf 07be 5f2f cebd ab50 cabd
00000040: 4a10 63be fe18 f63c 755d 1dbe cee9 4abd
00000050: 9f76 cfbd e357 2d3b 62f2 833d a060 0ebe
00000060: df6a 3abd 863c 03bd 613b d8bd f605 273d
00000070: 2433 793d f699 1abe f119 2f3e f401 203e
00000080: 89ed 42bd 4d6f a33c 0f1e 103d 620e f3bc
00000090: 717b 18be 6e19 2e3e 6bd1 ad3d 5b0c 25be
000000a0: 7a0d 19be 30c0 543e 5b7d 8f3c 064d 58bd
000000b0: 13b8 1a3e 770d 8f3d 0521 ae3d ebbf 323e
000000c0: d961 93bc 485a 4c3e 541b 0ebe 0be7 efbd
000000d0: 0039 153d 4c36 1ebd 191d 073e a48d 76bd
000000e0: c7c8 fe3c 7434 32bd 0ad1 173e 643f afbc
000000f0: 711e 133c 3556 1f3e d835 503e c2c2 413e
00000100: b382 48be e1b2 f0bd e33f 24bd 3628 29bd
00000110: 882e e23d e79b b13d 2b58 aebc 0366 c8bb
00000120: 6f32 283d a5e6 323e dfc8 e53d f102 e7bd
00000130: 5ce4 cbbd 994d 993d 57e3 8dbc 9213 04be
00000140: 751f 47be ce23 423d c2a3 60bd 8c27 dbbd
00000150: 0ffc 173d 0b1f 3f3e 3830 493e 5c53 fc3d
00000160: eb59 2ebe 1b1d ee3d d608 f03d 0e57 6e3d
00000170: d8e9 6cbd 0938 9db8 cf2a dabd 2f00 83bd
00000180: ed4f b9bc ab85 f6bc 8f52 59be 099c 9e3d
00000190: c83b 39be 546b 20be c6a6 913d 2c45 30be
000001a0: c273 433e 1ae1 363e 9ebd 8dbd 3acf 42bd
000001b0: d7dc 25be 53a5 993c e1a2 7f3c 97af edbd
000001c0: ef8d a23d 5985 89bb 7335 9ebd a0f4 7f3b
000001d0: 1a12 3dbe 8871 13be c8f5 003d 8980 5b3e
000001e0: ae4a fdbd c022 0b3e 5907 633c 455f a8bd
000001f0: 1341 383b 2dc8 b43d e7c2 103d 2b74 333e
00000200: 5482 2ebd 6843 15be 4e5d 373e d93b 86bd
00000210: 1917 093e 34a7 113e d295 143d 86a1 31be
00000220: c6fa 43be 0a6f bf3d 552f 583d 8359 fc3d
00000230: 3b16 3dbe 33eb 08bd 48e9 2f3e 0352 d03d
00000240: b9f8 363e 44b7 1d3e 78d0 2abd 203f 12be
00000250: 78e7 06be 7969 903d c3bf 99bd 5b86 f13b
00000260: 6665 273d a1fb 013e 93e8 f53d 0642 f43d
00000270: 67c7 0b3b 0ee1 e43d b0bd dbbd c3d8 9cbd
00000280: f4dd 07bd 5242 e2bd 5f17 323e d9fe 1abd
00000290: f4ab 863d 8c86 c1b7 61e1 173b c874 dbbd
000002a0: afa9 dbbc 0881 32be 9877 debd cc90 243e
000002b0: 92d5 31be d77f 153d 2ec2 703c c081 52be
000002c0: 491b e03c 79ec bd3d e07b 0e3e 002f 213d
000002d0: a33f 2a3e 1b01 3c3c 587c a33d c523 5c3d
000002e0: 1aef 17be 44de 69bd e5bb 0cbe 48d9 2a3e
000002f0: 53bc ba3d 022b c1bd 813e 0dbd 2078 873d
00000300: c875 2dbe fc22 d1ba 1780 d63d b692 a33c
00000310: d50b e1bc a32a 0a3e 27ee bb3d 77c3 32be
00000320: 8542 033e db1e 24be f22e f93d 4e76 343e
00000330: db05 433c 6dbb 95bd b761 edbd 377a acbd
00000340: 9646 25bd f786 9dbd 980a 473e 4ced c2bd
00000350: fc39 bd3d b3b5 3abe 8a62 e23d a574 383e
00000360: f23f 17be 8947 52bd ccf2 3f3d de15 48be
00000370: 96ca 02be abbd 8b3d 71e5 493e eca6 79bd
00000380: fb8d 42bb ea5a 4cbe 4666 48be 18bf 313e
00000390: 3d41 313e f6cb 7ebd 5a52 a4bd 84e1 52bc
000003a0: 97b0 c43d 5f34 4abe b5cd e2bd e264 84bd
000003b0: 7d0f b7bd e0e7 d7bb 79dd 1a3e 8a02 293d
000003c0: 5078 43be d77f 483e 2efa 223e 629e 913d
000003d0: 7c13 da3d 2f1a 913d 15dd 2f3e b2a3 50be
000003e0: 917a 08be f603 efbc 053d 3ebd 1d7f 0ebe
000003f0: 4558 41be 1561 19be a26b bfbc 4acc 293e
0.0780234 -0.13703492 -0.03267444 0.15467598 -0.09718927 0.17452282 0.08680634 -0.073815584
0.057774547 -0.11609949 0.013431907 0.076724045 0.18120764 -0.13256466 -0.10067629 -0.098786674
-0.22174183 0.030041214 -0.15367682 -0.04953938 -0.10130047 0.002645009 0.06442715 -0.13904047
-0.045512076 -0.03204014 -0.10558201 0.04077717 0.060839787 -0.15097794 0.1709974 0.15625745
-0.047589812 0.019950533 0.035184916 -0.029669944 -0.14890839 0.17001888 0.08487209 -0.16117994
-0.14946547 0.20776439 0.017515829 -0.05280783 0.15109281 0.0698499 0.08502392 0.17456023
-0.017990993 0.19956315 -0.13877612 -0.1171399 0.036431313 -0.038626 0.13194694 -0.060193673
0.031101597 -0.043507054 0.14825836 -0.021392532 0.008979426 0.15560229 0.2033304 0.1892195
-0.19581108 -0.117528684 -0.04009999 -0.041298114 0.110440314 0.08672314 -0.021282276 -0.0061156764
0.041063722 0.17470796 0.11219954 -0.11279858 -0.099556655 0.07485504 -0.017320318 -0.1289809
-0.19445594 0.047397427 -0.05484367 -0.10700902 0.037105616 0.18664186 0.196473 0.12320587
-0.17026488 0.11626645 0.11720435 0.05818849 -0.0578402 -7.496781e-05 -0.10652696 -0.063965194
-0.02262112 -0.030093035 -0.212229 0.07744605 -0.18089211 -0.15665942 0.07111888 -0.17213887
0.19087127 0.17859307 -0.06920932 -0.047560908 -0.16197525 0.01875559 0.015602798 -0.11605757
0.07937228 -0.0041968045 -0.077250384 0.003905572 -0.18463936 -0.14398777 0.031484395 0.21435751
-0.1236776 0.13587475 0.013856732 -0.08221296 0.002811496 0.08827243 0.035342123 0.17524783
-0.04260476 -0.14576495 0.17906687 -0.06554384 0.13387717 0.14223939 0.036275692 -0.17346773
-0.19138631 0.09347351 0.052779514 0.123217605 -0.18465512 -0.03342743 0.17178833 0.101718925
0.17868318 0.15401942 -0.041702718 -0.14281893 -0.13174236 0.07051367 -0.07507279 0.0073707527
0.040868185 0.12693645 0.12007251 0.119266555 0.002132857 0.11175738 -0.107295394 -0.076585315
-0.033170655 -0.11047806 0.17391728 -0.037840698 0.06575766 -2.3070046e-05 0.0023175108 -0.10715634
-0.02681431 -0.17432034 -0.108626544 0.1607086 -0.17366627 0.03649887 0.014694734 -0.20557308
0.02735676 0.09273619 0.13914442 0.039351463 0.16625838 0.011474873 0.07982701 0.05374505
-0.14837304 -0.057096735 -0.13743551 0.16684449 0.09117951 -0.09432031 -0.034483436 0.06614709
-0.16939461 -0.0015955861 0.1047365 0.019967418 -0.027471462 0.13492827 0.09176283 -0.17457376
0.12818344 -0.16027395 0.12167157 0.17623255 0.0119032515 -0.07311139 -0.11590903 -0.08421748
-0.04035052 -0.07691758 0.19437635 -0.09517917 0.09239575 -0.18233375 0.11053951 0.18013246
-0.14770487 -0.051337752 0.04686241 -0.19539592 -0.12772593 0.06823286 0.19716431 -0.060950205
-0.0029686678 -0.19956556 -0.19570264 0.17358053 0.17310043 -0.06220623 -0.0802352 -0.01287115
0.09603994 -0.1974654 -0.11074392 -0.06464554 -0.08938501 -0.006588921 0.15123548 0.041262187
-0.19088864 0.19580017 0.15915748 0.07110287 0.106482476 0.07085072 0.1717418 -0.20374945
-0.13328005 -0.029176693 -0.04644491 -0.13915677 -0.18881328 -0.1497844 -0.023366753 0.16581836

gru.bias_ih_l0 f4 [72]
00000000: 2c58 d93d 07c0 5c3e d139 383e 1664 debd
00000010: 4feb 373e db54 b5bd 013b 15be 51a9 073e
00000020: a36b 0bbe eba1 3f3e 2837 473e a697 fbbd
00000030: 7131 013e 8540 3cbd 3deb 62bd 4a54 2c3d
00000040: 02e2 8e3d b799 0ebe 328c 593e 1e93 1f3e
00000050: 7133 04be ba1b e33d 93e2 423d fa4d f13d
00000060: 19e3 a83c 4a90 ae3d 7902 8b3d 63e4 5c3e
00000070: 6b4b 473d 9f9e 3f3e d58c 513d b9b2 ab3d
00000080: 5763 133b f1e3 15bb b2ec 01be d670 603e
00000090: 5923 b5bd 712b ff3d c427 8f3d 1c1a 283e
000000a0: ea81 33be 7dbc 4f3b aca7 35be d53d 0ebe
000000b0: c0c1 d23d 0c1f a6bc ee32 293e 0058 343e
000000c0: f8b8 7cbc d4f9 4bbd ffc4 1f3e 5ecc 543e
000000d0: 059b 233c a177 30be ddd3 b83d 9dbe 00bd
000000e0: c91e 1fbe 3869 163d b0d5 79ba a26c 343c
000000f0: 2d34 583e bb31 e03d 107c fc3d de98 75bc
00000100: 965a 09bd 61e9 873d 3620 2abe b564 4a3e
00000110: c3de 983c 3bb1 3dbe d42d 01be 3fca c93d
0.106125206 0.21557628 0.17990805 -0.10858934 0.17960857 -0.088540755 -0.1457329 0.13248183
-0.13615279 0.1871411 0.19454634 -0.12284784 0.12616517 -0.045959968 -0.055400122 0.04207257
0.06976701 -0.13925825 0.21244887 0.15583465 -0.12910248 0.11089273 0.04757936 0.11782451
0.020616101 0.08523615 0.06787581 0.21571498 0.04865591 0.18712853 0.0511597 0.08383698
0.002248963 -0.002287146 -0.12687948 0.21918043 -0.08844633 0.12459458 0.069900066 0.1641621
-0.17530027 0.003169804 -0.17739743 -0.13890775 0.10290861 -0.020278476 0.16523334 0.17611694
-0.015424959 -0.0497988 0.15602492 0.20781085 0.00998569 -0.17233135 0.09024785 -0.031431783
-0.15539087 0.03672144 -0.0009530438 0.011012228 0.21113653 0.10946985 0.123283505 -0.01499006
-0.033533655 0.0663631 -0.1661385 0.19764979 0.018660909 -0.1852464 -0.12615138 0.098530285

gru.bias_hh_l0 f4 [72]
00000000: 62c5 113d ee70 ec3d 3acb 48be 25ff 443b
00000010: 7acd e43d c4d3 df3d 611d a43c f2ae 5cbe
00000020: 75a7 3e3e 6395 9f3d 2206 983d a5ab 0c3e
00000030: 249b e43d 0f85 f6bc 4311 083e e469 193e
00000040: 6b12 313d c966 21be 629c 1e3e 2994 b2bd
00000050: 9cd0 263e 4fae e6bd 92ba 32bb aa13 96bd
00000060: 79f1 b0bd bb7c 51bd 58cd 113e 5b37 bd3d
00000070: 9632 8a3a 2ca2 12be 5efb c3bd 963b 093e
00000080: 221e 90bd 27d1 0cbe 63f0 aebd a07b 39bd
00000090: d9bc 8cbd cfcc 003e 93cb a63c 46d9 653e
000000a0: a419 2ebe de68 a4bd 6137 b03d d271 163e
000000b0: 4511 59bd 6b73 e03d 9c1c abbd 635f ccbd
000000c0: b264 c23d c465 59ba 9286 09be 3b55 aa3b
000000d0: 9ee8 273e 756b 363d d1a0 1ebd 1882 1fbd
000000e0: 73fa 01be 6855 df3d 5dfd 05bb 6ae4 c5bd
000000f0: 6fa7 a13c 3527 8d3d 3b9c 133b cdb7 07bd
00000100: 2a06 3dbe 83d9 87bc f4c8 9fbd 1ad7 2a3b
00000110: c29e 07be dcd5 a53d 5776 09be 3b4b 8abd
0.03558863 0.11544977 -0.19608775 0.0030059305 0.11172004 0.10929063 0.02003354 -0.21551111
0.18618567 0.07792165 0.07423045 0.13737352 0.11162403 -0.030092744 0.13287835 0.149818
0.043230455 -0.15761866 0.15489343 -0.087196656 0.16290516 -0.112637155 -0.002727185 -0.07327969
-0.08639807 -0.051144343 0.14238489 0.09239074 0.001054364 -0.14319676 -0.09569429 0.13401636
-0.070369974 -0.1375166 -0.08541944 -0.045283914 -0.06871957 0.12578128 0.020360744 0.22446164
-0.17001969 -0.08027814 0.08604313 0.14691857 -0.052994985 0.10959514 -0.08355066 -0.09979131
0.09491862 -0.00082930573 -0.13430241 0.0051981485 0.1639733 0.044536073 -0.038727585 -0.038942426
-0.12693195 0.10904962 -0.0020445206 -0.09662707 0.019733159 0.06892244 0.002252354 -0.03313427
-0.18459383 -0.01658321 -0.07802001 0.0026068152 -0.13244155 0.08097431 -0.1342405 -0.0675263

fc.weight f4 [24, 24]
00000000: 2ea4 b2bd 40cd cbbd e876 033c f3ce bdbd
00000010: 8b78 b4bd 90bb 4e3c 3d17 b93d ecbc c2bd
00000020: 6309 da3d bcf8 763d 751b 273e fb95 493c
00000030: d793 283e cc4d 43be 3a02 6c3d c58c 25be
00000040: 81d2 a43d 6168 95bd c6f6 25bd 6944 163e
00000050: 850d 3b3e 232b 4abd 3999 e9bd 868e aa3d
00000060: 9dc9 8abd 05e2 e6bd 6bb8 02be 51bf 713e
00000070: f143 76bc c10b da3c 926a c0bd 07fb ec3d
00000080: c735 28be 23f4 81bd 1329 02bd 1d73 f13d
00000090: 1aa8 b3bc 99c2 063d 6ee4 223e 1967 933d
000000a0: 5497 373e ddc2 5bbd 9481 fd3d 067a 65bc
000000b0: c411 45bc f942 8a3d bffe 413e 5853 43bc
000000c0: 31ca 8bbc 233b a3bd 7eee fcbd 2bae 013e
000000d0: ce88 47bd daf7 a0bd de39 7d3d e59d 123d
000000e0: b912 f7bc 787a 223e 7cfd f83d dec5 353d
000000f0: 1264 c3bd bd87 a1bd 3877 303e 38c8 1b3d
00000100: 1117 33be dc16 d2bc 5261 2a3d e29f 743d
00000110: d268 303e 4197 f83b 6bd0 fabc b6ef 0c3e
00000120: 4836 64bc 2590 713d 8661 f5bd 8f34 89bd
00000130: 137f 2cbe a1c8 5abb cd54 05be 0941 223e
00000140: 6f86 93bd b460 20be 3996 22ba f80e b6bd
00000150: 90ca 0abe 9d84 113e 5959 563d afed a23c
00000160: b6c9 e23d e7b4 56bd 7477 083c 0430 373e
00000170: 29fd b1bd 4893 cc3d 347d 1e3e 10a7 57bd
00000180: fe2a 203e 0dc1 1fbd bbcc 3dbd e1e2 e13c
00000190: de6b a0bc 4d5a 19bd ca3c 46bd a734 bd3c
000001a0: 1efc eebd 9bea 12be ce9a 30be 03ea 623e
000001b0: 9dcf c53b 64c4 8f3d 8c6b 38be 1287 abbc
000001c0: a718 2bbe 734b edbc 1aed 373e d61d f33d
000001d0: 0779 b9bd c71e debd 3f2a 0dbe c386 c0bd
000001e0: 9b07 833d e0ad eabd ca4f d93d 4a30 8bbd
000001f0: 7bdb 473e 5963 5cbd 55f5 0bbd d9c3 e83d
00000200: 7115 0c3e 933e 113e c090 103e f7f6 48be
00000210: 1948 f13d 560a d0bd a8a3 1a3e 9b14 1c3e
00000220: e6ab 3dbc eb30 833d f290 463d 56ef c43d
00000230: 3bdf 053e d2b7 5a3d ed05 96bd c837 c13b
00000240: 00b9 703c 1abf 23be cf77 6c3d 1907 02be
00000250: 75c4 0d3e 6f74 383e 99f6 b53c 63e3 243e
00000260: de21 a9bb 0558 ff3d 3629 bd3d b833 2fbe
00000270: 146d 20be b968 35bd df3e ba3d 1817 3cbd
00000280: 478d 18bd 1020 e93d 4dde 403e 069d c23d
00000290: 31a1 543d bb62 c43d 7afe bc3c 3806 38be
000002a0: 9f0f 54be 6005 37be e497 40be 5eb7 153e
000002b0: e6b9 2abb d57c 09be 4017 333d d50e 32bc
000002c0: 66bf 04be 306c 3ebe b010 1a3d a7b3 613c
000002d0: 27ce 80bd d0d9 e5bd 26e2 23bd a8ba 2c3e
000002e0: 1f08 28be b97b bbbd 4f93 5bbd 5ab4 313e
000002f0: 04b9 1c38 0114 043e 8cad bcbc a319 0abd
00000300: c026 be3d 1af0 8bbd 3146 c53d 738f 173e
00000310: 8643 e73d 4208 053e 1be1 38be 2f0f 2f3e
00000320: 635a 14be 8e44 e23d ee71 613d 53ba ce3c
00000330: 2d8e 513d 9bb5 47be 5dc7 413e 5e8c 85bc
00000340: da86 293e c47a 59bc 2027 86bd b075 f03d
00000350: 02fd 4ebc 6305 12be d7dd 363d f9c9 37be
00000360: 4467 0dbe 682c 1fbe e2a9 c839 40aa d8bd
00000370: 39a2 143c 07af 1cbe 7dc1 3dbe 3c91 0abd
00000380: 1780 4b3c 1eaf 1a3e 7630 a1bd e3f6 433e
00000390: 6502 0bbe 9f8c 943d c756 2bbe ec3f 343e
000003a0: 677b a0bd 19c2 cf3d 811e bc3c c3ad 97bd
000003b0: 078a 71bd 670e afbd d0db eb3d 0fe9 0e3e
000003c0: 796f 373e 964c 21bd 6ed1 9abd 7950 c1bd
000003d0: 2cc6 ce3a cf01 643d 32a9 0cbd dfc7 0fbe
000003e0: a531 8d3a 435f 3cba baa6 2fbe b302 6dbd
000003f0: ec87 fe3a d7b1 43be c6a9 293d 3001 413d
-0.08722721 -0.09951258 0.008023955 -0.09267988 -0.08812054 0.012617961 0.090376355 -0.0950869
0.106463216 0.060295805 0.16319068 0.012303825 0.16462646 -0.19072646 0.05761931 -0.1616698
0.08047963 -0.07295299 -0.040518545 0.14674534 0.18266876 -0.049357545 -0.11406178 0.083279654
-0.06776736 -0.112735786 -0.12765662 0.23608138 -0.015030847 0.026616933 -0.09395327 0.11571317
-0.16426764 -0.063453935 -0.031777453 0.11789534 -0.021930743 0.032900427 0.15907452 0.07197399
0.17928821 -0.053652633 0.12378231 -0.014006143 -0.012028161 0.06751055 0.18944834 -0.011921726
-0.017064186 -0.07970264 -0.12350176 0.12664096 -0.04871445 -0.07859774 0.061822765 0.03579511
-0.030160295 0.1586703 0.12157723 0.044378154 -0.09540571 -0.07887218 0.17232978 0.03803274
-0.17489268 -0.025645666 0.041596718 0.05972279 0.17227486 0.0075863902 -0.03061696 0.13763317
-0.013928957 0.058975358 -0.11981492 -0.06699478 -0.1684535 -0.0033383744 -0.1302063 0.15845121
-0.072033755 -0.1566189 -0.00062021945 -0.08889574 -0.13553834 0.14210744 0.052331302 0.019888727
0.110736296 -0.052418616 0.008329261 0.1788941 -0.086908646 0.09989029 0.15477449 -0.052649558
0.156414 -0.039002467 -0.046337824 0.027574005 -0.019582685 -0.037439633 -0.048397817 0.023096396
-0.11669181 -0.14347307 -0.17246553 0.22159581 0.0060367123 0.070198804 -0.18009776 -0.02093843
-0.16708623 -0.028966641 0.17961541 0.11870925 -0.09056287 -0.10845714 -0.13785647 -0.09400704
0.06397935 -0.11458945 0.10610922 -0.0679632 0.19517319 -0.053805683 -0.034169514 0.1136548
0.13680054 0.14184026 0.14117718 -0.1962546 0.1178133 -0.101582214 0.15101492 0.15242235
-0.011576628 0.06405815 0.048478074 0.09615962 0.13073437 0.05339796 -0.07325349 0.005896542
0.014692545 -0.15990868 0.057731446 -0.1269802 0.13844474 0.18013166 0.022212313 0.16102366
-0.005161508 0.1246796 0.09236376 -0.17109573 -0.1566661 -0.044289324 0.09094023 -0.04592046
-0.037244108 0.113830686 0.18834801 0.09502606 0.051911537 0.09589144 0.023070563 -0.17971122
-0.20709084 -0.17873144 -0.18807942 0.1462073 -0.0026050746 -0.13426526 0.043723345 -0.010867794
-0.12963638 -0.18595958 0.03761357 0.013775743 -0.062893204 -0.11223185 -0.040010594 0.16868079
-0.16409348 -0.091544576 -0.05360728 0.17353955 3.7365608e-05 0.12898256 -0.023031972 -0.033715855
0.09284735 -0.06832905 0.096325286 0.14800815 0.11292176 0.12991431 -0.18054621 0.17095636
-0.14487605 0.11048232 0.055040292 0.02523533 0.05116098 -0.1950287 0.18923707 -0.016302284
0.16555348 -0.0132738985 -0.06550431 0.11741197 -0.012633564 -0.14259867 0.044645157 -0.1794814
-0.13808924 -0.15544283 0.00038273545 -0.105793476 0.00907188 -0.15301143 -0.18530841 -0.033829913
0.012420676 0.15105864 -0.07870571 0.19137149 -0.13575132 0.07253384 -0.16732322 0.1760251
-0.07836037 0.10144443 0.022963764 -0.07406189 -0.058969524 -0.08547669 0.11516535 0.13956092
0.17913617 -0.03937968 -0.07559477 -0.09439177 0.0015775613 0.055665787 -0.034341045 -0.14041089
0.0010772242 -0.0007185826 -0.17153445 -0.057863902 0.001941917 -0.1911081 0.041421674 0.047120273

fc.bias f4 [24]
00000000: d4be 413d 3d07 103d f483 113e 28a0 3ebe
00000010: feb3 b33d 6dda 14be 10e5 363e 4d82 2fbe
00000020: a69b 8ebd 7639 623d 67df 543d dac0 6d3d
00000030: e244 94bc 2d75 e13c bceb 26be d822 19bd
00000040: 2549 283d fed1 0e3e 94f1 46be 776f d0bd
00000050: a923 23be bfd1 ebbd 5d00 ffbd 5ccd 37bd
0.04730113 0.035163153 0.14210492 -0.18615782 0.08774565 -0.14536448 0.17860818 -0.1713955
-0.06963281 0.05523058 0.051970866 0.058045246 -0.018099252 0.027521694 -0.16300863 -0.037386745
0.04108538 0.13947293 -0.19428092 -0.1017751 -0.15931572 -0.11514615 -0.12451241 -0.04487358
