models/GRU_NoiseEst/training_checkpoints/tiny_noise_gru_epoch_003_mse_0.574160.pth (torch, 35749 bytes, 10 tensors)

pre.weight f4 [48, 12, 3]
00000000: 02e5 0838 e138 b83d be0e 0cbe 3133 fabd
00000010: 811a 84bd ded3 343d b613 05bb 8148 083e
00000020: c7d5 53bc c089 453d 594f 3fbd c7f9 e7bc
00000030: 3ab3 1ebe 41b0 d9bd 0ab4 83bd abe4 213c
00000040: 39b6 8e3d 6e85 d43d 481b e0bd 82db 8cbd
00000050: d6a2 833d 74a8 113e f8c5 f7bc 22f4 033e
00000060: 6f7c babc 9bb6 b23c b5ff 1e3e 34cb 19be
00000070: 31c3 cdbd 5516 1abd d3f7 77bd d11e 183e
00000080: fdf8 d3bd 7cd3 94bd c5db e5bd 1d94 1bbe
00000090: 6a55 cebd 8e64 103e 9f4e 903d b531 973d
000000a0: f51b 753b 7014 bebd 2ff1 b43c 4a51 24be
000000b0: e3e2 01be 5c05 b2bd fb6f d73d b145 c73d
000000c0: 13c6 9cbd 529e 00bc 7f5a d73d c9c4 273e
000000d0: 83ec 843d b37b b63c 8acf e63d b5bb c5bd
000000e0: 34bb 083d 9900 01be f55f e4bd f2e1 a7bd
000000f0: 4cde a23d cb51 933d b855 c0bd 2f62 603d
00000100: 87b6 c53d e244 83bc ee89 493c d562 383d
00000110: 9ff1 e03d f5e5 2b3e 101a f6bd 6a50 58bd
00000120: 7a68 923d 8890 133e f800 1b3e e4d4 1c3e
00000130: 46f6 203d debd 0dbe 5c68 b33c 2de0 c7bd
00000140: 73ca 17be 43d2 1d3e b1e8 073e a1fa 23be
00000150: 1c64 183d c590 b5bc ad26 b0bc 7167 8fbd
00000160: c3e7 8f3d 6e90 bdbd ae1d 8a3d bf89 b93d
00000170: e6ab 003e 4dcf 8c3d 215f 22be d803 d0bd
00000180: ec51 b73d 9157 283d 8929 fdbd d2d1 b7bd
00000190: b0ec 263e 0de5 f23d c773 87bd 43f3 10bd
000001a0: 7cd1 1bbe 3dd9 743b 3a28 f3bd 563b f9bd
000001b0: b5fb 6bbc d05f 9c3c f260 97bd 58ac c23d
000001c0: f889 d9bd 8c55 163e e012 df3d f932 16be
000001d0: 7c95 41bd 13a7 ef39 c8cd 8b3c cdd8 033d
000001e0: 6d55 703d e95b 4e3b 62e7 b4bd 8f80 933d
000001f0: 0cca 2abe e505 d9bd eac4 49bd 37db b5bd
00000200: 4482 87bd a602 14be 11ed 31bd e9fb e03c
00000210: 31ac eebd d570 87bc 04c3 e33d 0cdc cebc
00000220: 856c 66bb 2a35 b9bc d889 cc3c 690c c73d
00000230: 8d9c 183e 1252 c53d 0a48 183e 744d b1bc
00000240: 414d 20be 8bb9 adbd a23f dc3d 7651 8ebb
00000250: c60a aebd 6cc8 04be a713 21be 7dc2 11be
00000260: 447c 0fbd acb5 af3d 1df6 ab3d 5cde 2abe
00000270: d302 cf3d 1d3e 09be c760 1fbd 3b6c 8ebd
00000280: 5a1a 0ebd b1f8 11bd b8ac 1dbe 3378 18be
00000290: f43e 00bd c6ff 9dbb ac6f aabd a0de 613d
000002a0: 1957 22be 7504 a6bc 07b7 0c3e 2285 9dbd
000002b0: 4f8f 103e 1275 503d 4efa 23be 375a c33d
000002c0: bdc3 f0bc 238c afbd 375c f93d f9ce 15be
000002d0: ae45 993c 78ad 0abd 79c6 f53d e806 4d3d
000002e0: 72ff ab3d 4b68 803d 02e8 13bd d2a9 01bd
000002f0: b37c 08be a10f b93d 8836 073e 208e e93d
00000300: 0b6c edbd bf04 103c a1cf eebd 1a7b babd
00000310: 6e04 c6bd fd84 673d 6d59 d0bd f909 cebb
00000320: ed94 6d3b d3de d33d 40dd 05be afe0 f4bd
00000330: 73b1 d0bd 6014 e33d 492b 87bd d882 0a3e
00000340: dfdb 5f3d 8a74 7d3c 0e72 e3bb 005b 1ebd
00000350: a219 793c 9a94 37bd 4f15 ffbb 1da5 723c
00000360: c646 fabd c754 a2bd c80c 123e 1f98 02be
00000370: 26c0 8ebb f194 303e 6a23 8a3d 0a26 473c
00000380: 1f66 0cbe f37e b83d b18d e3bd 08d6 22bd
00000390: 1e97 47bd e23b 8fbc 323f 123c ed30 143e
000003a0: 03a3 e53c 0c3c 203e 5dbe e03d 2bcd c7bd
000003b0: f71e a93d 20d6 e0bd fe23 80bd 23cc 693d
000003c0: 7248 813d 735a 083e ebbf 3abd 85d6 0b3c
000003d0: 14c4 c03d 9899 1cbe 3c12 043e 6d67 04be
000003e0: 7136 303c ca8a a2bc 3153 a2bd 2c09 fa3c
000003f0: b8ca 0c3e ee0c 5dbd 03d2 d1bd 80ca 5fbd
3.2638207e-05 0.08995224 -0.13677499 -0.12216795 -0.06450368 0.044147365 -0.0020305938 0.13308908
-0.012929386 0.04822707 -0.04670653 -0.028317345 -0.15498057 -0.10629321 -0.06430824 0.009881179
0.0696835 0.10377012 -0.109427035 -0.06877805 0.06427543 0.14224416 -0.030245766 0.12886098
-0.022764413 0.021815589 0.15527232 -0.15018922 -0.100469954 -0.037618954 -0.060539078 0.14855506
-0.10350225 -0.072669 -0.11223558 -0.1519322 -0.10074885 0.14100859 0.07046246 0.07382528
0.0037400697 -0.09281242 0.022087662 -0.16046634 -0.12684207 -0.086924285 0.105194055 0.097300895
-0.07654967 -0.0078502465 0.10515308 0.16383661 0.064904235 0.022275781 0.11270054 -0.09654943
0.033381656 -0.12597884 -0.11151115 -0.081973925 0.07952556 0.07193335 -0.093913496 0.054781135
0.09653955 -0.016024057 0.012300951 0.04501613 0.109835856 0.1678694 -0.1201669 -0.052811064
0.071488336 0.14410603 0.15137088 0.15315586 0.039297365 -0.1384196 0.021900348 -0.09759555
-0.14823322 0.1541224 0.13272358 -0.16013576 0.037204847 -0.022163758 -0.021502817 -0.07002152
0.07026627 -0.092560634 0.06743942 0.09059476 0.12565574 0.06875477 -0.15856601 -0.10156983
0.08951172 0.041099135 -0.12361438 -0.08975567 0.16301227 0.11860094 -0.0661388 -0.035388242
-0.1521663 0.003736093 -0.11872907 -0.121695206 -0.014403273 0.019088656 -0.07391538 0.09505528
-0.106220186 0.14681071 0.10892272 -0.14667882 -0.0472617 0.00045710112 0.017065898 0.03218918
0.05867522 0.0031487888 -0.08833195 0.07202255 -0.16678637 -0.105968274 -0.049260058 -0.088797025
-0.06616643 -0.14454135 -0.043438975 0.02746387 -0.11653937 -0.016533295 0.11121181 -0.02525141
-0.0035159898 -0.022608358 0.024968073 0.09719164 0.1490347 0.09634794 0.1487123 -0.021643378
-0.1565447 -0.08482655 0.107543245 -0.004343207 -0.084981486 -0.1296708 -0.15730153 -0.14234348
-0.03503062 0.08579573 0.08396552 -0.16686386 0.101079606 -0.134026 -0.038910653 -0.06954237
-0.0346931 -0.03563756 -0.15397918 -0.14889602 -0.031310037 -0.0048217503 -0.08322081 0.055143952
-0.15853538 -0.020265797 0.13741694 -0.07691409 0.14117168 0.050892897 -0.16013452 0.095386915
-0.02939021 -0.08571651 0.12175792 -0.14629735 0.018709984 -0.03385684 0.12000746 0.050055414
0.08398332 0.06269892 -0.03610993 -0.031656094 -0.13328819 0.09036184 0.13204396 0.11404061
-0.11592873 0.008790194 -0.11660696 -0.09105511 -0.09668814 0.056523312 -0.101733066 -0.00628781
0.0036252097 0.10345235 -0.13072681 -0.119569175 -0.10190096 0.110878706 -0.06600053 0.13526475
0.054653045 0.01546968 -0.0069410866 -0.038661003 0.015203865 -0.044819452 -0.0077845226 0.014809874
-0.1222053 -0.07926326 0.14262688 -0.12753342 -0.004356402 0.17244317 0.06745036 0.012155065
-0.13710831 0.09008589 -0.1111101 -0.039754897 -0.0487281 -0.017484609 0.0089262 0.14471789
0.028031832 0.15647906 0.10973809 -0.097559296 0.08257859 -0.10978341 -0.06256865 0.057079446
0.06312646 0.13315754 -0.045593183 0.008535032 0.09412399 -0.15292966 0.12897581 -0.12930079
0.010755167 -0.01984157 -0.07926024 0.030521952 0.13749206 -0.05396741 -0.10245135 -0.05463648

pre.bias f4 [48]
00000000: f06b 3b3d 6177 14be 9b32 ab3c d824 173e
00000010: 5bef 043e 57c5 1f3e 2a6f a43d 1446 863b
00000020: 413b 353d 28c1 86bd d639 103e 183a ae3d
00000030: 5c0c 08be c4e7 183e eb7f 4dbc 707f 66bc
00000040: 82a8 28bd a1e2 57bd 7ba0 84bb c68e 94bd
00000050: 3e6b 19be c92d a3bd 5524 09bd be52 013e
00000060: 0361 0f3e 17e9 c1bd e1e2 9abc 7a42 6dbd
00000070: 8b24 cabd 8200 9bbc ed4c 71bd 94da bb3d
00000080: ec6c 9cbd e85f 083d 87fc 9cbd 8b3f 45bd
00000090: 6dbf 013e 6e27 cfbd abfc 76bc a374 223e
000000a0: 8b58 4c3d adfc 99bd ce62 dbbd e4b5 93bd
000000b0: 5fe2 00bd c12c 963d f31e 37bd b553 133e
0.045757234 -0.14498664 0.020898154 0.14760149 0.12981932 0.15602623 0.08029015 0.0040977094
0.044245962 -0.065798104 0.14084563 0.08507174 -0.13285965 0.14932162 -0.012542705 -0.014068469
-0.041176327 -0.052706365 -0.004047451 -0.07253794 -0.14982316 -0.07967717 -0.033481915 0.1262922
0.14001851 -0.094682865 -0.018907012 -0.057924725 -0.09870251 -0.01892114 -0.058911253 0.0917255
-0.07637963 0.03329459 -0.07665353 -0.048156302 0.1267068 -0.101149425 -0.015074889 0.15864806
0.04988913 -0.07518897 -0.10712205 -0.07212427 -0.031465884 0.07332755 -0.04470725 0.143874

norm.weight f4 [48]
00000000: 942a 7e3f e8b9 7f3f 3ff4 7d3f e8b4 7c3f
00000010: bc0a 7c3f 3838 7d3f 78a6 7d3f f301 7d3f
00000020: f091 7e3f d77c 7e3f 1d36 803f a456 7c3f
00000030: 07b0 7d3f 9c2a 7e3f 8120 7d3f 466f 7f3f
00000040: 2421 7d3f af89 803f a72f 813f 64ce 7d3f
00000050: bb21 7e3f 1ccc 7e3f 05bc 7e3f cfed 7d3f
00000060: e70c 823f 33c6 793f d24e 7d3f be0b 803f
00000070: d2b3 7c3f 2466 813f 9aaa 7f3f fb3f 813f
00000080: bb80 7d3f ad9b 803f 99c4 813f 6142 7e3f
00000090: 6774 7e3f 89b8 813f 620e 813f ab1a 7f3f
000000a0: 9dd7 7d3f 320e 7b3f 90bb 803f 9345 813f
000000b0: 167a 813f eee9 7b3f 9b4c 7f3f ed5f 803f
0.9928372 0.99893045 0.99200815 0.9871354 0.9845388 0.9891391 0.99082136 0.988311
0.9944143 0.9940924 1.0016514 0.98569703 0.9909672 0.99283767 0.9887772 0.99779165
0.98878694 1.0042018 1.0092667 0.9914305 0.9927022 0.99530196 0.99505645 0.9919099
1.0160187 0.97568053 0.98948395 1.0003583 0.98711884 1.0109296 0.9986969 1.009765
0.9902455 1.0047508 1.0138122 0.99320036 0.99396366 1.0134441 1.0082514 0.9965007
0.99157125 0.98068535 1.005724 1.0099357 1.0115383 0.98403823 0.99726266 1.0029274

norm.bias f4 [48]
00000000: ae1c dcbb f91e 93bb 0f81 c2bb 04ec 293c
00000010: 1505 173c baad 843b d27c 0cbc c170 8e3a
00000020: 9c08 11bc f4ca c23b f43f 03bb 8b79 32bb
00000030: 4ae6 11bc b853 d73b b3d1 fabb ebdb bcbb
00000040: 0e28 1cbc f49a c4bb d2fc 17bc 64cb 133c
00000050: a179 ec3b e176 87bb a04c ed39 c895 d53b
00000060: a067 a13c e79e ce3b aa6a 09bc 5be8 52bc
00000070: 0506 10bc 9743 863a f018 2dbb 53c7 d5bb
00000080: bca1 bb3b 9cdf 77ba d68e 733c ec31 2dbb
00000090: 7647 03bb 3ad3 86bc b501 e0bb 40e3 963a
000000a0: 2feb 0cbc 8fbe 1c3c f410 e5bb 0fef 23bc
000000b0: 0e33 483c bd15 923b a20f e4bb 1368 c43b
-0.006717286 -0.004489776 -0.005935795 0.010371212 0.00921752 0.00404903 -0.008574681 0.0010867344
-0.00885215 0.005944604 -0.0020027133 -0.002723309 -0.008905003 0.0065712593 -0.0076543926 -0.005763521
-0.009531034 -0.005999917 -0.009276586 0.00902066 0.0072166477 -0.0041340445 0.00045261253 0.0065180995
0.019702733 0.0063055637 -0.008387247 -0.012872781 -0.008790498 0.0010243532 -0.002641257 -0.0065240054
0.0057260673 -0.00094556226 0.014865598 -0.002642746 -0.0020031608 -0.016458143 -0.006836141 0.0011511818
-0.008600994 0.009566917 -0.0069905464 -0.0100057265 0.012219204 0.004458158 -0.0069598714 0.005993852

gru.weight_ih_l0 f4 [72, 48]
00000000: 820e e5bd 0f3a 75bd 90f5 993d e824 213e
00000010: 730b 463e 157b ca3c a795 b63c 256e c0bd
00000020: aee9 e43d 53f7 f2bd b977 50bd a387 2ebe
00000030: a95d 45be 3da0 e33d a5a5 0b3c 67ac 393e
00000040: 6eda 203e ea60 e63d 70bd b83d 9f29 72bd
00000050: 837b bf3d 536b cb3d 4322 9b3d 2674 e0bb
00000060: e99e e03c ab99 36bc 0e2c 24be ca8b 2e3d
00000070: d930 20be 502d be3d 9df3 12be 199e 6fbd
00000080: ff04 c6bd 8ad8 143e f587 0fbe fcb5 b53d
00000090: c4c9 c53d e5cc 113e a17e 7f3d 07d4 de3d
000000a0: 3e65 223e 9eba e23c 194e 883d 2254 1fbe
000000b0: 0622 8fbd 4c71 543c 2181 a13c cf70 a8bd
000000c0: d8d4 42be c3b1 89bd 9e7f b63d a85f 323e
000000d0: e8e5 2ebe d42c d73d 4ef4 46be 3075 39be
000000e0: b759 e8bd 1ef2 22bd 1d9e 2f3d 28a7 2cbe
000000f0: 3d90 2c3e 366b 343e 79f0 cb3c bcd9 1c3e
00000100: e28a a1bd aba4 c1bd 189f 25bd 1416 5a3c
00000110: 713f 0fbe 2222 1dbe b919 893d 760f 453d
00000120: 80fa 583e 0b32 c3bd 3180 9f3d 96d5 bbbd
00000130: 6968 bb3d 8d7f 8eba 25f1 243e 8c3c f93d
00000140: 0b4a 243e ecd9 ec3d 77ed 1fbb 6a28 283e
00000150: 858d dcbd c718 3a3e acab 573e ce29 543e
00000160: a0b7 abbd 13b7 ecbd 1cb5 883a 5ba3 533d
00000170: 4946 db3d da57 c23d 2527 3c3e dbd7 1ebd
00000180: fd7e 88bd 1024 863d abaf 623d cd0d efbd
00000190: eafd 9d3c 24cf 29be 1fbf 7ebd 60d5 a7bd
000001a0: b62c 3a3e 1286 3abe 4a46 f2bd f9f2 48be
000001b0: 8d14 483d 5ba5 22be 194e 983d 6a4b 25be
000001c0: 0995 fcbd 9bae dcbd 1570 b03c 0893 443e
000001d0: 7cb1 443e 4cfe 61bc 3cef 54be 1dc0 89bd
000001e0: f13b 7dbd e5ed 00bd 64ea c13d aa04 ea3d
000001f0: 0183 c73d 2eac 503d e5a5 bcbd 37a9 3b3c
00000200: df0d 803c e18f d0bd de8e f7bb 418e 13bd
00000210: 4798 34be 24fa 143e 45f7 a0bb c660 24be
00000220: ab95 333e c74e cfbd 8358 703d 8b0d 423e
00000230: a337 ba3c 818b 9a3d 4b55 ba3d 67f9 2d3e
00000240: a979 75bd 8f3a e5bd 6193 44bc ba0e 193e
00000250: 27f3 6a3c f005 003e d177 4a3c 7c92 5c3d
00000260: 10bf 9b3b 3da1 df3b 5cee 3bbe 0800 2abe
00000270: 8185 ae3c 63ae bf3d bbb5 113e 5054 e93a
00000280: 559c b73d 1046 b03d e3be 37be 9ece 3ebe
00000290: 7f86 2ebe 8c16 1f3c eb63 08be b335 90bd
000002a0: a00e bdbc 6aa5 973d 9375 683d d09a 3f3e
000002b0: 4b59 473e f1b4 f6bd 8092 cdbb 4ead 283d
000002c0: 6868 2e3e 1faf 5ebd b8b5 94bd 83b3 0fbe
000002d0: b482 203e b2a7 8abd d7a3 8bbd 74b1 143e
000002e0: e582 473e 5eb6 82bc d06d 1dbe 5855 203e
000002f0: c2bf abbd be38 b3bd c1bf 06be 2e73 bdbd
00000300: ec91 25be dc48 00be 382e 44be ab5a e7bc
00000310: edea bf3d 6b49 0bbe 6243 85bc 75c5 7abd
00000320: 55c3 dd3d 82e8 2b3e 16d9 36bd 9fe7 e6bd
00000330: 9d25 23be 775e e5bd ee35 583d bfd0 743d
00000340: 1508 d33d f521 ffbc 9eb9 e33d 94d6 32be
00000350: c367 8b3d cb78 443e 7baf 48be 3158 cebd
00000360: e6c7 ea3d 6fc9 66bc 0f12 f3bd 54cc 103e
00000370: 556d 013d 0605 e3bb 3119 9fbd ba20 183e
00000380: d74d e83d 9539 ae3c 844e 403d 1fed ee3d
00000390: 0966 f33d ed70 91bd cba0 e6bc bd4b a43d
000003a0: b9b8 ddbd 94cb 563e 22a9 01be 8fa6 c43d
000003b0: db31 16be 8da6 6d3d 9eae 0a3e d61c 6e3c
000003c0: c6e4 c6bc bf80 063e f263 1bbe 142f 06be
000003d0: a687 34be 4f92 08be 4b48 02bb f641 bfbd
000003e0: d5a8 343d b9b9 283c 612f 303e 9f92 d1bd
000003f0: 992d 78bd a5e9 0f3e fab9 5ebd 6278 423e
-0.11184408 -0.059869822 0.075175405 0.15736735 0.19340305 0.024716893 0.022288157 -0.093960084
0.11177383 -0.118635796 -0.050895426 -0.17043929 -0.1927401 0.111145474 0.008523379 0.18132173
0.15708324 0.11248954 0.09020507 -0.059121724 0.0934973 0.0993258 0.07574894 -0.0068497835
0.027419524 -0.011145036 -0.1603243 0.042613782 -0.15643634 0.092859864 -0.14350744 -0.058500383
-0.09668922 0.14535728 -0.14016707 0.088726014 0.09657624 0.14238317 0.062376622 0.10880285
0.15858933 0.027676877 0.06655521 -0.15559438 -0.06988911 0.012966465 0.019714894 -0.082246415
-0.19026506 -0.067233585 0.0891106 0.17419302 -0.1707989 0.10506597 -0.19429132 -0.1811111
-0.11345237 -0.039781682 0.042875398 -0.1686064 0.16851898 0.17619023 0.02489494 0.15317434
-0.07887818 -0.09455236 -0.040434927 0.013310928 -0.13989045 -0.15345052 0.06694359 0.048110448
0.21189308 -0.09531029 0.077881224 -0.09171598 0.09150774 -0.0010871753 0.16107614 0.121697515
0.1604387 0.11565003 -0.0024403015 0.16421667 -0.1076918 0.18173514 0.21061581 0.20719072
-0.08384633 -0.11558356 0.0010429951 0.05166946 0.10706765 0.094894126 0.18374307 -0.038780075
-0.06664846 0.06549847 0.05534331 -0.11672554 0.019286115 -0.16582924 -0.062193986 -0.08194995
0.18181118 -0.18215206 -0.11829813 -0.19623937 0.048847724 -0.1588339 0.07436771 -0.1614205
-0.12333114 -0.10775491 0.02153782 0.19196713 0.1920833 -0.013793539 -0.20794386 -0.06726096
-0.061824743 -0.031476874 0.094685346 0.11426671 0.09741784 0.050945453 -0.09211329 0.011453918
0.015631614 -0.10183693 -0.007554873 -0.036024336 -0.17636214 0.14548546 -0.0049122893 -0.16052541
0.17537563 -0.101224475 0.05867816 0.18950479 0.022731608 0.075461395 0.090982996 0.1698967
-0.059930477 -0.1119281 -0.0119980285 0.14947024 0.014340199 0.12502265 0.012357668 0.053850636
0.004753001 0.006824641 -0.18352646 -0.16601574 0.021303894 0.093594335 0.14229481 0.0017801616
0.08965365 0.08607113 -0.17943911 -0.18633506 -0.17043494 0.009709965 -0.13319366 -0.07041492
-0.023078263 0.07404597 0.056752753 0.187114 0.19467656 -0.120462306 -0.0062735677 0.0411809
0.17032015 -0.054366227 -0.072612226 -0.14033322 0.1567486 -0.067702666 -0.06818359 0.14520818
0.19483526 -0.0159561 -0.15373921 0.15657556 -0.08386184 -0.08751057 -0.13159086 -0.092504844
-0.16168946 -0.12527794 -0.19158256 -0.028241476 0.093709804 -0.13602225 -0.016267482 -0.061223466
0.10828272 0.16787913 -0.044640623 -0.11274647 -0.15932317 -0.11199658 0.052785806 0.05976939
0.10304276 -0.031144122 0.11119388 -0.17464668 0.068069 0.19186704 -0.1959819 -0.10075415
0.11463909 -0.014086111 -0.11868679 0.14140445 0.031598408 -0.006928089 -0.07768477 0.14856234
0.11342972 0.021267692 0.04694988 0.11666321 0.11884696 -0.07101617 -0.028152844 0.080222584
-0.10826249 0.20976096 -0.12662175 0.09602081 -0.14667456 0.058020163 0.13543174 0.014533242
-0.02427901 0.1313505 -0.15174845 -0.13103896 -0.17629871 -0.13337062 -0.0019879516 -0.09338753
0.044106323 0.010298186 0.17205574 -0.10233044 -0.06059036 0.14053972 -0.05437658 0.18991235

gru.weight_hh_l0 f4 [72, 24]
00000000: d828 b73d f52a 19be 2a21 a6bc 919d 253e
00000010: 16d4 debd 3ef7 313e 7c9d b33d 1cf1 82bd
00000020: 4039 8f3d febe f6bd 4746 a73c c73b 943d
00000030: f5e0 303e 2a2e 05be 41b5 e3bd 801b bebd
00000040: f522 5ebe 71c0 243d f518 2abe 0f8b 58bd
00000050: d796 b7bd 0bea 733c 388d 8d3d 3601 0dbe
00000060: c7dc 3ebd c6c9 fcbc cf0f dcbd 612a 203d
00000070: a100 7e3d 38a8 1abe d7ac 2d3e 0965 1f3e
00000080: 7237 4abd 1fd5 a83c 02a9 0f3d 5bab f4bc
00000090: 9c34 18be 2d18 2c3e f1a7 af3d 0d93 25be
000000a0: 139d 1abe 87d3 533e 8708 993c 9b8f 67bd
000000b0: 644d 1a3e 2f9c 8d3d d24f ac3d fab6 313e
000000c0: ffac 75bc 880b 4c3e d810 0dbe 88ef edbd
000000d0: 948a 083d 5d9e 2dbd 06c7 0a3e 8d4a 73bd
000000e0: 1791 053d fa88 4abd 88aa 173e bbfa d6bc
000000f0: a7e2 e83b d4d5 263e 943e 4c3e 886b 3e3e
00000100: 1cb7 40be f163 ebbd e237 31bd 1744 2ebd
00000110: 4cbd e73d 913b b33d b564 b3bc 00f5 aabb
00000120: 2041 2d3d f6fe 303e c38c e53d 07cf e1bd
00000130: 3f17 d1bd ddd5 9b3d e394 abbc b569 02be
00000140: aac9 45be 9739 383d 3852 60bd e34d dcbd
00000150: bd69 163d 8dbc 403e 61d0 483e b80d fd3d
00000160: 3e25 2cbe 4e27 f03d 4bd2 e83d 4c34 793d
00000170: edee 61bd 8194 0e3a 5cee d9bd aaa5 7fbd
00000180: 5420 babc c053 e7bc de4b 58be 134c 9e3d
00000190: 9399 39be 0a92 22be 3221 963d e833 31be
000001a0: e9a5 423e ec82 373e 85be 8ebd 6927 42bd
000001b0: a3d2 24be 72a9 933c 4874 7a3c a95f f0bd
000001c0: e3ce a13d 7c68 a1bb 1dcb 9cbd 4a71 2d3b
000001d0: 6c25 3ebe 3291 13be e07f e83c 3af7 593e
000001e0: f048 fcbd 3c79 0b3e 61a0 6f3c c451 a7bd
000001f0: 8ee1 0d3b 4048 b33d 688b 1a3d ecae 333e
00000200: ccdf 2dbd 62d6 16be 7c15 373e dbbc 87bd
00000210: 5419 093e 2459 123e 7c45 103d 86aa 32be
00000220: eb37 42be 6d0d c03d faf9 553d a503 fc3d
00000230: e3eb 3cbe 2853 08bd f325 2f3e eaec cf3d
00000240: 1f9f 373e 0e3c 1e3e 5b7b 2abd 24f1 12be
00000250: 044b 07be fdf4 8c3d 2019 94bd d466 ec3b
00000260: 2ea1 263d dbff 003e 5ad5 f53d f852 f33d
00000270: 5d66 e73a 9acd e43d d596 ddbd 6b0a 9ebd
00000280: 32bb 04bd 5b5f e1bd 4cb5 313e af38 22bd
00000290: abd0 863d ed8e 3bb8 1e36 0b3b d1f4 dcbd
000002a0: 5f9b abbc a049 35be 0157 dbbd 0f07 263e
000002b0: c9eb 37be 0bf2 103d 6d07 963c 1542 51be
000002c0: 2827 f93c cb2d b43d 6d81 0e3e 3e91 1f3d
000002d0: 51bd 263e 0ad3 553c 22f7 8d3d 9f7b 5c3d
000002e0: fd20 14be 923a 5fbd 4b8f 1abe 930c 2c3e
000002f0: 3034 c43d c074 bcbd b221 eabc 9397 8c3d
00000300: 8b0a 2ebe d57e 75ba d075 d53d e629 a03c
00000310: f838 dcbc cc7d 093e 35dc b93d a228 33be
00000320: 045f 023e db09 23be 98c3 f83d b65e 343e
00000330: 8316 453c b778 97bd 14a3 ebbd c6a7 acbd
00000340: 4373 28bd 7719 9ebd 27b6 473e 0ddd c3bd
00000350: af31 bc3d b018 3bbe 2c6d e13d d799 373e
00000360: d43f 15be 28a8 57bd d411 4c3d ff57 47be
00000370: 0f84 05be 7166 883d 0232 4d3e c2b4 70bd
00000380: 8edb 90ba e70a 4fbe cd43 47be 5be2 303e
00000390: 87f2 2f3e 4122 80bd c7b5 a9bd 5640 47bc
000003a0: 6aa6 c83d 1438 48be f656 e6bd 0db6 86bd
000003b0: a165 b4bd 599e 9abb 0e97 1a3e 0eb6 213d
000003c0: 365a 44be 4cea 483e c5d1 213e c96e 913d
000003d0: 474c dc3d c6c3 933d 5298 2b3e 4d13 51be
000003e0: a19c 09be dbb9 ecbc 8a92 3fbd 3ac0 0ebe
000003f0: c251 41be 1f0c 1abe 4f4e b8bc 9aca 293e
0.08943337 -0.14957793 -0.020279486 0.16173388 -0.10880296 0.17379472 0.08770272 -0.06393644
0.069933414 -0.120481476 0.020419253 0.07237964 0.17273314 -0.13005891 -0.11118556 -0.09282589
-0.21693023 0.04022259 -0.16611083 -0.05286699 -0.08964317 0.014887343 0.06911701 -0.13769993
-0.04659727 -0.030857932 -0.10745203 0.039102916 0.06201232 -0.15103233 0.16960464 0.15565886
-0.049369283 0.020609437 0.035073288 -0.029866865 -0.14863819 0.16806097 0.08576954 -0.16169377
-0.15098982 0.2068616 0.018680824 -0.056533437 0.15068585 0.06914555 0.08413662 0.17354956
-0.014994859 0.19926274 -0.13775957 -0.116179526 0.033335283 -0.042387355 0.13552484 -0.05939727
0.03260907 -0.049447037 0.14811146 -0.026242604 0.007107097 0.16292506 0.19945747 0.18595707
-0.1881985 -0.11493672 -0.043266185 -0.042545404 0.113154024 0.08751596 -0.021898607 -0.0052171946
0.042298436 0.1728476 0.11208489 -0.110258155 -0.10209512 0.076091506 -0.020945018 -0.12735637
-0.1931521 0.044976797 -0.05476591 -0.10757043 0.036721934 0.18821926 0.1961074 0.12356132
-0.16811082 0.11726247 0.11368235 0.06084089 -0.055159498 0.0005438999 -0.106411666 -0.06241385
-0.022720493 -0.028238177 -0.21122691 0.07729354 -0.1812499 -0.15876022 0.0733055 -0.17304957
0.19008602 0.17921036 -0.069699325 -0.047400866 -0.16095977 0.018025134 0.015286513 -0.11736996
0.07900789 -0.0049257856 -0.07655928 0.002646523 -0.18568963 -0.14410856 0.028381288 0.21285716
-0.12318599 0.13620466 0.01462564 -0.081698924 0.0021649334 0.08754015 0.037730604 0.17547196
-0.042449757 -0.14730218 0.1787929 -0.06627818 0.13388568 0.14291817 0.035222515 -0.17447862
-0.18966644 0.09377561 0.05224035 0.12305383 -0.18449359 -0.03328243 0.1710432 0.1015261
0.17931794 0.15452597 -0.041621547 -0.143498 -0.1321221 0.06882665 -0.07231355 0.0072144065
0.040681057 0.12597601 0.12003584 0.118810594 0.0017654408 0.11172028 -0.108197846 -0.07716831
-0.032405086 -0.11004516 0.17354316 -0.03960484 0.06582769 -4.4717384e-05 0.0021241973 -0.107888825
-0.02094811 -0.17703867 -0.10709954 0.1621363 -0.17961039 0.03538708 0.018314088 -0.20435365
0.030414179 0.08797797 0.1391656 0.038956873 0.16283156 0.013050804 0.069319025 0.05382883
-0.14465709 -0.054499216 -0.15093724 0.16801672 0.095802665 -0.09201956 -0.02858052 0.06864848
-0.1699621 -0.0009364908 0.104228616 0.019551229 -0.026882634 0.13426894 0.09075204 -0.17495969
0.12731558 -0.15921728 0.121466815 0.17614254 0.012029293 -0.073960714 -0.11505714 -0.08430438
-0.041125547 -0.07719701 0.1950308 -0.095636465 0.09189164 -0.18271136 0.11007151 0.17929779
-0.1457513 -0.0526506 0.04982169 -0.19467162 -0.13038658 0.06660164 0.20038608 -0.058766134
-0.001105176 -0.20219003 -0.19459458 0.17273848 0.1718236 -0.062565334 -0.082866244 -0.012161335
0.09797366 -0.19552642 -0.11247055 -0.06577692 -0.08808447 -0.0047185835 0.15096685 0.03948026
-0.19175038 0.19620627 0.15802677 0.07101209 0.10756736 0.07215075 0.16757324 -0.20417519
-0.13438655 -0.028897217 -0.04677061 -0.13940516 -0.18878844 -0.15043686 -0.022498278 0.16581193

gru.bias_ih_l0 f4 [72]
00000000: 40a6 ec3d cc31 5b3e 6487 3a3e 3de8 debd
00000010: e6d8 383e 001a b4bd 92fe 14be d96e 093e
00000020: 43cd 0bbe dd05 423e e0c8 453e b9db fbbd
00000030: e464 ff3d e567 3bbd 560c 76bd 7f81 383d
00000040: ff0a 953d bf1b 0fbe b8d9 5b3e b0ed 203e
00000050: 56b2 07be 4f4c ec3d 8952 453d 837d f23d
00000060: c115 a03c 7e4d ab3d 9687 8c3d 6bb6 5c3e
00000070: b743 453d 591b 3d3e 25e6 433d d6c9 a83d
00000080: fc7c 42b8 b3e3 f6ba 3a61 01be 4c09 5f3e
00000090: 6afa b8bd ce04 093e 93d3 933d 67b6 253e
000000a0: e110 34be 7e5a af3a bc7f 32be bfa4 0fbe
000000b0: 063e d03d c156 a3bc 119d 293e 66fb 323e
000000c0: c320 4bbb d043 4cbd 4901 223e cfa4 523e
000000d0: 8e5c 273c 6eed 30be d00c ba3d 0884 0abd
000000e0: ff31 1fbe 8121 123d a6a5 b7ba 8b44 203c
000000f0: 6d24 593e 5069 e23d e44f fb3d cee1 89bc
00000100: fc5e 03bd f770 8b3d f5d1 2abe 09a4 483e
00000110: 713d 973c 7eee 3dbe 187e 01be d23b c73d
0.11555147 0.21405715 0.1821571 -0.1088414 0.1805149 -0.087940216 -0.14550236 0.13421191
-0.1365252 0.18947549 0.19314909 -0.12297768 0.12470415 -0.04575338 -0.06007036 0.045045372
0.07277488 -0.13975428 0.21469772 0.1571567 -0.13251624 0.11537992 0.048174415 0.11840346
0.019541623 0.0836439 0.068617985 0.21553962 0.04816028 0.18467464 0.047826905 0.08241622
-4.6369605e-05 -0.001883617 -0.12634745 0.2178089 -0.09032138 0.13380739 0.07218089 0.16182862
-0.17584564 0.0013378409 -0.1743154 -0.1402769 0.1016808 -0.019938828 0.16563822 0.17478713
-0.003099487 -0.04986936 0.15820803 0.20570682 0.010214938 -0.17278072 0.09084475 -0.03381732
-0.15546416 0.035676483 -0.0014011159 0.009781967 0.21205302 0.11055243 0.12271097 -0.016831305
-0.032073006 0.06808656 -0.16681655 0.19593824 0.018461915 -0.18548009 -0.12645757 0.09728207

gru.bias_hh_l0 f4 [72]
00000000: 8261 383d 7d54 e93d a77d 46be 367a 343b
00000010: a3a8 e63d 9e0e e13d e800 a63c 6be9 5abe
00000020: d545 3e3e 4e5d a43d 9829 953d 9a89 0c3e
00000030: 2b9d e13d d5d3 f4bc fe48 033e 3675 1c3e
00000040: 5f64 3d3d d0e8 21be e8e9 203e 05df afbd
00000050: b651 233e b87d ddbd 28bb 0bbb 21e4 94bd
00000060: d224 b3bd 4b02 58bd e98f 123e 67db bc3d
00000070: de77 123a 7225 15be b8ce cabd 28c7 073e
00000080: 8bd1 94bd 6367 0cbe 80d9 adbd b019 3fbd
00000090: ea93 90bd e53b 0a3e d67a b93c 9175 633e
000000a0: 9ba8 2ebe 5b29 a8bd 3f87 b63d ea0a 153e
000000b0: b818 5ebd 7925 e13d 5148 aabd 9318 cfbd
000000c0: f9fc d73d a851 6cba 1366 07be 11d1 4d3b
000000d0: a132 283e bf8e 313d 84fc 18bd 34b5 2bbd
000000e0: f412 02be a82b dd3d a05d 1dbb d134 c7bd
000000f0: 6f1b a93c d1ac 8f3d 68c8 fe3a 9ebc 11bd
00000100: 6e25 3bbe 79f6 75bc fda7 a0bd db8b 983a
00000110: a3a8 07be 541a a63d 00bd 09be 0f4a 8cbd
0.045014866 0.11393068 -0.1938387 0.0027538664 0.11262634 0.10989116 0.020264104 -0.21378104
0.18581326 0.08025609 0.07283324 0.13724366 0.110163055 -0.029886166 0.12820813 0.15279087
0.0462383 -0.15811467 0.15714228 -0.085874595 0.15949139 -0.108149946 -0.002132127 -0.07270075
-0.08747257 -0.05273656 0.1431271 0.09221535 0.00055873196 -0.14565066 -0.0990271 0.13259566
-0.0726653 -0.13711314 -0.084887505 -0.046655357 -0.07059462 0.1349941 0.02264158 0.22212817
-0.17056505 -0.08211013 0.08912515 0.14554945 -0.054222792 0.109934755 -0.083145745 -0.10112109
0.105462976 -0.0009014853 -0.13222532 0.003140513 0.16425563 0.043349024 -0.037350193 -0.041920856
-0.12702543 0.107993424 -0.0024012104 -0.09726871 0.020642964 0.07015384 0.0019438388 -0.03558027
-0.18275997 -0.015012377 -0.07844541 0.001163836 -0.13247924 0.081104904 -0.13451004 -0.06850063

fc.weight f4 [24, 24]
00000000: 5be2 adbd 2dd0 cdbd 7ca1 213c 7bee b7bd
00000010: cb0c b9bd b089 663c 622f bc3d 3b97 bbbd
00000020: ad8e dd3d 7815 6d3d d7d3 273e 5c3a 583c
00000030: de98 283e 0dd3 42be 7160 633d 93e5 25be
00000040: dda7 a93d 39c2 91bd 988e 2bbd ebc2 1c3e
00000050: 1ef7 3c3e 2ea5 46bd 040c edbd 8bb6 a63d
00000060: e999 b4bd 7204 bdbd a8b4 0dbe 99dc 613e
00000070: d384 203c 02f6 fa3c 6dd6 d2bd 86ff c93d
00000080: 78c2 3abe 2b2a 46bd 828f 00bd 0c1e 013e
00000090: de38 44bc a43c b13c 4d21 2e3e 45dc 9a3d
000000a0: 3e1a 233e 0c64 93bd f3a9 0e3e 8ffa e1bc
000000b0: aa88 d1bc f589 4a3d 3d03 4b3e 8056 63bc
000000c0: c038 a7bc ef7a 9dbd 7f40 02be fb70 f93d
000000d0: af88 32bd 8fe0 9fbd 3b99 6f3d 55a6 053d
000000e0: ff7a 0bbd eb44 273e c9fc f83d 5db0 373d
000000f0: a277 c1bd 6ec8 a6bd 7c71 363e 7f5b 1c3d
00000100: 17a2 37be a4e3 e4bc 8295 3c3d 59eb 623d
00000110: 33f7 2d3e 0273 a33b bd5e f1bc c22c 0c3e
00000120: c696 3ebc cdff 803d f6e0 f1bd 9d58 8fbd
00000130: ddeb 2ebe f377 fa39 24ec 05be 207a 233e
00000140: 390a 90bd 9488 22be 303f 0139 31c7 c3bd
00000150: 3017 0dbe 8721 143e 324c 493d f5a3 9b3c
00000160: 312f e83d f119 4abd 1855 b93b 81a6 1e3e
00000170: 0aee acbd 38ad cf3d 84a6 1e3e ca2b 5ebd
00000180: 8026 203e 7af6 23bd 52b3 3bbd 3b31 d73c
00000190: 4cd4 a2bc f0fe 19bd 9ec8 4abd 22bf c03c
000001a0: f346 efbd b345 13be 7975 30be 5520 623e
000001b0: 8392 db3b 0c20 8f3d 1259 39be d0a3 9fbc
000001c0: 8803 2abe e69b ebbc c4fc 363e 3083 0b3e
000001d0: 9bc1 b6bd 10dd d8bd a6bc 0bbe 8117 b6bd
000001e0: e32e 833d e1f2 eabd 525f d93d 4f92 8bbd
000001f0: aeab 473e 61ab 5bbd 5fa2 0bbd 040b e93d
00000200: 482e 0c3e 8059 113e d1c1 103e 9724 49be
00000210: e310 f13d 4364 d0bd 8299 1a3e 2b45 1c3e
00000220: 7b83 3ebc fa73 833d 7459 463d cf7a c43d
00000230: c81a 063e a314 5b3d 70cd 95bd b7ae c03b
00000240: 2339 703c 1d31 24be ca60 6e3d 7bc9 01be
00000250: 2b8f 0d3e b8da 383e a29a b43c 063e 253e
00000260: 997c 9abb d747 ff3d 6c66 bd3d 5b88 2fbe
00000270: 5267 20be f80d 35bd 30f6 b83d 7abd 3bbd
00000280: 48ab 16bd f7a2 e93d 41e5 403e d3c5 c33d
00000290: f4c9 563d 1e15 c53d f76c ba3c c272 38be
000002a0: 8ab4 53be 3719 39be b650 3fbe 1898 1b3e
000002b0: 49ab 93bb 41f6 09be 00f8 303d b268 18bc
000002c0: d31d 03be 566e 40be 881b 1c3d 70cb 423c
000002d0: b6e5 81bd 7e5f e1bd e1c5 2cbd b933 2d3e
000002e0: 8f13 26be 4f13 b9bd 2949 63bd 7c06 383e
000002f0: 98b9 f03a e896 053e 30a6 c3bc b215 01bd
00000300: f8ec c63d e782 99bd fa26 cd3d 24e7 1d3e
00000310: 0cc7 d83d ad6c 073e eef0 37be f07c 323e
00000320: 698f 0bbe 05f6 dc3d 0ed6 633d be75 bf3c
00000330: 521c 4f3d 9cf5 45be fa9a 3b3e 66a3 83bc
00000340: e233 2f3e a9d6 22bc 71f6 a0bd 863b 053e
00000350: f1eb c8bb 9f90 0dbe 8cb0 303d b258 38be
00000360: ed44 0cbe 2b6e 20be 5774 b83a 8bca d6bd
00000370: 2f85 f63b c4b8 1cbe 2127 3cbe 2dbb 06bd
00000380: 66af 643c 69f2 183e 22c9 a0bd 45a4 433e
00000390: 2d80 0bbe 6bd1 973d c982 2dbe c9a0 343e
000003a0: b9b5 9cbd 3bdd d13d bf3f af3c 03c7 94bd
000003b0: 10a8 6ebd 80cb adbd f84d ed3d d721 103e
000003c0: 3fdc 363e 8fc9 25bd 14e5 9abd 41e9 bfbd
000003d0: 8b6d fd3a 5127 6a3d 8598 0fbd feca 0fbe
000003e0: f8a8 b93a 3c57 9139 e0a5 2fbe 668a 67bd
000003f0: 1c0c 113b 71bc 43be fd6e 2b3d 0a2a 443d
-0.084904395 -0.10049472 0.009865161 -0.089810334 -0.09035643 0.014070913 0.09188725 -0.09159704
0.10818229 0.057881802 0.16389404 0.013197508 0.16464564 -0.19025822 0.055511896 -0.16200857
0.082839705 -0.07117123 -0.041884035 0.1530873 0.18453643 -0.04849737 -0.115745574 0.08140286
-0.088184185 -0.092293635 -0.13838446 0.22056808 0.009797293 0.030634884 -0.10294805 0.0986319
-0.18238246 -0.04838006 -0.03138686 0.12609118 -0.011976449 0.021635361 0.1700489 0.07561544
0.1592798 -0.07196817 0.13932018 -0.027585296 -0.025577862 0.049447972 0.19825454 -0.013875604
-0.020412803 -0.07689463 -0.12719916 0.121797524 -0.043587383 -0.07806503 0.05849574 0.03262933
-0.034052845 0.16334884 0.1215759 0.044845928 -0.09446646 -0.08143698 0.17816728 0.038173195
-0.17932926 -0.027940579 0.04604102 0.055400226 0.1698883 0.0049880752 -0.02946412 0.13688949
-0.011632627 0.0629879 -0.11810486 -0.069993235 -0.17082162 0.00047773085 -0.13078362 0.15964556
-0.070332 -0.15872413 0.00012325938 -0.09559477 -0.13778377 0.14465915 0.04914493 0.01899908
0.11337126 -0.049341146 0.005655896 0.15493204 -0.0844384 0.10140461 0.15493208 -0.05424098
0.15639687 -0.04002998 -0.04582531 0.026268592 -0.019876622 -0.037596643 -0.04950773 0.02352864
-0.11683454 -0.14382057 -0.17232312 0.22082646 0.006700815 0.06988534 -0.18100384 -0.019487292
-0.1660291 -0.028760862 0.1786986 0.13624263 -0.08923646 -0.10589039 -0.13646182 -0.08891202
0.06405427 -0.11472107 0.10613884 -0.068150155 0.19499084 -0.053630237 -0.034090396 0.11379054
0.1368953 0.14194298 0.14136435 -0.19642864 0.11770799 -0.101753734 0.15097621 0.1526076
-0.011628027 0.06418605 0.048425153 0.095937364 0.13096154 0.053486478 -0.07314575 0.0058802026
0.01466206 -0.1603436 0.058197774 -0.12674515 0.13824145 0.18052185 0.02204639 0.16136941
-0.00471456 0.12464874 0.09248051 -0.17141859 -0.15664414 -0.044202775 0.090313315 -0.045834996
-0.03678444 0.11408036 0.18837453 0.09559216 0.05243869 0.096231684 0.022757037 -0.18012527
-0.20674339 -0.18076025 -0.18683133 0.15194738 -0.0045065028 -0.13472845 0.04320526 -0.009302305
-0.12804346 -0.1879209 0.038112193 0.011889324 -0.06342642 -0.11004542 -0.0421809 0.16914262
-0.16218399 -0.09036886 -0.055489693 0.17971224 0.0018365858 0.13045847 -0.023882955 -0.03151483
0.09713167 -0.07495671 0.100172 0.15420204 0.1058484 0.1322505 -0.17963001 0.17430472
-0.13628925 0.10789112 0.05562406 0.023371574 0.050564118 -0.19331974 0.18320838 -0.016069125
0.17109635 -0.009938874 -0.07859505 0.13010988 -0.006131642 -0.138247 0.04313712 -0.18002585
-0.13698168 -0.15667026 0.0014072758 -0.10487851 0.007523201 -0.15304857 -0.18374301 -0.03289335
0.013957834 0.14936222 -0.07850863 0.19105633 -0.13623114 0.0741299 -0.16944422 0.1763946
-0.07651848 0.102472745 0.021392701 -0.07264521 -0.058265746 -0.0848608 0.11587137 0.14075409
0.17857455 -0.040475424 -0.075632244 -0.093706615 0.0019335015 0.0571664 -0.035057563 -0.14042279
0.0014164736 0.0002772155 -0.1715312 -0.05652847 0.0022132462 -0.19114853 0.041853894 0.047891654

fc.bias f4 [24]
00000000: 6cbc 4a3d 7985 c53c dff4 0d3e c05f 3cbe
00000010: 10fe b33d 74bd 14be 1b4f 373e aef9 2dbe
00000020: 17eb 87bd 0237 673d 689e 533d 4363 723d
00000030: a38d 8dbc 5386 ea3c 57fb 27be f674 12bd
00000040: c2b0 1d3d f4cc 0b3e 2fc0 48be 473c d0bd
00000050: c1be 25be 3bae eabd ce30 ffbd 15a7 35bd
0.0494961 0.024111496 0.13862942 -0.183959 0.08788693 -0.14525396 0.1790127 -0.16989776
-0.06636637 0.056448944 0.05166474 0.059176695 -0.017279452 0.028628504 -0.16404472 -0.035756074
0.038498648 0.13652402 -0.19604562 -0.10167747 -0.16186048 -0.11459013 -0.12460481 -0.044348795
