models/GRU_NoiseEst/training_checkpoints/tiny_noise_gru_epoch_002_mse_0.484088.pth (torch, 24101 bytes, 10 tensors)

pre.weight f4 [64, 1, 3]
0	0x3c8211e6	0.015877675
1	0x3ea8eaec	0.3299173
2	0xbee8f1b6	-0.4549691
3	0xbecfb98b	-0.40571246
4	0xbe4f1bf2	-0.20225504
5	0x3e338dcb	0.17534558
6	0xbd0cd955	-0.03438695
7	0x3ede92e2	0.43471438
8	0xbd978e6d	-0.074002124
9	0x3dfbe70c	0.12299928
10	0xbe50b687	-0.20382129
11	0xbe11e4dd	-0.1424746
12	0xbf196b47	-0.5992932
13	0xbedd0667	-0.43168947
14	0xbe9312d5	-0.28725305
15	0xbb7804fe	-0.0037844772
16	0x3e4ff0a5	0.20306642
17	0x3ea473bc	0.32119548
18	0xbebbffd8	-0.3671863
19	0xbe5f4500	-0.21803665
20	0x3e77f6f5	0.242153
21	0x3ee4ed76	0.44712418
22	0xbe1aa5c4	-0.15102297
23	0x3ecc9503	0.39957437
24	0xbdc54e7d	-0.09634111
25	0x3d6cc6ba	0.057806708
26	0x3f0525fa	0.5201107
27	0xbf001922	-0.5003835
28	0xbea80a64	-0.32820427
29	0xbde38484	-0.1110926
30	0xbe59a07c	-0.21252626
31	0x3f02fd46	0.51167715
32	0xbeb91da8	-0.36155438
33	0xbe908b30	-0.28231192
34	0xbed6f260	-0.41981792
35	0xbf0ea732	-0.5572387
36	0xbea7232e	-0.32644027
37	0x3f01c3b1	0.50689226
38	0x3e894f65	0.26818386
39	0x3e862fd1	0.26208356
40	0x3c444aae	0.011980696
41	0xbea0d273	-0.3141056
42	0x3d97b52e	0.07407604
43	0xbf100aa2	-0.56266224
44	0xbee1a36f	-0.44070002
45	0xbea45809	-0.32098415
46	0x3eae7929	0.34076813
47	0x3ea14a1c	0.31501853
48	0xbe72c76b	-0.23708884
49	0xbaf962a2	-0.0019026587
50	0x3ec6c501	0.38822177
51	0x3f18fdda	0.59762347
52	0x3e816d7d	0.25278845
53	0x3dd04a68	0.10170442
54	0x3eb873db	0.3602589
55	0xbebbaf07	-0.36656973
56	0x3da54d42	0.080713764
57	0xbed70be3	-0.42001256
58	0xbebed9ff	-0.37275693
59	0xbe8a8312	-0.27053124
60	0x3e802e63	0.2503539
61	0x3e6258b1	0.22104146
62	0xbeb4c18c	-0.35303915
63	0x3e25ebb0	0.16203189
64	0x3e9bea4a	0.30452186
65	0xbdae9543	-0.08524563
66	0x3d25489a	0.04035244
67	0x3e1bc950	0.15213513
68	0x3ec0d10f	0.376595
69	0x3f0664ba	0.52497447
70	0xbef2c4d5	-0.47415796
71	0xbe76b7dc	-0.24093574
72	0x3e52c911	0.20584513
73	0x3eea264e	0.4573235
74	0x3ef678e4	0.48139107
75	0x3f041a2b	0.5160243
76	0x3df9009d	0.1215832
77	0xbefe0845	-0.49615684
78	0x3ccb8058	0.024841473
79	0xbec75acf	-0.3893647
80	0xbf10f2d8	-0.5662055
81	0x3f09c84a	0.5382124
82	0x3eedc6df	0.4644079
83	0xbf0cef4d	-0.55052644
84	0x3e047b01	0.12937547
85	0xbd9b8a3f	-0.07594728
86	0xbd96edc3	-0.07369568
87	0xbe823c97	-0.2543685
88	0x3e6d97ad	0.23202391
89	0xbea9fdc1	-0.3320141
90	0x3e7d7600	0.24752045
91	0x3ea7e262	0.32789904
92	0x3ee60bfb	0.44931015
93	0x3e66c45f	0.22535847
94	0xbf0fd2e5	-0.56181175
95	0xbebacfa0	-0.3648653
96	0x3e939964	0.28827965
97	0x3df77b10	0.12084019
98	0xbee6986e	-0.4503817
99	0xbeb3764a	-0.35051185
100	0x3f0f5b05	0.5599826
101	0x3ed25546	0.41080683
102	0xbe65dac3	-0.22446732
103	0xbe004f97	-0.12530361
104	0xbf10c13d	-0.5654486
105	0x3b8be268	0.004268933
106	0xbee4c91f	-0.44684693
107	0xbee2c524	-0.4429103
108	0xbd4e3965	-0.050347704
109	0x3dd58283	0.10425284
110	0xbe84755b	-0.25870785
111	0x3eb92119	0.36158064
112	0xbebe398b	-0.37153277
113	0x3f0c164d	0.5472153
114	0x3ed4c042	0.4155293
115	0xbf01f2b5	-0.50760967
116	0xbe261162	-0.16217569
117	0xbb61dc0f	-0.003446344
118	0x3dddacea	0.10823996
119	0x3ddc65c9	0.107616015
120	0x3e80a777	0.25127766
121	0x3d503ca5	0.050839085
122	0xbe9b3d89	-0.30320385
123	0x3e948be4	0.29012978
124	0xbf1011f1	-0.56277376
125	0xbebcd892	-0.3688398
126	0xbe021420	-0.1270299
127	0xbe97c77a	-0.29644376
128	0xbe4bf5a3	-0.19917922
129	0xbefe3312	-0.4964834
130	0xbe106092	-0.14099339
131	0x3e1c1973	0.15244083
132	0xbecc2d6a	-0.39878398
133	0xbd384fb0	-0.04499787
134	0x3edb0d74	0.427837
135	0xbd97998a	-0.07402332
136	0x3cfeac74	0.031088091
137	0xbd92df7f	-0.07171535
138	0x3e0f3b2a	0.13987413
139	0x3eaed9e8	0.34150624
140	0x3f110020	0.56640816
141	0x3eb8d6f8	0.36101508
142	0x3f116a9c	0.568033
143	0xbd8f56ef	-0.06999003
144	0xbf081fbe	-0.53173435
145	0xbe96de34	-0.29466403
146	0x3ed28da0	0.41123676
147	0xbcba91d8	-0.022774622
148	0xbe849e3e	-0.2590198
149	0xbee7febf	-0.45311543
150	0xbf0fc0b5	-0.5615342
151	0xbf055e90	-0.52097416
152	0xbdad1d0b	-0.08452805
153	0x3ea5e2b1	0.32399514
154	0x3eab26d7	0.3342807
155	0xbf1413c9	-0.5784269
156	0x3ec17978	0.37787986
157	0xbeefa369	-0.4680436
158	0xbdf943cd	-0.12171135
159	0xbe84e404	-0.25955212
160	0xbda64625	-0.08118848
161	0xbe10d095	-0.14142068
162	0xbf0a2ef0	-0.5397787
163	0xbef37eae	-0.47557586
164	0xbdbc6c32	-0.09200324
165	0xbb6ec505	-0.003643335
166	0xbe89e2cf	-0.26930854
167	0x3e66d81d	0.22543378
168	0xbf0974d2	-0.5369388
169	0xbd6be785	-0.05759384
170	0x3f05cc3a	0.5226475
171	0xbe844ab5	-0.25838247
172	0x3f0a2f6a	0.539786
173	0x3e30aad6	0.17252669
174	0xbf092950	-0.5357866
175	0x3ec3a6e8	0.38213277
176	0xbdb3eab8	-0.087850034
177	0xbe8afa89	-0.27144268
178	0x3ef64e5d	0.4810666
179	0xbef6b524	-0.48185074
180	0x3daa881f	0.08326744
181	0xbe0cd363	-0.13752513
182	0x3ede4788	0.4341395
183	0x3e107b3e	0.14109513
184	0x3e83f395	0.25771776
185	0x3e29b4e0	0.16572905
186	0xbe10f727	-0.14156781
187	0xbe078d3a	-0.13237467
188	0xbefae48b	-0.4900249
189	0x3eac7e6c	0.33690202
190	0x3ee9330b	0.45546755
191	0x3ed54571	0.41654542

pre.bias f4 [64]
0	0xbedadce5	-0.42746654
1	0x3c14d29b	0.009083415
2	0xbec6d562	-0.38834673
3	0xbe9690d4	-0.2940737
4	0xbe8d2fdb	-0.27575573
5	0x3e5fe679	0.21865262
6	0xbec2cd95	-0.38047472
7	0x3c632e6c	0.013866048
8	0x3cb8f11b	0.022575906
9	0x3eb12762	0.3460036
10	0xbee55450	-0.44790888
11	0xbec1a797	-0.37823173
12	0xbeb1cad5	-0.3472506
13	0x3edbb0b5	0.42908254
14	0xbe3c9c2d	-0.18418951
15	0x3f020ee4	0.5080397
16	0x3e432a99	0.19059218
17	0x3d4aca6c	0.04950945
18	0x3c9ca440	0.01912129
19	0xbe0f70a2	-0.1400781
20	0x3da9f0b6	0.08297865
21	0xbdfd4d40	-0.1236825
22	0xbcbd6d60	-0.023123443
23	0x3dd3a0ae	0.103333816
24	0xbedd9bc1	-0.43282893
25	0xbe9a8368	-0.3017838
26	0x3efd7776	0.49505204
27	0xbeff29f5	-0.49836698
28	0xbd7c99fa	-0.06167028
29	0x3f0f7248	0.56033754
30	0x3e30efc1	0.17278959
31	0x3c271672	0.0101982225
32	0xbf04adf9	-0.5182796
33	0x3e83a985	0.2571527
34	0xbededdd7	-0.43528625
35	0xbe18b348	-0.1491214
36	0xbe64fe23	-0.2236257
37	0xbd5641a3	-0.05230869
38	0x3c1bc61f	0.009507685
39	0x3f00635d	0.50151616
40	0x3dcbf4a9	0.099587746
41	0x3efb9a97	0.4914138
42	0x3ebffd0e	0.37497753
43	0xbec58be4	-0.3858329
44	0x3e739f03	0.23791127
45	0xbed0357a	-0.406658
46	0xbe84d774	-0.25945628
47	0x3e455ae3	0.19272952
48	0x3e5f60cc	0.21814269
49	0x3ed2b6a8	0.4115498
50	0xbe5fc58c	-0.21852702
51	0xbcd30612	-0.02575973
52	0x3ea87022	0.3289805
53	0xbf0a884b	-0.54114217
54	0x3ec86049	0.3913596
55	0xbf0087a4	-0.5020697
56	0xbba8c0df	-0.005149945
57	0xbda28c93	-0.07936969
58	0xbe91123f	-0.28334233
59	0x3dc17483	0.09446051
60	0x3ee94a7f	0.45564649
61	0xbe182e03	-0.14861302
62	0xbeb5e3e1	-0.3552542
63	0xbe4750e8	-0.19464457

norm.weight f4 [64]
0	0x3f7b74b8	0.98224974
1	0x3f7b7094	0.98218656
2	0x3f7a7c67	0.9784607
3	0x3f84906a	1.0356572
4	0x3f836e4b	1.0268034
5	0x3f79cc3b	0.97577256
6	0x3f7c832c	0.9863765
7	0x3f78979e	0.9710635
8	0x3f7c4814	0.9854748
9	0x3f77b33b	0.9675786
10	0x3f7c69fb	0.98599213
11	0x3f8202b1	1.0157071
12	0x3f80d897	1.0066098
13	0x3f861fcf	1.0478457
14	0x3f833085	1.0249182
15	0x3f7a572a	0.9778925
16	0x3f828de9	1.0199558
17	0x3f8330da	1.0249283
18	0x3f7a3d86	0.9775013
19	0x3f78a8af	0.9713239
20	0x3f7c8d97	0.9865355
21	0x3f7b2551	0.98103815
22	0x3f81c30b	1.0137647
23	0x3f84510f	1.0337237
24	0x3f7abd9f	0.9794559
25	0x3f784c50	0.96991444
26	0x3f842415	1.0323511
27	0x3f80c461	1.005993
28	0x3f7bce86	0.98362005
29	0x3f7d5f8f	0.98973936
30	0x3f812767	1.009015
31	0x3f78c522	0.971758
32	0x3f824e07	1.0180062
33	0x3f80e7fb	1.0070795
34	0x3f825738	1.0182867
35	0x3f7aed3b	0.98018235
36	0x3f83f17b	1.0308069
37	0x3f828b8e	1.0198839
38	0x3f82ef06	1.0229194
39	0x3f833fb3	1.0253814
40	0x3f8329dd	1.0247151
41	0x3f78d7ef	0.9720449
42	0x3f82e7bc	1.022697
43	0x3f82aa71	1.0208265
44	0x3f7b367c	0.9813001
45	0x3f7dfcfa	0.99214137
46	0x3f8134fb	1.0094293
47	0x3f82c32f	1.0215815
48	0x3f83708a	1.0268719
49	0x3f7a0226	0.9765953
50	0x3f84759b	1.034839
51	0x3f836904	1.0266423
52	0x3f83d0b2	1.0298064
53	0x3f7b591f	0.98182863
54	0x3f7b3a8d	0.98136216
55	0x3f83410a	1.0254223
56	0x3f80a963	1.0051693
57	0x3f7ab11c	0.979265
58	0x3f7a3119	0.9773117
59	0x3f823a8f	1.0174121
60	0x3f7a821b	0.97854775
61	0x3f792bd1	0.97332484
62	0x3f8072d4	1.0035043
63	0x3f78f664	0.9725096

norm.bias f4 [64]
0	0xbca3afa6	-0.019981217
1	0xbc8af88d	-0.016964221
2	0x3cab637d	0.020921463
3	0x3cd7c382	0.026338343
4	0x3d2a0cbd	0.041516054
5	0x3cbf92ac	0.023385368
6	0xbd223001	-0.03959656
7	0x3ce1fe4e	0.027587082
8	0x3c5cea5b	0.013483609
9	0xbcf1b011	-0.0295029
10	0xbc0b0104	-0.008484129
11	0x3ca9ad51	0.020712527
12	0xbc03f107	-0.008053071
13	0x3cf620b7	0.030044897
14	0x3cdb7632	0.026789758
15	0x3cb39827	0.021923138
16	0xbc96efe7	-0.018424941
17	0xbce38a01	-0.027775766
18	0x3cd23c77	0.025663598
19	0xbce831ad	-0.028344
20	0x3c6b9bf8	0.014380448
21	0x3c96c27c	0.018403284
22	0xbc8016b3	-0.015635824
23	0x3cee9474	0.029123522
24	0x3ca99794	0.02070216
25	0x3cf22d2f	0.02956256
26	0x3d07e579	0.033177827
27	0xbbec6876	-0.007214601
28	0xbca97048	-0.020683423
29	0xbc08ce75	-0.008350004
30	0xbc1dfa30	-0.009642169
31	0xbcce5eb0	-0.025191635
32	0xbca8b4c5	-0.02059401
33	0xbcfd24fe	-0.030901428
34	0xbc8f9c48	-0.017530575
35	0x3cbb2252	0.022843514
36	0xbd09c306	-0.033633254
37	0x3cef8e8a	0.029242773
38	0x3bd1ea9e	0.0064061424
39	0x3ccd6450	0.025072247
40	0x3ce8ca1b	0.028416684
41	0xbcff5379	-0.031167733
42	0x3cb41bb7	0.021985872
43	0xbcace06b	-0.021103105
44	0xbca1d37e	-0.019754168
45	0x3c4f4696	0.012651106
46	0xbc3f120a	-0.011662016
47	0x3cc81b4a	0.024427075
48	0x3cdbb8c9	0.02682151
49	0xbc975047	-0.018470896
50	0xbd10b7f4	-0.03533168
51	0xbce1048c	-0.027467988
52	0x3cfe3250	0.03102985
53	0x3c98b6cc	0.018641852
54	0xbca88e11	-0.020575555
55	0xbce64397	-0.028108401
56	0xbbd4a60f	-0.0064895223
57	0x3ca786dc	0.020450048
58	0x3cba02fc	0.022706501
59	0x3ca26c9d	0.019827181
60	0xbcb428bd	-0.021992082
61	0x3ccf25ed	0.02528664
62	0xbb342c58	-0.0027492251
63	0x3d025fa9	0.03182951

gru.weight_ih_l0 f4 [48, 64]
0	0xbe81d2fb	-0.25356278
1	0x3ddb52d9	0.10709161
2	0xbdeac06a	-0.11462481
3	0xbe2f9a8c	-0.17148799
4	0xbe19e978	-0.15030468
5	0x3e1a5bb1	0.1507404
6	0x3e008018	0.12548864
7	0x3e4a1936	0.1973618
8	0x3dc369fd	0.095417
9	0xbdb48f29	-0.08816368
10	0xbda41d8c	-0.08013448
11	0x3d90fec7	0.07079845
12	0x3e558ec7	0.20855246
13	0x3d899c01	0.067192085
14	0xbdf7d573	-0.12101259
15	0xbde7fe8c	-0.11327848
16	0xbe720a93	-0.23636846
17	0x3d6a0764	0.057135954
18	0xbe0975ea	-0.13423887
19	0xbe689ef3	-0.22716884
20	0x3e6627d5	0.22476132
21	0xbe213b83	-0.15745358
22	0xbcc9f122	-0.024651114
23	0x3d900034	0.07031289
24	0x3c5288cd	0.012849999
25	0xbe273fe7	-0.1633297
26	0xbe53796a	-0.20651785
27	0x3e5093fd	0.20368953
28	0x3d073575	0.033009965
29	0x3e4f42a1	0.2024026
30	0xbda24590	-0.07923424
31	0x3d8c50e1	0.06851364
32	0xbd5a6ed7	-0.05332836
33	0xbc3bc4a8	-0.011460461
34	0xbe17c0d9	-0.1481966
35	0x3dba4a43	0.090961955
36	0x3da9c074	0.08288661
37	0xbb5b56f3	-0.0033468574
38	0xbd4346cf	-0.04767495
39	0xbe2128d7	-0.15738235
40	0x3e3ac718	0.1824001
41	0xbe43625c	-0.1908049
42	0x3dca0714	0.09864631
43	0xbda421e4	-0.080142766
44	0xbdfd26a2	-0.12360884
45	0x3d4c4321	0.049868707
46	0xbdfeb58b	-0.1243697
47	0x3d6b660c	0.057470366
48	0x3d3dea03	0.04636575
49	0xbe4382e7	-0.19092904
50	0x3d2f9af6	0.04287239
51	0x3dd35ba5	0.10320214
52	0x3dc8f5ad	0.09812484
53	0xbcdc6527	-0.026903702
54	0xbe577b56	-0.21043143
55	0xbd0cb79f	-0.034354802
56	0x3dac7ca3	0.0842221
57	0xbdad9baa	-0.08476956
58	0x3dcac3a9	0.099006005
59	0x3e1ff8ca	0.15622249
60	0xbe09dc53	-0.13462953
61	0x3c12809b	0.008941795
62	0x3ddc04c7	0.10743099
63	0x3cd37431	0.02581224
64	0x3d099cf7	0.03359696
65	0x3d3165b4	0.043309882
66	0xbe565604	-0.2093125
67	0x3ce90b9e	0.028447922
68	0x3e3eb849	0.18624987
69	0x3e5a0686	0.21291551
70	0x3e240633	0.1601799
71	0x3c9f07cd	0.0194129
72	0x3dd0a5e4	0.10187891
73	0xbddbc4f7	-0.107309274
74	0xbe4f0e47	-0.2022029
75	0xbe4d2545	-0.20033748
76	0x3e708932	0.23489836
77	0x3e32a9e4	0.1744762
78	0xbe230a1c	-0.15921825
79	0x3dae7044	0.08517507
80	0x3e3132c2	0.17304519
81	0x3e720f90	0.23638749
82	0x3e53a87f	0.20669745
83	0x3e541785	0.20712097
84	0xbd8f399e	-0.069934115
85	0xbdceb6de	-0.10093473
86	0x3e440365	0.1914192
87	0x3e1f38b0	0.15548968
88	0xbe27960a	-0.16365829
89	0x3e578234	0.21045762
90	0x3e0a3f14	0.13500625
91	0x3dfacac7	0.12245708
92	0xbe15fadb	-0.14646475
93	0x3daf3cab	0.08556493
94	0xbdd18ab2	-0.10231532
95	0x3e56899b	0.2095093
96	0xbd76931c	-0.06019889
97	0x3df12dcd	0.11776314
98	0x3ccdb6ac	0.025111519
99	0x3db2254e	0.086985216
100	0xbdcf91c3	-0.10135224
101	0x3e0dd594	0.13851005
102	0xbe2ba519	-0.16762199
103	0x3d92dbba	0.07170816
104	0xbe17afa0	-0.1481309
105	0xbe6f1d0d	-0.23350926
106	0xbe3e42a5	-0.1858011
107	0x3e3a2210	0.18177056
108	0x3e17cabe	0.14823434
109	0x3e61cfb3	0.22051887
110	0x3e3d8357	0.18507133
111	0xbe52dc07	-0.20591746
112	0xbe1fcf7e	-0.15606496
113	0xbce0d9e8	-0.027447656
114	0xbe392b80	-0.18083
115	0x3e23e959	0.16006984
116	0xbe31cb83	-0.1736279
117	0xbe0b6ab5	-0.13614924
118	0xbe69a084	-0.22815138
119	0xbe20fb5d	-0.15720887
120	0x3e3d0dab	0.18462245
121	0x3e45848d	0.19288845
122	0x3e28de0f	0.16490959
123	0x3e522758	0.20522821
124	0x3e71ad4b	0.23601262
125	0xbd9c9b3c	-0.07646796
126	0x3dc252e2	0.09488465
127	0x3e5685a8	0.20949423
128	0x3dc65bb9	0.096854635
129	0x3e8e7619	0.27824476
130	0x3dd60ca2	0.10451628
131	0x3e456754	0.19277698
132	0xbd5ccdb3	-0.053907108
133	0x3db39017	0.08767717
134	0x3d794ff6	0.060867272
135	0xbdbb5971	-0.09147919
136	0xbe3116f8	-0.17293918
137	0xbde1c16c	-0.110232204
138	0xbe31f8fe	-0.17380139
139	0x3e4ae4cb	0.1981384
140	0x3e17f758	0.14840448
141	0xbcf1c6e7	-0.02951379
142	0xbdeba36e	-0.11505781
143	0x3e28a677	0.16469751
144	0x3e011dde	0.1260905
145	0xbc21c30d	-0.009873164
146	0xbe118f97	-0.14214931
147	0x3e8309f3	0.25593528
148	0x3d9990f5	0.074983515
149	0xbe5bb97b	-0.21457474
150	0x3e5b7c60	0.21434164
151	0x3e5b6b0c	0.21427554
152	0xbde8f2fb	-0.1137447
153	0x3df260e3	0.11834886
154	0xbdf9321b	-0.1216776
155	0xbd6c6911	-0.057717387
156	0x3e58d398	0.21174467
157	0x3cd385ad	0.025820578
158	0xbe45f073	-0.19330005
159	0xbd8c53a1	-0.068518884
160	0xbdba7bbc	-0.09105632
161	0xbcf302d1	-0.029664429
162	0xbb9d36b2	-0.00479778
163	0x3e4a2054	0.19738895
164	0xbc9ccb00	-0.019139767
165	0xbe2b7094	-0.16742164
166	0x3c4f3986	0.012647992
167	0x3e0940a7	0.13403569
168	0x3df501e1	0.11963249
169	0xbe5fda35	-0.21860583
170	0xbcff2f22	-0.031150404
171	0xbe5702a7	-0.20997106
172	0xbde5a5e0	-0.11213279
173	0x3d8a44dd	0.06751416
174	0xbe4e1a6c	-0.20127267
175	0x3dc79316	0.09744851
176	0x3e6947f6	0.22781357
177	0x3cbd9d9d	0.023146445
178	0xbe478d22	-0.19487432
179	0xbe08b99a	-0.13352051
180	0x3d840e84	0.06448081
181	0xbe58f5c8	-0.21187508
182	0x3e085ead	0.13317366
183	0xbe8081e6	-0.25099105
184	0xbe8e8ba0	-0.278409
185	0xbe8c230f	-0.27370498
186	0xbd965141	-0.07339717
187	0x3e35be12	0.17748287
188	0xbe696509	-0.22792448
189	0x3e3c7da9	0.1840731
190	0xbdff7e91	-0.124753125
191	0x3d4e8cea	0.050427355
192	0x3c84c421	0.016206803
193	0xbe6919c0	-0.22763729
194	0x3e539390	0.2066176
195	0x3df0c404	0.11756137
196	0x3e7ce23b	0.24695675
197	0x3e0248b1	0.12723042
198	0xbe2a0871	-0.16604783
199	0x3e552c62	0.20817712
200	0x3c5ea111	0.013588206
201	0x3df52833	0.11970558
202	0xbe46ee3d	-0.19426818
203	0xbd917705	-0.07102779
204	0xbe7c722d	-0.2465293
205	0xbdb9e4df	-0.09076857
206	0x3d63c30f	0.055605944
207	0xbe4bb48e	-0.19893095
208	0x3da6c99b	0.08143922
209	0x3e077ed0	0.13231969
210	0x3cfeefd8	0.031120226
211	0xbe28f14e	-0.164983
212	0xbe499abe	-0.19687936
213	0xbda36f9e	-0.07980274
214	0x3ddd3e06	0.10802846
215	0x3e7cfb19	0.24705161
216	0x3e107d54	0.14110309
217	0xbcf8ffa7	-0.030395342
218	0x3db88101	0.090089805
219	0xbe7e2141	-0.24817373
220	0xbe536d4d	-0.20647164
221	0x3df65cad	0.12029395
222	0xbe13eae8	-0.14445078
223	0x3dfd3961	0.1236446
224	0xbe36a5aa	-0.17836633
225	0xbdf4b6e4	-0.11948946
226	0xbe53b291	-0.20673586
227	0x3e041ebe	0.12902352
228	0xbcd30a98	-0.025761887
229	0x3e454225	0.19263513
230	0x3e2780ae	0.16357681
231	0x3e117886	0.14206132
232	0x3c57bf94	0.013168234
233	0xbd94b782	-0.07261564
234	0xbd4f0c7f	-0.050549027
235	0x3d01ab8b	0.031657737
236	0x3e05e62e	0.13076088
237	0xbe368f35	-0.17828067
238	0x3e54ff0b	0.20800416
239	0xbcbeab3f	-0.023275016
240	0xbe525a29	-0.20542206
241	0xbe04d182	-0.12970546
242	0x3e62befe	0.2214317
243	0x3e7fb56d	0.24971552
244	0xbe69ee0d	-0.22844715
245	0x3e31601a	0.17321816
246	0x3e051cb1	0.12999226
247	0x3e156cba	0.14592257
248	0x3e5c9e51	0.21544768
249	0xbe0b4d8e	-0.13603804
250	0x3d9ce1ed	0.076602794
251	0x3dde2ff1	0.10848988
252	0xbd8c2d2e	-0.06844555
253	0x3da54b90	0.08071053
254	0xbd96cac1	-0.07362891
255	0x3e1bfe25	0.15233667

gru.weight_hh_l0 f4 [48, 16]
0	0xbe36aff7	-0.17840563
1	0xbe47ef99	-0.19524993
2	0x3de11340	0.1099
3	0x3e47c935	0.19510348
4	0x3c95aa3a	0.018269647
5	0xbe6c9bd8	-0.23106325
6	0xbe836ee9	-0.25670555
7	0xbd3cab5b	-0.046061855
8	0x3e0f9e7b	0.14025299
9	0xbe1f940f	-0.15583824
10	0x3d9abc8b	0.07555493
11	0xbe0567b2	-0.13027838
12	0x3e49ce89	0.19707693
13	0xbd5c0e4f	-0.053724583
14	0xbd727b33	-0.059199523
15	0xbe5d412a	-0.2160689
16	0xbe6e34ea	-0.23262373
17	0x3c04a5c7	0.008096165
18	0x3d552373	0.05203576
19	0x3df8a206	0.121402785
20	0xbe6b2d9a	-0.22966614
21	0x3d17c767	0.0370554
22	0xbd022dcc	-0.031781957
23	0x3e0c40c6	0.13696584
24	0xbe00f7b3	-0.1259449
25	0x3d82d433	0.0638813
26	0x3db6e7a0	0.08930898
27	0x3de67062	0.11251904
28	0xbd967281	-0.07346059
29	0x3d92f253	0.07175126
30	0xbd1824a0	-0.037144303
31	0x3d578d51	0.052625004
32	0xbe27bf30	-0.16381526
33	0xbe6d6061	-0.23181297
34	0xbe36b14a	-0.17841068
35	0xbe32bb03	-0.17454152
36	0xbe01f0d9	-0.12689532
37	0x3d99696e	0.07490812
38	0xbda8afcc	-0.082366556
39	0xbe25725d	-0.16156907
40	0xbcc79387	-0.024362339
41	0xbdb836d5	-0.089948334
42	0x3e0af091	0.13568331
43	0xbe691629	-0.2276236
44	0xbd8b894b	-0.06813296
45	0xbe1348e1	-0.1438327
46	0x3d36c87f	0.0446248
47	0xbc85f1d3	-0.016350662
48	0xbcae4e56	-0.021277588
49	0x3e86db26	0.26339072
50	0xbdbd7f53	-0.09252801
51	0xbd247af9	-0.04015634
52	0x3d7a945b	0.06117664
53	0x3e4c89ba	0.19974414
54	0x3e5130c0	0.20428753
55	0x3cc0f9ea	0.023556668
56	0xbdc5c971	-0.096575625
57	0x3d9e38a3	0.07725646
58	0x3e1d335e	0.15351626
59	0xbbfb7ce7	-0.0076748016
60	0x3e0edbdf	0.13951062
61	0x3e48e86c	0.19619912
62	0xbe03743d	-0.1283731
63	0xbd61d175	-0.055131394
64	0xbe55e570	-0.20888305
65	0x3d9fd9a6	0.07805185
66	0x3e1c321c	0.1525349
67	0xbc90ab00	-0.017659664
68	0x3d810104	0.06299022
69	0x3dafd393	0.085852765
70	0x3bf33e81	0.0074232225
71	0x3e538d9d	0.2065949
72	0x3d87a8fe	0.066240296
73	0xbe6beb89	-0.23039068
74	0xbe3baf04	-0.18328482
75	0xbe60866f	-0.21926282
76	0xbc8f489c	-0.017490678
77	0x3e0b4bd7	0.1360315
78	0xbd5a9175	-0.053361375
79	0x3e847656	0.25871533
80	0xbd8064c3	-0.06269219
81	0x3d2d08be	0.042244665
82	0x3e79cdf4	0.24394971
83	0x3de1d556	0.11027019
84	0xbcb9180d	-0.022594476
85	0x3e5ffb3a	0.21873179
86	0xbe0dce70	-0.13848281
87	0x3daa9bb7	0.083304815
88	0x3e0f3c6e	0.13987896
89	0xbe2a1f5e	-0.16613528
90	0xbe8198ec	-0.25311983
91	0x3d83c8a3	0.06434753
92	0xbda19e9a	-0.07891579
93	0xbe082ce4	-0.13298374
94	0x3d818b31	0.06325377
95	0xbe4a8ad0	-0.19779515
96	0x3e4ef8d8	0.20212114
97	0xbd75a399	-0.059970472
98	0xbd395638	-0.04524824
99	0x3e22195f	0.15829991
100	0x3d51e983	0.051248085
101	0x3d4cdd90	0.050015986
102	0xbe0dea58	-0.13858926
103	0x3e841e1c	0.25804222
104	0xbdf276c0	-0.11839056
105	0x3e5e6e50	0.21721768
106	0xbd37fc8b	-0.044918578
107	0x3dad3d89	0.084590025
108	0x3e590916	0.21194872
109	0xbe2a755e	-0.16646335
110	0xbe0d1e0a	-0.1378099
111	0xbe98beb3	-0.29832992
112	0x3e2af9bf	0.16696833
113	0x3e4694e0	0.19392729
114	0xbd86bbb0	-0.06578767
115	0xbe1bd0b2	-0.1521633
116	0x3c9cf353	0.019158995
117	0x3e0ae004	0.13562018
118	0x3d2089a3	0.03919376
119	0xbd8c8de1	-0.06862999
120	0xbe415377	-0.18879496
121	0x3e495469	0.19661106
122	0xbe3c53c2	-0.18391326
123	0xbe8a2e62	-0.26988512
124	0xbd938ee5	-0.07204989
125	0x3d3fde91	0.046843115
126	0x3de732a1	0.112889536
127	0x3d80dd45	0.06292204
128	0xbdf67d09	-0.12035567
129	0xbd55c469	-0.052189264
130	0xbe19779a	-0.1498703
131	0xbdb12672	-0.08649911
132	0xbe43b4ad	-0.19111891
133	0x3d3b5cf6	0.04574295
134	0xbd37984d	-0.04482298
135	0xbe753136	-0.23944554
136	0xbdd495fb	-0.10380169
137	0xbe196063	-0.14978175
138	0xbda79122	-0.08181979
139	0xbdfce21a	-0.12347813
140	0xbd9a986b	-0.07548603
141	0x3d90f5b7	0.070781164
142	0xbe5dbabd	-0.21653266
143	0x3c93f6bc	0.018061988
144	0xbd8cc25f	-0.06873011
145	0xbdcd2ff5	-0.10018913
146	0xbdbd9de0	-0.09258628
147	0xbd588bce	-0.052867703
148	0x3d084d63	0.033276927
149	0xbe4333fc	-0.19062799
150	0x3dd5a0be	0.1043105
151	0x3e6d825a	0.23194256
152	0x3e7fb62c	0.24971837
153	0xbdc0e0ed	-0.09417901
154	0x3de0e8ee	0.10981928
155	0xbe42ec58	-0.1903547
156	0x3e302eed	0.17205401
157	0xbe7d62db	-0.24744742
158	0xbe7f0921	-0.24905826
159	0xbe31b9fa	-0.173561
160	0xbe59f361	-0.21284248
161	0x3d0fd94e	0.035119347
162	0xbd96344d	-0.07334194
163	0x3d783cdb	0.06060491
164	0xbc43799f	-0.011930852
165	0xbc9a6e64	-0.018851466
166	0xbdd34a68	-0.10316926
167	0xbe0f3c02	-0.13987735
168	0xbe4bbb7c	-0.19895738
169	0x3df3a418	0.11896533
170	0xbe0bab04	-0.13639456
171	0xbd5ddcb0	-0.054165542
172	0x3df18d9e	0.117945895
173	0xbda1fab3	-0.07909145
174	0xbd82c50b	-0.06385239
175	0xbe2587f1	-0.16165139
176	0xbe645b61	-0.22300483
177	0x3ddd9d49	0.108210154
178	0xbd09a67f	-0.03360605
179	0x3e0348ea	0.12820783
180	0xb7a6348c	-1.9813211e-05
181	0xbc2a6624	-0.010400329
182	0xbe7328d2	-0.2374604
183	0xbb8af281	-0.0042403345
184	0xbda57c2c	-0.080803245
185	0xbe209d90	-0.15685105
186	0xbd9ef8fd	-0.077623345
187	0xbc54119c	-0.0129436515
188	0xbe2a8d06	-0.16655359
189	0x3ceed56b	0.0291545
190	0x3e43f712	0.19137219
191	0x3c992e54	0.018698849
192	0x3e81745a	0.25284082
193	0x3e0b4813	0.13601713
194	0xbe640876	-0.22268853
195	0xbd8a0881	-0.06739903
196	0xbd12bafb	-0.03582285
197	0x3da3d791	0.080001004
198	0x3c263ce0	0.01014635
199	0x3e5c2f5e	0.21502444
200	0x3d724ff5	0.059158284
201	0xbe0f3a83	-0.13987164
202	0xbd8b0e85	-0.06789879
203	0xbe36747b	-0.17817871
204	0xbdca4604	-0.09876636
205	0x3e03622b	0.12830417
206	0xbca6312c	-0.020287119
207	0xbe4f1803	-0.20224003
208	0xbe6baa9e	-0.23014304
209	0x3da59f8d	0.080870725
210	0xbe516c61	-0.204515
211	0xbe5be262	-0.21473077
212	0xbe272021	-0.1632085
213	0x3e686f5e	0.22698733
214	0xbd7fc9bd	-0.062448252
215	0xbdeb03af	-0.11475312
216	0xbe3d0a74	-0.18461019
217	0x3e16fa1d	0.14743848
218	0xbd60ac47	-0.054851796
219	0x3d0755fc	0.033040985
220	0x3d99ce07	0.0751
221	0x3d807d1f	0.06273865
222	0x3e32ab3f	0.17448138
223	0xbb8e7fd5	-0.004348735
224	0x3d0e2d27	0.03471103
225	0xbcad819d	-0.021179968
226	0xbe584f1d	-0.2112393
227	0xbd0d527e	-0.0345025
228	0x3e802367	0.2502701
229	0xbe276579	-0.16347302
230	0xbe160198	-0.14649045
231	0xbe7acd5b	-0.244924
232	0x3d07b51a	0.033131696
233	0xbe62d7f3	-0.2215269
234	0xbde4ad48	-0.11165863
235	0x3e8089cc	0.2510513
236	0x3db05e66	0.08611755
237	0x3e15bf3d	0.14623733
238	0x3ce469a0	0.027882397
239	0xbe3f1804	-0.18661505
240	0xbdd177f1	-0.10227955
241	0xbe3e67c2	-0.18594268
242	0xbe2c4ef4	-0.16826993
243	0x3dc8a147	0.09796386
244	0xbd5a9861	-0.053367976
245	0x3e7fcc9b	0.24980395
246	0xbe474916	-0.19461474
247	0xbe4b4de4	-0.19853932
248	0x3e86bc20	0.26315403
249	0xbe4e888c	-0.20169276
250	0x3e68228f	0.22669433
251	0x3da74b24	0.08168629
252	0xbe7abfc2	-0.24487212
253	0x3e6490b2	0.22320822
254	0xbdab0ecb	-0.08352431
255	0xbdadc2d6	-0.08484428

gru.bias_ih_l0 f4 [48]
0	0x3e359486	0.17732438
1	0xbc4be2fc	-0.012444254
2	0xbda374dc	-0.079812735
3	0x3e078edf	0.13238095
4	0xbc1c3af6	-0.009535542
5	0xbdc1ea7f	-0.09468555
6	0x3dd9d1c1	0.106357105
7	0xbe0b4c17	-0.13603245
8	0x3e4a35a2	0.19747022
9	0x3e2e8bfb	0.17045586
10	0x3de5d449	0.11222131
11	0x3e241857	0.1602491
12	0xbe8f31ec	-0.27967775
13	0xbdfbf7ed	-0.123031475
14	0xbe864b7a	-0.2622946
15	0xbe143bed	-0.14475985
16	0xbe0aae34	-0.13543016
17	0x3e893ec8	0.2680571
18	0x3e507d2a	0.20360246
19	0x3e40db15	0.18833573
20	0xbd7f8590	-0.062383235
21	0x3e848ad2	0.25887161
22	0x39a9e85d	0.00032407316
23	0xbc39132b	-0.011296074
24	0x3e5968f1	0.21231438
25	0x3e6f2d05	0.23357017
26	0xbdbe320e	-0.09286891
27	0x3e9fe333	0.31228027
28	0x3d437931	0.047723
29	0x3e1746a2	0.14773038
30	0xbe4d9451	-0.2007611
31	0x3d97a898	0.074052036
32	0xbdcfc0cc	-0.10144195
33	0xbe2b6e31	-0.16741253
34	0xbdf5cc55	-0.12001864
35	0x3b618364	0.003441059
36	0xbd3306bb	-0.04370759
37	0xbe15af91	-0.14617755
38	0x3e1fba95	0.15598519
39	0x3dcba8be	0.099442944
40	0xbe54e42a	-0.20790163
41	0x3da9535d	0.082678534
42	0x3db02eee	0.08602701
43	0x3d0b6f06	0.034041427
44	0x3cd13738	0.025539026
45	0xbb838044	-0.004013093
46	0x3da3e589	0.08002765
47	0xbe4680ec	-0.19385117

gru.bias_hh_l0 f4 [48]
0	0xbde399d3	-0.11113324
1	0x3e4e1f46	0.20129117
2	0xbe04e73e	-0.12978837
3	0x3dfeffca	0.12451132
4	0x3e4d78d2	0.2006562
5	0xbe592b09	-0.21207823
6	0xbd7ca698	-0.061682314
7	0x3e79e1d8	0.24402559
8	0xbd4cccd4	-0.050000027
9	0x3a338739	0.0006848458
10	0x3d0524af	0.032505687
11	0x3e062952	0.131017
12	0xbe096447	-0.13417159
13	0x3d463af0	0.04839605
14	0x3e182214	0.1485675
15	0xbd119bf3	-0.035549115
16	0xbe214e6a	-0.15752569
17	0x3e2e8b48	0.17045319
18	0x3ba0a792	0.0049027884
19	0xbc3e9eaf	-0.011634513
20	0x3e3747a3	0.17898421
21	0x3de5a8bd	0.11213825
22	0xbdeb1682	-0.114789024
23	0xbd7d81fa	-0.061891533
24	0x3d22a087	0.039703872
25	0x3bccaae0	0.006245956
26	0x3d0aceee	0.03388875
27	0xbdc5d885	-0.096604384
28	0x3e821465	0.25406185
29	0x3e57dc2b	0.21080081
30	0x3dc7b313	0.097509526
31	0x3dd29672	0.102826014
32	0x3d4b2548	0.0495961
33	0x3e3345b1	0.17507054
34	0x3d2dbeb5	0.0424182
35	0x3d31c1f0	0.043397844
36	0xbde6a226	-0.11261396
37	0x3dc80e6f	0.09768378
38	0xbe8de909	-0.27716854
39	0x3ddcb017	0.10775774
40	0xbe4ac3b7	-0.19801222
41	0xbd9b1bf0	-0.07573688
42	0x3e1c389c	0.1525597
43	0xbdfaee2a	-0.122524574
44	0x3e303b78	0.17210186
45	0xbdf6af01	-0.12045098
46	0x3e57e395	0.2108291
47	0x3d75c9ec	0.06000702

fc.weight f4 [32, 16]
0	0xbdcbe6ac	-0.099561065
1	0x3e179f91	0.14806964
2	0xbe6baa03	-0.23014073
3	0xbe175fd6	-0.14782652
4	0xbe16b34c	-0.14716834
5	0x3d287aa4	0.041132584
6	0x3c9334e5	0.017969558
7	0xbe53693e	-0.20645615
8	0x3e7df777	0.24801432
9	0x3c0a4c0f	0.008440985
10	0xbdfe083e	-0.12403916
11	0x3c83f683	0.016108757
12	0xbdee7181	-0.11642743
13	0x3d9ba696	0.07600133
14	0x3da61583	0.08109572
15	0xbd75b65e	-0.059988372
16	0x3ca102e5	0.0196547
17	0x3e0f8eec	0.14019364
18	0xbe1611de	-0.14655253
19	0xbd8a04e7	-0.06739216
20	0xbd75fa5c	-0.060053214
21	0xbe33450a	-0.17506805
22	0x3cda5f97	0.026656909
23	0xbce8984a	-0.02839293
24	0xbe523f26	-0.20531902
25	0x3b36c410	0.0027887858
26	0x3e58f5e2	0.21187547
27	0x3ddf559c	0.109050006
28	0xbdea12f5	-0.11429397
29	0x3e41e871	0.18936326
30	0xbe0e6658	-0.13906229
31	0xbe07d9af	-0.13266633
32	0x3d984d89	0.07436664
33	0x3e1a43bf	0.15064906
34	0x3e325fee	0.17419407
35	0x3e863372	0.26211125
36	0xbe13996d	-0.14413996
37	0x3dd2b5c0	0.10288572
38	0xbda6dfcc	-0.081481546
39	0xbd1b4a90	-0.037912905
40	0x3e77f96c	0.2421624
41	0x3dadf9f1	0.08494938
42	0xbe3c7fbe	-0.18408105
43	0xbd2746c1	-0.04083896
44	0xbe60496f	-0.21903013
45	0x3dfc97c9	0.12333638
46	0xbcc010fa	-0.023445595
47	0xbde2d45e	-0.11075662
48	0xbd1f28ee	-0.038857393
49	0x3d8c779f	0.068587534
50	0x3d8a4072	0.06750573
51	0x3e2d510d	0.1692545
52	0x3d027458	0.031849235
53	0x3dbcbaa7	0.092152886
54	0xbe0b7c81	-0.13621713
55	0x3daa7038	0.08322185
56	0xbd2c5528	-0.0420734
57	0x3e853f4c	0.26024854
58	0x3d85a5b1	0.06525744
59	0xbe50e093	-0.20398168
60	0xbe447dda	-0.19188634
61	0xbe6fb858	-0.23410165
62	0xbda87927	-0.08226233
63	0xbd066f4c	-0.032820985
64	0x3e777efc	0.24169534
65	0xbcb45170	-0.022011489
66	0x3da08f14	0.0783979
67	0x3e1602ed	0.14649554
68	0xbe365ed5	-0.17809613
69	0xbe43bea3	-0.19115691
70	0x3dc7bbd9	0.09752626
71	0x3dfb61fe	0.1227455
72	0xbdc83df6	-0.09777443
73	0x3d5223b8	0.051303595
74	0xbe689621	-0.2271352
75	0x3cbc1fc8	0.022964373
76	0x3d39b48f	0.04533821
77	0x3c671fa4	0.014106665
78	0xbd555aed	-0.052088667
79	0x3dfaf47c	0.12253663
80	0xbd63df68	-0.05563298
81	0x3e4c7e7c	0.19970125
82	0xbe6f6f09	-0.233822
83	0xbdf6203f	-0.12017869
84	0xbe43f742	-0.1913729
85	0xbe5d5378	-0.21613872
86	0x3e38deca	0.18053737
87	0xbd4c58ce	-0.04988938
88	0xbe32d866	-0.17465362
89	0x3d86cea2	0.06582381
90	0xbe2f8c15	-0.17143281
91	0x3d09d355	0.033648808
92	0x3dc97315	0.09836403
93	0xbd3c452e	-0.045964412
94	0x3de52128	0.11187965
95	0x3d9a3e72	0.07531442
96	0xbe304918	-0.17215383
97	0x3daac4af	0.08338296
98	0x3e15538d	0.14582653
99	0xbd586d61	-0.052838687
100	0x3c8b1266	0.016976546
101	0xbc94ea7e	-0.01817822
102	0x3985a934	0.00025493803
103	0x3d8da5ae	0.069163665
104	0xbe6a9ba6	-0.22910938
105	0x3e1f9d2e	0.15587303
106	0x3db80449	0.08985192
107	0x3c9a5852	0.018840943
108	0x3d392cd2	0.04520876
109	0xbe636124	-0.22205025
110	0xbd93086f	-0.07179343
111	0xbc3fd4b7	-0.01170843
112	0x3cfc7089	0.03081538
113	0xbdbf2084	-0.09332374
114	0xbc0dd362	-0.008656355
115	0xbd21f725	-0.039542336
116	0x3e0cf1dc	0.13764137
117	0xbe47e866	-0.19522247
118	0x3d4c7e52	0.049925156
119	0x3e03716d	0.12836237
120	0xbe22b094	-0.15887672
121	0xbd0b36cf	-0.033987816
122	0x3e0b7dd4	0.13622218
123	0x3dffb52a	0.12485726
124	0x3d3c478b	0.045966666
125	0x3da1f647	0.07908302
126	0xbe0a1662	-0.13485101
127	0x3e3c2b58	0.1837591
128	0x3c6731e5	0.014111017
129	0x3e1dcc6b	0.1541001
130	0x3d374a82	0.04474879
131	0xbc8b4678	-0.017001376
132	0x3de1af0d	0.110197164
133	0x3e6cdc09	0.23130812
134	0x3e71ff0c	0.23632449
135	0xbe4ea458	-0.2017988
136	0x3cd04898	0.02542524
137	0xbe31a988	-0.17349827
138	0x3e184dd5	0.1487344
139	0x3e3bf9f2	0.18357065
140	0xbe3b4dbe	-0.18291375
141	0xbc6ab6a2	-0.01432577
142	0x3e252269	0.16126408
143	0x3e35679c	0.17715305
144	0xbe33ac4f	-0.175462
145	0x3e39558f	0.18099044
146	0xbd7887eb	-0.060676496
147	0xbe460223	-0.19336753
148	0x3d854f25	0.06509236
149	0x3dfc1b5b	0.12309905
150	0x3e13217c	0.14368242
151	0xbe209c6c	-0.1568467
152	0xbe2616f8	-0.162197
153	0xbe1d7c6b	-0.15379493
154	0x3e207780	0.15670586
155	0xbe4d05d2	-0.20021752
156	0xbca1c515	-0.019747296
157	0xbd876231	-0.066105254
158	0x3dbf4a4f	0.09340345
159	0x3d8e7017	0.06954973
160	0xbde8c03b	-0.1136479
161	0x3d81a09a	0.063294604
162	0x3e55f18c	0.20892924
163	0x3d8441c1	0.06457854
164	0xbdd79de5	-0.10528163
165	0x3c358c4b	0.011080812
166	0xbe5bac34	-0.21452409
167	0xbe161767	-0.14657365
168	0xbcb3eab5	-0.021962503
169	0xbe10c337	-0.14136969
170	0x3e6aed75	0.22942145
171	0x3d911b24	0.07085255
172	0x3e2ed12c	0.1707198
173	0xbd533c86	-0.05157139
174	0xbd50b589	-0.050954375
175	0x3db752a7	0.089513116
176	0xbd73f045	-0.05955531
177	0xbd655a43	-0.055994283
178	0xbe8eb2ca	-0.2787078
179	0x3e698a2e	0.22806618
180	0x3e6045f0	0.21901679
181	0xbe82ce7f	-0.2554817
182	0xbcf004e5	-0.029299209
183	0xbe47aa20	-0.19498491
184	0xbd69b78a	-0.057059802
185	0x3e232705	0.15932854
186	0x3e1782ec	0.14796036
187	0x3cc41531	0.023935886
188	0x3d945f30	0.07244718
189	0x3d55862c	0.05212991
190	0x3de4240c	0.11139688
191	0xbe10bd41	-0.14134695
192	0x3d811567	0.0630291
193	0xbe6070aa	-0.21917978
194	0xbe562fd2	-0.2091668
195	0xbd0facd4	-0.03507693
196	0xbd5d0a4b	-0.053964894
197	0xbe3fa3bc	-0.18714803
198	0x3d53b700	0.051688194
199	0xbbfefb3e	-0.0077814152
200	0xbd5fe675	-0.05466314
201	0x3d676326	0.05649104
202	0x3e6f74b9	0.2338437
203	0x3c25ddd7	0.0101236915
204	0xbdc5a69b	-0.09650918
205	0xbe4377b5	-0.19088633
206	0xbe0e0cdc	-0.13872093
207	0xbdb18195	-0.08667294
208	0xbe43581d	-0.19076581
209	0xbde21961	-0.11039997
210	0x3daae511	0.08344472
211	0x3e0f6427	0.14003049
212	0x3e3e1be7	0.18565331
213	0x3e88c946	0.2671606
214	0xbccbfdd5	-0.02490131
215	0xbe079398	-0.13239896
216	0x3d9916c4	0.07475045
217	0xbe4bc271	-0.19898392
218	0x3e19405d	0.14965959
219	0x3c38161e	0.011235742
220	0xbe434b90	-0.19071794
221	0xbe25535f	-0.16145085
222	0xbe20e18c	-0.1571104
223	0x3df63576	0.120219156
224	0x3e3d9be4	0.18516499
225	0x3e385f37	0.18005072
226	0xbda66f77	-0.08126729
227	0xbe01fe41	-0.12694646
228	0xbddb3f3b	-0.1070542
229	0xbe1d14e5	-0.15340002
230	0xbd53fac4	-0.05175282
231	0xbe64b7ad	-0.22335692
232	0x3e0d9619	0.13826789
233	0xbe65c0d9	-0.22436847
234	0xbe130fc2	-0.1436148
235	0x3e3ad807	0.1824647
236	0xbe3f39da	-0.18674412
237	0x3d983dfc	0.074336976
238	0x3e39b67b	0.18136017
239	0x3e77bb67	0.24192582
240	0x3dcc3736	0.09971468
241	0xbd8b59d2	-0.06804241
242	0x3daaee3a	0.08346219
243	0x3d49da0e	0.04928022
244	0xbdabc74d	-0.08387623
245	0x3d156fde	0.036483638
246	0x3dd67e47	0.10473304
247	0x3de41c42	0.11138202
248	0x3dffd600	0.12491989
249	0x3d867a2d	0.06566272
250	0x3d92071b	0.071302615
251	0x3d2fcf48	0.04292229
252	0x3da6172b	0.08109888
253	0x3d291de4	0.04128827
254	0xbe484b63	-0.19560008
255	0x3d8eefba	0.06979318

fc.bias f4 [32]
0	0xbe3826eb	-0.17983596
1	0x3e638f94	0.2222274
2	0xbe012e70	-0.12615371
3	0xbe17db23	-0.14829688
4	0xbd64b73c	-0.05583881
5	0x3dcf4df1	0.10122288
6	0xbe77cb32	-0.24198607
7	0xbd54da46	-0.051965974
8	0x3db4338d	0.08798895
9	0xbdeec0ac	-0.11657843
10	0xbb21cea0	-0.0024689808
11	0xbe1d2a18	-0.15348089
12	0xbe66f79b	-0.22555391
13	0x3e03c88d	0.12869473
14	0xbe471b69	-0.1944405
15	0xbd8226a5	-0.06355027
16	0x3d0e2cdc	0.03471075
17	0xbe3ad2d4	-0.18244487
18	0x3da8c0c1	0.0823989
19	0xbe6946e9	-0.22780956
20	0x3e3c643e	0.18397614
21	0x3dade5d5	0.084911026
22	0xbd90c61a	-0.07069035
23	0xbe673af6	-0.22581086
24	0xbd18f9dc	-0.03734766
25	0x3d8fc545	0.07020048
26	0xbe334d8a	-0.17510048
27	0xbd95ba36	-0.073109075
28	0xbe9c5530	-0.30533743
29	0xbe8edd10	-0.27903032
30	0xbd8e0dfb	-0.0693626
31	0x3e3903f5	0.18067916
