models/GRU_NoiseEst/training_checkpoints/tiny_noise_gru_epoch_034_mse_0.326858.pth (torch, 69713 bytes, 14 tensors)

pre.weight f4 [48, 12, 11]
00000000: 224c 933d 6d06 0e3d 13ed b9bb 963d b13d
00000010: 8ca9 a73d 17aa b63d 8d5a 193d 3b01 c53b
00000020: f00f 0a3d 987d c13d eed4 0f3e daa2 1d3d
00000030: 81f9 d73d cb2e 6cbb dc01 a4b7 7661 b0bc
00000040: f2fe 6b3b 120a b93c a7db 183e 006a 28bb
00000050: b552 843d 507d 563e 6b91 8b3d 7c81 643d
00000060: de3d 143d 61cf cb3c 4cad 213d e091 093d
00000070: 9677 243d 5500 e0bc 7d28 43bd 7066 eb3c
00000080: 09d2 0c3e d35e 8dbd 4097 b3bd 2744 bdbd
00000090: 6d4d 86bd 6232 e7bc f64d a53c 9878 dfbd
000000a0: a31d a5bc a23e a93c 4db4 a5bd fa19 dfbd
000000b0: 1698 ccbc 34b1 48bc faf0 ebbc bbd7 7a3d
000000c0: 75ae 533c b2c0 eb3c d182 593d 75ec f23b
000000d0: bf57 5ebd e361 843d 0115 2abc d72e ff3c
000000e0: 3227 38bd 94d1 553c 7c59 2f3d 3da8 2b3d
000000f0: f643 11bc 03cc 583d 8258 d0bc b95e 16bd
00000100: 38ab 2f3d 7f8b 2c3d 7f02 09bd 132a 9cbd
00000110: 3845 d23c a4df 433d 4f56 933d 40cb 2ebd
00000120: 1fbd 2c3d 04f2 823d 7db7 7dbd 30eb 8abd
00000130: 54a5 f1bd da6c 65bd fde7 e7bb 5e21 52bd
00000140: cae5 06bd 054d 07bd 57b6 f1bc 341c 3b3d
00000150: a12d e7bb 228e 20bd acca 55bc ca58 96bd
00000160: a91d b6bc ce2a 5f3d 3751 3c3d 2cfb 773d
00000170: 1368 a9bd 14e5 823d f0d5 99bc d7a6 55bc
00000180: 160e 7c3d 05af cebc dabd 91bd 7990 46bd
00000190: 016e da3b 2318 223d b7d5 0c3c 275b 7b3d
000001a0: aa45 1b3d 2bc3 013d 794a a53c f2e5 fb3c
000001b0: a1cd 013d 701d 55bd ffab 113c 3edc 54bb
000001c0: 95f4 8ebd b936 863a 9a38 9bbd e93f 4fbc
000001d0: 06e0 37bc 4a0e b8bc 00e1 aebc cfd5 723d
000001e0: e3f4 7dbc 3bc0 bfbd 0969 7dbb 417f 8ebc
000001f0: b084 cfbd 2614 69bd 0e6f a9bd f141 50bd
00000200: 5ef6 acbc 7100 67bc 728b 3bbd 1790 a2bc
00000210: aac4 ba3d 88cb 553d 853c de3b 404a 58bc
00000220: e1e9 123d e016 013d 3324 d1bc e774 9f3d
00000230: e429 0fbd 08ad 0ebd 1309 253e 8d8c 12bd
00000240: b949 c83d c8be b13d a45e 8b3c 8e18 023d
00000250: 9a02 833c 087b 003d 5890 aa3d dc37 763c
00000260: e2df 233e 93c7 7e3e 1a44 273c e6f3 5dbd
00000270: fc1e 2f3d eeaa 08bd 548f a03d 35fe be3d
00000280: 297b 103d 0e29 643c 24a6 ab3d ad0b 263c
00000290: 3a3c 943d f850 a7bd bd42 a1bd 68f4 95bd
000002a0: 918b 6cbd a6e9 a1bd 9dec 2fbc 68ba a9bd
000002b0: ac47 923c 5f7e 9abd 3e36 a33c 890a 6b3b
000002c0: 85bf 093d 6b1d 1bbc f9b1 9e3d 5466 b53c
000002d0: a6cf d2bc 2ef6 89bd a2d3 f0bc 7baf 62bd
000002e0: 179a 57bd 199c 8c3d 9f62 4bbd 8b97 3ebd
000002f0: 82d2 7d3d 0b4c 05bc 53b6 903d e048 dd3c
00000300: de79 913d 6c21 6fbc a288 343c 7efd c43c
00000310: 1446 15bd 9018 0c3d 5dfa 84bd 5dc9 2cbc
00000320: bc87 eebc 3a5c 813d 9f9a 1f3d 9486 d6bc
00000330: 0a35 b83c 18ab ad3d 5f31 55bd aef0 273d
00000340: 73e6 bfbd 35ea 143d 32b9 58bc b327 3cbd
00000350: 73b2 73bc 8169 413d 6984 95bd afec 59bc
00000360: 8a67 9ebc 14f9 adbd 989b 953c 85a2 1fbd
00000370: ad15 c9bb cb41 27bd 5c80 9f3c 763c 85bd
00000380: f8d0 f93c 391f 983d 12c8 823d 826f 3dbd
00000390: 97e8 04bd dcba 9e3d 270b 73bd 35b9 83bd
000003a0: 2989 813d 7933 293d 42b6 df3b 41de 46bc
000003b0: 94d9 903d df8e 97bc f3a9 b63d 2efb 37bd
000003c0: 624d 943b 5146 57bd 062b 90bd eede 343b
000003d0: eaf1 8ebd 9123 e9bc e4f0 d53c a4e4 e1bc
000003e0: a76e e43c 8a91 96bc 1ad7 0a3d 74eb 8ebd
000003f0: cd94 4ebd fb47 8abc 0009 28bc 25fa 68bd
0.071922556 0.034674097 -0.0056740134 0.08654325 0.081866354 0.08919161 0.03743987 0.0060121096
0.033706605 0.09447783 0.1404607 0.038485385 0.10545636 -0.0036038633 -1.955119e-05 -0.021530848
0.0036010114 0.02258781 0.1492754 -0.0025697947 0.064610876 0.2094624 0.06814846 0.05578755
0.036191814 0.02487916 0.03947191 0.033586383 0.04015311 -0.027343908 -0.047646035 0.02873537
0.13751997 -0.06902852 -0.08769083 -0.09241515 -0.065577365 -0.028222267 0.020178776 -0.10911673
-0.020155733 0.020659748 -0.0809103 -0.108936265 -0.024974864 -0.01224928 -0.02880143 0.061240893
0.012920012 0.028778408 0.053103272 0.007413442 -0.0542829 0.06463983 -0.010380984 0.031150265
-0.044959255 0.013050456 0.04280995 0.04190849 -0.008866301 0.052928936 -0.025432829 -0.03671143
0.042887896 0.04212522 -0.033449646 -0.076252125 0.025667772 0.047820702 0.071941964 -0.042674303
0.042172547 0.06393817 -0.061942566 -0.0678314 -0.11799112 -0.056012012 -0.0070772157 -0.051301353
-0.032933988 -0.033032436 -0.029505892 0.045681193 -0.007055 -0.03919805 -0.013048809 -0.07341154
-0.02223094 0.05448418 0.04597589 0.06054227 -0.08271804 0.063913494 -0.018778771 -0.013040266
0.06153687 -0.02522994 -0.071162894 -0.048477624 0.0066659455 0.0395738 0.008595875 0.061366227
0.037908234 0.031680267 0.020177113 0.030749295 0.031690244 -0.052030027 0.008891105 -0.0032479907
-0.06980244 0.0010239697 -0.07579155 -0.012649515 -0.011222845 -0.022467751 -0.021347523 0.059285935
-0.01550028 -0.09362837 -0.0038667342 -0.017394664 -0.1013273 -0.05690398 -0.08273135 -0.050844137
-0.02111357 -0.014099226 -0.045787282 -0.019844098 0.09119542 0.052196056 0.006782117 -0.013201296
0.035867576 0.031515956 -0.025529956 0.07785969 -0.03495206 -0.034832984 0.16116743 -0.03577857
0.097796865 0.08678967 0.017012902 0.0317617 0.015992451 0.03136733 0.08328313 0.015027966
0.16003373 0.24880819 0.010209108 -0.054187678 0.04275416 -0.033366136 0.07839838 0.0932583
0.035273705 0.013925804 0.08381298 0.01013462 0.0723805 -0.081697404 -0.078740574 -0.073220074
-0.05775029 -0.07905893 -0.010737565 -0.08287507 0.017856441 -0.075436346 0.019923326 0.0035864434
0.033629913 -0.009467463 0.07748789 0.02214352 -0.02573378 -0.06736408 -0.02939779 -0.055343132
-0.052637186 0.06865711 -0.0496546 -0.04653124 0.061968334 -0.008135806 0.070660256 0.027012289
0.071033224 -0.014595371 0.011018904 0.024046656 -0.036443785 0.034203112 -0.064930655 -0.010546056
-0.029117458 0.06316419 0.038965818 -0.026187219 0.022486228 0.08479899 -0.052049037 0.041001014
-0.093701266 0.03635617 -0.013227748 -0.045936298 -0.014874089 0.047219757 -0.07300646 -0.013301059
-0.01933648 -0.084947735 0.01826267 -0.03897335 -0.006136617 -0.04083423 0.019470386 -0.06505673
0.030495152 0.0742783 0.06385817 -0.04624892 -0.032448377 0.07750484 -0.059336808 -0.0643181
0.06324989 0.041308854 0.0068271467 -0.01213795 0.0707275 -0.018500743 0.08919134 -0.044917278
0.0045258263 -0.052557293 -0.07039456 0.0027598697 -0.06979735 -0.028459342 0.026115842 -0.027574845
0.027884794 -0.018379945 0.033896543 -0.06978503 -0.050434876 -0.016880026 -0.010256052 -0.05687918

pre.bias f4 [48]
00000000: e3aa c73d aae5 4b3e 2eaf 513e 4bf3 733d
00000010: be91 a33d 9f70 273e 7cd7 963d 7af4 663e
00000020: 6f3d b13d fac0 6c3b 202b 6b3d 1ad1 9b3c
00000030: bc41 56bc 2d10 e4bd 47c9 d3bd 954f 8cbd
00000040: ec98 0fbe ea36 36be 40f9 0ebe 5b6f 81bd
00000050: 6b2e 1bbe 4905 20be 623c 07be 8af5 1bbe
00000060: 6ca2 6abd 1778 debd fad1 c9bd 92a6 d1bd
00000070: 31a7 a1bd a4a8 7fbd caf8 dd3b 7031 20be
00000080: bfcf 2ebe 2f8a 14be b0a0 b7bd 7c54 52be
00000090: eb55 2cbe d331 2dbd 459b 40be af35 80bd
000000a0: 0b88 0bbe 258d 4abe 4349 e8bd 7a93 1cbd
000000b0: e331 27be 8170 60be 5651 47be 99ae f3bd
0.09749391 0.19911829 0.20476982 0.059558194 0.079867825 0.16351555 0.07365319 0.22554198
0.08654296 0.0036125765 0.057414174 0.019020606 -0.013077196 -0.11135898 -0.10341125 -0.068511166
-0.14023179 -0.17794386 -0.13962269 -0.063200675 -0.15154426 -0.15627016 -0.13206628 -0.15230384
-0.057283804 -0.10862749 -0.09854503 -0.10236849 -0.07893217 -0.062416688 0.0067740427 -0.15643859
-0.17071436 -0.14505838 -0.089661956 -0.2054004 -0.1682965 -0.042283844 -0.1880923 -0.06260239
-0.13626115 -0.19780405 -0.113420986 -0.038226582 -0.16327624 -0.21917917 -0.19464621 -0.11898536

norm.weight f4 [48]
00000000: 4777 753f 4565 753f 3120 753f 05ce 7e3f
00000010: d777 733f 1b20 763f 243a 7d3f 58e9 783f
00000020: 0e49 6f3f 954e 413f ba28 753f 8f71 4e3f
00000030: ea92 633f cd95 623f c764 5e3f cc47 663f
00000040: 87e6 613f 5bc1 5f3f c9e0 673f 29a1 663f
00000050: c668 673f 029b 683f 6cb2 683f f977 6a3f
00000060: 034e 823f bc60 793f 1c66 823f 5038 853f
00000070: 857b 7e3f ed5f 863f 64ce 823f 2e27 7e3f
00000080: d22a 823f b43f 783f 30ee 823f cf3d 803f
00000090: 13df 853f 469e 873f a7d7 873f 04df 8c3f
000000a0: b33b 833f 46ff 8a3f 2785 763f 63a9 863f
000000b0: f155 823f 3042 893f a84e 853f ef2f 843f
0.9588513 0.9585765 0.95752245 0.9953311 0.95104736 0.9614274 0.9891684 0.97231054
0.9347085 0.7551053 0.9576527 0.80642027 0.8889605 0.8850983 0.86872524 0.89953303
0.8824238 0.8740441 0.9057737 0.9008966 0.90394247 0.90861523 0.9089725 0.91589314
1.0180057 0.9741323 1.0187411 1.040781 0.99407226 1.0498024 1.0219235 0.99278533
1.0169318 0.96972203 1.0228939 1.0018862 1.0458702 1.0595176 1.0612687 1.1005559
1.0252594 1.0859153 0.96296924 1.0520443 1.0182477 1.0723324 1.0414629 1.0327128

norm.bias f4 [48]
00000000: 2e98 993d 682d 603d b454 ce3d dc62 a83d
00000010: d051 8c3d f1f5 f83c dfac 0e3b 4ecf 3e3d
00000020: 7513 c1bc ae9e 21bd 536f 96bc d4e7 cdbc
00000030: ba37 573d f855 483d 9141 7b3d f4bc a13d
00000040: 1306 ca3d 0617 cd3d 45f2 c43d 6e8f 9a3d
00000050: 76ae c83d e6a4 a43d 289c c03d 0ea8 b33d
00000060: ff6e df3c c43f 0dbd bf41 b73c 6973 07bc
00000070: 33ce a8bc 02af a53b 789e 76bb d4d3 2a3c
00000080: 8c81 b53c b759 23bd c594 c73c 485a 24bd
00000090: 4b57 93bc 5530 1c3d 96f0 83bc 4438 083d
000000a0: 4efb 983a 3f7f 66bc a659 42bd 11e6 59bd
000000b0: c64b 0cbc 49c9 0e3d e5dc f23b 2280 163b
0.07499729 0.054730803 0.100747496 0.08221981 0.06851542 0.030390712 0.002177052 0.04658442
-0.023568848 -0.03945797 -0.01836363 -0.025134958 0.05254338 0.04891011 0.061341826 0.07897368
0.0986444 0.10014157 0.09616522 0.07546888 0.09798901 0.080392644 0.094047844 0.08772288
0.027274607 -0.03448464 0.022370217 -0.008267262 -0.020606136 0.005056263 -0.0037631076 0.01042648
0.0221565 -0.03988048 0.024362931 -0.04012516 -0.01798596 0.03813203 -0.016105931 0.033256784
0.0011671574 -0.014068424 -0.047448777 -0.053197924 -0.008562988 0.03485993 0.0074115866 0.0022964557

gru1.weight_ih_l0 f4 [72, 48]
00000000: 5ae1 d0bd c717 81bd 0045 463e 84f1 373e
00000010: d32b 6abc 52dd d53d 05a0 8f3e 0580 d73d
00000020: f8a6 b73d 3204 3d3b 6c40 893e 1b46 823d
00000030: 7846 edbc 36a7 b5bd fa1f 82bd ae8f 13be
00000040: e76d 18be 07c2 60be c824 22be 2cf7 47bd
00000050: c347 90bd 2777 cebd 76d8 623d b15f 3cbd
00000060: 38bc 623d 9905 093e 5a18 70bd 6e57 9ebd
00000070: 45fe c73d fa32 7a3e b8b4 d23d 4b3b 2c3e
00000080: 9e1d 313e 81a3 b83d da31 293e 27d5 c93d
00000090: cc46 d7bd 277b e23d 8cac 9bbc b14c c7bd
000000a0: 1842 523e 6759 813e 2ec2 df3d 0e45 883e
000000b0: 4f9f 93bc c2f9 09be d45e b0bb b1f9 863d
000000c0: 3d54 edbd 6809 50bd 2fb9 27be e133 f5bd
000000d0: 6da3 923d 6f98 1bbd 6d5a 9fbd 0b28 33be
000000e0: 9818 2fbd ed63 37be 3e7a 083d 0736 65bd
000000f0: 9e8f f73d 8deb 50bd 14e6 c63d 4937 d53d
00000100: 4130 3e3e d029 e93d 6790 0b3d fd5a f93d
00000110: b8eb 10be 2b4b ca3d 633f 5b3d 23fa 0c3e
00000120: e93d 15be f87d d33d 7918 1c3e 8021 42bd
00000130: 7b5a a2bd 4d11 333d 83fb f1bd 96ed 5bbd
00000140: 6768 c9bc 6b29 2abe 2e0d 03be 4b5a d63d
00000150: 5813 25be 4d17 433e 4493 fabd 6e0a 0ebe
00000160: a664 eabd 3561 9e3d 1606 3abd 18aa 58be
00000170: eecc d23d 45a0 b7bd 44e5 b73d c953 28be
00000180: 00b7 83bb 8eed 583d 6fc1 fd3d 437e 023e
00000190: e61a ac3d 1230 82bd 5a67 4fbe b7e8 7b3d
000001a0: 3bce 3f3d 598b 86be 557f c93a 0ad9 6ebe
000001b0: ea0b 3a3d 7e5a ccbd f349 83bd 10d5 ffbd
000001c0: 0182 483d 7319 dcbd a9ef 693d 8107 1a3e
000001d0: d1e0 28bd 13df 783e 149f 96bc 9ee7 00be
000001e0: d614 87bd 52fe 78be 1363 bbbd 33ff fd3d
000001f0: 3102 1fbe e7f8 063d b714 91bc a943 a53b
00000200: 76e6 bbbc d353 55be 6f5e ac3d 5cce 1bbe
00000210: 3e10 24bd b07c ecbd 82cd 813d 1074 3a3d
00000220: 578f c5bd 5628 cfbd 71e9 873d 512e 41bc
00000230: 9c87 8a3d 5f93 9fbc 23ce 3c3d a891 87bd
00000240: a3c0 c73d d5ab 223e 3402 df3d 2174 213c
00000250: f9f7 753b 0969 b6bc 3193 9abd a77a 963d
00000260: 61df 583e 974e 24bd 5796 243c f27b 1e3e
00000270: 2273 1ebe b8bd f13d 581f 1b3d 586c 2e3e
00000280: 8b9f 86bc 2024 d7bc 98a0 bb3d 9359 373e
00000290: 8b7b 03be be9c 033e 73bf ccbd 8bef 5bbd
000002a0: 8006 2ebc c869 973d f7ff 9b3d 00f6 b1bd
000002b0: 43fd bcbd 9e04 43bd 021d 13be a104 b03b
000002c0: 1165 b23d 630f 1c3e e723 a1bc 9700 8c3b
000002d0: 6117 2dbe 50ea edbd 0ecb 043d 225c d33c
000002e0: 5b82 04be 1b92 e6bd b729 1d3e 8fe0 013e
000002f0: 5b5d 66ba e25f 273e f63c 9c3d d1ea 34be
00000300: 615b f23d 3b3c 8e3d 65e8 6c3e 2467 42be
00000310: 7463 dbbd f1d0 fabc 3083 853c 63b9 11be
00000320: 9a38 9ebd e1e6 1cbf 8f2e 83be 3041 57bf
00000330: 9fb2 12bd 8c9a ecbd 4ae6 d1bd 4729 c83d
00000340: b47b fcba a909 d1bd 624e e93d 743b 083e
00000350: ed16 2ebd 134f 233e db2e 23be 0247 cfbc
00000360: b1d2 b1bc ec96 5d3e 5254 413e 65d3 be3d
00000370: 151c df3c 43c3 db3d 7a18 493b ced6 d73d
00000380: 6ca0 34be 5804 30be 82de 423e aab3 39bd
00000390: fc78 3dbe b9b6 3ebd 56d5 e53d 56d6 13be
000003a0: aa3f 1bbe a784 5a3d b88b 263e df5a dbbd
000003b0: c072 403e 8cd6 cb3d 1ea2 68bc 72ca 3d3e
000003c0: c99d d23c 5c9e 913d a430 cf3d 2d6c 00be
000003d0: 29f1 8dbc 0597 483d 3bd3 893c 37ff e83d
000003e0: 8515 393d bf86 2f3e 2640 4dbc 5e33 96bd
000003f0: a7db 0c3e 7143 553e 3cec d43c 449a 623e
-0.101992324 -0.06303363 0.19362259 0.17963225 -0.014292675 0.10442604 0.28051773 0.10522465
0.08967394 0.0028841612 0.26806962 0.06361028 -0.028964266 -0.088697836 -0.06353755 -0.14410278
-0.14885674 -0.21949016 -0.15834343 -0.048819706 -0.070449375 -0.1008132 0.055382214 -0.045989696
0.05535528 0.13381042 -0.058616973 -0.0773152 0.09765295 0.24433509 0.102883756 0.16819493
0.17296454 0.09015561 0.16522923 0.09855109 -0.1051155 0.11058646 -0.019003175 -0.097314246
0.20533025 0.2526352 0.10925709 0.26615185 -0.0180203 -0.13474181 -0.005382398 0.065905936
-0.11588333 -0.05079022 -0.16379236 -0.11972786 0.07160077 -0.03798717 -0.07780919 -0.17495744
-0.042748064 -0.17909212 0.033319704 -0.055959728 0.1208794 -0.05100589 0.09711853 0.104109354
0.18573095 0.11384928 0.03407326 0.12175558 -0.1415242 0.098776184 0.053527247 0.13767295
-0.14574398 0.10326761 0.1524371 -0.04739523 -0.07927414 0.04371767 -0.1181555 -0.053693376
-0.024585916 -0.16617362 -0.12797996 0.10466441 -0.1612066 0.19051857 -0.1223512 -0.13871166
-0.114449784 0.077333845 -0.04541596 -0.21158636 0.102929935 -0.08966116 0.08979276 -0.16438212
-0.004019618 0.052960925 0.1239041 0.12743478 0.08403568 -0.06356825 -0.20254269 0.06150123
0.046827536 -0.2627819 0.0015373031 -0.23324981 0.04542152 -0.099781975 -0.06410589 -0.1249181
0.048952106 -0.107470416 0.057113323 0.15041925 -0.041230027 0.24303846 -0.018386401 -0.12588355
-0.06595771 -0.24315766 -0.09149756 0.12402191 -0.1552818 0.032952216 -0.017710073 0.005043466
-0.02293704 -0.20832758 0.08416449 -0.15215439 -0.040054552 -0.1154722 0.06338026 0.045520842
-0.096464805 -0.10115115 0.06636322 -0.011790828 0.06764147 -0.019479452 0.046095025 -0.066195786
0.097535394 0.15885861 0.10889092 0.009854347 0.0037531836 -0.022266882 -0.07547606 0.07347613
0.21178962 -0.04011401 0.010045609 0.15476969 -0.15473607 0.11803764 0.03787169 0.17033517
-0.016433498 -0.026262343 0.0916149 0.17905264 -0.12840097 0.12852761 -0.099974535 -0.053695243
-0.010621667 0.07393223 0.07617181 -0.08689499 -0.09227993 -0.047611825 -0.14366534 0.0053716456
0.08710683 0.15240245 -0.01967044 0.0042725313 -0.1690345 -0.11616957 0.03242021 0.025800768
-0.12940352 -0.11258336 0.15347944 0.12683319 -0.0008787715 0.1634517 0.07628815 -0.176677
0.118338354 0.06945082 0.23135526 -0.18984658 -0.107123286 -0.03061721 0.016297907 -0.14230876
-0.0772564 -0.61289793 -0.2562146 -0.84083843 -0.035814878 -0.11552915 -0.10249002 0.09773498
-0.0019262941 -0.10206921 0.113919035 0.1330393 -0.042502332 0.15948133 -0.15935843 -0.025302414
-0.02170691 0.21639603 0.18879822 0.09317664 0.02723507 0.107306026 0.0030684755 0.105390176
-0.17639321 -0.17189157 0.19030192 -0.045337357 -0.18503183 -0.046560977 0.11222331 -0.14437231
-0.15161005 0.053349163 0.16264236 -0.10710692 0.18793774 0.09953031 -0.014198808 0.18534258
0.025710003 0.07110283 0.10116699 -0.12541266 -0.017326908 0.04897215 0.016824355 0.11376803
0.04518654 0.17141245 -0.012527501 -0.07334016 0.13755666 0.20826508 0.025991552 0.2212916

gru1.weight_hh_l0 f4 [72, 24]
00000000: b0ca 6d3e 5610 4ebc 248c 8c3d ad26 523d
00000010: 7102 e53d 7dc2 d23c b14f ca3d 2ae7 383c
00000020: ce58 813e 2665 6a3e c25b 2fbe 11ae 6fbe
00000030: 85a1 01be 1229 713e 5453 2e3e 0ef6 6dbe
00000040: b456 12be 0228 123d 10fc dc3c 05e2 6c3d
00000050: 97cf 363c f41f 8ebc cc2c 35bd 5888 203e
00000060: ddf1 cdbd 7e1f 8abd 3fa1 73bd bb66 11be
00000070: 40e2 b4bd 9615 b73d fe12 443d e20a 263e
00000080: 9790 0d3e 6fce 50be 8a99 313e b7a5 26be
00000090: f220 29be 9d1c 2d3e 90fe 35be 75d8 bdbd
000000a0: d163 b73d b802 843c 093e ce3d 83cb dbbc
000000b0: dc6b 1b3d 28a7 813d 36fb 043b a4c5 bc3d
000000c0: c0e1 1b3c b43c 4c3e 0d4a 243e da3e 85be
000000d0: ad6c 96be 7f27 06be e31a 34be 186b 30bd
000000e0: c187 42be 1593 a73a cbcd fd3c 9fac 743e
000000f0: fefc e2bd d803 703b 1b20 f6bd 5d5f b83d
00000100: 6e82 22bd 0ba5 f8bd fc5d 2e3e 2a1a fe3d
00000110: 3a46 d83d 5269 54ba f9af 1cbe 0955 63bd
00000120: 150b 0d3e 272b 30be 7411 c8bc 1ef3 04be
00000130: 75a8 f13d b162 fc3d a689 333e 7c56 4fbe
00000140: 9870 febd 3288 89be 64ec 1b3e 5b0a 093d
00000150: c3c4 50bd d4c6 ddbc b20e c4bb 533c 22be
00000160: 5ca4 823d 07f1 b83d 39a1 b1bd 29dd e53c
00000170: 9d3b 153e 1ce3 9fbb fda2 ccbd c875 ef3d
00000180: 3bdd 98be 2f13 3bbe b6b0 843d a190 32be
00000190: be72 6ebd bb30 87bd 7e83 dfbd cfa3 283e
000001a0: e39f b53d 84f8 7bbe 3d1a 043e d67a 0b3e
000001b0: 3241 04be c8ff 13be 776d f3bd 1340 e63d
000001c0: da55 d4bd d4e5 703c cb0d 1b3e d8b7 9f3c
000001d0: c0ba 863d 74c8 c4bd c3ed 21be 60a5 003e
000001e0: 2b81 38be a468 653d cf09 e3bd faa0 2bbe
000001f0: 00a5 fb3d 57b5 10bd fed8 2b3c c94d afbd
00000200: 007d 1abe eb38 0e3e 5487 3c3e a850 003d
00000210: aed1 493e 3877 69be 214d 10be 9ef5 6b3e
00000220: a375 24be c686 bb3d ddc9 d93c 7bb0 12be
00000230: aaba 163e ea9e 5ebd 8117 073d 14a8 ac3c
00000240: e0da ce3d 5551 b73d 1e09 043e da6b 893e
00000250: 5a42 29be 9908 3d3e f861 823d 3d83 d9bd
00000260: 2fe4 063e 2037 493e 0e2a 80be ceff 4fbe
00000270: 5960 55be ada5 7d3d 7f94 07be d671 0cbe
00000280: 58d8 9ebd 869a acbd 6899 95bd 8ffc b53d
00000290: 5b6f 14be 2abb a0bd 86c6 3c3e 5c1f 0fbe
000002a0: d015 f23d 72e8 e5bd 5a14 963d 1c6e 00be
000002b0: 5015 5ebe 5a7a 0cbe eb57 4b3d 6ff1 293e
000002c0: 6597 333e db89 1bbd 856e 483a cc50 31be
000002d0: 6afc 4dbd 5fdb c83d 26a3 113e d3e3 e63d
000002e0: e880 093e c278 773d 84b9 59be 5eb2 84bd
000002f0: 2be0 213e e2f9 3fbd 3ccd 1b3e ff9d 2b3d
00000300: 3123 0f3d 9d72 2dbe f36f debd 534a fbbd
00000310: f5df 3abe 33b5 32be 7a51 99be a024 0cbe
00000320: a9a1 debc 2fc8 2abd fde9 79bd 5d78 6c3d
00000330: fe29 9b3d ac8d 32be c639 a23c 7ba9 17be
00000340: 578c 87bd d1bb 273e 84e9 283e 8f93 50be
00000350: 2ead 2d3e 99ac 983d a789 b53c 0b23 7d3c
00000360: f7ec ff3e 6c4d c0bd 6832 ffbd 1b1e 753d
00000370: 6917 ea3e 954c 213e 8773 1cbc 25ee f53d
00000380: 1e55 c43d 685b d23e 98a3 49be d070 243e
00000390: 23f5 2b3e a44e c03e b8e9 a4bd 06e0 b2bd
000003a0: 1fc5 3f3e 683a 33bc 3e7e a83c bd64 d43d
000003b0: b4ea 283c 92d0 38be 9399 0c3e dd9a 30be
000003c0: 51b3 1c3c a589 2e3e abd3 033e eba0 98bc
000003d0: 3b61 4b3e 2c56 703c 19f0 f4bd 8d22 97bd
000003e0: 0a1b 113e 9c6f cebd 5326 d6bc 1b9b 87bb
000003f0: fce9 d7bd 0d72 463e ad17 f13d d10b 0a3e
0.2322185 -0.012577137 0.06862667 0.051306415 0.11182106 0.025727505 0.09878481 0.011285583
0.25263065 0.22890148 -0.17124847 -0.23406245 -0.12659271 0.23550823 0.17023975 -0.23238394
-0.14290887 0.035682686 0.026975662 0.057832737 0.011157892 -0.01734922 -0.044232175 0.15677011
-0.100558974 -0.06744288 -0.059479948 -0.14199345 -0.08832216 0.08939664 0.047869675 0.16215089
0.13824688 -0.20391248 0.17343727 -0.16274153 -0.16516474 0.16905446 -0.17772889 -0.092698015
0.08954585 0.016114578 0.10070426 -0.02683044 0.03794466 0.06330711 0.0020291335 0.092173845
0.009514272 0.19945031 0.16043873 -0.26024514 -0.29379788 -0.13101004 -0.17588381 -0.043070883
-0.18997099 0.0012784923 0.030981919 0.23893975 -0.11083411 0.0036623385 -0.120178424 0.09002564
-0.03967517 -0.121408544 0.1702804 0.12407334 0.1056027 -0.0008102852 -0.15301503 -0.055501018
0.13773759 -0.17203961 -0.024422385 -0.12983367 0.11799709 0.123235114 0.17532977 -0.20247835
-0.12423819 -0.2686172 0.15226895 0.03345714 -0.050968897 -0.027072348 -0.005983197 -0.15843324
0.06379005 0.09030347 -0.08673329 0.028059559 0.14573522 -0.0048793685 -0.09992025 0.11692387
-0.29856285 -0.18269037 0.064790174 -0.17437984 -0.058214895 -0.066010915 -0.10913752 0.16468738
0.088683866 -0.2460652 0.12900634 0.13621077 -0.12915495 -0.14453042 -0.11886113 0.1124269
-0.103679374 0.014703233 0.1514198 0.019496843 0.065785885 -0.09608546 -0.15813355 0.12563086
-0.18018024 0.056007996 -0.11085855 -0.16760626 0.122873306 -0.03532919 0.010488747 -0.08559758
-0.15086746 0.138889 0.18410999 0.03132692 0.19708893 -0.22799385 -0.14091922 0.23042914
-0.160605 0.09156565 0.026585514 -0.14325134 0.14719644 -0.05435077 0.0329814 0.02107624
0.10100341 0.0895106 0.12894103 0.26840097 -0.16529217 0.18460311 0.06366342 -0.10620735
0.13172983 0.19649935 -0.25032085 -0.20312425 -0.20837535 0.06192558 -0.1324024 -0.137153
-0.07756108 -0.084279105 -0.073046505 0.08886062 -0.14495604 -0.07848199 0.18435106 -0.13976806
0.11820567 -0.11225976 0.073281005 -0.12542003 -0.21687818 -0.13718548 0.049644392 0.16596006
0.17538221 -0.037973266 0.0007645863 -0.17315978 -0.05028955 0.09807467 0.14222392 0.11273923
0.1342808 0.060417898 -0.21262175 -0.06479333 0.1580817 -0.046869166 0.1521501 0.041898724
0.03494567 -0.16938253 -0.10861196 -0.122700356 -0.18249495 -0.17451935 -0.29944974 -0.13685846
-0.027176695 -0.041694816 -0.061014164 0.057731975 0.07576369 -0.17436856 0.01980294 -0.14810745
-0.066185646 0.1638024 0.16495329 -0.20368789 0.16960594 0.074547954 0.022160364 0.015450249
0.49985477 -0.09389767 -0.12460786 0.059843164 0.45720986 0.1575187 -0.009549028 0.12008313
0.09586547 0.41085362 -0.19691312 0.1605866 0.16792731 0.37559998 -0.08052391 -0.08734135
0.1872754 -0.010939218 0.02056801 0.10370777 0.010309864 -0.18048313 0.13730459 -0.17246576
0.009564237 0.17044695 0.12873714 -0.01863142 0.19861309 0.0146689825 -0.119598575 -0.07379637
0.14170471 -0.100798815 -0.026141321 -0.004138363 -0.10542676 0.19379444 0.11772094 0.1348107

gru1.bias_ih_l0 f4 [72]
00000000: 57e2 803e 8f80 13be fa54 2b3d d451 0b3e
00000010: 016c d93d 5a20 1c3e 60d0 adbd f74b fabd
00000020: 61b0 fbbc 3ba5 ff3c 777d e8bc 658d 11be
00000030: 8632 de3d 53ac 023e f9d5 bcbd ca8b 563d
00000040: 5edd 15be 4c9f b4bd 76bc 0c3a b666 a93d
00000050: 8b6d c13c db89 81bd a32f 48be 0474 62bd
00000060: a5c4 fb3c d3ca 4ebe 1b58 11bd 3f63 07be
00000070: c3de 4ebd 77c9 1ebe 7185 a53e 5d07 89be
00000080: 2e28 67be 35a2 323e 6eb1 e33d 61fc d6bd
00000090: 3085 67be eaff 8dbe 9f88 55be 3649 bf3d
000000a0: 4d91 d93d 4b02 debd 076f 30bd ba58 95bc
000000b0: 2918 323c 665f 99bd 44d1 1c3c a464 b2bd
000000c0: dbc6 5cbe 27e0 303e 7f73 dabd 6d2a bb3d
000000d0: 53c1 da3b 2042 913d ea7b 303e 05a0 473e
000000e0: 2b1f b6bd c965 5dbe bbce 69be 63d1 92bb
000000f0: 2466 473d 5631 113e cecf fcbd 73ff a6ba
00000100: a91d 60be d9a2 4e3e 1aab 613d caa9 97bc
00000110: 8a6e 543e 0d95 25be 171a 8a3b af85 c93d
0.25172684 -0.1440451 0.041829087 0.13605434 0.10616303 0.15246716 -0.0848701 -0.122215204
-0.030723752 0.031206718 -0.028380139 -0.14214094 0.1084948 0.12761049 -0.092204995 0.052379407
-0.14635226 -0.08819446 0.0005368659 0.08271544 0.023611804 -0.06325122 -0.19549422 -0.055286422
0.030733416 -0.20194559 -0.035484415 -0.13221453 -0.05050541 -0.1550654 0.3232837 -0.2676343
-0.22573921 0.1744469 0.111178264 -0.10497356 -0.22609401 -0.2773431 -0.20852898 0.09340136
0.10623417 -0.10840281 -0.043074634 -0.018230785 0.010870018 -0.07488899 0.009571377 -0.08710602
-0.21560232 0.17273007 -0.106665604 0.091389515 0.006675878 0.070926905 0.1723477 0.19494636
-0.088926636 -0.21620859 -0.22832768 -0.0044805272 0.048681393 0.14178976 -0.12344323 -0.0012740925
-0.21886314 0.20179309 0.055094816 -0.018513579 0.20745292 -0.1617014 0.004214536 0.09839951

gru1.bias_hh_l0 f4 [72]
00000000: b8e6 78bd da6a 0e3c ce60 59be 2cc2 313e
00000010: b552 183e 221c 73bd 414a 9cbd 80ce 2abe
00000020: 397c a83d e8ae 1e3e ba69 123c ae10 e2bd
00000030: 1900 03be 31de c8bd cc65 76bd 0580 b83d
00000040: 3fc1 103d 5ee6 d9bd e386 1ebe a5cb 8a3d
00000050: 200e fbbb 8e35 89bd ccd7 de3c c996 853c
00000060: 16d3 31be 2595 d5bc 2b44 8dbe ca81 4cbd
00000070: aab0 c4bd fbfd 81be 23ec c53e aaee 49be
00000080: b75f 94be f063 673e b094 293c dd10 d5bd
00000090: c9f5 c43a cf39 c2bc 5597 ee3c 00d5 f33d
000000a0: c857 3bbe 9988 3bbd 08df 513d 1c2d 47be
000000b0: 07f0 213e cf69 713e 6630 7dbd d324 2cbe
000000c0: 459b 193e 39f1 2f3e b6bc 233d 3c6f e5bc
000000d0: c502 5dbe f929 2b3c 18c7 183e 572f 093e
000000e0: 519f f7bd 3a59 0bbc 380d b2bd 113f ad3d
000000f0: 0160 e13d 5b37 92bc 17fc 89bd fdbc 503e
00000100: 62fd b63d c0a4 4cbc d582 76be 01aa fcbd
00000110: 49f9 313e fd54 0d3e 1672 ed3d 1a5f 273e
-0.060766906 0.008692468 -0.21228334 0.17359227 0.148753 -0.059353 -0.0763135 -0.16680336
0.082268186 0.15496409 0.00893634 -0.11038338 -0.12793006 -0.09808005 -0.060155675 0.09008793
0.035340544 -0.10639642 -0.15481143 0.06777123 -0.007661596 -0.06699668 0.02720251 0.016307252
-0.17365679 -0.026072094 -0.2759107 -0.049928464 -0.096040085 -0.25389084 0.3865672 -0.1971995
-0.28979275 0.22596717 0.010350391 -0.10403607 0.0015026863 -0.023709206 0.029124895 0.11905861
-0.18295205 -0.045784567 0.05123809 -0.19450802 0.1581422 0.23575519 -0.061813734 -0.16810922
0.15000637 0.17181863 0.03997489 -0.028007142 -0.21583088 0.010447019 0.14919698 0.13396965
-0.12090934 -0.00850516 -0.086939275 0.084592946 0.110046394 -0.017848661 -0.067375354 0.20384593
0.08935048 -0.012490451 -0.24073346 -0.12337113 0.17380251 0.13801952 0.11594026 0.16344872

gru2.weight_ih_l0 f4 [72, 24]
00000000: ce95 09be a811 363e cfbc ddbd 5773 80bd
00000010: 7ea6 5d3e 4226 12be e654 243b 44d8 073e
00000020: aef5 adbd 38bc 963e 5e67 f2bd f2b0 25bc
00000030: de64 a13d 19e5 c0bd bdc7 ef3d 5fa5 9cbc
00000040: 8c90 f4bd 3101 2f3e 18ba 53bc 68e0 053e
00000050: 252e 09be c6b7 0d3e dbf0 463e 40a2 753c
00000060: 29e1 473e 6812 b73c 10bd 393d 7f65 003e
00000070: 5af7 8dbd 7890 123e 3bb7 1c3e 93f8 743d
00000080: 8d40 153d f238 1cbe 759e 50be 3af4 a13c
00000090: 34fd 24be dc41 2abe a7ae 1c3d 27dd da3b
000000a0: f05d 073e 1476 18be 930b 28be b422 113e
000000b0: 1096 03be e0e3 053e cd40 b2bc 7665 f93c
000000c0: 3242 9cba c54f b1bc f176 5f3c 8cc6 1d3e
000000d0: 349e 34be a635 313e 53d4 83be c66a 28bc
000000e0: 288b 7b3d 2cbe 813c c349 4abd 19d6 d7bd
000000f0: c07f b53d dd57 bc3d bb95 1dbe 39b5 4a3e
00000100: b707 423e f04d 713c 2d2b 553e e26e 953d
00000110: 12ac c9bd 666f 30bd bab7 8cbe 06ee c03d
00000120: e2cc e73a 71fc 17bc 9cfc 643d 6a34 1abe
00000130: 8d51 873d b72a 89bd 7fa3 9bbd a706 95bd
00000140: 5e25 563e 2dca 013e ee58 b6bc 7306 dfbd
00000150: 8eef 3b3c f086 803d 5b90 3d3d 5fdb 84be
00000160: 5e4a 4f3e f153 223d 8088 61be a8e6 e83c
00000170: 514f 033e e376 1b3e 50d7 5fbe 2e88 d33d
00000180: b5ac 48be 9ad7 03be b1d4 10be eba7 9b3c
00000190: 9d84 d63b f51c cf3d 1b39 523e 2e55 f63d
000001a0: 93bb 243b d59c d2bc 43fe a8bd 0e3d a4bc
000001b0: 988d a53c a2c5 e1bc 26ff 20bd 97b4 56bc
000001c0: 799f 3abe d8ec 43be 44ff ce3d 6b9d bbba
000001d0: 4bb4 1b3e 1020 cc3b ec67 063e 08fc 3bbe
000001e0: b0b7 e6bc 0d2d 0f3d 00a4 2a3e ea87 6cbd
000001f0: 9af7 213d 922d 5fbd 98b7 50be 3925 b93d
00000200: 6747 cabd 0bea 6d3d 04d7 2c3e 982f febb
00000210: 131e 0cbd 27b4 fa3d 79fb 913d d3e4 a93c
00000220: 3e83 a73d 30ac 7cbd e1e2 7a3e 396c c43c
00000230: 6aa7 993d c4a4 653d 3553 6abe 5302 3cbd
00000240: f0ac 063e 7717 e53d 8e53 11bd a350 33bd
00000250: 6c09 813d 2463 2abe 856c 213e c0ec 0fbe
00000260: 636f af3d 1756 74be 583c dcbd 67a8 edbd
00000270: 0754 6f3e 82e0 923d 0303 05be 5905 603d
00000280: 63d4 45be b0b6 4dbb 7a29 e03d 6e28 443a
00000290: 8c3f d13d 14a8 813d 59e2 4dbc b80e 193e
000002a0: b2f0 99bd ae7a 6a3c 1707 dd3d d545 7b3c
000002b0: 507e 303d 1307 633e 7dab 4cbe 0819 6c3d
000002c0: 40fd 07be 3930 b2bd f9e6 1ebe ccc8 1dbe
000002d0: 5d5f 38be faee 3b3e f852 2dbe bc56 6fbe
000002e0: e733 1a3e 0091 4b3e 4519 87bd 7f88 683d
000002f0: 593a a6bd 80c7 04bd ecd0 693e 2abc ffbd
00000300: d3a4 febd 307c 11be c6db 47bd 47a9 263d
00000310: b4a1 19be 076e 09be d5b0 36be b010 703e
00000320: 36b6 013d 871d 3dbd 2d83 2d3e aa61 71bb
00000330: ec54 f0bd a684 023e 6f22 333e 5194 15be
00000340: ed20 113e a605 e63d 4ebf 5abd e499 233e
00000350: 26f6 9b3c 0c74 6abd 7a42 2bbc 9ab2 c93d
00000360: 792b 813e d23a a83d 97b6 a2bc 4f64 14be
00000370: c41f 13bd 4c94 573e efc1 49be f839 b13d
00000380: 8dec 553e ec80 b23c ca22 ba3d 1643 85bc
00000390: fd87 6dbd ff18 75bd 45ba 1b3e f6b6 8ebd
000003a0: 1159 c83d c54e 903d 615c 373e d676 38be
000003b0: 3add d6bd c161 223e fae2 813d 64b5 8ebc
000003c0: 6d0c 4b3b a547 fd3d 594d 2fbd 7343 08be
000003d0: a07f 32be ac64 f53d 0d61 49be 3a57 b93d
000003e0: 6907 0fbe 5c4a f23c e8fa 413e 07bd 553e
000003f0: 88f1 65bb d471 d9bd 9372 a7bd 7a19 89bb
-0.13436052 0.17780173 -0.10827028 -0.06271999 0.21645543 -0.14272407 0.0025075017 0.13266093
-0.08494125 0.29440475 -0.11836122 -0.010112988 0.07880567 -0.09418697 0.11708019 -0.019121824
-0.11941633 0.17090298 -0.012922786 0.13073885 -0.13396509 0.13839635 0.19427817 0.014992297
0.19519486 0.022347644 0.04534632 0.12538718 -0.06931944 0.14312923 0.15304272 0.05980737
0.036438514 -0.15256098 -0.20372947 0.019769777 -0.16112214 -0.16626686 0.0382525 0.0066791954
0.13219428 -0.14888793 -0.16410665 0.14173394 -0.12850213 0.13075209 -0.021759415 0.030443888
-0.0011921583 -0.021644482 0.013639198 0.15407771 -0.17638475 0.17305622 -0.25747928 -0.010279363
0.061412007 0.015837751 -0.04938675 -0.10538883 0.08862257 0.09196446 -0.15389149 0.19795693
0.18948255 0.014728054 0.20817252 0.0729654 -0.09847273 -0.043074988 -0.27483922 0.09420399
0.0017684961 -0.009276495 0.05590497 -0.15059057 0.066073515 -0.066976 -0.07599544 -0.072766595
0.20912692 0.1267478 -0.022259202 -0.10889902 0.0114706885 0.06275737 0.046280246 -0.25948617
0.20243213 0.039630834 -0.22024727 0.028430298 0.12823226 0.1518207 -0.21859479 0.103287086
-0.19597133 -0.12875214 -0.14143635 0.019000968 0.0065465705 0.10112945 0.20529597 0.120279655
0.0025136217 -0.025709549 -0.082516216 -0.020048644 0.020209119 -0.027560059 -0.03930583 -0.013104579
-0.18224896 -0.19133317 0.10107282 -0.0014313882 0.15205495 0.006229408 0.1312558 -0.18357861
-0.02816376 0.034955073 0.16664124 -0.057746805 0.039542772 -0.05448682 -0.20382535 0.09040303
-0.098769 0.05808453 0.16878897 -0.0077571385 -0.03420837 0.122413926 0.07128043 0.020738995
0.08179329 -0.06168765 0.2450061 0.023977386 0.07502635 0.056065336 -0.22883303 -0.045900654
0.13151908 0.11186116 -0.035480075 -0.043778073 0.06300625 -0.16639382 0.15764053 -0.14055157
0.08566167 -0.23860966 -0.10753697 -0.11604386 0.23371898 0.07171728 -0.1298943 0.0546926
-0.193193 -0.0031389408 0.10945411 0.0007482831 0.10217199 0.063308865 -0.0125661725 0.14947021
-0.07516612 0.014311476 0.10792368 0.0153364735 0.04308921 0.22170667 -0.19987293 0.05764106
-0.13280201 -0.08700604 -0.15517797 -0.15408629 -0.18005128 0.18352881 -0.16926181 -0.2337293
0.15058862 0.19879532 -0.06596617 0.056770798 -0.08116598 -0.03241682 0.22833604 -0.12487061
-0.124337815 -0.1420753 -0.048793577 0.04068878 -0.15003091 -0.13420878 -0.17840894 0.23443866
0.03166791 -0.046170738 0.16944571 -0.0036831894 -0.117349476 0.12745914 0.17493604 -0.1460736
0.14172716 0.11231546 -0.0534051 0.15976673 0.019038271 -0.057239577 -0.010452861 0.09848519
0.2522848 0.08214344 -0.019862456 -0.1449139 -0.035918966 0.21052665 -0.19702886 0.08653635
0.20891018 0.02178999 0.09088667 -0.01626734 -0.057991017 -0.05983829 0.15207775 -0.06968491
0.09782613 0.07046274 0.17906334 -0.18014082 -0.10491414 0.15857603 0.063421205 -0.017420478
0.0030982748 0.12367181 -0.042798374 -0.1330698 -0.17431498 0.11982092 -0.19665928 0.0904984
-0.1396767 0.029576473 0.1894337 0.2087289 -0.003508659 -0.10617414 -0.0817615 -0.0041839452

gru2.weight_hh_l0 f4 [72, 24]
00000000: f216 7fbb 4d88 df3d d824 bf3c 078e 9dbd
00000010: 3c43 493d c904 1cbd eb38 4ebd 58b3 40bc
00000020: 00fa 38bc 8688 43be c529 3c3e 917d 1cbe
00000030: 9293 efbc 1f8e 39be e1ac 19be 5197 cbbd
00000040: 1fc9 96bd ac78 44bd 1eb6 d2bd b44d 0b3d
00000050: 04c3 64bd 4cd5 10be 1c06 273d e089 a93c
00000060: e613 393e 29ed 2c3d 7c85 4c3e 19c2 57be
00000070: 5849 913c 0dac 05be e7ed 153e 9ee6 173e
00000080: 38ab 1f3c 573f 3f3e c17d 24be c9c5 b6bc
00000090: ef34 f3bd 5b4e 543e 7e29 343e dc4c dabd
000000a0: 29c1 c1bd fab8 563e 546f 023e 5491 59bd
000000b0: e945 91bd 0714 27be b983 28be d7b0 943d
000000c0: 2309 9ebe 58b0 0f3e 9528 893c d643 4f3d
000000d0: 0ec7 4dbe 7655 aa3b 391f f6bd 505a 113e
000000e0: 5bfc 45be a821 2d3e 30dc db3b b7a0 6bbd
000000f0: 2944 03be baac 003e f2b3 743c b2bd 233e
00000100: 824d 79bd e43c 27be 721a 2d3e 2621 ddbd
00000110: 5102 8b3e 9e6e 313e e51e a93d c00e 1cbe
00000120: d02c 8dbe ab2c 903d bfaa a53d 5622 82bd
00000130: 9229 553e 58e5 4dbd da3d 0e3d bbd1 683d
00000140: 6c1c 203d 257e dfbd 6db4 b8bd 16f9 c63d
00000150: abd1 87bd a35c a3bd 9e58 42bd e111 703e
00000160: 13d4 ec3c e178 183e f115 f33d 65e3 fcba
00000170: 5cd0 87bc 5eec cdbc aba9 0bbe 3390 0f3e
00000180: 01c6 96be 94ec 02be 3f53 25be 7d97 243e
00000190: f180 08be 8aad 05bd 259f c63d 37f4 71bc
000001a0: 0277 c83d 2320 863d d3ae e1bd 8bd1 823d
000001b0: 6f99 74bd a863 6fbd 5e55 32be f3cd e5ba
000001c0: 71d8 9d3d 5ede 943e e523 b9bc bb1e f4bd
000001d0: 74ef 2f3d 871b 20be aa2c afbc aec5 403e
000001e0: 9cda f33d 9f60 543d 5c11 a8bd 1251 383d
000001f0: 00f7 12be 4738 30be c1eb 51bc 00fb 0d3e
00000200: f2f2 0cbe 55c9 043e c59f 8fbb 23bc 2dbd
00000210: 2259 43be 1d32 0abd ef64 d0bc f7e7 2b3d
00000220: 9a6d 463d 9253 0a3e ba24 5cbc ee04 a9bd
00000230: dde8 023e 17fb 5fbd 1277 bdbd 1088 403e
00000240: 473b a0bc e657 12be 93e6 45be dd4d e9bd
00000250: 1923 c5bc 80f8 1dbe bd5b f0bc 591d 2abd
00000260: 4a3e 84bd 8007 2e3a 77d1 6fbe f111 77bd
00000270: 63c5 af3d a04e 133e 447e 28bb 8269 57be
00000280: 7c2b 95bd fd8e 613d d1e9 cf3d f2f5 51be
00000290: 1e2a 5fbd 4099 0fbe 30f9 34be acec a5bd
000002a0: 617d fc3d 5253 8b3c 3c28 11be 6090 6dbe
000002b0: a0be 6ebd 4f42 56be 5a6c 34bd 13b3 643d
000002c0: 1263 943d 67ef 403d d84a 403e f17a 9fbd
000002d0: 7159 1bbe a20b 403e 68b6 a13d 0c16 0fbb
000002e0: ffaa 02be e462 d1bd 98c9 d53b d908 5b3e
000002f0: da39 043b b2a1 0a3e dbbe aebd 43f8 24be
00000300: ac79 64bd 4676 6b3d faa0 38bd 69d5 373e
00000310: 8b89 82bd 1384 cbbd 4b51 253c 495a 003e
00000320: 02ee febd 6fe7 53bd cea1 c53d 1969 07be
00000330: eec5 24be d260 473e 3cbe 23be 435b 49bd
00000340: 00ca 95bd a75b db3d ad01 a5bd a7f8 a23d
00000350: 2b37 d03d cc07 8abd b41f 6abe 2139 ba3d
00000360: e7ad 5dbd 68ff 9a3d d191 3b3e 3a4c 25be
00000370: 3cdf 85bc 3b66 ca3d c197 3cbd 840c 033d
00000380: 8bf7 35be 5aef 2a3d 95dc e0bc ab00 15be
00000390: 0f5f 523e 3b02 13be 3549 20be fcef 6a3e
000003a0: 6c86 193e 14d2 8d3d 069b 0cbe 3a78 483d
000003b0: 37c0 82bd fb75 ebbd 4a13 813d fa15 1dbc
000003c0: 3ef9 dbbd 5ad5 82bc ba6f 8abd f6f4 e13d
000003d0: 8180 443e 0049 9abc 3698 933d 0615 483e
000003e0: 16e6 18bd 7709 9f3d 0b18 18be 7db8 73bd
000003f0: 76e2 3a3e 84cd 2abe c9a3 9abd e02e 42bd
-0.0038923589 0.10914669 0.023332998 -0.07693105 0.049136385 -0.0380905 -0.05034725 -0.011761509
-0.011290073 -0.19095048 0.18375309 -0.15282275 -0.029245172 -0.18120621 -0.15007354 -0.09940971
-0.073625796 -0.047966644 -0.10288642 0.03400965 -0.055850044 -0.14143866 0.04077731 0.020695627
0.18073997 0.04221836 0.19972795 -0.21070136 0.017735168 -0.13053913 0.14641534 0.14834067
0.009745412 0.18676506 -0.16063596 -0.022311108 -0.11875331 0.20733015 0.17593953 -0.10659191
-0.094606705 0.20969 0.12737781 -0.05311711 -0.070934124 -0.16316234 -0.16456498 0.07260292
-0.30866346 0.14032114 0.016742984 0.050601803 -0.20095465 0.005198176 -0.12017674 0.14194608
-0.19334547 0.1690737 0.006709598 -0.057526316 -0.1281897 0.1256589 0.01493548 0.15990332
-0.060864933 -0.16331822 0.1690462 -0.10797338 0.27150205 0.17327353 0.08257846 -0.15240002
-0.27573252 0.0703977 0.08089208 -0.06354205 0.20816639 -0.050267547 0.034726955 0.05684064
0.039089605 -0.10912732 -0.090187885 0.09715478 -0.06631788 -0.079766534 -0.047447793 0.2344432
0.028909719 0.14889862 0.11869419 -0.0019293843 -0.016578846 -0.025137123 -0.13638942 0.14019851
-0.2944794 -0.1278556 -0.16145037 0.16073413 -0.13330437 -0.032636203 0.09698323 -0.014767698
0.09788324 0.06549098 -0.11019673 0.063876234 -0.05971664 -0.05844465 -0.17415377 -0.0017532691
0.077072985 0.29075903 -0.022600124 -0.11919924 0.04295297 -0.15635501 -0.021383602 0.18825409
0.11906931 0.051849958 -0.08206436 0.04499919 -0.14352036 -0.17208968 -0.012812556 0.1386528
-0.13764551 0.12967427 -0.0043830597 -0.04241575 -0.1907697 -0.033739198 -0.025438754 0.041969266
0.048444368 0.13508442 -0.013436491 -0.082528934 0.12784143 -0.054682817 -0.092512265 0.18801904
-0.019559516 -0.14291343 -0.19326238 -0.11391804 -0.024064587 -0.15426826 -0.02934062 -0.041531894
-0.06457193 0.0006638691 -0.23419748 -0.060319845 0.085825704 0.14385462 -0.0025710026 -0.21036342
-0.072836846 0.055068005 0.10152019 -0.20503977 -0.054483525 -0.14023304 -0.17673182 -0.08101782
0.12328602 0.017007504 -0.14175504 -0.23199606 -0.058287263 -0.20923732 -0.044048645 0.05583484
0.07245459 0.047103312 0.1877855 -0.07787121 -0.15170838 0.18754438 0.07896119 -0.002183321
-0.12760542 -0.1022394 0.006524276 0.21390094 0.0020176084 0.13538244 -0.085324965 -0.1611033
-0.055780098 0.05748584 -0.045075394 0.17952503 -0.063738905 -0.099373005 0.010090183 0.12534441
-0.1244774 -0.051734384 0.096500024 -0.13223685 -0.16091129 0.19470528 -0.15990537 -0.0491593
-0.07313919 0.10710841 -0.0805696 0.07957583 0.101667725 -0.067397684 -0.22863656 0.09092928
-0.054120924 0.07568246 0.18317343 -0.1614236 -0.016341798 0.0988278 -0.04604316 0.031994358
-0.17770211 0.04173217 -0.027448932 -0.14551036 0.20544074 -0.1435632 -0.15652926 0.2294311
0.14992684 0.06924835 -0.13731012 0.048942782 -0.06384318 -0.11497112 0.06302507 -0.009587759
-0.107408985 -0.015970875 -0.067595914 0.11033051 0.19189645 -0.018833637 0.07206766 0.1953927
-0.037328802 0.07765477 -0.14852922 -0.059502114 0.1825045 -0.1667996 -0.07550771 -0.047407985

gru2.bias_ih_l0 f4 [72]
00000000: bacf d7bd 59fe 2ebe 9e65 033e e13f 263e
00000010: 27d1 08be 8118 46be f607 303d b322 f83d
00000020: 9887 6cbd b495 333e 5ad4 2bbd a74f 26be
00000030: 6415 b13d 9df8 27be 8a73 c3bd 19c2 25be
00000040: 1fd6 ab3c 6d1a 283e 1a14 2d3e 3b58 eebc
00000050: aa36 323e f049 2e3e 9558 b43d 8ddb 69be
00000060: 2d52 063f fc77 81bd 5fe5 e9bc fa44 c1bc
00000070: ea33 76bd d3b8 14bc 82a1 863d 1690 febd
00000080: 8179 e3bd 6730 83bd 8ab2 993d 1136 813d
00000090: db7c 81be 3034 563d e067 68be f187 74be
000000a0: a272 74bc e3d9 9f3d c7f1 95be dd38 b6be
000000b0: 3f01 6e3e eeb3 483a 35c6 1abe 8b8d 173d
000000c0: ec78 1fbe 5963 df3c 5f5f 4b3e 0688 fd3d
000000d0: d106 c93d 4f7c c8bd 6366 bb3c 2193 22be
000000e0: dddd 873b 0e69 ab3d 47a9 163d 2305 c2bd
000000f0: 53cc 213e 1b41 00bc 857a d13d 4ffc b8bd
00000100: 9c9b 193e f799 90bb 7b3a ddbc 76b6 033e
00000110: 3a9e afbd 78b1 033e ef7c 1ebe e677 41bd
-0.105376676 -0.17089213 0.12831733 0.16235305 -0.13361035 -0.19345285 0.042976342 0.12115993
-0.0577465 0.17537576 -0.04195056 -0.16241322 0.08646658 -0.16403432 -0.09543522 -0.16187324
0.020976124 0.1641633 0.169022 -0.029094806 0.17403665 0.17020392 0.08805958 -0.22837658
0.5246914 -0.06321713 -0.028551755 -0.02359246 -0.060108103 -0.009077269 0.06573774 -0.12429826
-0.111071594 -0.064057164 0.07504757 0.063091405 -0.2529057 0.052295864 -0.22695875 -0.23879983
-0.014919909 0.078052305 -0.29286024 -0.35590258 0.23242663 0.0007656206 -0.15114672 0.03700022
-0.15573472 0.027269052 0.198606 0.1237946 0.09815753 -0.09789335 0.02287597 -0.15876438
0.004146321 0.08369647 0.03678253 -0.09473636 0.158006 -0.007828022 0.10228447 -0.09032499
0.15000767 -0.0044128853 -0.027005425 0.12862572 -0.08575101 0.12860668 -0.15477346 -0.047233485

gru2.bias_hh_l0 f4 [72]
00000000: 78ae 81bd 7ecd f0bd 6425 20be 8e85 4dbd
00000010: 36f5 c4bd b88e 7e3d d4a2 0e3e 52d7 6b3e
00000020: af2a 3dbc c5d6 26be 2794 31be 942e f83a
00000030: d643 a53d ccf0 c13d 72f2 043e 9556 71be
00000040: de5c 81bd 6766 ac3d 4ae8 4e3e 9cdc 0cbe
00000050: 8dfc 323d 6d62 313d f829 143e 7f2e 213e
00000060: 97f5 673e 55ad 9bbd e09a 073e afd1 78be
00000070: a894 f53c 44db b7bd 1c4b f2bd 1cea 3fbe
00000080: d4c2 253e 4062 573c 34a9 debd fa74 6f3e
00000090: 157a 5fbe 57d4 69be e866 2b3d 0f6e b8bc
000000a0: 717f 9cbe 4067 193e f2e3 8939 065b f3bd
000000b0: f0e1 b53e 06e7 293e 30c7 e63c 096f e3bd
000000c0: a559 b0bd 5352 003e d413 75bd da7c 7e3c
000000d0: de49 c2bd f0cb cabb ca6c 5c3e 8294 3e3d
000000e0: 75d1 243d 7b8e e2bd 0af5 a53d 5ea2 ecbd
000000f0: 0bad 23bc addd 84bd 1eed 0e3e 3152 a73d
00000100: 7fed 0fbe 8f94 973c 547b bb3d 2b93 b93c
00000110: ee79 9fbd 9377 29bc bd60 c83d d29f 9e3d
-0.063321054 -0.117579445 -0.15639263 -0.050176196 -0.09617083 0.062147826 0.13929302 0.23031357
-0.011545821 -0.16292866 -0.17341672 0.001893478 0.08069579 0.094697565 0.1298311 -0.23568185
-0.06316541 0.08417969 0.20205799 -0.13756031 0.043697882 0.043306757 0.14469135 0.15740393
0.22652279 -0.0760142 0.13242674 -0.24298738 0.029978111 -0.089773685 -0.11830732 -0.1874165
0.16187602 0.013145983 -0.10872117 0.23384467 -0.21823914 -0.22834907 0.041846186 -0.022513418
-0.3056598 0.14980793 0.0002630051 -0.11882596 0.3552394 0.16592035 0.028171152 -0.11105163
-0.08610848 0.12531404 -0.059833363 0.015532697 -0.09486745 -0.006188862 0.21525875 0.046528347
0.040238816 -0.11062332 0.08103378 -0.115544066 -0.009989987 -0.06487594 0.1395764 0.08169974
-0.14055441 0.018503455 0.09154382 0.022653183 -0.07786928 -0.01034345 0.09784076 0.07745327

fc.weight f4 [24, 24]
00000000: 60e3 4d3d 265d 293e 0d3b 1dbd 5dda b1bd
00000010: 0689 07be 43dd 643d b866 053e 9303 0cbe
00000020: 2786 aa3d fce8 533b d76f 14be d4a1 3cbe
00000030: 0784 3c3e 7bb2 23be afcb 4c3e 597b b5bd
00000040: 8df9 cd3d c467 793e dfb4 ac3c b5a2 e93c
00000050: f0f2 4a3e 38fb 75be 37a9 e63d 1d74 933c
00000060: 08b5 19be 6c00 8c3e 4972 1e3e 9596 f4bd
00000070: 8c24 86be 9436 38be dfe7 193e 54f4 a3bd
00000080: 32e8 503e 20b9 7ebd 4023 0ebe 42ea c8bd
00000090: 644b 4fbd a02d dbbd b5b9 183e ccc8 b43d
000000a0: 3801 453e 960d 463e 4c7e fb3d f1b7 2a3e
000000b0: 99fc 133e 549a babd 7dae 83bc aee5 19be
000000c0: 3135 db3d ed81 6f3e 6d5e 3f3e e05e 843c
000000d0: 5703 bbbc 17a9 59be 8174 4b3e 31b3 5b3c
000000e0: 06a0 00be 28fb c9bd 3ede 71bd 9964 4abe
000000f0: 6b5a 6a3d c537 85bd 9e32 843d 965c 403e
00000100: f426 633e 471b 4f3e 106e fcbc 3f9c 3cbd
00000110: d837 163e a1a3 47bd e46c 953d 85b0 053d
00000120: 7f93 c13d 5759 4e3e f184 523d 78dc 9dbc
00000130: 6320 ca3d e27e e03c 646b 3bbd 1c07 00bc
00000140: 8659 e7bd a9c3 13be b25f 153e 04b5 03bd
00000150: 90eb 1f3e ef0c 663d 4774 083e f311 2e3c
00000160: 9a10 f63c 55a6 cd3c 6e5c 41bd c75f 0d3e
00000170: 7aa1 003e ed12 713d 97f2 72bd 7f7b cd3b
00000180: f669 99bd d17a b7bd 6d8a e0bc 8b71 32bd
00000190: 528b ca3c 1b03 b93c bc17 c5bc fb28 e73b
000001a0: cc2b 373e 8241 ebbd 34de fb3d fa6d 57bc
000001b0: 3230 a63d e14c a53d 99b6 8d3c 95b2 c33d
000001c0: 3195 d83d f672 3d3c f885 69bd ab89 8f3d
000001d0: fba1 57bd dec0 30be 65b6 94bc dd9e d7bc
000001e0: 7791 5b3e a823 f53d cfe4 543d f7b0 e0bd
000001f0: 13a4 4f3e 2764 783b da04 843c b4aa bcbd
00000200: 5c99 ce3d f7d3 e2bd 591d ddbd a8d0 60b8
00000210: f896 cb3b 13e6 ac3d 0c1f 813d 5826 833d
00000220: 4fd8 373d 76c3 943d 4c2a d03b f77f ec3c
00000230: fed9 913c 60c8 35bd ca92 e23d 1753 603d
00000240: c70e 37bd d505 15bd 9d25 57bc 1bb8 34bd
00000250: 9c2d 8a3d 1488 c8bc 1513 0ebc 3b66 4dbd
00000260: 2d10 6cbd 4dc7 e8bb 0436 d1bc 333b a93d
00000270: 7e8a 893d 6675 1b3e a10f 0a3d a3c6 813d
00000280: 3ead c23d f5ef 0a3d 5cd7 f2bc 5efa 003d
00000290: 7234 19bd cdb1 543d 4f32 083e 1841 f0bc
000002a0: 63c4 ec3b 7ece c0bd 94a3 99bd 3d8f 6c3d
000002b0: cf91 93bc 20e3 8e3d 0f88 99bc d480 eebc
000002c0: 8493 c83d 5c3e cbbc a70e e83d e986 a83c
000002d0: 2521 b3bd 10c1 ab3d a3b9 033c 1d41 9cbd
000002e0: 2c53 0d3e 9367 fb3c 8b09 22be 2861 7d3d
000002f0: 44e2 7bbd 3806 47bd 5f27 98bc 324c bebd
00000300: fab7 21ba d10c a6bd a991 2fbc c2fb 433b
00000310: acdb 173e 2992 4bbd 8c1a 8a3c 2ace 46bd
00000320: f91d bfbc 4875 ebbd d750 6d3c 6271 bc3d
00000330: 5aed 05be ad74 07be 8ab8 8b3d 0712 d7bd
00000340: c7f5 673d 6d5a 4abd 1de0 073d bb43 c7bc
00000350: ba23 13bd 451b 1b3d 7a5f 9f3d 74aa cc3d
00000360: 22fa b73d 500e 853c 883a 38bd b122 77bd
00000370: 19b2 0a3e df80 b53d c748 843d e149 cd3c
00000380: 1018 053d cf6b 5d3c 1e59 34bc 89ab 86bd
00000390: b84d e63d bbb2 9cbd 9c92 abbd e5b8 d53c
000003a0: cca3 b5bd d3b0 553c 073a cfbd d2dc 793d
000003b0: 517c b0bd 36c2 5e3d 808c 473c c230 d63d
000003c0: 7c29 d63d bd1b 6abd 307c c1bd 1966 b83d
000003d0: ae01 023d ea7a f13d 4e27 803d d1c6 663d
000003e0: e26d b73d e637 ec3d d398 dc3d 75c3 30bd
000003f0: 1a9f 08be 6627 ee3d 176b a0bd 6da4 b83d
0.05026567 0.1653944 -0.038386393 -0.086842276 -0.13235864 0.055875074 0.13027465 -0.13673238
0.08326369 0.0032334914 -0.14495789 -0.18421108 0.1840974 -0.15986054 0.19999574 -0.08861417
0.10057364 0.2435599 0.02108234 0.028519968 0.19819236 -0.24021614 0.11262744 0.017999703
-0.15010464 0.27344072 0.15473284 -0.11942784 -0.26199758 -0.1798957 0.15029858 -0.08005586
0.20401075 -0.062188268 -0.13880634 -0.09810306 -0.050609007 -0.10702062 0.14914592 0.088273615
0.19238746 0.1934112 0.122799486 0.1667173 0.14451827 -0.09111467 -0.016074413 -0.15029022
0.10703505 0.23389407 0.18688364 0.016158521 -0.022828741 -0.21255909 0.19868661 0.013409422
-0.12561044 -0.098623574 -0.059049837 -0.19764937 0.057215136 -0.06504778 0.06454967 0.18785319
0.22182828 0.20225249 -0.0308142 -0.046047445 0.1466974 -0.048740033 0.0729616 0.032639045
0.09451961 0.20151268 0.051396314 -0.019270167 0.098694585 0.027404252 -0.045756713 -0.007814195
-0.11296372 -0.14430107 0.14587286 -0.03215505 0.15617204 0.05616468 0.13325606 0.010624397
0.030037213 0.025103727 -0.04720729 0.13806067 0.12561598 0.05885594 -0.059313383 0.0062708254
-0.074909136 -0.08958972 -0.027409757 -0.043565314 0.024724636 0.022584489 -0.024059169 0.007054446
0.17887801 -0.11487104 0.12298241 -0.013148779 0.08114661 0.08071304 0.017298983 0.09555546
0.10575331 0.011563053 -0.05701253 0.0700868 -0.05264471 -0.17261073 -0.018153379 -0.02632087
0.21442209 0.119696915 0.05197602 -0.10971253 0.20277433 0.0037901492 0.016115595 -0.092122465
0.10087845 -0.11075585 -0.10796613 -5.3600088e-05 0.0062130652 0.08442321 0.0630475 0.06403798
0.044884022 0.07263844 0.0063526984 0.028869612 0.017804142 -0.044380546 0.11063154 0.05476674
-0.044691827 -0.036382515 -0.013131526 -0.04412089 0.067469805 -0.02447895 -0.008671542 -0.050146323
-0.057632614 -0.0071038366 -0.025538452 0.082632445 0.067158684 0.15181503 0.03370631 0.06336715
0.095056996 0.033920247 -0.029643707 0.03148877 -0.03740353 0.051927377 0.13300441 -0.029327914
0.0072255596 -0.09414385 -0.07501903 0.05775379 -0.018013863 0.069769144 -0.018741636 -0.029114164
0.097937614 -0.024810009 0.1133092 0.020572143 -0.08746556 0.08386433 0.008039865 -0.07629607
0.13801259 0.030689036 -0.15823953 0.061860234 -0.06149508 -0.048589915 -0.018573461 -0.09291877
-0.0006169077 -0.08107913 -0.01071588 0.0029904698 0.14829892 -0.049699936 0.016858362 -0.048536457
-0.023329722 -0.11496979 0.014484606 0.092013136 -0.13078824 -0.13228102 0.068223074 -0.10501485
0.056630876 -0.049402643 0.033172715 -0.024324289 -0.035922743 0.037867803 0.077818826 0.09993449
0.08983256 0.016242176 -0.044977695 -0.06033582 0.13544501 0.08862471 0.06459194 0.025059642
0.03249365 0.013514473 -0.011007575 -0.065756865 0.112452924 -0.07651278 -0.08377573 0.026089141
-0.088691324 0.013042646 -0.1011849 0.061001606 -0.086174615 0.054384433 0.012179494 0.104585186
0.10457131 -0.05715536 -0.09447515 0.090038486 0.031739883 0.11791022 0.06257497 0.05634195
0.08956505 0.11534099 0.107713364 -0.043155152 -0.13341942 0.116286084 -0.07832926 0.09015737

fc.bias f4 [24]
00000000: 3266 a93d 88c3 9f3d bacc 72bc 6b9b 0a3e
00000010: 9627 893d 63eb b1bc c939 313e dd07 f2bd
00000020: 53bd 43be 4d23 a6bc baa8 3fbd 59e4 d3bd
00000030: 5a13 a9bd 79ba fdbd a50b 9bbc 3ac4 7d3d
00000040: 5cbc e6bc 6816 b5bd 69dd 0d3e fc6e 863e
00000050: 9832 4b3e ea36 b53d 3756 85bd d69f b0bc
0.08271445 0.078009665 -0.014819318 0.1353585 0.066970035 -0.021718686 0.173072 -0.11817906
-0.1911519 -0.020280505 -0.04679177 -0.10346288 -0.08255644 -0.123890825 -0.018926451 0.061954714
-0.028165989 -0.08842164 0.13853993 0.2625655 0.19843519 0.08848365 -0.06510585 -0.02156059
