models/GRU_NoiseEst/training_checkpoints/tiny_noise_gru_epoch_004_mse_0.372866.pth (torch, 69713 bytes, 14 tensors)

pre.weight f4 [48, 12, 11]
000000 84 7e c2 bb a3 b3 25 3d 9a 88 96 bd e4 11 8b bd
       -0.005935492 0.040454518 -0.073502734 -0.06790522
000010 82 80 23 bd fb 53 8b 3c fc 7c 1d bc e2 f1 7d 3d
       -0.039917476 0.017007818 -0.009612318 0.061998256
000020 18 7e 6b bc 52 fe 63 3c 9e 70 b8 bc 30 86 75 bc
       -0.014373325 0.013915615 -0.022514638 -0.014985606
000030 4d 11 a8 bd 1f 1f 54 bd 75 d8 03 bd 36 8a 87 3b
       -0.08206425 -0.051787492 -0.03218885 0.004136349
000040 5f ed 10 3d 90 fc 52 3d c9 71 70 bd a0 47 18 bd
       0.035382625 0.051510394 -0.058702264 -0.037177682
000050 3e 31 f3 3c 68 1b ad 3d f0 76 c6 bc bd c1 68 3d
       0.029686566 0.08452493 -0.024226636 0.05682539
000060 1c 9a 97 bc 75 4d 0b 3b 26 c1 8d 3d bc db b3 bd
       -0.018506102 0.0021255885 0.06921606 -0.087821454
000070 b3 9f 80 bd 1c bb 00 bd 5e a6 2e bd a5 14 7c 3d
       -0.0628046 -0.03142844 -0.04263913 0.061543126
000080 94 28 83 bd 3b ce 63 bd 84 d6 9d bd 70 41 c6 bd
       -0.06404224 -0.0556166 -0.07706931 -0.0968045
000090 40 2b 89 bd f3 f0 68 3d ff 83 ad 3c 7c 6c bb 3c
       -0.066977024 0.056870412 0.021181105 0.022878878
0000a0 60 97 77 bc d4 99 84 bd 3e dd 02 bc ee f5 d8 bd
       -0.015111774 -0.06474653 -0.007987319 -0.10593782
0000b0 17 2d 9a bd 5f 20 6d bd 11 16 2e 3d bb b4 1c 3d
       -0.075281315 -0.0578922 0.042501513 0.038258296
0000c0 67 b4 55 bd 04 dc 8e bc b4 d9 20 3d a8 24 8e 3d
       -0.052174 -0.017438896 0.039270118 0.069405854
0000d0 4e a5 82 3c c7 62 10 bc 5e 36 0c 3d 4f 1b 84 bd
       0.015947964 -0.008812613 0.034231536 -0.06450521
0000e0 72 e8 15 3b 3b 29 a5 bd b8 c2 96 bd cb ea 6e bd
       0.0022874144 -0.08064505 -0.073613584 -0.058329385
0000f0 b2 72 ca 3c 0a 5e 96 3c c1 94 8d bd 8c 67 db 3b
       0.024712894 0.018355388 -0.06913138 0.0066956934
000100 22 5e d9 3c c2 ea 11 bd 65 91 79 bc da a8 80 3a
       0.026534144 -0.035624273 -0.015232419 0.0009815947
000110 26 73 11 3d 24 2a 85 3d f0 14 af bd 52 0e 52 bd
       0.035510205 0.06502178 -0.085489154 -0.05128319
000120 97 59 5e 3c e2 f3 4d 3d 8c 8b 56 3d 36 96 55 3d
       0.013571165 0.050281413 0.052379176 0.052145205
000130 3f 3c 22 bc 97 85 c3 bd 98 b9 44 bc e1 d9 97 bd
       -0.009902059 -0.095469646 -0.01200714 -0.07414604
000140 3e 45 ce bd fa bb 6a 3d 63 d2 3b 3d dc f6 db bd
       -0.10071801 0.057308175 0.045854937 -0.10740444
000150 53 7d b9 bb 3f e8 19 bd 65 99 1e bd 6e 08 87 bd
       -0.0056606918 -0.037575003 -0.038720507 -0.06593405
000160 25 e7 61 3c 05 16 92 bd 8f b6 4b 3c f8 c8 ca 3c
       0.013788019 -0.07133106 0.012433662 0.024754032
000170 26 65 2e 3d 04 fa 53 3c b7 16 d9 bd a5 52 9e bd
       0.04257693 0.012938026 -0.10600036 -0.07730607
000180 d0 29 b0 3c 3e 4a b0 bb 57 f9 bd bd 97 b5 8e bd
       0.021504313 -0.005379944 -0.092760734 -0.06968229
000190 1b d6 7c 3d 2d db 20 3d a6 e3 69 bd 62 c7 28 bd
       0.061727624 0.039271522 -0.057101868 -0.04120577
0001a0 64 e9 d0 bd b9 2c b0 bc 3c 5b b0 bd 2b b4 b5 bd
       -0.10200766 -0.0215057 -0.086111516 -0.08872255
0001b0 6f f7 e6 bc e5 a9 43 bc a3 ff 6e bd b3 b5 ea 3c
       -0.028194157 -0.0119423615 -0.058349263 0.028651094
0001c0 f8 10 9a bd fa 45 68 3d 34 d1 18 3d 4d 77 c3 bd
       -0.07522768 0.05670736 0.037308887 -0.09544239
0001d0 bf 0d 37 bd 21 b8 a1 bc de 7a 42 bc 55 42 b5 bb
       -0.044690844 -0.01974112 -0.011870114 -0.005531589
0001e0 a8 5e d3 3b 2f d4 b2 bc d2 da 8d bd fa fb 6d 3c
       0.006450493 -0.021829693 -0.06926502 0.014525408
0001f0 47 07 e1 bd 29 16 a0 bd cf 0c 46 bd eb bf 8e bd
       -0.10987716 -0.07816727 -0.04835206 -0.06970199
000200 df be 6e bd 1b 65 cc bd 5b cc 45 bd 96 4f 49 bc
       -0.058287498 -0.09980222 -0.04829059 -0.012287041
000210 f9 95 89 bd 15 f8 6b bc 27 82 51 3d 36 fb a4 bc
       -0.06718058 -0.014402409 0.051149514 -0.020139318
000220 c3 f4 11 bc 5f 47 89 bc a3 b7 ea 3b 68 2f 35 3d
       -0.008908453 -0.016757665 0.0071630045 0.044234663
000230 f7 d6 8f 3d 73 f7 2d 3d e3 19 9e 3d 1f 2a 0d bc
       0.07023423 0.042472314 0.07719781 -0.0086159995
000240 82 a9 a3 bd c0 a2 35 bd cd df 65 3d da df 7c bb
       -0.079913154 -0.044344664 0.056121636 -0.0038585574
000250 3b 31 35 bd 61 3d 8d bd dd d8 ac bd 47 03 9f bd
       -0.044236403 -0.06896473 -0.08439801 -0.07764297
000260 df 71 b7 bc fc d5 52 3d 38 75 1f 3d dd d2 b5 bd
       -0.022393165 0.051473603 0.038930148 -0.088781096
000270 88 cb 3f 3d cb 67 96 bd ad d7 c8 bc ef 8a 29 bd
       0.046824962 -0.07344016 -0.024516905 -0.041392263
000280 c3 df bb bc 47 6d cd bc 40 a2 af bd 93 4d ac bd
       -0.022933846 -0.025076522 -0.085758686 -0.084132336
000290 ad ba c1 bc 2a bd 85 bc 7f cc 62 bd b9 d4 7d 3c
       -0.023648584 -0.016325552 -0.055370804 0.015492612
0002a0 22 b1 be bd 6f c1 b2 bc 70 20 75 3d d5 63 56 bd
       -0.09311129 -0.021820752 0.059845388 -0.0523413
0002b0 87 30 76 3d 8d 05 45 3c 67 c7 c9 bd 70 13 f4 3c
       0.060104873 0.012025249 -0.09852486 0.029794425
0002c0 1a c6 bd bc b6 ca 4f bd 22 c7 68 3d b9 f2 a5 bd
       -0.023165751 -0.05073043 0.056830533 -0.08102936
0002d0 45 84 17 bb d9 07 f3 bc e9 33 4a 3d c4 cf 28 3c
       -0.002311961 -0.029666828 0.04936591 0.010303441
0002e0 ae 0d d6 3c 84 ba 5d 3c 62 78 31 bd 50 b1 00 bd
       0.02612957 0.013533238 -0.043327697 -0.0314191
0002f0 01 eb ab bd 9e 3c 0d 3d c6 7e 6b 3d e3 6c 44 3d
       -0.08394433 0.034481637 0.057493947 0.047955405
000300 f2 4d 94 bd 1b 48 10 bc ff 02 9a bd 8a 04 82 bd
       -0.072414294 -0.008806254 -0.07520103 -0.06348522
000310 5b 48 8c bd b7 0d f3 3b 31 89 8f bd 04 73 a0 bc
       -0.06849738 0.0074174064 -0.07008589 -0.019586094
000320 a0 cd 65 bc 56 18 1f 3d 44 8f a8 bd c8 f6 9b bd
       -0.014026076 0.038841568 -0.08230451 -0.07615429
000330 3f 99 8b bd a3 a0 2c 3d ee e6 51 bd ed 77 51 3d
       -0.06816339 0.042145383 -0.051245622 0.05113976
000340 e2 c7 c1 3b ce 90 27 bc a1 7b ae bc 8c b9 1a bd
       0.0059137205 -0.010227395 -0.021299185 -0.037774608
000350 e8 e6 15 bc 13 fb 1f bd 5c 52 a6 bc 39 e0 15 bc
       -0.009149291 -0.039057802 -0.020302944 -0.009147697
000360 88 a5 b6 bd 4f ad 8a bd 71 41 3c 3d a9 e5 c6 bd
       -0.08918291 -0.06771337 0.045960847 -0.09711773
000370 56 21 f1 bc 11 81 81 3d e7 d7 11 3c d7 6a 9e bc
       -0.029434841 0.063234456 0.008901573 -0.019338055
000380 bf c3 c5 bd 59 4a ad 3c e2 e7 ab bd 3b 21 43 bd
       -0.09656476 0.021153616 -0.083938375 -0.047639113
000390 27 88 59 bd 69 06 1e bd a5 8c db bc 52 4a 44 3d
       -0.05310836 -0.038580332 -0.026800463 0.04792244
0003a0 f9 0c 4d bc 07 eb 5f 3d 9f 2f fc 3c da 03 9e bd
       -0.0125153 0.0546675 0.030784426 -0.077155784
0003b0 83 6a 85 3c 25 ad ac bd ff 74 78 bd 48 c4 37 3a
       0.01628614 -0.08431462 -0.06065845 0.0007010144
0003c0 b1 41 11 3b a5 93 15 3d a4 e1 5c bd 8b 37 ce bc
       0.00221644 0.036517758 -0.053926125 -0.02517297
0003d0 02 13 9f 3c da 74 de bd 95 d0 1b 3d 16 41 c6 bd
       0.019418243 -0.108621314 0.038040716 -0.09680383
0003e0 ed 32 c6 bc 17 f8 27 bd 24 08 96 bd db 41 8f bc
       -0.024194205 -0.04100808 -0.073257715 -0.017487457
0003f0 d7 8b 27 3d 1d 9a 5e bd 37 d3 a3 bd 6f 27 78 bd
       0.040904846 -0.054346193 -0.079992704 -0.06058448

pre.bias f4 [48]
000000 06 45 c3 3c 04 d7 af bb de 8c fe 3d 2a 85 b0 bc
       0.023836624 -0.005366208 0.12429212 -0.021547873
000010 c4 71 8d bc 60 c7 b8 3d 54 17 c1 3d 78 17 56 3d
       -0.017266162 0.09022403 0.094282776 0.052268475
000020 ca c2 06 3a 2e f9 c2 bc 90 1b 0d bd 39 59 a1 bd
       0.000514072 -0.023800459 -0.034450114 -0.07878346
000030 3b 30 92 3d 35 d1 95 3d 24 49 59 bd 3c ba 42 3d
       0.071381055 0.07315294 -0.053048268 0.04754089
000040 55 aa 29 bd d7 f0 a2 bd 3b 27 bd 38 f4 bc fc bc
       -0.041422207 -0.07956093 9.0195295e-05 -0.030851819
000050 81 06 3d 3d b8 86 27 bc 05 a3 18 bd e8 aa bd bd
       0.04614878 -0.010224991 -0.037264843 -0.092611134
000060 7d be 25 3d fa de 80 3d b9 6d d7 bc 92 f8 80 bd
       0.040464867 0.062925294 -0.026297437 -0.06297411
000070 de 6a 89 bd f7 a0 17 3b eb 85 00 3d f1 39 4e bd
       -0.067098364 0.0023136714 0.031377714 -0.050348226
000080 48 b2 55 bd 77 13 00 be a0 30 2a bc 82 c6 bf bd
       -0.052171975 -0.12507425 -0.01038757 -0.09364034
000090 fe 7a 98 bd 7a 0d af bd 75 a7 91 3d 9b 97 af 3c
       -0.07445334 -0.08547492 0.07112018 0.021434596
0000a0 e4 ed a7 bd 31 08 ab bd b3 36 fa 3b f6 5b 45 bc
       -0.08199671 -0.08351172 0.007635915 -0.012045851
0000b0 46 d9 9f bd c1 09 6c bc d0 de 35 bd 31 62 3d bc
       -0.078051135 -0.014406622 -0.044401944 -0.011559055

norm.weight f4 [48]
000000 1b 31 73 3f 07 09 74 3f c3 f0 74 3f af d1 71 3f
       0.94996804 0.95326275 0.95679873 0.94460577
000010 b5 02 77 3f e8 19 77 3f 94 46 7a 3f e5 eb 78 3f
       0.96488506 0.96523905 0.97763944 0.97234946
000020 88 4a 7b 3f 43 b6 73 3f 35 9c 73 3f 1d c4 73 3f
       0.981606 0.95199984 0.9516023 0.9522112
000030 f1 6d 72 3f d5 12 72 3f d5 c3 71 3f e2 6f 75 3f
       0.9469901 0.94559985 0.9443944 0.95873845
000040 a9 b3 72 3f 4f 88 74 3f 73 12 74 3f f6 6b 77 3f
       0.9480539 0.9552049 0.9534065 0.9664911
000050 8d 74 73 3f d4 ef 74 3f c3 da 74 3f 46 61 75 3f
       0.9509972 0.9567845 0.95646304 0.9585155
000060 47 cc 84 3f 47 b2 85 3f 75 b1 80 3f 78 13 7a 3f
       1.037484 1.0445031 1.0054156 0.97685957
000070 4a 13 83 3f 12 25 84 3f af 1e 7f 3f 9b 3b 80 3f
       1.0240262 1.0323813 0.99656194 1.001819
000080 6a a7 77 3f 1c b5 86 3f 38 71 7b 3f 1a 4a 72 3f
       0.9673983 1.052402 0.98219633 0.9464432
000090 b1 38 7a 3f f8 cd 83 3f ba 9a 85 3f f3 8c 7b 3f
       0.97742754 1.0297232 1.0437844 0.98261946
0000a0 2c f0 84 3f 62 91 7a 3f 4e 80 83 3f 7f db 7c 3f
       1.0385795 0.97878087 1.027353 0.98772424
0000b0 a9 48 81 3f 3b 30 79 3f 1c 50 7b 3f 84 44 76 3f
       1.0100299 0.9733922 0.9816911 0.96198297

norm.bias f4 [48]
000000 cc bb 21 bd 90 62 f5 bc e3 44 56 bb c7 26 a5 bb
       -0.039485738 -0.029954225 -0.0032694868 -0.005040023
000010 ef 2f 82 bc f9 21 24 bc 66 c5 54 3b ba 89 5f bc
       -0.015891997 -0.010017865 0.0032466291 -0.013643676
000020 0e b9 da bb dd d1 9d 3c e0 84 73 bb 78 a3 b6 bb
       -0.0066748923 0.01926511 -0.0037158057 -0.005573686
000030 eb 68 1b 3d d8 f3 1c 3d c8 01 40 3d a4 fd 23 3d
       0.037941854 0.038318485 0.0468767 0.040036812
000040 80 0c 23 3d 97 1b 49 3d 2d 0e 10 3d 5a de 10 3c
       0.039806843 0.049098577 0.03516977 0.008842075
000050 ce ac 19 3d 2f 53 2b 3d e5 cb 42 3d 46 eb 1e 3d
       0.037518315 0.041827377 0.04755773 0.038798593
000060 47 0a fd 3c 4f a4 04 3d 2d c5 d6 3b b4 db ab bc
       0.03088869 0.03238326 0.006554267 -0.020978786
000070 ec 3f 73 3c 7d 85 08 3d b8 49 14 bc a4 13 b1 3c
       0.014846783 0.03333043 -0.009050779 0.02161581
000080 37 85 b0 3b 76 22 ad 3c f7 2a 7b 3c a4 ce 30 3a
       0.005386974 0.021134596 0.015330068 0.0006744659
000090 ec 48 7e bc db 4a 88 3c 36 e8 ea 3c fb b2 00 bb
       -0.015520316 0.016637256 0.02867518 -0.001963793
0000a0 12 d5 02 3d 73 91 e8 ba 02 5e af 3c d2 a1 48 bc
       0.03194148 -0.0017743543 0.021407131 -0.012245612
0000b0 6b f7 87 3c 36 c7 e9 bc 70 0c 04 3c 28 90 95 bc
       0.01659747 -0.028537374 0.008059606 -0.018257216

gru1.weight_ih_l0 f4 [72, 48]
000000 19 38 a4 bd 1a df c2 bd 3f 02 e7 3d ad 12 c5 3c
       -0.08018512 -0.095152095 0.11279725 0.024056757
000010 53 53 88 bd 85 1e 32 3e 01 55 07 bd d1 e8 04 be
       -0.06656518 0.17394455 -0.03304005 -0.12979437
000020 6b ac 73 bc cd c0 0a be 23 53 f9 bd 4d 4f 52 be
       -0.014872651 -0.1355011 -0.1217406 -0.20538063
000030 a7 4e 0b 3e 9f 4f 27 3e 73 c3 32 be da 27 d9 3d
       0.13604222 0.16338967 -0.1745737 0.10603304
000040 22 87 8b 3d 01 33 b0 bd 3d 67 33 bd 30 2b 8a 3d
       0.06812884 -0.08603478 -0.043799628 0.067465186
000050 c1 1c 48 3d 76 00 38 3e 94 42 48 3e e3 b7 87 3c
       0.048855547 0.17968926 0.19556648 0.016567176
000060 99 96 25 3e 9b 1c 1e be 16 66 d0 bb c9 20 59 be
       0.1617073 -0.154406 -0.006359826 -0.21203913
000070 b3 2b 63 3d 29 c4 06 3c 30 a9 2b be c5 83 3f be
       0.055461597 0.008225479 -0.16763759 -0.1870261
000080 5c 2c 89 bd fa 13 fd bd 22 fe fd bd 71 3e 4f be
       -0.06697914 -0.12357326 -0.124019876 -0.20238663
000090 02 82 28 be e6 ae 18 3e 2d ba 13 be 38 64 27 3d
       -0.16455844 0.14910468 -0.14426489 0.04086706
0000a0 be 91 e3 bc 42 89 86 bd 1a 97 a3 3c ef 54 0a 3e
       -0.027779456 -0.065691486 0.019969512 0.13508962
0000b0 38 c8 02 3d 5e 20 23 ba 18 86 0f 3e 1b fb c2 bc
       0.031929225 -0.00062227796 0.14015996 -0.023801377
0000c0 9f 5a 88 3d a6 31 61 3e 03 a0 f8 bd bf 12 37 3e
       0.066579096 0.21991596 -0.12139895 0.17878245
0000d0 74 14 9f bd b9 c2 8f 3c 25 65 be bd 96 ed 18 3e
       -0.07767573 0.017548906 -0.092966355 0.14934382
0000e0 dc c8 1b be 0f 6d b6 bd 82 6f f7 3c c3 75 a9 bd
       -0.1521334 -0.0890752 0.030204538 -0.082744144
0000f0 b2 ae be bb 9e 6a 28 3e b6 44 55 be 62 84 16 be
       -0.005819165 0.16446921 -0.20826992 -0.14698938
000100 e0 d3 42 be 03 8e 33 3e e4 15 94 3c 62 ce 20 be
       -0.19026136 0.17534642 0.018076845 -0.15703729
000110 e8 31 55 be 39 64 01 3e da cf 2b 3e 8f 8c 17 be
       -0.20819819 0.12635888 0.16778508 -0.14799713
000120 9f 04 b6 3d ef 6a 53 bc 0a 02 20 3e 6a 54 9f bd
       0.088876 -0.012903913 0.15625778 -0.077797726
000130 d3 d3 32 3e 79 64 75 3e ec 66 1c 3e e4 78 f9 3a
       0.17463617 0.23964109 0.15273637 0.0019033221
000140 df 6b 85 3d d6 a3 00 3e fc ab a2 bd 93 16 6c bd
       0.065147154 0.12562498 -0.0794296 -0.057638716
000150 ce b6 26 be fd 70 38 3e e9 0a 75 bd 69 fe 57 3e
       -0.16280672 0.18011852 -0.059824858 0.21093144
000160 0f c2 08 bb b5 0a 19 bd 84 6f 10 3e 46 8f 7b 3c
       -0.002086762 -0.037363727 0.1410504 0.015353983
000170 a5 b3 cf bd 45 9b 6a 3d 74 a8 6a bd d6 bd e2 bd
       -0.10141686 0.057276983 -0.057289556 -0.110713646
000180 48 c7 08 be 20 59 74 3d 99 83 11 bc 34 07 ca bd
       -0.1335727 0.05965531 -0.008881473 -0.09864655
000190 1c bd 96 3d 9a 9a 74 bd 7b 11 24 be 57 3b ae 3d
       0.073602885 -0.059717752 -0.16022293 0.08507412
0001a0 0b 4b 61 bd e7 19 a9 bc b6 3d 40 3e f3 31 41 3e
       -0.055003207 -0.020642234 0.18773541 0.1886671
0001b0 28 27 4e be 35 2e 39 3e 62 70 2a 3e 34 73 18 be
       -0.20132124 0.18084033 0.16644433 -0.14887697
0001c0 da 92 57 be 8b db 36 be a6 e6 87 bd a8 00 9f ba
       -0.21052113 -0.17857186 -0.066357896 -0.0012130933
0001d0 c4 92 2f 3d 47 3d c2 3c 5d 28 8c 3c 76 57 38 be
       0.042864576 0.02371086 0.01710909 -0.18002114
0001e0 f4 87 65 3e e7 84 56 3e 18 8c 00 3e 8c cc 9b 3d
       0.22415143 0.20949136 0.12553442 0.076073736
0001f0 78 b3 a8 bd ab 54 3f 3d b1 f4 d3 bd 9c ef 59 3e
       -0.08237356 0.046711605 -0.103494056 0.2128281
000200 d9 94 14 be de f2 4e 3e a9 38 6c 3e 5b d0 80 bd
       -0.14509906 0.20209834 0.23068489 -0.06289741
000210 b4 65 16 be 6c ca c7 3d 4a c4 f3 bd 68 90 1e be
       -0.14687234 0.09755406 -0.119026735 -0.15484774
000220 09 3b b5 bd a0 bc 31 3e db ed c0 bd 85 bf 50 bd
       -0.08849151 0.17357111 -0.09420367 -0.050963897
000230 1e 32 63 bd eb ab 35 3e c8 ef df 3d 38 03 1c 3e
       -0.055467717 0.17741363 0.109344065 0.15235603
000240 62 6d 4b bc cc 89 bf bd 21 26 b2 3d 9f a2 e7 3d
       -0.012416216 -0.093524545 0.08698679 0.113103144
000250 45 78 43 3e 78 47 28 be 1f c5 13 be e1 63 1a 3e
       0.19088848 -0.16433513 -0.14430664 0.15077163
000260 47 48 9d 3d 77 bd dd 3d 9f 03 be bd 94 4c 39 3e
       0.076798014 0.10827153 -0.092780344 0.18095618
000270 b7 6b 65 3d b4 ab d8 bd ad 41 f3 bd 05 f7 ef 3c
       0.056010928 -0.10579625 -0.11877761 0.029292593
000280 15 10 bc bc 62 a4 f0 bd 97 1b fd bd 78 1d 8e 3d
       -0.022956887 -0.117501035 -0.12358778 0.069392145
000290 b1 20 a8 3d 9c db 35 3e 0c 5d d2 bd d6 32 0d be
       0.082093604 0.17759556 -0.102716535 -0.13788924
0002a0 76 1e f3 bd ed a7 0f be 57 bd 5e 3e 57 c1 cd bd
       -0.11871044 -0.14028902 0.21751915 -0.10046642
0002b0 7c 4d ce bd 14 db 1f 3e 13 df 29 3e 3a b0 40 be
       -0.10073373 0.15610915 0.16589002 -0.18817225
0002c0 8c fc a5 bc fa 29 73 3d c9 44 00 3d b2 e9 e4 bd
       -0.020262025 0.059366204 0.0313156 -0.11177386
0002d0 5f 56 2f be 46 e0 0f be d5 b3 87 3d 60 44 c7 bd
       -0.17122792 -0.14050397 0.06626097 -0.09729838
0002e0 19 d6 40 be 62 bb 50 3e 25 34 be 3d bf 72 70 bd
       -0.18831672 0.20383981 0.092872895 -0.05870318
0002f0 b2 f2 06 3d 4c 8c 94 bd c6 d5 03 be 5b 4e 3e be
       0.032946296 -0.07253322 -0.12874517 -0.18584578
000300 c0 01 11 3e df b9 33 be d6 d6 03 be 00 37 47 3e
       0.14160824 -0.17551373 -0.12874922 0.19454575
000310 ea a3 00 be e2 ed 86 bd 57 5c 14 3b 1c 63 5c be
       -0.12562528 -0.06588341 0.0022638047 -0.21522182
000320 64 f2 48 be 1f 3b 44 be ea 7d 82 bd 2b 33 dc bd
       -0.19623715 -0.19163178 -0.063716725 -0.10751947
000330 e3 83 0e 3e 33 e6 f5 3d 4e a7 52 3e 79 6f 31 be
       0.13917498 0.12006798 0.20571634 -0.1732768
000340 2a be a1 bd da 84 29 3e 4b 24 b8 3d f0 9f 00 be
       -0.07897599 0.16554585 0.08991297 -0.12561011
000350 a6 56 32 3e 9b a5 93 bd 78 96 66 3e 5f 97 05 be
       0.17415866 -0.07209321 0.22518337 -0.13046025
000360 a8 91 9f 3d 3c aa 25 bd 1c 8c 4e be b3 9f 89 3d
       0.077914536 -0.04044555 -0.20170635 0.06719913
000370 b6 7c c5 bd 07 3d e1 bc 86 12 cc bd 8d 19 8d bd
       -0.09642927 -0.02749492 -0.099644706 -0.06889639
000380 05 ce a3 bd 3d db 7e 3d 42 6a 4b bd 41 0d e8 3d
       -0.079982795 0.0622208 -0.049661882 0.11330653
000390 d8 9c 57 3d b2 96 d0 bc a9 52 42 3d af 9d da bd
       0.052639812 -0.025462482 0.047442112 -0.10674607
0003a0 a7 08 3e be bf 5d 2b be 08 0b 35 be d4 f3 3e be
       -0.18557988 -0.1673498 -0.1767999 -0.186477
0003b0 fe bc d4 3b 94 1a 20 bd d8 67 56 be c6 64 8f 3d
       0.006492256 -0.039087847 -0.20938051 0.07001643
0003c0 48 ab 26 3e 2c 52 58 3e 32 b5 18 3d be 22 be 3c
       0.16276276 0.21125096 0.037282176 0.023209926
0003d0 71 8d 1f 3e 69 94 11 be 25 c2 0a 3d 62 4c 27 3e
       0.155813 -0.1421677 0.033876557 0.16337731
0003e0 6f 8f 26 3e c8 1d ac 3b f0 e6 4e bd 1e 29 76 3d
       0.16265653 0.0052525736 -0.050513208 0.060097806
0003f0 80 d5 ca 3a 5a fb 44 bd ff f5 fd 3d 35 c0 14 3e
       0.0015475005 -0.04809127 0.12400436 0.14526446

gru1.weight_hh_l0 f4 [72, 24]
000000 e8 9f d0 3d d3 b2 46 3d b5 48 b8 bd d0 ef 14 be
       0.1018675 0.048510384 -0.08998243 -0.14544606
000010 a2 04 0c 3e 6f d2 fd 3c 68 4d 9e 3c a9 c6 cd 3d
       0.13673642 0.030984132 0.01932402 0.10047657
000020 a5 0d 99 bd dc 10 4e be 62 d1 27 be bf ec 49 be
       -0.074733056 -0.20123619 -0.16388467 -0.19719218
000030 5c 59 f2 3d fe b0 14 3e 92 80 e3 bd ac 87 2c 3b
       0.1183345 0.14520642 -0.11108507 0.0026325984
000040 e3 c0 9a bd 12 ff aa bd 76 22 10 be 63 88 cc 3d
       -0.075563215 -0.08349432 -0.14075646 0.09986951
000050 b8 be bf bd f7 62 3e be 04 a8 26 3d 72 1a 19 bd
       -0.093625486 -0.1859244 0.040687576 -0.037378736
000060 08 a5 8e 3d ba 26 9d 3c 30 7f 17 3d c7 8b 22 3e
       0.06965071 0.019183505 0.03698653 0.15873633
000070 70 aa 1b be ad 6e fa bd 9e 93 70 3e aa e3 2d 3d
       -0.15201735 -0.12228141 0.23493811 0.042453445
000080 8c a1 88 bd 89 ce 0c 3e b6 4c 2c 3e fc d1 c6 3d
       -0.066714376 0.13750662 0.16826138 0.0970802
000090 ec 9c 10 be 5c 52 5b 3e 8f f3 1b be 60 5a 6f be
       -0.14122361 0.21418136 -0.15229629 -0.23374319
0000a0 13 ca 41 3c 6d 1a 15 bd 21 1b 2b be cf e1 24 3e
       0.011827963 -0.036402155 -0.16709568 0.16101764
0000b0 fe 1e 75 3d 5f 22 dc bd 78 b1 22 3d 8f e5 31 3e
       0.05984401 -0.10748743 0.03972003 0.17372726
0000c0 c0 ef 15 bc c6 e3 43 3e d7 f9 18 3e 40 51 4b 3d
       -0.009151399 0.19129857 0.14939056 0.049638033
0000d0 50 fe 10 be ec 21 31 be 4d 01 cc bb 7f 96 47 bd
       -0.14159513 -0.17298096 -0.006225741 -0.04872751
0000e0 11 1c 54 be 98 67 57 be 4c c5 d1 bd 40 ee e8 3c
       -0.20713831 -0.21035612 -0.102427095 0.028433919
0000f0 db 0a 77 bd 23 55 2b be 74 be ca bc 3d 78 00 be
       -0.060313087 -0.16731696 -0.024749018 -0.12545867
000100 7a 08 27 bd 20 96 0f 3e a5 e8 0f 3e a4 04 f4 3d
       -0.04077957 0.14022112 0.1405359 0.11914948
000110 5b 44 81 3e 28 36 14 3d e9 d2 f0 bd 91 33 59 bd
       0.25247464 0.03618446 -0.11758978 -0.053027693
000120 0f 7e 5d 3d 8b 9c 84 bd 60 4e 19 3e 0c cc ff 3d
       0.054075297 -0.06475171 0.14971304 0.12490091
000130 dc 49 07 be 90 65 21 38 a0 15 05 3d 30 a3 ab 3d
       -0.13211769 3.847998e-05 0.032491326 0.08380735
000140 05 08 1c be 2b 91 3b 3e b6 b5 c5 bd c9 36 bf 3d
       -0.15237434 0.18317096 -0.09653799 0.09336621
000150 47 1c bf bd d1 f7 b3 3d c9 35 77 bd 76 04 c4 bd
       -0.09331565 0.087875016 -0.060354028 -0.09571163
000160 36 f0 56 be 1a e3 b5 3d bb 00 34 3d 62 6d ab 3d
       -0.2099007 0.08881207 0.04394601 0.083704725
000170 ff cd e6 bd e1 a6 1e 3c e9 8d d4 bd 36 4a ac 3d
       -0.112697594 0.009683342 -0.1037863 0.08412592
000180 3b fe 28 3e b1 e8 53 be 62 6f 86 3d fb c9 20 be
       0.16503231 -0.20694233 0.06564213 -0.1570205
000190 46 62 bf 3d 62 c3 9e bc 94 ff 99 3d 83 11 29 be
       0.09344916 -0.019380275 0.07519451 -0.16510586
0001a0 01 5f 2f 3e 1f 96 14 3e d0 5f 2b be f4 72 30 be
       0.17126085 0.14510392 -0.16735768 -0.17231351
0001b0 19 51 9d 3d ac 75 1d be 38 16 7c 3d 99 db 93 bd
       0.07681484 -0.1537692 0.061544627 -0.07219619
0001c0 1f 69 4d be a5 16 21 3d 31 8b ea bd 8f c7 f9 bd
       -0.20059632 0.039328236 -0.1145233 -0.12196266
0001d0 79 60 aa 3c 70 90 9c 3d 5b 65 3e 3e 10 af 6d 3e
       0.020797955 0.07644737 0.18593352 0.23211312
0001e0 54 a6 de 3d 0a 12 cb bc dd ef 7a bd a1 cf 42 3e
       0.10871568 -0.024788875 -0.061263908 0.19024517
0001f0 fd 8e 08 be 07 21 dd 3d ca 8d fa 3d 27 19 e8 3d
       -0.13335796 0.10797315 0.12234075 0.113329224
000200 4f be f8 3c 9e a2 53 be d3 2e 28 3d f0 d6 d1 3c
       0.030364184 -0.20667502 0.04106028 0.025615185
000210 20 d3 04 3d 85 d2 85 bd 04 4e 33 3e 90 df 3d bd
       0.032427907 -0.06534294 0.1751023 -0.046355784
000220 df 04 02 bd f6 e7 0c be b5 97 44 3e 7d f3 22 be
       -0.031742927 -0.13760361 0.19198497 -0.15913196
000230 07 0f 1b 3e 9e 8b 8c 3d 8e 5e 97 bb c9 40 2b be
       0.15142451 0.06862567 -0.004619426 -0.16723932
000240 ab 8c db bd 84 9d f9 3b 40 61 fa bd be ce 98 bd
       -0.1072019 0.0076176543 -0.1222558 -0.07461308
000250 eb b5 a7 bd 44 1a 6a bd fb 4e f7 3d 28 53 2c 3e
       -0.08188995 -0.057153955 0.12075611 0.16828597
000260 ed 91 b6 bd a0 4d e7 3d b4 52 6c 3d ac 77 17 3e
       -0.08914552 0.11294103 0.05769606 0.14791745
000270 c3 cc 1f be 42 07 01 be bc 1e 5d bd 26 3c 43 3e
       -0.15605454 -0.12600425 -0.05398439 0.19065914
000280 80 73 48 3e 99 61 80 bd 85 e9 08 be 75 af 09 be
       0.1957531 -0.06268615 -0.1337033 -0.13445838
000290 88 4b 44 3d 5e 6a c3 3d 31 16 b5 bd 13 0c dd 3b
       0.047923595 0.09541772 -0.08842123 0.006745824
0002a0 9e 08 33 bd 2c c2 1c 3e f8 45 3d bd 17 d9 10 be
       -0.04370939 0.15308446 -0.046209306 -0.14145313
0002b0 16 1a b1 ba 85 11 08 3d e0 96 b7 3d e0 f9 31 3e
       -0.0013511803 0.033219833 0.08964324 0.17380476
0002c0 2f 3d 96 bd f8 ac 58 3e 2f 79 fc 3d 4b 73 21 3e
       -0.073358886 0.21159732 0.123278014 0.15766637
0002d0 d1 11 64 3d db 1f 89 bd 22 da 9e 3c d6 c9 f4 bc
       0.055681054 -0.06695529 0.019391123 -0.0298814
0002e0 11 58 df bd fc ce bb bd f9 75 09 3e ec 6e 27 39
       -0.10905469 -0.091703385 0.13423909 0.00015967683
0002f0 82 66 8d 3d 3f d0 8e 3d 0a f5 84 3d 8b 7e 42 be
       0.069043174 0.069733135 0.0649205 -0.18993585
000300 67 a6 84 bc 29 9f a7 bc f9 89 a9 bd 7c f8 dd bd
       -0.016192628 -0.020461636 -0.08278269 -0.1083841
000310 3b 88 24 bc ba f4 cd bc 8b af 25 bd e3 52 db bc
       -0.0100422455 -0.025141109 -0.040450614 -0.026772922
000320 eb bc af bd 1e 73 58 bd f1 5e 20 be fc ec 42 3e
       -0.08580955 -0.05284416 -0.15661217 0.19035715
000330 97 1e b6 bd a9 f9 00 3e 96 6c 20 be 32 63 1c bd
       -0.08892553 0.12595238 -0.15666422 -0.038180538
000340 ca 2b 11 bd 08 ca 1d be f0 26 fd 3c 3e 64 18 be
       -0.03544215 -0.154091 0.030902356 -0.1488199
000350 5c bb d2 3d c8 7f 05 3e 14 e7 68 bd b4 d4 38 3d
       0.10289642 0.13037026 -0.056861 0.045124725
000360 f4 86 de bd 52 22 93 3d 86 7a 3c be d5 d4 52 3e
       -0.10865584 0.071842805 -0.18406114 0.20589001
000370 fa b6 c9 bc 05 71 2c 3d 2a 38 21 3e 6a 22 37 be
       -0.024623383 0.04209997 0.15744081 -0.17884222
000380 b8 e7 a5 bd d2 4a 1b 3d 47 42 5d be 6b 5c 28 3d
       -0.081008375 0.03791315 -0.21607314 0.04110376
000390 96 8e 99 bc 51 2f 3a be d8 4b 87 bd e3 34 07 be
       -0.018744748 -0.18182112 -0.06606263 -0.13203768
0003a0 56 13 29 3c 5e 8c 1c 3e ff d6 49 3e d0 df 3a be
       0.010319551 0.15287921 0.19710921 -0.1824944
0003b0 a7 d0 96 3d 00 e8 34 be 11 59 a3 3d f7 2d ea 3d
       0.07364016 -0.17666626 0.079759724 0.11434548
0003c0 49 56 32 be 7c df 14 be 7f 6a 68 be c2 07 6b bb
       -0.17415728 -0.14538378 -0.22696875 -0.0035862778
0003d0 c3 48 f5 3d 27 86 26 be 9e 96 ae 3c d8 0e 4c bd
       0.11976769 -0.16262113 0.021312054 -0.049818844
0003e0 e3 e2 32 3e be 17 4b be 92 1a 15 be d3 68 12 3c
       0.17469363 -0.19833276 -0.14560917 0.008936125
0003f0 bc 76 22 be 66 d5 32 3e 2f bf 25 be 6f 93 b8 bd
       -0.15865606 0.17464218 -0.16186212 -0.09012496

gru1.bias_ih_l0 f4 [72]
000000 de 06 25 3e a6 fe ac bd 91 80 dc 3d d0 ec b6 3c
       0.16115901 -0.08447008 0.107667096 0.022329718
000010 09 98 28 3d 42 9d eb 3d 0c ae 44 be e3 62 1d 3d
       0.041160617 0.11504604 -0.19207019 0.038424384
000020 5c 9e a7 3c fa 3f 2b be eb ef 0b 3e 50 34 95 3c
       0.020461254 -0.16723624 0.1366574 0.018213421
000030 d6 47 6e bd ca e6 6b bc c8 06 28 3e 40 3d 55 bd
       -0.058173977 -0.014398286 0.16408837 -0.052060366
000040 7b 69 eb bd 9e 8c 21 bd 42 29 9a bd 39 73 c2 3d
       -0.11494728 -0.039440744 -0.075274006 0.09494633
000050 5f ac 1b bc 02 56 b1 3d a5 ea 32 be c5 00 ec 3b
       -0.009501546 0.08658983 -0.17472322 0.00720224
000060 0f 6e 07 3e 07 3c 42 bd 13 3f 32 3e f2 b5 e6 3c
       0.13225578 -0.047420528 0.17406873 0.02816293
000070 e0 d4 42 be 57 03 0c be 05 52 22 3e 57 0c a0 bd
       -0.19026518 -0.13673149 0.158516 -0.07814854
000080 93 18 1e 3e 60 33 65 be b9 10 14 be 7c e4 ce 3d
       0.15439062 -0.2238288 -0.14459504 0.10102174
000090 f9 a4 16 3e 11 c9 78 be 1e a1 80 3d 8b b4 73 be
       0.1471137 -0.24295451 0.06280731 -0.2379934
0000a0 cf 21 04 be ca c3 9c 3d 74 3e 06 be 60 f0 17 3d
       -0.12903522 0.07654531 -0.13109761 0.037094474
0000b0 49 62 e4 bd 06 8a 39 be f3 4a 58 be 1f 64 bf 3d
       -0.11151559 -0.18119058 -0.21122341 0.093452685
0000c0 68 ee db 3d ce cd 4c bc b5 0d 2c 3e 11 3d 14 be
       0.10738832 -0.01250024 0.16802104 -0.1447642
0000d0 d7 02 94 bd 6a 72 54 be 4d 13 40 3e 70 c2 79 3d
       -0.07227104 -0.2074677 0.18757363 0.060976446
0000e0 23 79 53 bc 2d 52 c7 bd 70 a6 44 be 4a ac 41 3e
       -0.012907299 -0.09732471 -0.19204116 0.1891338
0000f0 45 a0 c3 3d 39 fa 05 bd 84 eb 14 3c e7 fe 4d 3d
       0.09552053 -0.032709334 0.009089354 0.050291922
000100 9a 16 bc bd 69 68 51 3e e9 fd 3e 3d 7e 65 07 bc
       -0.091839984 0.20449986 0.046628866 -0.008263944
000110 6d ec 12 3e 3b cd e2 bd 34 dc ed 3d 9b 5c e0 bd
       0.14348002 -0.11074301 0.11614266 -0.10955163

gru1.bias_hh_l0 f4 [72]
000000 7a d8 25 be a6 40 16 bd 32 7c 57 bd a7 2f 54 3e
       -0.1619586 -0.036682747 -0.052608676 0.20721303
000010 b1 08 98 bb b9 d3 d5 bd 55 20 1d be 8e e7 e8 bd
       -0.004639708 -0.104407735 -0.15344365 -0.113722906
000020 6c d2 39 be e1 40 50 bc 35 3c 3b 3c d5 9d 43 be
       -0.18146676 -0.012710781 0.011427929 -0.19103177
000030 44 b3 21 3d ea 5f 47 bd b8 b2 57 bc 37 c1 17 be
       0.0394776 -0.048675455 -0.013165168 -0.148198
000040 32 97 de 3d 1e 25 bb bb dd b0 2a 3c 48 8b bc 3c
       0.10868682 -0.005711212 0.010418144 0.023015633
000050 3e 6f a3 3d 3f 91 be 3d 5f 68 2b bd 49 cb 95 bd
       0.07980202 0.09305047 -0.041847583 -0.07314164
000060 91 64 14 bd a0 c1 47 be c8 c3 60 3d b8 ba f0 bd
       -0.03622872 -0.19507456 0.05487421 -0.11754364
000070 c9 3f 25 3e cf ec 33 3e 32 c5 3e 3d 09 52 e6 bd
       0.16137613 0.17570804 0.04657478 -0.11246116
000080 8a 17 c4 bd ff 30 04 3e d0 99 9a bd b3 80 35 3d
       -0.09574802 0.12909316 -0.07548869 0.04431219
000090 6e da 3d be c6 2c c0 bd 6d b1 b8 3d bf 15 db 3d
       -0.18540356 -0.0938354 0.09018216 0.10697507
0000a0 33 33 f7 3b f9 e2 07 3c 87 07 b2 bd 5f 5f 2d bd
       0.007543945 0.008293861 -0.08692842 -0.04232728
0000b0 97 21 23 3e 87 3c ab bd e4 ca ca bd 01 3e 22 3e
       0.15930782 -0.08361154 -0.099019796 0.15843965
0000c0 bc e7 1c 3e 38 64 32 bd 12 f3 90 bd df 8d 0b be
       0.15322775 -0.043552607 -0.07077612 -0.13628338
0000d0 0a 2e a2 3d de 24 94 bd 8e 2c c5 bd dc 89 17 be
       0.079189375 -0.07233594 -0.09627639 -0.14798683
0000e0 31 13 ac bd e4 8b 9c 3d 08 c6 3c be cf 69 bf 3d
       -0.08402098 0.076438695 -0.18434918 0.09346353
0000f0 16 fa 18 be 6f 92 4d 3e 6d 6a 14 be 3b 3d 37 3e
       -0.1493915 0.20075391 -0.14493723 0.17894451
000100 aa 14 03 bd 66 82 02 3e 54 44 44 bc a7 69 fb bd
       -0.03200213 0.12745056 -0.011979181 -0.12276011
000110 70 3d 98 bc e6 ab e7 3d 99 4b c6 3d b3 56 23 3e
       -0.018583983 0.11312084 0.09682388 0.15951042

gru2.weight_ih_l0 f4 [72, 24]
000000 cb a6 d0 3c 21 80 a7 3d f6 ea ec 3d da f4 77 bd
       0.025470158 0.081787355 0.11568253 -0.060536243
000010 85 bf 37 bd 30 99 94 3d ee 16 bb bc ca c8 a4 3d
       -0.04486038 0.07255781 -0.022838082 0.0804611
000020 a4 2e af 3d 6c 63 4f bd de 62 b8 bd 0d 1d 4c 3e
       0.08553818 -0.050631925 -0.090032324 0.19932957
000030 c6 20 b3 3d 15 e5 2d be 22 de 3d be 4b fa 08 bc
       0.087464854 -0.16981919 -0.18541768 -0.008360456
000040 7c ea 1f be d0 af 3b 3e c1 41 2d 3e 13 42 21 3e
       -0.15616792 0.18328786 0.16919614 0.15747862
000050 0f b3 30 3e 96 b6 e8 3d a4 79 18 3e 64 8e 50 3d
       0.17255805 0.113629505 0.14890152 0.050917044
000060 66 02 62 3e 52 54 e8 3d 5e 71 87 3d 26 b9 6d bd
       0.22071227 0.11344208 0.0661342 -0.0580379
000070 5d 65 fb 3d 79 de 5c be 1d d0 3c 3d 4f 3e 9b bd
       0.12275193 -0.21569242 0.04609691 -0.07580244
000080 fa 44 73 bc 75 14 ab bc ad d0 7a bd 09 eb 7a 3e
       -0.014847988 -0.020883778 -0.061234165 0.24503721
000090 a1 30 1a be 11 2a 26 be d3 f3 41 3d 2c df 2a be
       -0.15057613 -0.16226985 0.04735167 -0.16686696
0000a0 32 67 32 be 30 8f a0 bd 6a 45 55 3e f6 4d c8 bd
       -0.17422178 -0.07839811 0.2082726 -0.09780495
0000b0 d7 bf fc bd 07 c8 f6 3d 1d 47 2e be e1 2d 88 3c
       -0.12341278 0.12049871 -0.17019315 0.01662344
0000c0 be 4f a8 bd f4 6a bb 3d 5b 1c 03 3e e8 5d af bd
       -0.082183346 0.09151259 0.12803786 -0.08562833
0000d0 38 4a cf bd e6 61 3f 3d c6 8a a1 bd 35 88 ea 3d
       -0.10121578 0.046724223 -0.07887797 0.11451761
0000e0 18 1a c0 3d 35 b2 f1 3d 0f dc d4 bc 2d 9a 65 3e
       0.09379977 0.118015684 -0.025983838 0.22422095
0000f0 74 3a fe bc 9b 98 1e 3e 90 40 cb bc 2b 50 ec bd
       -0.031033732 0.15487902 -0.02481106 -0.11538728
000100 10 c8 ae 3c b3 8e 16 3e d3 ba 08 3e 31 68 23 3e
       0.021335632 0.14702873 0.13352518 0.15957715
000110 58 04 4a 3c 36 4f 1f 3d f1 ae e1 3d 1b 28 b2 bd
       0.012330137 0.0388939 0.110196956 -0.08699056
000120 74 c4 9a 3a 7d cf 2b 3e d6 d5 96 bd f0 c1 57 3e
       0.0011807815 0.16778369 -0.07365005 0.21070075
000130 09 a7 06 3e c7 2b fa bd e2 20 4d 3e d2 60 3a bd
       0.13149656 -0.12215381 0.20032075 -0.04550249
000140 54 74 cc 3d 34 9b fc 3d e9 e3 b2 3d 0c 3f 4a 3e
       0.09983125 0.1233429 0.08734877 0.19750613
000150 9d 59 49 3d 0b 99 0a be 11 00 46 3e 31 52 aa bc
       0.049157728 -0.13534944 0.19335963 -0.020791145
000160 e8 70 ec bd 40 4d a5 3b 6c 6e a6 bd 93 cc e9 3d
       -0.11544973 0.0050446093 -0.0812653 0.114159726
000170 f6 d0 24 be fd 2b 54 3d 19 a5 6d be 8a 7e 7d bd
       -0.16095337 0.051799763 -0.23207511 -0.061888255
000180 8f f9 3d 3e d4 29 43 3c 0c 80 d4 3d be 19 5a 3e
       0.1855223 0.011911828 0.103759855 0.21298882
000190 ef f3 d7 bc 83 b2 47 bd 9e 3a e7 bd dc 45 8c bc
       -0.026361434 -0.048754226 -0.11290477 -0.017123155
0001a0 11 5e 20 3d 98 43 e0 bd 72 ba f4 3d e1 2f 23 3e
       0.03915221 -0.109503925 0.11949624 0.15936233
0001b0 8e d1 36 3e 09 f5 5b 3e 3c 70 48 3d 4c c7 d3 bc
       0.17853376 0.21480192 0.04893516 -0.025851868
0001c0 77 88 c2 bd 09 a1 75 3e 29 02 42 3e 16 db ee bd
       -0.09498685 0.23987211 0.18946137 -0.11662881
0001d0 e2 19 b5 3d 05 e1 cd bd a5 a6 02 3e 0c ed 90 bd
       0.088428274 -0.10052685 0.12758882 -0.07076463
0001e0 7e 4c 02 be 2d d0 8e 3d df 46 1b be 2d 3f 56 3e
       -0.12724492 0.069733 -0.15163754 0.20922537
0001f0 0c c1 53 3e 74 72 35 be 4a 84 f8 bb 32 71 71 3b
       0.2067911 -0.17719442 -0.0075841295 0.0036841151
000200 65 38 5e be 98 a1 3e be c7 ca 1b 3e 69 f0 3a 3e
       -0.217012 -0.1861633 0.15214072 0.18255772
000210 cf f4 4c bd 82 6e d3 3d 22 bc c6 bc ee be 07 3d
       -0.050038155 0.10323812 -0.02425963 0.03314107
000220 21 1c 37 bd dc 21 d4 3d d9 86 a6 bd 57 0c 4e 3e
       -0.04470456 0.10358021 -0.08131189 0.20121895
000230 3a 29 a1 bc 56 09 36 3e 8a 2b 12 be fb 0e 0a bc
       -0.019672979 0.17776999 -0.14274421 -0.008426423
000240 87 1b 2f 3e a6 9d 35 be 88 3e d6 3b ba 42 e1 3d
       0.17100345 -0.1773592 0.006538216 0.10999055
000250 13 7a 02 3d 15 c9 33 be 91 40 c6 bd cd 12 01 3e
       0.0318547 -0.17557175 -0.09680284 0.12604828
000260 df a6 68 be 01 3e 0c be 6e 02 b8 3d 5a 41 0d bd
       -0.22719906 -0.13695528 0.089848384 -0.034486152
000270 aa 35 48 be b5 48 a2 bd 85 52 6e 3d 05 3c ee bd
       -0.19551721 -0.07924024 0.058184166 -0.116325416
000280 b1 94 e3 bd 18 f0 cf bd b5 cc 3d 3e 4c 01 26 3e
       -0.11112345 -0.10153216 0.18535121 0.16211432
000290 10 cc 04 be 1a 51 11 3e ce e1 2c 3e 6e b2 30 bd
       -0.12968469 0.14191094 0.16883013 -0.043138914
0002a0 f5 26 ef 3d da 00 2b be 0f 9c f2 3d 3e b1 9b bd
       0.11677352 -0.16699544 0.11846172 -0.07602166
0002b0 17 6e 09 be 79 06 24 be 00 18 21 be b2 de 63 3e
       -0.13420902 -0.16018094 -0.15731812 0.2225292
0002c0 5a 9f 67 be 58 c8 52 be 31 92 92 3c 07 ac 19 3e
       -0.22619382 -0.20584238 0.017891975 0.1500703
0002d0 96 64 8a bd a1 7e f9 3d 3a a7 a6 3c a4 6a 3a be
       -0.067574665 0.12182356 0.020343412 -0.18204743
0002e0 7c 1b 83 3d a0 75 0a 3e e3 5f 1f be 02 b0 21 be
       0.064017266 0.13521433 -0.15563922 -0.15789798
0002f0 26 3a 11 3c 8e 27 2f be e1 f6 46 be 96 be 95 3d
       0.008863961 -0.17104933 -0.19430114 0.07311742
000300 90 9a 61 3c 80 58 9c 3d 69 da dd bd c6 ac b8 bd
       0.013769761 0.076340675 -0.10832674 -0.09017329
000310 30 65 59 be e4 26 e2 3d 3a 42 3c be d7 02 0c 3d
       -0.21230006 0.11042574 -0.18384638 0.034182396
000320 0e 1a 27 3e 52 d0 a2 3d e5 5a f3 3d b2 8c 2f 3e
       0.16318533 0.0794989 0.11882571 0.17143515
000330 e4 e4 fd 3a 78 31 9b bd df f5 36 bc 66 2b 1c be
       0.0019370583 -0.07577795 -0.011167019 -0.1525093
000340 89 06 05 be a9 47 d9 3d 4c 2e 0e 3e a5 1f b4 3d
       -0.12990774 0.10609371 0.13884848 0.08795098
000350 c7 08 1f be 6f 96 21 be bb a7 2e 3e f2 cb 13 3c
       -0.15530692 -0.15780042 0.17056172 0.009020792
000360 99 7d 15 be d3 b5 43 3d 05 29 ad 3d cd 47 ec 3d
       -0.14598693 0.047780823 0.084550895 0.115371324
000370 61 f2 25 3e 2e 3c c3 bd 9f 26 02 3e 91 51 0b be
       0.16205741 -0.09532963 0.12710045 -0.13605334
000380 99 c1 c9 3d 9e fd 23 be 01 b4 52 bd ee 85 3d 3e
       0.09851379 -0.16014716 -0.051441196 0.18508121
000390 eb 0c 15 3e c5 90 b9 3d 99 10 c2 3c 1f 59 8e 3d
       0.14555709 0.09060816 0.023689555 0.06950592
0003a0 91 ee 82 3a c5 be 2e 3e ad 51 f1 3d f9 27 32 3e
       0.0009989311 0.1706496 0.117831565 0.17398061
0003b0 5b 96 46 bd 93 79 09 3e e2 da 16 3e 07 22 e7 3d
       -0.048483234 0.13425283 0.14731935 0.11285787
0003c0 98 43 f3 bd 2d 20 86 3d 6b 87 dc bd de 43 38 be
       -0.11878127 0.06549106 -0.107680164 -0.1799464
0003d0 53 53 40 3e 7d ad 43 be 9b dc 35 3e 25 68 54 bd
       0.18781786 -0.1910915 0.17759936 -0.051857132
0003e0 6e 4b 4f bd 50 90 0d be 97 c7 ac bd 3a 07 1a 3d
       -0.050609045 -0.13824582 -0.08436506 0.037604548
0003f0 7a 79 fb bd 06 42 37 3e 9e 3b 73 3d 75 9e 25 3e
       -0.12279029 0.1789628 0.059383027 0.16173728

gru2.weight_hh_l0 f4 [72, 24]
000000 d8 de e5 3d 4b 3c 86 bd d9 ad 2a 3e f7 62 a2 3d
       0.11224145 -0.06554469 0.1666788 0.07929032
000010 ba bd 15 be 4c 0b 72 bc 26 30 48 3e 9b 52 1c 3e
       -0.14623156 -0.014773201 0.19549617 0.15265886
000020 a4 c8 b5 bd c4 be 0e be 89 ef 18 3d ee 5c fa 3d
       -0.0887616 -0.13939959 0.037337814 0.12224756
000030 07 76 7d bd 40 d4 42 be 46 4d 35 3e b5 8d 01 3e
       -0.061880138 -0.1902628 0.17705259 0.12651713
000040 22 7e 4c be 9f c8 88 3c 6e f8 31 bd 54 6e 5b 3e
       -0.19969991 0.016697226 -0.04344981 0.21428806
000050 52 db 01 3e a4 b6 37 3d 6f 65 a9 bc fa 48 1c be
       0.1268132 0.044851914 -0.02067825 -0.15262213
000060 24 51 e5 3d f9 85 3e 3d ad bf 50 3d 45 a1 1f 3e
       0.11197117 0.046514485 0.050964046 0.15588863
000070 e1 15 2b 3e 22 de 59 be 20 04 c7 3c dd d5 38 bd
       0.16707565 -0.21276143 0.02429396 -0.04512583
000080 1a 88 3e bd b4 48 8a 3d 3e 83 da bb 45 8a 2b 3e
       -0.046516515 0.06752148 -0.0066684773 0.16751964
000090 34 de c5 3d 49 41 c8 bc f7 31 e8 bd f3 5b 81 bd
       0.096615225 -0.024445193 -0.11337655 -0.06316366
0000a0 13 93 0e 3e 28 86 c1 3d a6 26 50 3e 14 23 16 be
       0.13923292 0.094494164 0.20327243 -0.14661819
0000b0 43 27 da bd c1 1f bb bd 43 a1 0e 3e 8b fe 0e 3e
       -0.1065202 -0.09136916 0.13928704 0.13964288
0000c0 df 80 c9 3c a6 b6 5a be b9 2f 97 3d 44 92 38 be
       0.024597583 -0.21358737 0.07382149 -0.18024546
0000d0 98 4e 30 3e a0 6f 40 be a0 cf 91 3d aa 89 33 3d
       0.17217481 -0.18792582 0.071196795 0.04383246
0000e0 8e 15 91 3d a9 d7 cc bd 07 df 82 3d b3 a8 2f 3d
       0.07084189 -0.100020714 0.06390195 0.042885493
0000f0 7c 92 75 bc 80 91 3c be b6 53 19 3e 9e 48 04 3c
       -0.014988538 -0.18414879 0.1497334 0.008073954
000100 f8 f4 9b bd 75 ad 3d bd 80 d4 27 bd 18 0f 6d 3e
       -0.076150835 -0.046308 -0.04097414 0.23150289
000110 d6 7e 44 3e 0e 46 13 3c d4 44 79 3e 9a fa f2 bc
       0.19189009 0.00898887 0.24342662 -0.029660512
000120 9a d1 85 3d 73 dd e8 3a f2 fa 86 3c d3 ca 15 be
       0.06534119 0.0017766192 0.016477082 -0.14628153
000130 da d6 cc 3d 9f 62 5f bd 81 4e e9 3d d7 dc 19 3e
       0.10001917 -0.05453741 0.113919266 0.1502565
000140 e1 44 e7 3d 0e e8 c8 3d fd d7 c2 bc 8a 17 54 bd
       0.112924345 0.09809886 -0.023784632 -0.05178026
000150 81 7d 1a 3e 79 89 5c be 64 bd 0e be 6f 27 70 3d
       0.15086938 -0.21536817 -0.13939434 0.058631357
000160 b2 b1 0d 3e a2 c8 e5 3d 4b 7f 15 be 13 c9 bc 3d
       0.13837317 0.11219908 -0.1459934 0.09218039
000170 51 57 08 be bd 9f 42 3e 2b b4 07 be 6c 37 fc bb
       -0.13314559 0.19006248 -0.13252322 -0.0076970365
000180 b2 41 ac 3d 25 01 9e bd 81 53 12 3e 9f a8 0c 3e
       0.08410968 -0.07715062 0.14289667 0.13736199
000190 a4 0b f8 3d 75 8a d0 bb 3b 35 70 3e 97 96 78 3e
       0.12111595 -0.0063641616 0.23457806 0.24276195
0001a0 2b 43 40 be fc c6 6b 3e 29 26 09 3e 0d db 52 3d
       -0.18775623 0.23025125 0.13393463 0.051478434
0001b0 1f 62 79 3c 55 06 f5 bd 7b 31 ee bd 75 23 90 3d
       0.015221148 -0.11964098 -0.116305314 0.07038013
0001c0 4e 90 6d bd d7 89 56 3d 23 d3 e4 3d f7 72 1c 3e
       -0.057998948 0.052377548 0.11173084 0.1527823
0001d0 e2 37 c3 bd 32 5f 90 bd 26 3f 55 3c 5d ca 47 3d
       -0.09532143 -0.07049407 0.013015544 0.048776973
0001e0 45 e7 44 bd 5b d2 f2 bd 3f 12 ef bb f6 4e 57 3d
       -0.04807212 -0.11856528 -0.0072958763 0.052565537
0001f0 f4 a8 21 3d 08 a7 aa bd ea 9d 99 3d a3 b2 e5 bd
       0.039467767 -0.0833264 0.07500823 -0.11215713
000200 b1 d2 61 be f5 ae 1b 3e bf 72 22 3e 95 91 cd 3c
       -0.22053029 0.1520346 0.15864085 0.025093833
000210 a9 72 9e 3d 91 1b 03 3e 6c 1f 1d 3e f3 c0 27 3d
       0.077367134 0.12803484 0.15344018 0.040955495
000220 1c 97 99 bb dd 4c 38 be 1a a4 e8 bb c8 02 1e bd
       -0.004687203 -0.17998071 -0.0070996406 -0.03857687
000230 f9 c5 ab 3c 26 77 5d 3e 6a e1 e3 bc c4 24 31 be
       0.020968424 0.21627483 -0.027817447 -0.17299181
000240 54 54 56 3e 6d ab 0f bd 4a 52 d7 bd 49 e2 06 3d
       0.20930606 -0.035075594 -0.10513742 0.032930646
000250 2f 45 8a 3c b1 7f 4a 3d 8d 60 71 3e 6a b4 ab bd
       0.016878692 0.049438182 0.23571987 -0.083840206
000260 aa c6 fa bd 66 cd 34 3c cc e8 cb 3d 8d a6 61 3e
       -0.122449234 0.011035299 0.09956512 0.2203619
000270 51 52 14 be b4 ca 0e be 5e 60 67 bd c2 ac fc bd
       -0.14484526 -0.13944513 -0.056488387 -0.123376384
000280 39 d1 de 3c dc 71 0f 3e 6e 3c 5c 3e 9f eb 0c 3e
       0.027199375 0.14008278 0.21507427 0.13761757
000290 a1 9b a4 bc bb a8 8b bd dc 42 43 3e 65 6a e0 bd
       -0.02009374 -0.06819292 0.19068474 -0.10957793
0002a0 a0 17 3a 3d 72 63 10 3e 12 2b bf 3c 2a 91 0f 3e
       0.045432687 0.14100435 0.023335967 0.1402022
0002b0 7b 05 9f bd 13 2b f2 bc ef 67 7f 3e df 11 1d 3d
       -0.07764717 -0.029561555 0.24941991 0.03834712
0002c0 fa d3 21 be dc e4 ae 3d 9a 0c 06 be 82 92 12 3e
       -0.15803519 0.08539745 -0.13090745 0.14313701
0002d0 83 8e ef 3d 31 ce a6 bd 1b 9c 9d 3d ae b0 5c 3e
       0.11697104 -0.08144797 0.076957904 0.21551773
0002e0 f4 52 41 3e b9 fe 08 3e 83 6a 1a be 09 83 1e be
       0.188793 0.13378419 -0.15079693 -0.15479673
0002f0 50 02 4d 3e f0 de ca 3d cd c1 f6 bd 35 3a 14 3e
       0.20020413 0.09905803 -0.12048683 0.14475329
000300 8c 5a 80 3c a3 12 2c be 52 23 a9 bd 4e 4c 2d be
       0.015668176 -0.16803984 -0.0825869 -0.16923639
000310 2a da 89 bd 76 4e 9e bc e8 ae 11 bd 57 9a e4 bc
       -0.067310646 -0.019324522 -0.035567194 -0.027905626
000320 8d 3a 90 bc b1 9b 2d 3e 55 7d 15 3e 31 9c 3f be
       -0.017606044 0.16953923 0.14598592 -0.18711926
000330 f7 24 36 3d 3c 7a b4 bd d3 88 c1 bc 22 88 bd bd
       0.044468846 -0.08812377 -0.023624813 -0.09254481
000340 0d 3d f2 bd 10 33 e4 bd 91 08 5e be 2e cb 8a bd
       -0.11828051 -0.11142552 -0.21682955 -0.06777035
000350 36 1c 09 bd 3e 91 30 be b8 2d 87 3d 0b 22 c9 bd
       -0.03347417 -0.17242905 0.06600517 -0.09820946
000360 89 d9 43 bd a5 0d 76 3d 13 00 56 3e d7 37 0b 3e
       -0.04781488 0.060071606 0.20898466 0.1359552
000370 be f1 0e be 23 c1 15 3e f3 8c 36 3b 58 76 aa 3d
       -0.13959405 0.14624457 0.0027855008 0.083233535
000380 e1 49 f5 bd a5 6c 52 3e 9a ff f7 bd 03 94 07 3e
       -0.11976982 0.20549257 -0.12109299 0.13240056
000390 9b f4 29 3e d0 bf 37 bc 11 66 0c 3e 70 4f 13 3e
       0.16597216 -0.011215165 0.1371081 0.14385772
0003a0 87 7d 12 3c 2a 59 35 3c 1e a5 8a 3c 5a b0 64 bd
       0.008941061 0.011068622 0.016924437 -0.055832244
0003b0 27 c9 27 be 8a 0b 22 3e 2e 70 32 be c3 63 79 3c
       -0.16385327 0.15824714 -0.17425606 0.015221539
0003c0 13 62 97 bd 54 32 78 3c 91 7a 32 bd b9 f9 d4 bd
       -0.07391753 0.015148718 -0.04357392 -0.10399193
0003d0 49 11 9b bd a9 68 36 be 11 01 f9 bd 6e 5b da 3d
       -0.07571656 -0.17813362 -0.121584065 0.1066197
0003e0 45 75 33 3e 11 44 49 be a1 b4 25 bd 92 f6 93 3c
       0.17525204 -0.19654872 -0.040455464 0.01806191
0003f0 b4 f0 e5 bd 53 f5 f6 3c 2f 77 af bc b4 e7 05 3d
       -0.11227551 0.030146277 -0.021419136 0.032691672

gru2.bias_ih_l0 f4 [72]
000000 6d 4b e0 3a 98 25 6e bd d3 dc 2e 3d 7c 1b 11 be
       0.0017112322 -0.05814132 0.042691063 -0.1417064
000010 61 f0 44 3d aa ca d4 bd 40 14 42 3e af bf 53 3e
       0.048080806 -0.103902176 0.18953037 0.2067859
000020 fe 66 f3 bd 80 43 68 3d 45 6b 5f bd f4 08 7c bd
       -0.118848786 0.056704998 -0.05454566 -0.061531976
000030 de 04 02 3e d1 f6 59 3e 17 8d 39 3e f7 37 40 be
       0.12697169 0.21285559 0.18120228 -0.18771349
000040 b1 a4 e4 3c b6 11 ca 3d 19 ec f1 3d 7b e3 0b be
       0.027910562 0.09866659 0.1181261 -0.13660996
000050 7f 4e 02 3e 31 63 d7 bc 24 ad dc 3c ac ff 7c bd
       0.12725256 -0.026292415 0.026938029 -0.061767265
000060 ac e3 1b 3d 60 c0 be bd ff c4 64 3d fc 66 45 bd
       0.03805892 -0.09314036 0.055851933 -0.048193917
000070 44 a1 b8 bd e6 b9 f5 3d 29 1a c6 3b 66 ce bd 3d
       -0.09015134 0.11998348 0.006045599 0.09267883
000080 18 a1 b4 3d 47 3e 95 bd 45 19 6e 3c 63 4a 22 3d
       0.08819789 -0.07287269 0.014532392 0.039621722
000090 9d 19 2d be ee 19 8e 3d 7d 34 e5 3d f0 a4 17 3d
       -0.16904302 0.069385394 0.11191652 0.03702253
0000a0 62 9c bc 3d d4 d1 76 3e 3e c0 2c 3b 38 25 4d bd
       0.09209515 0.2410348 0.0026359702 -0.050084323
0000b0 aa 4f b0 bd a7 03 2d 3d c5 80 92 bd 47 05 99 3c
       -0.08608945 0.04223981 -0.07153467 0.018679274
0000c0 7a 47 17 3c 0f 26 2e be 1f 8c 95 3d 44 0b 9d bd
       0.00923335 -0.17006706 0.073021166 -0.07668164
0000d0 e8 87 a2 3d 9f c7 8f 3d 3d b7 d1 bc 97 31 a1 bc
       0.07936078 0.070204966 -0.02560007 -0.019676967
0000e0 de f1 0c bd 46 fc af 3c b5 b2 7f 3d 7f 22 1c 3e
       -0.03441035 0.021482598 0.062426288 0.15247534
0000f0 8f ea 65 be 3a af 13 3e 2b e0 3c 3e ca 37 d6 bd
       -0.22452758 0.14422312 0.18444888 -0.1045986
000100 44 05 05 3e e7 0f 77 3d 0d 94 e3 bd 2d 28 62 bc
       0.1299029 0.0603179 -0.11112223 -0.013803524
000110 3d 5f 17 bc f2 51 56 3e 48 ba 67 bd b3 85 41 bd
       -0.009239015 0.20929697 -0.056574136 -0.047246646

gru2.bias_hh_l0 f4 [72]
000000 4e c4 33 3e 04 e0 88 bd 36 0c 13 be e9 1c 58 3e
       0.17555353 -0.066833526 -0.14360127 0.21104778
000010 cf 2b 9a 3d cc 6d dc 3d 8f 75 4f 3d 98 b2 4f bd
       0.07527887 0.107631296 0.050649222 -0.05070743
000020 0d 86 5e 3d 10 87 bb 3d 02 74 d6 3b 54 15 dd 3d
       0.05432706 0.091566205 0.006544591 0.10795084
000030 0c 49 52 be 76 90 b0 3d aa d0 4a 3e 57 09 00 bc
       -0.20535678 0.08621304 0.19806162 -0.007814727
000040 94 44 32 3e 4e a0 23 bd 09 c3 8b bd 0e aa 3d 3c
       0.17408973 -0.0399478 -0.068243094 0.011576189
000050 c8 3f 2c 3e 55 b3 4a 3d 12 82 06 be 46 28 e7 3d
       0.16821206 0.04948743 -0.13135555 0.112869784
000060 29 3a a3 3d 8a 69 0a be 6b 43 9a bb be 87 09 3d
       0.079700775 -0.13516822 -0.004707744 0.03357672
000070 c6 1d 74 3c d4 ed 92 3c 10 ea ae 3d d8 be 29 be
       0.014899677 0.01793567 0.08540738 -0.16576707
000080 3e 1c 0f 3c 49 de 76 3d 4b 8a 11 bd 08 82 9f bd
       0.008734761 0.06027058 -0.035532277 -0.07788473
000090 06 7b 27 be 79 80 2d bd 5a e1 80 bc c1 f3 58 bd
       -0.16355523 -0.04235885 -0.015732456 -0.052966837
0000a0 51 d8 74 be 93 ce 0e 3e 57 56 1d bd 57 a3 82 3e
       -0.23910643 0.1394599 -0.03841242 0.25515243
0000b0 90 0d 74 3e fe 1c 0e 3e a3 a9 5f 3e ee ca 24 3e
       0.23833299 0.13878247 0.21842055 0.16093037
0000c0 d5 1b 28 3d 27 54 82 3d c0 37 26 bd 27 ad fa 3c
       0.041042168 0.06363707 -0.04058051 0.030600144
0000d0 c9 cc c8 bd 9a 9a 6f bd 8a 73 49 3d 86 6c cd 3b
       -0.09804685 -0.05849705 0.049182452 0.0062690405
0000e0 da b2 40 be 34 2d 92 3d ec cc 8d ba 46 fa 88 bd
       -0.18818226 0.07137528 -0.0010818518 -0.06688361
0000f0 0f d5 ec bd 7b 80 f7 bd 8c 2b d0 3d 70 37 69 3d
       -0.11564075 -0.120850526 0.10164556 0.056937635
000100 c3 8d 94 bb d8 59 87 bd b1 e2 02 3d 6a f9 22 be
       -0.004533501 -0.06608933 0.03195447 -0.15915456
000110 46 bf 7b 3e 21 b9 ce bd f4 3c fa 3d 17 47 3d be
       0.24584684 -0.10093904 0.12218657 -0.1848415
