models/GRU_NoiseEst/training_checkpoints/tiny_noise_gru_epoch_007_mse_15.250077.pth (torch, 62309 bytes, 14 tensors)

pre.weight f4 [64, 16, 3]
00000000: f345 eb3d 5d07 463e 83d8 35bb b82b 7bbc
00000010: ea42 033d ba8f 023e 7dcf cd3d a04c 5d3e
00000020: b155 b73d b524 ee3d df7d 0b3d 165c 4b3d
00000030: 3318 51bd 3135 1bbc 4c8e cf3c 43f0 b43d
00000040: 3a92 0e3e c950 2b3e 3fb1 c5bc 5bd9 263c
00000050: f431 fc3d 7c3b 453e 86f6 2e3d 47ec 363e
00000060: 28c8 493d 35a1 b23d d225 4e3e dddf 69bd
00000070: 7ec5 74bc dd70 1f3d 9c3c c43c 20d2 503e
00000080: 32ec 65bc 2044 803c b9a9 9fbc 2c6b 5bbd
00000090: be17 54ba 41e8 533e badb 163e a60d 1d3e
000000a0: fa37 ba3d d7ea 163c a6f3 dd3d f82b 50bd
000000b0: d315 a9bc 9b31 7e3c 9ad4 383e e11d 323e
000000c0: 7219 91bd 6a4e 42bc 6701 b03d 263f fe3d
000000d0: 73fd 913d b99f 593d f837 a83d f71c a2bd
000000e0: 0316 3a3d 3c1d debd ac89 b6bd c470 4ebd
000000f0: 32ae 443d 6d25 1d3d a5cb b1bd ed17 d03c
00000100: 7a41 6f3d 80ea 9bbc 6a34 b5bc bc5a 123c
00000110: a7e9 8c3d 9b64 e93d 2a41 02be 581a 85bd
00000120: f19e 0e3d 5be7 d73d e6e9 f03d 9e47 e53d
00000130: 6f37 a33c 60be fdbd 9dd1 923b 1a35 c0bd
00000140: 7449 00be 9c16 f93d 6a3d d93d 88aa 08be
00000150: dca1 b23c 8627 e9bc d234 8abc 455c 8dbd
00000160: cdee 523d bb7e a4bd 2901 493d e4ba 903d
00000170: 5237 da3d 2237 4f3d 517a 10be bf83 b4bd
00000180: 6dba ac3d be10 2f3d deb9 ccbd 2514 02bc
00000190: 5d15 353e d429 433e d098 e4bb f9f1 87bb
000001a0: a760 87bd a275 f93c b384 88bd d6f9 5abd
000001b0: fe94 6dbc dff3 193d f14e 84bd 368e 9e3d
000001c0: 0dc5 92bd e9a4 fd3d 961f aa3d 266f ddbd
000001d0: b129 24bd 9e1c 6c3b e48b f93c b028 1f3d
000001e0: 2e34 6d3d 02b6 b53c daae 73bd a187 a13d
000001f0: f8c3 ebbd 33ba 88bd 223f 58bc 5b1d 29bd
00000200: e418 f0bc c6ad b6bd dbf9 8ebb 0009 443d
00000210: 325e 98bd 510e 093c 3ada df3d c4ed 75bc
00000220: d804 063b 25d7 aebc 3a06 a63b 079b 853d
00000230: 8226 de3d 3515 773d adac d23d 2f1a 24bd
00000240: 0577 c0bd 92b6 07bd 5019 083e f504 653d
00000250: d9f1 48bc d1d8 f4bc 158c b0bd 5355 92bd
00000260: 75ec 103d 165a f63d 5f84 f23d f0d9 1bbd
00000270: b00e fc3d 025c 97bd 37b8 453c 927d d3bc
00000280: 2e2d 3d3c 3c3a 753c 9794 c8bd c82d c6bd
00000290: a0d2 2fbc 05ce bf3c 4717 5abd b58e 603d
000002a0: 845d e5bd cf80 cbbb e026 fd3d 5e2a 32bd
000002b0: 48fd 003e 9e51 4e3d fcba ecbd 6133 af3d
000002c0: f5c9 61bc fc21 5bbd 923e e23d 827b e7bd
000002d0: 0762 a73c c414 09bd 58fd ce3d 799b 363d
000002e0: d764 8b3d ce91 4c3d b432 e5bc fb50 f1bc
000002f0: 52de ecbd 2f1c b43d 385b f03d fd6b d63d
00000300: 53ab a0bc a276 b53d d616 a1bc ba9b 70bd
00000310: 888d 86bd a6e6 723d c4df 15bd 0565 383d
00000320: ced1 4a3d 5936 d23d 5d35 bbbd dc04 a2bd
00000330: 2e97 60bd 0388 043e 0c4e eabb 8cd6 133e
00000340: f3e8 973d 348a 6f3d fac2 173c f105 98bc
00000350: 03d8 e73c 6554 81bc f817 6d3c 61f3 ef3c
00000360: f3e0 bfbd 3469 6ebd 9e2b 033e 6a86 bebd
00000370: 069b 563c d6b6 243e e3cf 9a3d 6cc6 f13c
00000380: ad7c d2bd 2a77 c13d d627 9dbd 22ce 92bc
00000390: 360b d3bc ad16 7c3b 3acf be3c fdaf 103e
000003a0: 6c3a 313d ac9a 193e 1597 ed3d 2eac 7abd
000003b0: a702 b93d d843 72bd 62cb 91bc 6915 a93d
000003c0: f98e 433d 7596 de3d c493 39bd 3f71 4c3c
000003d0: 6133 cd3d e458 d7bd 0cc3 e43d 422f d4bd
000003e0: 012c bd3c da57 653c bea4 babc 7480 983d
000003f0: 5c05 1d3e 2c94 193c 10ef 9ebc 3ec1 84bc
0.11487951 0.19338746 -0.002774746 -0.015330248 0.032046236 0.1275014 0.10049341 0.21611261
0.08951891 0.11628095 0.034055587 0.049648367 -0.05104847 -0.009473131 0.025336407 0.08834889
0.13922969 0.16730036 -0.02413237 0.0101836575 0.12314215 0.19260973 0.04271557 0.1786357
0.04926315 0.08722154 0.20131615 -0.05709826 -0.014939664 0.038925994 0.023954682 0.20392656
-0.014033364 0.015657485 -0.01949011 -0.053569004 -0.0008090696 0.20694067 0.14732257 0.15337238
0.09092708 0.009211264 0.10837488 -0.050823182 -0.02064029 0.015514757 0.18049851 0.1739421
-0.070849314 -0.011859516 0.085940175 0.12414388 0.0712842 0.05313084 0.082138 -0.07915681
0.04543115 -0.1084542 -0.089129776 -0.05040051 0.048017688 0.03836577 -0.0868142 0.025402034
0.058412053 -0.019032717 -0.02211972 0.008932766 0.06880503 0.11396142 -0.1272017 -0.06499165
0.034819547 0.105421744 0.117633626 0.111953005 0.019923894 -0.12389827 0.0044805543 -0.09385128
-0.1252802 0.121625155 0.10607417 -0.13346303 0.021805696 -0.028461229 -0.01687089 -0.06902365
0.05149727 -0.080319844 0.049073372 0.070668966 0.10655083 0.050589688 -0.1410916 -0.08814191
0.084339954 0.042740576 -0.09996389 -0.007939373 0.1768393 0.19058925 -0.0069762245 -0.0041487184
-0.06610232 0.0304516 -0.06665935 -0.05346092 -0.014500855 0.03758609 -0.064603694 0.07741968
-0.07166491 0.1238497 0.08306806 -0.108122155 -0.040078823 0.00360278 0.030462213 0.038857162
0.05791109 0.022181515 -0.059492923 0.07887197 -0.115119874 -0.0667614 -0.013198646 -0.04128776
-0.029308744 -0.089198634 -0.004363281 0.047860146 -0.07439841 0.00836523 0.10930295 -0.015010301
0.0020449664 -0.021342823 0.0050666602 0.0652371 0.108471885 0.06032296 0.102868415 -0.040064033
-0.09397701 -0.033133097 0.13290906 0.05591293 -0.012264692 -0.029888542 -0.086204685 -0.071451806
0.035381753 0.12028901 0.11841654 -0.03804964 0.12307489 -0.07390596 0.012067846 -0.025816713
0.011546416 0.014967497 -0.09793966 -0.09676701 -0.010731369 0.023413667 -0.053244855 0.054823596
-0.11199477 -0.0062104235 0.123609304 -0.043497436 0.12596619 0.050370805 -0.11559102 0.085547216
-0.01378106 -0.053499207 0.110470906 -0.11302854 0.020432485 -0.03346707 0.10106915 0.044581864
0.06806343 0.049943738 -0.027978279 -0.02945756 -0.11565842 0.08794438 0.117361486 0.10469816
-0.019612944 0.08860518 -0.01966421 -0.058742262 -0.06569964 0.059301995 -0.036590353 0.045018215
0.04951649 0.10264272 -0.091410376 -0.07911083 -0.054831676 0.1294251 -0.007150417 0.14437312
0.074174784 0.05848141 0.009262795 -0.01855752 0.028301245 -0.015787313 0.014471047 0.029290857
-0.093690775 -0.0582058 0.12809607 -0.09302981 0.013098484 0.16085371 0.075591825 0.02951356
-0.10277686 0.09446557 -0.07673614 -0.017920557 -0.025762182 0.0038465664 0.023292173 0.14129634
0.043268606 0.15000409 0.11601082 -0.06119936 0.09033709 -0.059146732 -0.017797176 0.08256037
0.04774377 0.10868541 -0.045306936 0.012478172 0.100195654 -0.105150014 0.11170015 -0.10360576
0.023092272 0.013997996 -0.022783633 0.074463755 0.15334076 0.009373706 -0.019401103 -0.016205426

pre.bias f4 [64]
00000000: 3d71 993c eb69 ed3d 3643 0ebe d4cd babd
00000010: e6cc b1bb 561f abbd 5c8c 18bd 6fad cc3c
00000020: 0c85 7d3d 54e5 223d 01f7 73bd 133a 913d
00000030: 1679 ccbd 5ec3 cf3c 90b6 bb3c b90c d4bd
00000040: 12c1 10be 5ecf d13d b694 63bd bea9 473d
00000050: 4154 123d c841 6dbd f3d0 1bbe 19cd 34bd
00000060: af4f f0bd b99f 83bc a653 c4bd e5bd 6f3d
00000070: b36a 1cbe 620d d1bd d5a6 b8bb 98f8 25bd
00000080: de66 323e 4f84 d03c c042 1ebd 49ce 1d3e
00000090: 4a3f d73d 69eb 1a3e 4ec1 36bc 2f41 08bc
000000a0: 51f8 933c 1904 9d3d 68df e03d e32f 47bb
000000b0: ae61 6d3d 6254 4d3d 8176 3c3e e6b4 ac3c
000000c0: c95a 423e 97ef 57bb 9ec6 943c bbcc 0cbd
000000d0: 0791 263e 2305 c7bc 23b2 f73d 0a2b 9b3c
000000e0: 6339 473e 81e5 af3d f34a 16bd 2ef0 b63d
000000f0: 411c b03d 6109 76bd e44f cd3d 1f92 463e
0.018730754 0.11592468 -0.13892826 -0.0912129 -0.005426037 -0.08355586 -0.037243232 0.024985043
0.06189446 0.039769486 -0.059561733 0.07091155 -0.09984033 0.025361713 0.022914201 -0.10353989
-0.1413615 0.1024463 -0.055561744 0.048745863 0.035724882 -0.057924062 -0.15216427 -0.04414091
-0.117339484 -0.016067373 -0.09586267 0.058530707 -0.15275078 -0.10207631 -0.0056351223 -0.04052028
0.17422053 0.025453715 -0.038637877 0.15410723 0.10510118 0.15128864 -0.011154486 -0.008316322
0.018062742 0.07666797 0.10980111 -0.0030393533 0.057954483 0.0501293 0.1840458 0.021082353
0.18979944 -0.0032949203 0.018161114 -0.034374934 0.16266261 -0.024294442 0.12094524 0.018941421
0.19455485 0.08588696 -0.03669257 0.089325294 0.08599139 -0.06006754 0.100250036 0.19391678

norm.weight f4 [64]
00000000: 8fa9 953f bd69 5e3f bbc2 623f ae85 803f
00000010: a7a5 8a3f 6004 973f dced 913f 9217 923f
00000020: 588a 943f a547 933f e6b1 8d3f 1bdf 983f
00000030: 8369 983f 0e98 963f a486 963f 0985 983f
00000040: 600c 953f 99f4 943f 7d24 923f 9003 913f
00000050: 68dd 943f 48f9 983f 484f 963f f40d 823f
00000060: 866c 933f 128f 913f 62b5 943f 31cc 963f
00000070: a8c9 943f 81e8 933f 3aad 983f 83ab 983f
00000080: 656a 843f d2ba 843f dfa5 893f 0cd0 873f
00000090: 68af 793f 8b1e 883f b2ca 873f 1bfc 853f
000000a0: 1677 7e3f b53f 753f e077 863f 7f57 7d3f
000000b0: e393 823f dca2 753f 5079 873f 07c3 803f
000000c0: 5c15 873f 26ae 733f bf52 753f 99ec 863f
000000d0: 1f4d 813f 2c0d 873f 7c58 883f cb43 873f
000000e0: ef38 873f a97e 833f 16f4 773f 67f4 883f
000000f0: d51e 7e3f 7e01 763f 5b1b 7d3f dc51 753f
1.169237 0.86880094 0.88578385 1.0040796 1.0831803 1.179821 1.1400714 1.1413443
1.1604719 1.1506239 1.1069915 1.1943086 1.19072 1.1765153 1.1759839 1.1915599
1.1644402 1.1637145 1.1417385 1.1329212 1.1630068 1.1951075 1.1742945 1.0160508
1.1517494 1.1371787 1.1617854 1.1781064 1.1624041 1.155533 1.1927865 1.1927341
1.0344969 1.0369513 1.0753745 1.0610366 0.97533274 1.0634321 1.0608733 1.0467561
0.9940046 0.95800334 1.0505333 0.98961633 1.0201381 0.9595163 1.0583897 1.0059518
1.0553393 0.95187604 0.95829386 1.0540954 1.010166 1.0550895 1.0652003 1.0567564
1.056425 1.0273029 0.9685682 1.0699586 0.99265796 0.96096027 0.98869866 0.9582803

norm.bias f4 [64]
00000000: 4a51 3fbe 0a91 1ebe afb5 31be 3781 24be
00000010: 162e 27be fdc0 32be e914 2cbe 805c 3fbe
00000020: 7e90 38be 14ec 2bbe 9b4d 2dbe 749b 34be
00000030: 7cfc 31be ef4a 2ebe e45a 35be 3922 33be
00000040: 94ec 39be 98bf 40be c27c 41be b7ae 39be
00000050: f914 3bbe 8ab3 3ebe 94de 41be b817 30be
00000060: d0e0 3cbe 932a 3cbe bf5c 43be 775a 3abe
00000070: f9c3 46be bbf7 39be 2be0 3ebe 9ba4 3cbe
00000080: a2e3 e33c 9240 1d3d 6be5 483d 9723 4c3d
00000090: 46f5 b5bc 5c88 3e3d 6ad7 6f3d ce61 813c
000000a0: 0b83 48bc cea3 c9bc 3f61 c43c 7010 69bc
000000b0: 2886 f03a 443a 07bd 4b9c 303d 710e bb3b
000000c0: 0a2e 1d3d 4ae9 1ebd 8774 06bd 45f5 3a3d
000000d0: 18c9 b83c a067 503d 277b 353d 2f8e 423d
000000e0: 7eb4 183d 1e6e 133d f187 ccbc 80ca 5b3d
000000f0: 131b 58bc 22c5 3fbc 7921 83bc 8b04 f4bc
-0.18683353 -0.15485016 -0.17354463 -0.16064917 -0.16326174 -0.17456432 -0.16804852 -0.1868763
-0.1802387 -0.16789275 -0.16924135 -0.17637426 -0.17381471 -0.17020772 -0.17710453 -0.17493524
-0.18156654 -0.18823087 -0.18895248 -0.18133055 -0.18269719 -0.18623176 -0.18932563 -0.17196548
-0.18445134 -0.18375616 -0.19078349 -0.18198572 -0.19410695 -0.18160908 -0.18640201 -0.18422167
0.027818505 0.038391657 0.049046915 0.04983863 -0.022211682 0.04651676 0.058555044 0.015793707
-0.012238274 -0.024614241 0.023972152 -0.01422511 0.0018350529 -0.03301455 0.043117803 0.0057085087
0.038373984 -0.0387967 -0.032825973 0.045644064 0.022556826 0.050880075 0.0443069 0.047498878
0.037281506 0.035993688 -0.024967166 0.053659916 -0.013190049 -0.011704715 -0.016007172 -0.029787323

gru1.weight_ih_l0 f4 [72, 64]
00000000: c6a6 c63d 6185 ebbc bf14 10bd 7345 963d
00000010: 9d8a 85bd 7159 703e 65f8 5e3e 2b25 bf3d
00000020: 7682 88bd fc14 1cbe d25e abbd 72bd 6c3e
00000030: 78be 1ebe c3d1 17be e8fb 7d3b 1abd bf3d
00000040: f73e 31be fe13 40be 61b2 07bb c488 4bbd
00000050: a767 2e3e a11f c63d ff4a 30be 3c5c 32be
00000060: e8b5 243e 0d72 92bc 183d b3bd 764a ca3d
00000070: fb16 24bd e82c fe3d c571 953d dfe7 36bd
00000080: 67cf 4cbe b7bb 8d3d a630 29be 2c3b 7abd
00000090: cbe1 19bc 583e 1ebe 040e 8b3d 7e6e 40be
000000a0: 7d49 fc3b 2b2c 95bc d1e3 143d 09a0 79be
000000b0: df6a e1bc a427 733d debb 29be 686f 213c
000000c0: dc4b 02bd 6f28 083e 7357 adbd 6f29 2cbd
000000d0: 15cf 02be 3dd2 bbbd d234 b03c c329 75be
000000e0: 8ab7 f93d 8696 df3d c212 2e3d 144e e93d
000000f0: 4797 d2bd c987 383b b88c e2bc 5676 31be
00000100: eeb2 91bd a5d6 1abd e334 47bc bba3 30be
00000110: a885 dcbd b678 90bd 5207 54bd 6f1c 6dbe
00000120: f879 bdbb 7dd2 a63d 4f79 3f3e 795c f33d
00000130: a06a 3dbe bfc1 d1bd 42ce 17be be94 75bc
00000140: 973c db3c c47e d1ba 1cfa 973d e844 cf3d
00000150: 523f 06be 6f95 c03d aa82 b83d 7277 8d3d
00000160: fd4f 46be 024e 05be b0bd 343c 2faf 263d
00000170: cdd9 133e 45e7 b23d c983 bb3c 64d8 4cbd
00000180: 83dc 443e 0135 d0bc c5e9 043e 5f9e 35bd
00000190: a585 443d ac68 313e 9e72 103e bb6f 803a
000001a0: 87f9 363d fcfa 84bd a77a 163e 5a68 3d3e
000001b0: 15f6 f23d 369a 19be 9152 bfbd 2581 3d3e
000001c0: 5180 c03c 6579 303e 269b 4a3e 5a0d 5abc
000001d0: 46d9 89bd 0150 14be 0fb4 053e 8a56 1c3e
000001e0: 6c82 8e3c 2838 18be 452f b0bd f8a8 213d
000001f0: bf99 133e 86aa b8bc 83ba a8bd 34b9 b7bd
00000200: d4df 2f3e 08a6 6a3d 22e9 3dbe e2c1 04be
00000210: b5f6 33be 64c7 403d bb90 44bd 94b8 613c
00000220: 01a3 66bc 3ae5 30be d413 1dbe 64fd 0fbe
00000230: 3ff9 42bd 3f12 803d 7cb2 93bd 3aa2 bc3c
00000240: 05d8 5cbb 11c1 523e 3884 98bd eded 433e
00000250: 076e 11be 4ef7 0ebe a42b b03d 4515 0ebe
00000260: 3e67 d93d 941e f8bd 9fec 383e b2c5 623e
00000270: f1ad 013d 358e 3c3d 8ac5 603e e0b4 183e
00000280: 6f65 56be dd5b 15bd 550b 57be 8f5b 033e
00000290: 5a8f 89bd f328 e8bc e0d5 1dbe f7ff 13be
000002a0: 48bf e8bb d4c9 113e 53c2 04be 5fff 4bbc
000002b0: 06ad 213e 3bfe 183e 6806 88bd c368 233e
000002c0: 95e7 483d 4209 1c3e 61cd a9bc 0275 51be
000002d0: eca2 b0bd 904d ee3c 6925 9e3d 0691 69be
000002e0: e786 083e b4be 59be 99d5 af3d 604c 2f3e
000002f0: e372 ae3c a401 8fbd 737f a43d 3eb3 aebd
00000300: 50e6 15be bd8d dabd 37c9 ea3d ad21 213e
00000310: e3fd be3c b6ed 78be 865e 70be c93e 8ebd
00000320: 5aa5 a63d 8730 38be f66f 853d 12ed 1bbe
00000330: cd9c 083e 71b3 d2bd 9a08 98bd bac8 5abe
00000340: d53a 64be 941d 2fbc dfdf 383c 27e7 d43d
00000350: b201 5abe f23d c2bb 663a 61bd d075 0e3e
00000360: edd4 d8bd 35ca 6e3d b303 723d 05e8 723d
00000370: c869 bdbd 5a6e 313d 445a 93bd c7f7 043c
00000380: 84b4 acbd 8edb f4bd 77ae f9bd f028 b4bd
00000390: ca6c 3bbd 04b4 8c3d c5dc c039 01be 94bd
000003a0: fd79 393d 00e5 d7bc 2fc9 2b3e 6355 fcbd
000003b0: 90a5 fdbc 2dea b3bd 01f9 7c3d 7586 633d
000003c0: d332 d33c 2ee9 7b3e 11e0 0fbd 2120 803c
000003d0: c0c0 c03d 6127 5c3e f829 4a3e ec97 883d
000003e0: e8c0 22bd c6d2 dd3d 788a 313e bb2a 1e3d
000003f0: 24b5 1e3e 01f6 573e 5b22 8cbd c8ac 0cbc
0.09699778 -0.028750123 -0.035176035 0.07337465 -0.06520579 0.23471619 0.21774442 0.09333261
-0.066655084 -0.1524238 -0.08367695 0.23119143 -0.15502346 -0.14826111 0.0038754884 0.0936224
-0.17309175 -0.18757626 -0.0020705687 -0.049690977 0.17031728 0.096740015 -0.17216109 -0.17417997
0.16085017 -0.01787665 -0.08751887 0.098774835 -0.04006098 0.12410909 0.072970904 -0.044654723
-0.20000993 0.069205694 -0.16522464 -0.061091587 -0.009392212 -0.1545347 0.06789783 -0.1879215
0.00769919 -0.018209537 0.036350075 -0.24377455 -0.02751678 0.059363976 -0.16575572 0.0098532215
-0.031810626 0.13296674 -0.08463945 -0.0420317 -0.12774308 -0.09170959 0.021509562 -0.23941712
0.121932104 0.10917382 0.042498358 0.11391845 -0.1028276 0.0028157106 -0.02765499 -0.17330298
-0.07114206 -0.037802357 -0.012158605 -0.17249958 -0.107676804 -0.07054274 -0.051764794 -0.23155378
-0.005782362 0.08145616 0.1869862 0.11882872 -0.18497705 -0.10242032 -0.14824775 -0.014989076
0.02676229 -0.0015983214 0.074207515 0.10120565 -0.13110092 0.09403502 0.09009297 0.06907548
-0.1936645 -0.13018039 0.011031553 0.04069441 0.14438553 0.087355174 0.022889988 -0.050011054
0.19224744 -0.0254159 0.12979801 -0.044340488 0.047979016 0.17325085 0.14106223 0.0009798923
0.04467156 -0.06493184 0.14695226 0.18496838 0.11863343 -0.15000233 -0.0934192 0.18506296
0.023498686 0.17233808 0.19785747 -0.013308847 -0.06730895 -0.14483644 0.13056968 0.15267387
0.017396174 -0.14865172 -0.08602766 0.03946778 0.14414118 -0.02254225 -0.08238699 -0.089708716
0.17175227 0.057287246 -0.18545964 -0.12964585 -0.1757458 0.047065154 -0.04798959 0.013776917
-0.014076949 -0.17274943 -0.15339595 -0.14061505 -0.04760098 0.0625348 -0.072117776 0.023026574
-0.0033698094 0.20581461 -0.07447094 0.1913373 -0.14202128 -0.13961527 0.08602074 -0.13875301
0.10615395 -0.12115207 0.18059014 0.22145727 0.031660024 0.046034057 0.21950355 0.14912748
-0.20937131 -0.03646456 -0.21000417 0.12827896 -0.06716795 -0.028339839 -0.15413618 -0.14453112
-0.0071028806 0.14237148 -0.12964754 -0.012451022 0.1578866 0.14940731 -0.06641847 0.15957932
0.04904898 0.15237907 -0.020727815 -0.20454791 -0.08624825 0.029089719 0.07721979 -0.22809228
0.13332711 -0.21264154 0.085856624 0.17118979 0.021295017 -0.06982735 0.080321215 -0.085302815
-0.14638638 -0.10671566 0.1146416 0.15735503 0.023314422 -0.2430943 -0.23473558 -0.06945569
0.08137007 -0.17987262 0.065154955 -0.15227154 0.13341065 -0.10288132 -0.074235156 -0.21365634
-0.22288068 -0.010688204 0.011283844 0.10395651 -0.21289709 -0.0059277946 -0.054987334 0.1391213
-0.10587487 0.05829831 0.05908556 0.059303302 -0.09248692 0.04331813 -0.07194951 0.008115715
-0.08432868 -0.11955939 -0.1219148 -0.08796871 -0.045758046 0.06870273 0.0003678558 -0.07262803
0.045282353 -0.026354313 0.16775964 -0.12320974 -0.030962735 -0.087849 0.061760906 0.05554815
0.02578107 0.2460067 -0.035125796 0.01564032 0.09411764 0.21499397 0.19742572 0.06669602
-0.03973475 0.108312175 0.17337978 0.03861497 0.15498787 0.21089937 -0.0684249 -0.008586116

gru1.weight_hh_l0 f4 [72, 24]
00000000: 6a9d 023e e34b 2ebe bee2 84bd 0da4 fa3d
00000010: df44 823d a0bf 0dbe 23fe 3c3e eefb 87bd
00000020: fc4c a9bc e535 b33a a39f 043e 5656 a23d
00000030: d3db a33d aee4 41bc bf20 453e e0ca d63d
00000040: 4175 af3d c124 e3bc bf53 1ebe b6be 443e
00000050: 312b 51be 903b 66be 92e3 f43b 738f 5ebd
00000060: 243a c8bd 42a0 103e a267 00bd 6cb3 09be
00000070: 02b8 a13d 235b b03c edcf 29be 6fa6 8b3c
00000080: 03d2 fdbd 09d9 29be 113f b13d eb5f 943b
00000090: 845e e0bc 8107 c4bd a9fa f9bd 2105 36be
000000a0: 70fd 1e3d c869 30bd ec83 813d 4f86 ac3d
000000b0: 7922 6b3e 0204 bf3d 40ea ccbd a65f e0bb
000000c0: a668 4dbe eec0 e5ba 8020 083e 9c3a 473d
000000d0: c528 ef3d beab 453e df98 aa3d 6fd7 79bd
000000e0: fe44 273e 1afe 0e3e 3b10 36be d6fb 573d
000000f0: 13c3 9b3d f1f3 ad3d 9f25 3b3e 69aa e5bd
00000100: 816f 1c3c 1ebc 5f3e bcf9 dcbd c90d b2bd
00000110: 2b43 ed3d 77e6 a23d 9143 123e b330 62bd
00000120: c9c3 173e d800 3ebe 59f7 19be d8bc 2abc
00000130: fe95 37be 4549 07bd 8090 81bd fe87 6b3e
00000140: 83e4 f1bc 9d56 1c3d faa9 993d c5b1 203e
00000150: b4b4 ff3c aa91 a23d 6a69 ebbd 3ff2 38be
00000160: 12b5 0a3e 4702 ca3d aa4a 08be 717a e63d
00000170: d03d c93d 3c2b a6bd 125e ff3d 9521 6e3e
00000180: b4ad a6bc f13f 0c3e 06c0 d3bd a0aa 62be
00000190: 51f9 4dbe 545e d4bd b45e 4a3e 4221 f03d
000001a0: be97 5a3e 7ea3 7d3d e39f 213d a7ae 38be
000001b0: ff4c 1abe f723 9ebd 64d7 81bd 9124 133e
000001c0: 50d9 77bc a8a9 6abd 0065 533b e246 fa3d
000001d0: bddd 8f3c 0cc5 183e a775 e1bd 14e5 23be
000001e0: 095b b83a fb7e 9d3d 0b99 b53d 5cfc 1c3d
000001f0: 6d89 e63d 8211 1ebe 4c33 1c3d f58f 503e
00000200: 5284 b4bd 3937 ce3d e21b dfbd c770 a83d
00000210: 06fe 103e 5e5b 313e 8acb ec3b d8f5 54bd
00000220: 2d0c b0bd 0428 1e3e 2941 3cbd 5bd4 c9bd
00000230: 5f6e 493d 41a4 1a3e 5382 92bd 06ba 01be
00000240: 0892 04bb e98e 433d 695c 0bbd 479b c7bd
00000250: 341a e7bc e285 89bd 00e6 1b3e bd0b 8fbd
00000260: ec4f 7f3e e668 52bd d2c6 4c3e 919c d03c
00000270: f248 d0bd 19ef ee3d d13e c6bc 2297 42be
00000280: 8fb6 103e 6700 3dbc be36 1fbe 5fff 1cbe
00000290: fe12 6c3e b3e6 14be 32df 9e3d 62ac 5f3d
000002a0: 7315 09be 8c37 c03d 8766 5cbe 343b 56bd
000002b0: 30ed 9bbd 6e7c ac3d 05e6 30bd bb27 21be
000002c0: b7ac 833c 2a57 043e 1208 acbd be12 0d3e
000002d0: 2b3c 143e 8403 96bd fe99 ec3c a9bb 0c3e
000002e0: 68d6 0f3d 84ab 47bb 69ac 78bc 63fe bfbc
000002f0: a6d1 15be 41ba abbd 7912 603e 300f 1c3e
00000300: 2703 223d 8210 413e 1449 04be 4fc7 3c3d
00000310: d962 1cbe 5fa6 f83d dcac b53d 8c92 ce3d
00000320: 9232 f83c f0e7 ac3d 3ca3 233e b549 563d
00000330: baba 1cbd 955d 0bbc 4120 b4bc 1c3c 29be
00000340: 4faf ad3d 38cc 123e 89bb b03d 5041 e9bd
00000350: e42e 283e 3939 1b3d 06af 643e 1012 2bbe
00000360: 52a8 123d 27c7 27be 6826 f53d b634 343e
00000370: f7f8 373e 01d8 40bd db0e 18b9 da37 0e3d
00000380: e352 bbbd 140f 5c3e a9ac de3d e051 033e
00000390: 1ede d2bd d61e 133e 8e7a f7bd 1286 12be
000003a0: 83a3 abbd dcaf db39 9720 193e 9d89 ed3d
000003b0: 7792 583d a914 adbd 6252 0f3e 88f7 323e
000003c0: 968a 23be e94c 373e 80d5 833c 6e82 013d
000003d0: 1ed2 603d d070 cb3d f298 5e3c 781b 13bd
000003e0: 45cd 45bd e38b 1fbe b52e a23c 91c6 13be
000003f0: c168 103e 9171 35be 9870 423e 30af 51be
0.12755361 -0.17021136 -0.0648856 0.122383215 0.06360792 -0.1384263 0.1845632 -0.06639849
-0.020666592 0.0013672678 0.12951522 0.079266235 0.080009125 -0.011834307 0.19250773 0.10487914
0.08567286 -0.027727487 -0.15461634 0.19213375 -0.20426632 -0.22483659 0.0074734176 -0.054336023
-0.097767144 0.14123634 -0.031348832 -0.1344735 0.07896425 0.021527832 -0.16583224 0.017047135
-0.12393572 -0.16586699 0.08654607 0.004528036 -0.027388819 -0.09571744 -0.12206013 -0.17775394
0.038815916 -0.04306963 0.0632399 0.08424055 0.22962369 0.09326936 -0.10005617 -0.0068473397
-0.20059451 -0.0017528811 0.13293648 0.04863988 0.11677698 0.19303796 0.08329939 -0.06099647
0.16334912 0.1396412 -0.17779629 0.052730404 0.07605567 0.08493794 0.1827607 -0.11214144
0.009548069 0.21849105 -0.107898206 -0.086940356 0.11585077 0.07954114 0.14283587 -0.055222224
0.1482078 -0.1855501 -0.15035762 -0.010421 -0.17928311 -0.03302886 -0.06326389 0.23001096
-0.029527908 0.03816854 0.075031236 0.15692814 0.031214096 0.079379395 -0.114947155 -0.1806116
0.13545635 0.098637156 -0.13309732 0.112538226 0.09826243 -0.08113715 0.12469114 0.23254998
-0.0203465 0.13696267 -0.1033936 -0.22135401 -0.20114638 -0.10369554 0.19762689 0.117250934
0.21346948 0.061923496 0.03945912 -0.18035375 -0.15068434 -0.077217035 -0.063399106 0.14369418
-0.015127495 -0.057290703 0.0032256246 0.12220551 0.017561788 0.14918917 -0.110087685 -0.16005355
0.0014065217 0.07690235 0.08867081 0.038326606 0.11256681 -0.15436366 0.038134858 0.20367415
-0.088143006 0.10069127 -0.1089399 0.082246356 0.14159402 0.1732001 0.007226412 -0.051992267
-0.08596072 0.15444952 -0.04596058 -0.09854957 0.049177524 0.1510172 -0.071537636 -0.12668619
-0.0020228643 0.04774371 -0.034023676 -0.09746414 -0.028210737 -0.06714989 0.15224457 -0.06984661
0.24932832 -0.05136957 0.19997719 0.025465282 -0.10170163 0.11666698 -0.024199875 -0.19002965
0.1413214 -0.01153574 -0.15548226 -0.15331791 0.2305412 -0.1454113 0.07757415 0.054607756
-0.13387088 0.09385595 -0.21523486 -0.052302554 -0.07613599 0.084221706 -0.043188114 -0.15737812
0.016073568 0.12923875 -0.08399977 0.13776681 0.14476077 -0.07324889 0.028882023 0.13743462
0.035116583 -0.0030467222 -0.015177825 -0.02343673 -0.14630756 -0.083851345 0.21882047 0.15240169
0.039553788 0.18853953 -0.12918502 0.046088513 -0.15272082 0.12141108 0.08870861 0.10086545
0.030297551 0.08442676 0.15980238 0.052316386 -0.038264014 -0.008506198 -0.021988036 -0.16526836
0.08480703 0.14335716 0.086295195 -0.113894105 0.16424137 0.03789637 0.22332391 -0.16706109
0.035805054 -0.16384564 0.11970216 0.17598233 0.17966066 -0.047080997 -0.00014501384 0.034721233
-0.09146669 0.21490127 0.10872776 0.12824202 -0.10296272 0.14367232 -0.12083922 -0.14308956
-0.08380797 0.0004190196 0.14953838 0.11598513 0.052874055 -0.08451206 0.1399627 0.17477238
-0.15970835 0.17900433 0.016093016 0.031618528 0.054887883 0.09933627 0.01358627 -0.035914868
-0.048291463 -0.15580706 0.019797662 -0.14431216 0.1410246 -0.17719103 0.18988264 -0.20476985

gru1.bias_ih_l0 f4 [72]
00000000: fc6b 7d3d 2fe6 243e 8bcf 42bc 381c 33bd
00000010: b2b5 af3d e977 b73d a58c debd f72f 34bd
00000020: 02c3 0fbe 995b 44be b850 2b3e 2578 423e
00000030: 610f aebd b1c8 2ebe ac74 46be b51d 043e
00000040: fbaa 653e b006 833c 4253 86bd 0795 0cbe
00000050: 8d42 f13c 27a4 343e 030a ce3d 5aa8 eebd
00000060: 7764 adbd 6007 c13b 6943 723c 742a 7c3d
00000070: bbdf 63bd 35af f93c 1bac 4c3e ef8c acbd
00000080: fbf8 c7bd 7d66 623d b24f b1bd 23e5 b73d
00000090: cf7e a23c 510f 13bd 5d33 34be 5197 183d
000000a0: 7348 36be 06a3 0abe b7de ed3b dcdc e53b
000000b0: a293 b9bd dc84 0ebc c932 21be a343 37be
000000c0: f4d8 43bd 29cd 203d 4419 b4bd 6fe6 9b3d
000000d0: 3698 37bd ec38 19be 0d5c 823c 9ee6 04bd
000000e0: 8f4e 2f3e 2fd7 15bd 4fcf 493e 5db6 093e
000000f0: 1a1a 7a3e bcd3 5f3a d675 323e 6465 f8bc
00000100: 82e8 df3d 09d9 12be 0f4d 45be d5de 43be
00000110: 7ffc 24be fb1b 1fbc adc8 29be 24d1 5d3e
0.06187056 0.16103433 -0.011890302 -0.043728083 0.085795775 0.08958418 -0.108666696 -0.043991055
-0.14039233 -0.19175567 0.1673001 0.18991144 -0.08499027 -0.17068745 -0.19380444 0.12901957
0.22428505 0.0159944 -0.06558849 -0.13728724 0.02945068 0.17640744 0.10060503 -0.11653204
-0.08466428 0.0058907717 0.01478658 0.061563924 -0.055633288 0.030479053 0.19987528 -0.084253184
-0.09764286 0.05527352 -0.08657779 0.08979251 0.019835858 -0.03590328 -0.17597719 0.03725368
-0.17801075 -0.13538751 0.0072592157 0.007014854 -0.09061362 -0.008698668 -0.15742029 -0.17896895
-0.047814324 0.039258156 -0.087938815 0.07612311 -0.044822894 -0.1496312 0.015913034 -0.032446496
0.17119811 -0.03658217 0.19707988 0.13448472 0.2442402 0.0008538326 0.17427763 -0.030321784
0.10933019 -0.14340605 -0.19267677 -0.19127972 -0.16111945 -0.009711261 -0.16580458 0.21661812

gru1.bias_hh_l0 f4 [72]
00000000: e3e2 39be 8a2c 533e 3810 d03c dbb9 f3bd
00000010: 4080 533e e33a d03d c16d 063d 41c0 443e
00000020: d975 0fbe bbdf 023e f9d1 41ba bf2b 563d
00000030: c9cf 033e 7663 69bd 21ce fbbc 0499 373e
00000040: 8ecd 0a3e d5b8 143e 1169 373e 1b7e d6bd
00000050: 6248 c7b9 d6ef 763e 6339 90bd 013d cd3c
00000060: de80 a23d 6acb 5cbe bed1 a6bd ba14 aa3d
00000070: 8476 08be d6ed 97be 0d1d 1cbe 9031 47bd
00000080: e20c efbd 1dac 4fbe 5ffd 703d a632 62be
00000090: 2f81 73be 55eb 663d 8dd5 2a3e 78ce 95bc
000000a0: 7e2a c73d 81e5 bfbd e368 8d3d 0f9a 2ebe
000000b0: 9125 4ebe 8bc8 d13c d792 0cbe 73d2 cabd
000000c0: bc39 d3bc 25ea af3d 1c4c a3bd d6a2 5dbd
000000d0: b23c 67be 716a e0bd 925b 203d 5f2a 613e
000000e0: 4c6a 573e fd1e a13c 450d a1bc a12d d63d
000000f0: 676d 873d f002 1abd e9ab 643c 48b1 1ebe
00000100: 94f4 7a3b 8f1f 70be e334 42bd dac1 71be
00000110: f74f 8e3d e67c 423d c66b bc3d 44ae cabd
-0.18152957 0.20622459 0.025398359 -0.119006835 0.20654392 0.10167482 0.032819513 0.19213964
-0.14009799 0.12780659 -0.0007393654 0.052287813 0.12872232 -0.05697962 -0.030737938 0.17929465
0.13554975 0.14523633 0.17911173 -0.104732715 -0.00038010167 0.24114928 -0.07042196 0.025053503
0.07934736 -0.21561971 -0.08145474 0.083047345 -0.1332646 -0.29673642 -0.15245457 -0.04863125
-0.11672379 -0.202805 0.058835384 -0.22089633 -0.23779748 0.056376774 0.16683026 -0.018286929
0.097249016 -0.09369946 0.06904771 -0.17050956 -0.20131518 0.025608322 -0.1372789 -0.09903421
-0.025784366 0.085895814 -0.07973501 -0.05411037 -0.22581747 -0.10957802 0.03914983 0.2198882
0.21036643 0.019668097 -0.019659648 0.10457922 0.06612664 -0.037600458 0.013957002 -0.15497315
0.0038292753 -0.23449539 -0.047413718 -0.23609105 0.06948846 0.047482394 0.09200244 -0.0989652

gru2.weight_ih_l0 f4 [72, 24]
00000000: 087c 193d f231 9f3b 5ddb 2dbe a8b6 ed3d
00000010: 8955 7cbe 0245 c93d d945 fabd 01ad 89bd
00000020: e4b9 1abe fe0e 76be 566e a7bc 8254 b23d
00000030: 3f76 b43d 3380 5dbe ed31 623e 7337 fe3d
00000040: d8ea 073e 8bdf 1c3e 5e20 b13d bb0f 80bc
00000050: 924c 413e a3dc 7abd e406 b93c b16d 77bd
00000060: 77cf 893c 05eb d6bd 234a 9c3d 08ff 00be
00000070: cc81 faba 67ad fa3d c881 ecbb b620 9c3d
00000080: 9918 893e 4a8b 87be ead0 7c3e 5f1f 75be
00000090: 4157 883e 42bb cebc bdab 4cbd 59e3 07be
000000a0: 9a76 1cbd 43e1 6c3d ff4c df3d b86b 783d
000000b0: 86b8 5a3e b469 843e ea0b e0bd 51d8 1a3e
000000c0: 558f 6b3d 88ba 1e3e fec5 263c 06b5 56bd
000000d0: efc6 b33d 1816 03be 71fe 41be bf28 cabd
000000e0: 3c03 463e 98d8 29bd 879f eebd dc7f b13c
000000f0: fc1a 273d fb94 3cbe b38c 743e 4762 943d
00000100: 9478 623e 6f9d a3bd 7c3d 32be 70f1 66be
00000110: 8f72 8f3d 5d4d b9bd 3cc6 2f3e b696 0dbe
00000120: c83f b0bd b898 2c3d 8b98 cabc 6be9 b6bd
00000130: ae15 eebd 0c9a 2fbe 671d cfbd 7be1 c23d
00000140: b291 e2bd 83fe ddbd 1387 2f3d 9272 92bd
00000150: c4aa 633e df6f 63be 6170 123e da06 8f3b
00000160: f294 033e bc53 02be 2aff 393d 0f67 63be
00000170: de87 29bc c0c0 993d 586e 203d 7e7a 08be
00000180: 3b4b 313e 6aaf 2b3e 254b 86be 6a9f a7bd
00000190: 4236 81be 4e91 e8bd d3ef f0bc ff24 813e
000001a0: ff18 653e 9bd8 bc3c 3311 d73d 37e1 89be
000001b0: 8b7d 453c 05cf f53d a2b6 bd3d 0c9b 00be
000001c0: 55fe 093c 6ec8 b73c c98d 453d 95f7 c1bd
000001d0: 3a19 0f3e 2366 6e3e 2742 5b3e 5e20 3b3e
000001e0: 7f80 053e 67f7 1d3e 6455 543d ef9e 60be
000001f0: 4af6 3ebd e83a 78bd c527 50bd ec60 5ebd
00000200: 36fb 39be d008 2d3e 4c4e 94bd 6c73 4fbe
00000210: 854b a6bd 590d 77bb cf0c 4bbd f023 52be
00000220: 9406 983d e888 9e3d 6435 373e ad26 62be
00000230: ad5e 13bd 9cfa 7abd c3f8 7dbd 097e d63b
00000240: c2a9 813e bdd9 f83b 5839 c83d 41bc 0fbd
00000250: 5451 3cbe 261d c0bd bfef 4d3d 27b2 473e
00000260: aa04 1a3c 42a7 d1bd 5503 c2bd 4b88 55be
00000270: 6977 ae3c 8fac 833d 1ac9 c63d 6f77 003d
00000280: 46ad bfbd 571e 04bd bce5 75be 65c0 0ebe
00000290: e07e 793e 6115 b33d d43e 98bd fb46 01be
000002a0: f730 25bd e948 f639 0238 70be d0b9 453d
000002b0: 247a 2cbd 3654 8cbd 3338 a53d a4a2 21be
000002c0: ba7c db3d 42f7 dc3d b7c5 d03d 7e55 723d
000002d0: be93 08bd d8ec 88be 7d85 663e 946c 7abe
000002e0: afe3 30bd 2ac4 183e 173c 0fbe b1d7 c6bd
000002f0: fd4d 81bd 5655 bf3d 7893 1dbd 6f9d e73d
00000300: 0770 833e 7938 e5bd 3efb 803d a6a2 e2bd
00000310: 8ee1 8bbe edfb a23c 005f 4abe 6434 423e
00000320: e254 0f3d e11a 44be 99d3 d6bd 22e0 d5bc
00000330: 7bd0 00be 0dc9 433d 19e4 203e c1e8 76be
00000340: ad32 363e ad5d 6bbe c45a 51bd bdec febd
00000350: d326 543e 84dd c4bd 8d5e 1f3c d59d 37bb
00000360: e122 823c 305c d23d 0a94 37be 4304 29bd
00000370: 185e 31bd 8fe2 1abe a4a0 cdbc 458a 483e
00000380: 46bd 1e3e 843c 7f3c c171 f8bc f43f 4fbe
00000390: 5402 2f3e 3546 35bd b326 803d 9f95 5a3d
000003a0: 7014 36bd fd56 7ebe bb5b 44be 430c 7fbe
000003b0: f6b8 343e 4673 383e eebb 3fbd 3c7f 2e3b
000003c0: d368 1e3d a229 2ebd dde5 71be 3e0c 99bc
000003d0: ebad 26be 2ac8 68be 3854 8ebc dc3a 5f3c
000003e0: 61d2 0a3e b11d d5bd 6d77 183e 47da 563d
000003f0: 6fde a8bd 389a 33be fae7 983e e763 a0bd
0.0374718 0.004858249 -0.16978212 0.116071045 -0.24642004 0.09827615 -0.12220354 -0.06722451
-0.15109974 -0.24029157 -0.020438354 0.08707525 0.08811616 -0.21630935 0.22089358 0.1241292
0.1327318 0.1531965 0.08648752 -0.0156325 0.18876866 -0.06124557 0.022586294 -0.060407344
0.01682256 -0.10494045 0.07631328 -0.12597287 -0.0019112169 0.12240105 -0.0072176196 0.076234266
0.2677658 -0.26473457 0.2468907 -0.23937748 0.2662907 -0.025235776 -0.04996847 -0.1327032
-0.038199045 0.057832014 0.10903358 0.060649604 0.21359453 0.25861895 -0.109397724 0.1512158
0.05750974 0.15500844 0.010179041 -0.05241873 0.08778178 -0.12801397 -0.18944718 -0.09871053
0.19337171 -0.041466326 -0.11651521 0.021667413 0.04079722 -0.18416207 0.23881797 0.072453074
0.2211631 -0.079890124 -0.17406267 -0.22553039 0.07004272 -0.09047959 0.17165464 -0.13827023
-0.08605915 0.04213783 -0.024730941 -0.0893124 -0.11625229 -0.17148608 -0.1011303 0.09515663
-0.110629454 -0.1083956 0.042853426 -0.07150759 0.2223311 -0.22210644 0.14300682 0.0043648304
0.12849787 -0.12727255 0.04540936 -0.22207282 -0.010347335 0.07507467 0.039167732 -0.13327977
0.17313854 0.16766134 -0.26229206 -0.08184703 -0.25236708 -0.1135584 -0.029411232 0.25223538
0.22372817 0.023052504 0.10501327 -0.26929638 0.012053858 0.120023765 0.0926335 -0.12559146
0.008422454 0.02243444 0.04823092 -0.09471051 0.13974467 0.2328115 0.21411954 0.18274066
0.13037299 0.15426408 0.051839247 -0.21935628 -0.0466216 -0.060603052 -0.050819177 -0.05429165
-0.18162236 0.16897893 -0.072414964 -0.20258874 -0.08119873 -0.0037697165 -0.049572762 -0.20521522
0.0742313 0.077409565 0.1789146 -0.22085066 -0.03597896 -0.061274156 -0.062004816 0.0065457863
0.25324827 0.007594316 0.097765625 -0.035091642 -0.18390399 -0.093805596 0.050277468 0.19501553
0.009400526 -0.1023698 -0.09473292 -0.20852773 0.021297174 0.06429397 0.09706326 0.0313639
-0.09359221 -0.032255497 -0.24013418 -0.1394058 0.24364805 0.08744312 -0.074338585 -0.12624733
-0.0403299 0.000469751 -0.23458865 0.048272908 -0.04210867 -0.068519995 0.0806736 -0.15784699
0.10717149 0.10789348 0.10193961 0.059163563 -0.033344023 -0.26743197 0.22511859 -0.24455482
-0.043185886 0.1491858 -0.13987766 -0.097091086 -0.06313703 0.093424484 -0.038470715 0.11309325
0.25671408 -0.11192412 0.06297921 -0.11066179 -0.27320522 0.019895518 -0.19762802 0.18965298
0.03499306 -0.19150878 -0.10489578 -0.026107851 -0.12579529 0.04779916 0.15712012 -0.24112226
0.17792769 -0.22984953 -0.05111195 -0.12447498 0.20717935 -0.09612563 0.0097271325 -0.002801766
0.015885772 0.102714896 -0.17927566 -0.04126383 -0.043302625 -0.15125488 -0.025101013 0.19583996
0.1550189 0.015578393 -0.03032768 -0.2023924 0.17090732 -0.044256408 0.06257381 0.053365346
-0.044453084 -0.24837871 -0.19175617 -0.24907021 0.17648682 0.18012723 -0.046810083 0.002662613
0.038674187 -0.042520173 -0.23622842 -0.018682595 -0.16277282 -0.22732607 -0.017374143 0.013624873
0.13556816 -0.10406054 0.14889307 0.05245426 -0.08245551 -0.17539299 0.29864484 -0.07831555

gru2.weight_hh_l0 f4 [72, 24]
00000000: 0a9f 2e3e ab32 3e3e fb1a 3c3e 0901 49be
00000010: 07b6 5abe 2eb0 5dbd 6bfb f13d 3955 2b3d
00000020: 10f7 52be 7109 773e 102b 133e e166 84bd
00000030: 5d57 89bc b2b9 a43d e6d8 6cbe 8c15 8dbe
00000040: c2da 733e 8056 dc3d 7100 373d 781f 63be
00000050: 2dc3 14bd 8a6d 48be 3ac2 d83c c27c 713e
00000060: 3f60 893e 02c9 5a3e d29c d53d 0187 253e
00000070: 3b98 debd a4bb 96bd a4a1 99bd 9f39 523c
00000080: 4afc 7f3c 4785 073e b733 b03d 00b6 e53d
00000090: 30c1 85be 0e87 053c 81d4 60be 23e3 e33d
000000a0: 76c4 863d 5f0f 78be cfb5 173e b2ed 41be
000000b0: 9d62 62bd 301d e03c 599c 7c3d 7c1d 423e
000000c0: d7ee 6e3d 2e06 383d cc21 303d 5cec 87be
000000d0: 6d76 07be 5bae dc3d 43ac 1b3e c252 74be
000000e0: c2f8 e23a f569 863e b113 5bbe caff 8dbd
000000f0: 2a83 24be 6c81 3a3d 9f26 33be 8986 dc3d
00000100: 2aca 473e a219 c6bd f01b 00be 2f5f 26be
00000110: 7b45 aebd 95f1 7dbc 5aee 10be 0f46 99bd
00000120: b68d 873d 0097 b4bd 392e ff3d e468 76be
00000130: d38d 01be b20d 78be 9794 14bc 1685 8fbd
00000140: 5aa2 31be a85d 86bd 250a 69bd 8cb6 38be
00000150: 9fdb 84bd 2506 fc3d 9835 c6bd 08b7 71be
00000160: 6a7c e43b 32b7 dfbd ca84 0f3e 5202 7cbe
00000170: 11f8 8a3d 906f 3bbd 418e 46bd 1aa6 b63d
00000180: 07bf 5b3d 1a26 093e b8c6 623e 22cc e1bd
00000190: 561a b53a 73ff 203d adb3 253e 2ad2 a4bd
000001a0: 4786 1abc fe84 c43d 6b40 2a3d c0cb 12be
000001b0: d681 59bd 4c16 f53d dabe 8abe fde7 18bc
000001c0: 6477 68bd 521e 833c aebe 2c3d 953b f2bc
000001d0: c191 79be dc7f 303b 9eea 553d 4b3e 1e3e
000001e0: 7f02 ce3d 8e76 4abd f4b5 4f3e f2c0 563c
000001f0: 3cea 6bbe 3481 24bc 6ba2 243c 1474 5f3d
00000200: b308 ec3c 2ae3 6f3e 9cba 0fbd 0cff 2dbd
00000210: 5260 c4bc 521a 0d3e bf84 8cbe 9d60 903d
00000220: ea8d 0e3d 6d2b a43d 722a f9bd 56e8 bdbd
00000230: 9556 cbbc e986 a7bd d727 19be 0118 31be
00000240: 4a20 a4bd e05e 873e 2c9c 373e 69ca 02be
00000250: 6813 1a3d fc00 d7bd 78d0 823d 60a5 52be
00000260: e7c4 4ebe 2714 533e 2003 fa3d 0209 90be
00000270: ccee 5dbd b710 033e 63ea 41be 9392 1cbe
00000280: 6d7d 83bd 2f47 e6bc b75e 8c3e e330 2cbc
00000290: f0bf d4bd 2bfb 3cbd c863 50be fbed dfbc
000002a0: 72af ff3d e288 883e 06a9 553d 4303 0fbe
000002b0: e8fa 1cbd 65ee 79be 63b4 263e d1be 27be
000002c0: e91c e8bd 8904 b4bd 3c10 113c 39e3 0abe
000002d0: ae5b fdbc 920b 9bbd bd02 ac3c 1275 79be
000002e0: b16d aabd 1683 81be 0298 6b3e f25a 343d
000002f0: cc5c 56be 6da4 dabd c1b9 c23d a4e6 e33d
00000300: 608b 8a3e 7219 333d 19f2 643d 8c97 af3d
00000310: 6099 b8bd 10b9 7abe 7cdc c53c 01c7 983d
00000320: dee4 443c 9dfa 0c3d 6a1f 8dbe cd31 9e3d
00000330: 536e f2bd 5f9c f03c c08c cf3d 7f4d 0d3d
00000340: 7d30 223e 5eb0 44bc fbe3 9f3d d2df 64bd
00000350: b385 2ebe a55b 8dbc e487 243d 1dce 3b3e
00000360: 5b21 2bbd f77b be3d 1961 453d 523a 4bbe
00000370: f645 82bc 9133 813d 71b9 893d 9046 12be
00000380: a0ef e33d 6b5d d5bc 44db cd3c 8d0b 53bd
00000390: 6ae6 943c 4f24 073e c43b 8cbe 4565 29bd
000003a0: 4f7e b73d 6759 67be cea5 3d3e cd43 17bd
000003b0: 88b9 02be 1066 8dbd 553a ab3d 861a b0bc
000003c0: f082 11bc 37b9 5b3b 62e9 363d 9a70 28ba
000003d0: ed81 08be 4c56 2fbb 2e6f 86bd f69b 9abd
000003e0: f030 773d 0167 973d 7ea9 823d 6700 0fbd
000003f0: 0f74 95be 08e6 fabc fb53 943d ed2f e7bd
0.17052856 0.18574016 0.18369667 -0.19629301 -0.213585 -0.054123096 0.11815532 0.04182932
-0.2060206 0.24124695 0.14371896 -0.06464935 -0.01676529 0.08043231 -0.23129615 -0.275555
0.23813918 0.10758686 0.044678155 -0.22179973 -0.036318947 -0.19573036 0.026459802 0.23582748
0.26831242 0.21365741 0.10430302 0.16164781 -0.108688794 -0.07360008 -0.07501534 0.012831121
0.015624115 0.13234435 0.08603614 0.11216354 -0.26123953 0.008149875 -0.21956064 0.11127307
0.06580441 -0.24224614 0.14815448 -0.1893833 -0.055269826 0.027357668 0.061672542 0.1895656
0.058333244 0.04492777 0.04300098 -0.26547515 -0.1322877 0.10775443 0.15202431 -0.23859695
0.0017316567 0.26252714 -0.2139423 -0.069335535 -0.1606566 0.045533583 -0.17495202 0.10767848
0.19510713 -0.09672858 -0.12510657 -0.16247247 -0.08509346 -0.015499492 -0.14153424 -0.07484066
0.06618826 -0.088178635 0.12459988 -0.2406345 -0.12651758 -0.24223974 -0.00906863 -0.07007806
-0.17347088 -0.06560832 -0.05689444 -0.18038386 -0.06487202 0.123058595 -0.09678191 -0.23604977
0.006972839 -0.109236136 0.14015499 -0.2461026 0.06785596 -0.04576069 -0.048475508 0.089184
0.053648975 0.13393441 0.22146118 -0.11025263 0.0013817053 0.039306115 0.16181822 -0.08047898
-0.009431428 0.09595679 0.04156534 -0.14335537 -0.053102337 0.119671434 -0.27098733 -0.009332654
-0.056754485 0.016005669 0.042174034 -0.029569427 -0.24372007 0.002693168 0.0522257 0.1545345
0.1005907 -0.04942947 0.20284253 0.013107525 -0.23038572 -0.01004057 0.010048489 0.05455406
0.028812742 0.234265 -0.035090074 -0.04247956 -0.02397171 0.13779572 -0.27445027 0.070496775
0.03480331 0.08016095 -0.12166299 -0.0927283 -0.024821559 -0.08180029 -0.14956604 -0.17294313
-0.08013971 0.2643957 0.17930669 -0.12772526 0.037616163 -0.10498235 0.063874185 -0.20570898
-0.201923 0.20613156 0.12207627 -0.28131872 -0.054182813 0.12799345 -0.18937068 -0.15290289
-0.064204074 -0.028110115 0.27416012 -0.010509702 -0.10388172 -0.04613797 -0.20350564 -0.027335158
0.124846354 0.26666933 0.052163146 -0.13966088 -0.03832522 -0.24407347 0.1627975 -0.16381384
-0.11333639 -0.087899275 0.008853968 -0.13563241 -0.030927505 -0.07570566 0.0209974 -0.24361065
-0.08321703 -0.25295323 0.23007205 0.044032045 -0.20933837 -0.10675893 0.09508086 0.111279756
0.2705946 0.04372544 0.055894945 0.08573827 -0.09013629 -0.24484658 0.024152987 0.07459832
0.012017457 0.03441869 -0.2756303 0.077243425 -0.11837449 0.029371439 0.10134268 0.034497734
0.1583881 -0.01200494 0.07807156 -0.055877514 -0.1704319 -0.017255614 0.040168658 0.18340345
-0.041779857 0.09300988 0.048188303 -0.19846466 -0.0159025 0.06308664 0.06724823 -0.1428473
0.11129689 -0.026045522 0.025128968 -0.051524688 0.018176276 0.13197444 -0.27389348 -0.041356344
0.08959638 -0.22592698 0.1852028 -0.036929894 -0.12766087 -0.069042325 0.08360735 -0.021497022
-0.008881316 0.0033527145 0.044656165 -0.00064254703 -0.13330813 -0.0026754318 -0.065641746 -0.075492784
0.060349405 0.07392693 0.06379984 -0.034912493 -0.29190108 -0.030627266 0.072425805 -0.11288438

gru2.bias_ih_l0 f4 [72]
00000000: 8117 0e3e 3dee 433c 47fe 19be 97a3 ccbd
00000010: b1fa 7c3d be5a d13d 074d ba3c 8fa5 f73d
00000020: abde e13d 15d3 653e d22c 3d3e 0368 ca3d
00000030: e3c4 a8bd 04ec 9bbc 86a8 6f3e 422b 1f3e
00000040: 5354 aebd e598 613e a48d 313e 7171 29bd
00000050: 9ce6 083d bbf3 fd3d bfed 0c3e 214e df3c
00000060: 24cd bfbd 907d 2bbd 5cbd e7bd fbb4 5abe
00000070: 568d 903c b0af b5bc 05ad 5cbe 7feb 9dbe
00000080: 557e 73be 254f 33be 5ea3 46be d039 57be
00000090: 4dd3 62be 4529 a8bc ce14 cbbd d5df f9bd
000000a0: 7e3c a8bc 49ac dabd d3a8 ccbc ef47 57bd
000000b0: 681c 39be 3241 7fbe 0b1c 94be 42e5 7bbe
000000c0: b053 363e 16b4 2a3e dabd f83d 2c11 773d
000000d0: 3ca5 81bd 1872 64be cab2 4e3e faeb abbd
000000e0: 1338 a9bd c365 42bd 940c a53d 63c8 e73d
000000f0: fe49 37be 9e99 743e ed40 6d3d c42a 02bb
00000100: 960e 7bbc 0871 4fbe ae32 a83d e04c d03c
00000110: f6a6 49be 40ee ff3d 5c0a 9d3d 7904 813d
0.13876154 0.011958656 -0.15038405 -0.0999214 0.061762515 0.10222386 0.022741808 0.12092125
0.11028799 0.22443803 0.18474129 0.0988312 -0.08240678 -0.01903344 0.2340413 0.15543845
-0.08512177 0.22030981 0.17339188 -0.04136795 0.03342305 0.124000035 0.13762568 0.027258934
-0.09365299 -0.041867793 -0.11315414 -0.21358101 0.01764552 -0.0221785 -0.21550377 -0.30843732
-0.2377866 -0.1751066 -0.19398257 -0.21018147 -0.22150917 -0.020527491 -0.099160776 -0.12200896
-0.020536657 -0.10677392 -0.024982845 -0.052558836 -0.18077242 -0.24927214 -0.28927645 -0.24599174
0.17805362 0.1667026 0.12145586 0.06031911 -0.06330344 -0.22309148 0.2018539 -0.08394618
-0.082626484 -0.04746033 0.0805904 0.113175176 -0.1789932 0.23886725 0.057923246 -0.0019861916
-0.015323302 -0.20257962 0.082127914 0.025427282 -0.19692597 0.124966145 0.076679915 0.06299681

gru2.bias_hh_l0 f4 [72]
00000000: a8ba 21be a07d c2bd 5bcf 423e ae0a b13d
00000010: 3baf 2a3d c72d 06be 7514 b5bc 020c 513e
00000020: a4a4 293e e9d1 7c3d 9020 803e 6fa6 59bd
00000030: 6dc0 36bd 9934 943d 41f9 babd e790 853e
00000040: 959e 3a3e 07e0 bb3d 9f32 c8bd 268d 653e
00000050: 026f 61bd e2ab b23c a8b1 643e 5a75 463c
00000060: 62b9 d93d 8e80 3dbe d4e0 73be 0ac9 26be
00000070: 56ec a5be 0e91 37bd 3f5e 0dbd 287c b1bd
00000080: ace1 a2be c402 1c3d 7a64 39bd 1e6b 133e
00000090: 9212 1fbe 30ba f3ba 576c 9e3c 0d28 f7bd
000000a0: e8a5 08bd d3d4 28bd 2dd1 1ebe 74e9 b0bd
000000b0: 46fc b9bd 74fc 39bd 51e5 24be 2c41 03be
000000c0: 7ede 4d3e dfc1 8e3e 4ecc 063c 58db bb3d
000000d0: af92 1c3e 6cfc 3a3d 2efc 2a3e e375 5fbe
000000e0: f889 16be 5abb 833b db12 ff3d 2887 88bc
000000f0: 06a9 65be 3704 efbd 79b1 85be 18ad 66be
00000100: b281 0cbd 2e1a 43be f3af 5c3e 0ddd 24be
00000110: 1a42 f73d eeec afbd 2de2 60be 52e0 d3bb
-0.1579386 -0.09496617 0.19024412 0.08644615 0.04167102 -0.131034 -0.022104481 0.20414737
0.16566712 0.061723623 0.25024843 -0.05313724 -0.044617105 0.07236595 -0.09129573 0.26087114
0.18224557 0.09173589 -0.0977528 0.22417125 -0.055037506 0.021810476 0.22333395 0.01211294
0.10631062 -0.18506071 -0.23816234 -0.16287628 -0.32406873 -0.04481607 -0.03451371 -0.08666259
-0.318128 0.038088575 -0.045261838 0.1439633 -0.15534428 -0.0018594917 0.01933877 -0.12068186
-0.033361346 -0.04121859 -0.15509482 -0.08638278 -0.090813205 -0.045406774 -0.16103102 -0.1281783
0.20104405 0.27882287 0.008227421 0.09172696 0.1529033 0.045650885 0.16697761 -0.21822314
-0.14701068 0.004020137 0.12454768 -0.01666601 -0.22427759 -0.11670726 -0.26111963 -0.22526968
-0.034303375 -0.19052956 0.21551494 -0.16099949 0.12073155 -0.085901126 -0.21961279 -0.00646595

fc.weight f4 [32, 24]
00000000: b677 9abe 520d a7be 73a7 c9be 3532 423e
00000010: cf37 553d 2e29 0c3e 1706 7cbe 4941 9e3d
00000020: 6dfa 413e 2bb7 afbe 3ba8 113e 731a c43e
00000030: 6d83 c73e d4df 42be 5908 6c3e 033b b53e
00000040: b769 ae3c 4b2b e73d 84a8 2fbe 6ebc 2a3e
00000050: 9264 763d 9840 c63e b642 b83e ac29 45be
00000060: 8c06 5ebc 724d cfbd e5f9 16bd ed8b 723e
00000070: 722b 8e3e 027f 703e d45c 6bbd cbdb af3e
00000080: eb5e 7a3e 3362 93be 9a57 7f3e 0671 be3e
00000090: ab2a ad3e 0579 37bd b413 a33d 144c b03e
000000a0: b567 e4bd 0aa5 8d3d 807b 37be d1d9 a43e
000000b0: 108f a2bc 1bbe 093e 5895 a13e 2432 66be
000000c0: 34da 90be fe8b 6abe 0e8a 00be 45b2 643c
000000d0: 80e9 663e b594 6f3e a988 ffbd 2d80 353e
000000e0: bebd 913e b446 3fbe a6a1 b53e 5c24 a63e
000000f0: ecab 413d 12b4 6fbe df81 a93e 181f 103e
00000100: 481d 67be 502c 3e3e 6ead 74be 6f76 fd3d
00000110: cf45 6f3e fe09 bc3e d3ce 5c3e 0633 98bd
00000120: df90 0bbd e5ad 98be 332b a8be df0e 083e
00000130: fb7f 803e a0d7 153e 2ac1 86be 70fb f03c
00000140: 671c 383e 314d 56bc 1608 4a3e 14bb bf3e
00000150: 2961 a63d 46c0 2d3b bc43 033d 3c27 a13e
00000160: f3cf 04be 54ef c83e 4857 363c 3e75 ef3d
00000170: f645 293e f11a 033e 28eb 643e 8c56 8fbe
00000180: fccb 7bbe 9d41 98be f7c2 83bd 038f a83e
00000190: 11f4 603e 887d 2d3e 9869 a6be 8e39 2cbc
000001a0: e33e af3c 8258 a5be 7c45 d33c 51c9 8f3e
000001b0: c283 e03c 79ac bebd be33 9d3e 2f65 233e
000001c0: 0886 e4bd ec79 a53e 37fc bebe 5ebb bc3e
000001d0: 1ff5 c53e 96c8 c53e 3aea d33d 816d 72bd
000001e0: 0a5a 8dbe 3c3b 12be e40a bcbc 5536 5d3e
000001f0: d5ba 8c3e ce22 053e 062a 8ebe 7fe9 b23e
00000200: cd75 fd3a 943f 0fbe af49 373e b293 093e
00000210: ad88 18bc 3dd6 a2be f0eb 673d 38b8 453e
00000220: f2f1 a7bd d525 613c bc4b 8bbe be10 213b
00000230: ecb1 a83e 24de dd3b b5be 243e 562c 61be
00000240: 665b 9ebe 7ecf d4bc 9f06 d1bd a9d5 8c3e
00000250: f233 ae3e ec9f 9d3d c147 9dbd 9a7b af3e
00000260: 01a7 093e 9709 40be 1fdf 5a3e b494 58bc
00000270: 1a1f 273e ff82 5dbe edab ab3c 54ad 9d3e
00000280: 533f adbe 1904 e93d 4f74 8dbd e61c 663e
00000290: bf93 893e d144 4c3e 3e0c bfbb 1b4b aabe
000002a0: 2509 8abe c639 9ebe dc25 a4be 2fe6 df3d
000002b0: e2bd c33e 9003 b43e 6e0c 19be 38d0 823d
000002c0: 6eac 8e3d e976 953c 393a 653e c8e7 5f3e
000002d0: 46f5 a53d 9720 9bbe de81 8e3e c26b 143e
000002e0: 99f5 43be 9b20 c83d 3575 b1be 1061 843d
000002f0: b6e2 46bc be90 c63e f922 5d3e 8ac6 29be
00000300: 83f0 49bd 77ae 95bd 6999 67be 15ea 9a3e
00000310: 5f39 523e 6b27 01bc 9017 b6bc 7036 8e3d
00000320: 96b5 183d e2a4 66be 91e2 803e 49bb b63e
00000330: 48a4 e2bb be73 c8be a790 1e3d 6be3 353d
00000340: 47b0 0f3d 237f 4a3e aec7 48bd 8bea 833e
00000350: 057e 9f3e b284 bb3d 763d 8f3e fecc f7bd
00000360: 30d1 03be 7f3b a7be bd6e 85be 06bd af3e
00000370: c814 1d3e 4379 f83c 7df2 b1be b668 0b3e
00000380: 740c 8d3e 05bd 6ebe 2188 ae3e c579 8c3e
00000390: 8cdc b43c c362 43be 2ae7 b63e cc32 933e
000003a0: 57dd 6dbe 7803 3a3d f83a 0cbe db72 953e
000003b0: c37d 143e d67f 8f3c 1f89 c33e 0d05 b4bd
000003c0: 0f71 cebe 5aec 2bbe b2aa 72be 031f b83e
000003d0: 190d 9d3e 5c13 6f3e f5c1 71be eebd e83c
000003e0: 8009 7c3e df24 b9bd f38d 4d3e 8d4b bc3e
000003f0: dd2e 9b3e 2e62 babe 5cd9 243e 96a0 913d
-0.30169457 -0.3262735 -0.39385566 0.18964465 0.052055176 0.13687584 -0.24611698 0.07727296
0.18943186 -0.34319434 0.14224331 0.3830143 0.38967457 -0.19030696 0.2305006 0.35396585
0.021290643 0.11287554 -0.17154127 0.16673443 0.060154505 0.38721156 0.35988396 -0.19254178
-0.013551366 -0.101221934 -0.03685941 0.2368619 0.2776752 0.2348595 -0.057461575 0.34347376
0.24450271 -0.28785858 0.24935761 0.37195605 0.33821616 -0.044793148 0.079627424 0.34433043
-0.11152593 0.06916244 -0.17918205 0.3219743 -0.019843608 0.13451426 0.31559253 -0.22480065
-0.28291476 -0.22904965 -0.12552664 0.013958518 0.2255001 0.23396571 -0.12477238 0.17724676
0.28465074 -0.18679315 0.3547489 0.32449615 0.047283098 -0.23408535 0.33106896 0.14074361
-0.22569764 0.18571591 -0.23894283 0.12376105 0.23366474 0.36726373 0.21563272 -0.07431607
-0.034073707 -0.2982017 -0.32845458 0.13286923 0.2509764 0.14633036 -0.26319247 0.02941677
0.17979585 -0.013079927 0.19729647 0.37447417 0.081240006 0.002651231 0.03204702 0.31475246
-0.12969951 0.39245093 0.011129208 0.11692284 0.16530594 0.12803246 0.2235533 -0.27995718
-0.24589533 -0.2973756 -0.06433671 0.3292161 0.21968104 0.16942418 -0.32502437 -0.010511769
0.021392291 -0.3229409 0.025789969 0.2808328 0.027406577 -0.0931024 0.3070354 0.15956567
-0.11158377 0.32319582 -0.373018 0.368617 0.38663575 0.38629597 0.103474095 -0.059186462
-0.27607757 -0.14280409 -0.022954412 0.21602757 0.27486292 0.13001558 -0.27766436 0.34943768
0.0019337476 -0.13989097 0.17899202 0.13435248 -0.00930993 -0.31804076 0.056621492 0.19308555
-0.08200444 0.01374193 -0.27206218 0.002457663 0.32948244 0.006770866 0.16088374 -0.21989569
-0.30929106 -0.025977846 -0.10206341 0.2750676 0.34024006 0.07696518 -0.076797016 0.34273988
0.13442613 -0.18753658 0.21374176 -0.013219047 0.16320458 -0.21632002 0.020956004 0.307963
-0.33837375 0.11377735 -0.0690695 0.22471961 0.26870534 0.19948126 -0.005830317 -0.33260426
-0.26960102 -0.30903453 -0.32060134 0.10932576 0.38230807 0.35158968 -0.14946148 0.06387371
0.06966482 0.018245177 0.22385491 0.21865761 0.08103423 -0.30298302 0.27833456 0.14494231
-0.19136657 0.09771844 -0.34659734 0.06463826 -0.012139013 0.38782305 0.21595372 -0.16579643
-0.049301635 -0.07308667 -0.22617115 0.30256715 0.20529698 -0.007882933 -0.022228032 0.06943977
0.03728255 -0.22523835 0.25172856 0.35689762 -0.0069165565 -0.39150804 0.03871217 0.044406336
0.03508022 0.19775061 -0.049018554 0.2576488 0.31150833 0.09156169 0.27976578 -0.12099646
-0.12872767 -0.3266258 -0.2606105 0.343239 0.15339959 0.03033126 -0.34755316 0.13614163
0.27548563 -0.23314293 0.34088233 0.27436653 0.022077821 -0.19080643 0.3572324 0.28749692
-0.23228966 0.045413464 -0.1369437 0.2918919 0.145011 0.017517012 0.38190553 -0.08790026
-0.40320632 -0.1678938 -0.23697928 0.3596116 0.30674055 0.23347229 -0.23609145 0.028410878
0.24612999 -0.09040236 0.2007368 0.3677639 0.3030919 -0.3640303 0.16098541 0.071107075

fc.bias f4 [32]
00000000: f5d7 02be bf9c e3bd 8e91 acbe ac1e 86be
00000010: d286 46be d5d9 6e3c f3b0 b8be ccdd c0be
00000020: b60c c4bd d496 cebd 80ca 3dbe 65f1 acbe
00000030: 3d37 8cbe 83b9 eebc 4d22 583c e1ce 0bbe
00000040: 0293 b53c 1e7c debc 9379 50be ccdc 9dbe
00000050: 6a73 96be 4bd2 79be 1952 b5be d561 063d
00000060: 2d55 34be a9bc c0be e043 96be 7836 80be
00000070: a200 b7be d090 68be 7bdc a2be e948 72be
-0.12777694 -0.11113881 -0.337048 -0.26195276 -0.19387367 0.014578302 -0.36072502 -0.37669218
-0.09572737 -0.10087362 -0.18534279 -0.3377792 -0.27385893 -0.029141193 0.013191772 -0.13653137
0.022164825 -0.027158793 -0.20358877 -0.30832517 -0.2938493 -0.24396627 -0.35414198 0.032808144
-0.17610617 -0.37643936 -0.2934866 -0.25041556 -0.3574267 -0.22711492 -0.31808838 -0.23660626
