models/GRU_NoiseEst/training_checkpoints/tiny_noise_gru_epoch_013_mse_0.345827.pth (torch, 69713 bytes, 14 tensors)

pre.weight f4 [48, 12, 11]
0	0xbd89f5ca	-0.06736334
1	0x3d84db98	0.06487197
2	0xbd6334e5	-0.055470366
3	0x3d29f9a9	0.04149786
4	0xbcbfaa39	-0.023396598
5	0x3c7f0c63	0.015566918
6	0x3d1f854e	0.03894549
7	0x3d2bc7a5	0.041938443
8	0xbd684a7b	-0.056711655
9	0x3ce58bca	0.028020758
10	0x3d92262e	0.071361884
11	0xbcee309e	-0.029075917
12	0x3caa06aa	0.02075513
13	0x3cd18d65	0.025580117
14	0x3d9a2c82	0.075280204
15	0xbc6cc99c	-0.014452364
16	0xbc72cc2d	-0.014819187
17	0x3ce6027c	0.028077357
18	0x3d578609	0.05261806
19	0x3dbff9b6	0.093738005
20	0xbd0e2350	-0.034701645
21	0x3d2d892d	0.04236715
22	0x3d830df9	0.063991494
23	0x3d1e7375	0.038684327
24	0x3d4c45d4	0.04987128
25	0xbca1e947	-0.019764556
26	0xbae8098a	-0.0017703038
27	0xbcbd14a8	-0.023081139
28	0xbbcc82e7	-0.0062411907
29	0x3cd852b7	0.026406629
30	0x3cce3dd4	0.025175966
31	0x3c986e62	0.018607322
32	0x3d9f03a9	0.0776437
33	0x3d44df9a	0.048064806
34	0x3bad22c4	0.0052836854
35	0x3d60bad8	0.054865688
36	0xbdbdba6e	-0.09264074
37	0xbda87a61	-0.08226467
38	0xbd361bab	-0.04445998
39	0x3ad9d222	0.0016618411
40	0xbcd944cd	-0.026522065
41	0x3d489544	0.048970476
42	0x3ab9bd46	0.0014170788
43	0x3c7fddbe	0.015616832
44	0x3d296c6b	0.04136316
45	0x3d608a63	0.054819476
46	0x3c06379d	0.00819197
47	0xbbd9e3ac	-0.006649455
48	0x3c91a701	0.017779829
49	0xbb34e50f	-0.002760235
50	0xbd91b5f4	-0.07114783
51	0xbd4ad98e	-0.049523883
52	0xbdb92c57	-0.0904166
53	0xbc8db78f	-0.017299442
54	0xbc246ef5	-0.01003622
55	0x3cbd7095	0.023124972
56	0x3d65bcd7	0.056088295
57	0x3c1c52b1	0.0095412
58	0xbd57505f	-0.052566882
59	0x3d9acb9f	0.07558369
60	0x3c4bcf7e	0.012439607
61	0xbd5c8bdb	-0.053844314
62	0xbd4eed32	-0.050519176
63	0x3d7e3f72	0.062072225
64	0x3da0c197	0.07849424
65	0x3c5b7b2f	0.0133960685
66	0xbdbadbe8	-0.09123975
67	0xbdc70c39	-0.09719128
68	0x3d7f3bba	0.06231282
69	0x3c40f2db	0.011776651
70	0xbd6204cc	-0.055180356
71	0x3d5820a1	0.052765492
72	0x3d365faa	0.044524826
73	0x3d8c0b9f	0.06838154
74	0x3d9129b2	0.07088031
75	0xb9285ae6	-0.00016055591
76	0xbd04651f	-0.032323
77	0x3d5f3c40	0.05450082
78	0xbb12b8e1	-0.0022388028
79	0xbbbacb6f	-0.0057005207
80	0xbd3b1858	-0.045677513
81	0x3d5acaa3	0.053415906
82	0xbd1d0264	-0.038332358
83	0x3ce1606e	0.027511802
84	0xbd50cf3e	-0.05097889
85	0xbdcc7e29	-0.09985001
86	0xbd78aa92	-0.060709544
87	0x3b72cfdb	0.003705016
88	0xbc9631d7	-0.018334312
89	0xbd878a33	-0.06618156
90	0x3d398015	0.045288164
91	0xbd885506	-0.06656842
92	0x3d3af392	0.045642443
93	0xba8f9c68	-0.0010956647
94	0x3d09c4e8	0.03363505
95	0xbd5dcc60	-0.054149985
96	0xbda5a900	-0.08088875
97	0x3d2c2084	0.042023197
98	0xbd9b44ad	-0.07581458
99	0xbd4fac46	-0.050701402
100	0xbd8e76c6	-0.06956248
101	0xbc11da66	-0.008902168
102	0xbd5185af	-0.05115288
103	0xbdc6380f	-0.09678661
104	0xbc1ad488	-0.009450085
105	0xbd14a208	-0.036287338
106	0xbda0c0f9	-0.078493066
107	0xbcc82e0b	-0.024436017
108	0xbb42bd7c	-0.0029714992
109	0xbdb64992	-0.08900751
110	0xbdd274e0	-0.102761984
111	0x3d539b09	0.051661525
112	0xbd9d2e36	-0.0767483
113	0x3c59ae61	0.013286204
114	0x3c1e9ed9	0.009681427
115	0x3c6e9650	0.0145622045
116	0xbc6f136e	-0.014592035
117	0xbd541cdf	-0.051785346
118	0x3c957b1c	0.01824718
119	0x3d3f6b20	0.04673302
120	0x3d313c3a	0.043270327
121	0xbdfc8006	-0.12329106
122	0xbb1dfab4	-0.002410573
123	0xbd5e3b71	-0.054255906
124	0x3cdde87c	0.027088396
125	0xbd25d6f8	-0.040488213
126	0xbc71301a	-0.014720941
127	0xbd07847a	-0.033085324
128	0xbbcaf8e1	-0.0061942195
129	0xbdf1163c	-0.11771819
130	0xbda75f93	-0.08172526
131	0xbb9a6dba	-0.0047127875
132	0xbd169234	-0.036760524
133	0xbd1fcc17	-0.039012995
134	0x3aaa03ac	0.0012971065
135	0xbca9229d	-0.020646388
136	0xbd39cbd1	-0.04536039
137	0x3d35e7e3	0.044410598
138	0x3d02601c	0.03182994
139	0xbbfeb822	-0.007773415
140	0x3d3c0ac6	0.04590871
141	0x3ce27b79	0.027646767
142	0x3c2309c7	0.009951062
143	0xbcaa78a5	-0.02080948
144	0x3d8ef095	0.06979481
145	0x3d1faae1	0.038981322
146	0x3d9bf489	0.07615001
147	0xbcfc9903	-0.03083468
148	0xbd1101ce	-0.03540211
149	0xbd7db9e9	-0.061944876
150	0x3da598ae	0.08085762
151	0xbbef5fa1	-0.007305101
152	0x3d581479	0.0527539
153	0x3d94a05e	0.0725715
154	0xbd2b3350	-0.041796982
155	0x3d4c4590	0.049871027
156	0x3c4bcbb0	0.0124387
157	0x3d6a641c	0.057224378
158	0x3d8a4b41	0.06752635
159	0x3be7e49d	0.0070768134
160	0x3d5416b5	0.051779468
161	0xbcc36daf	-0.023856012
162	0x3d87b81d	0.06626914
163	0x3d32772c	0.043570682
164	0xbb814985	-0.003945532
165	0xbdcf59d0	-0.10124552
166	0xbc8e1585	-0.017344246
167	0xbc6a9845	-0.01431853
168	0xbdb0ef22	-0.08639361
169	0xbcee2665	-0.029071042
170	0x3d6a8d33	0.057263564
171	0xbd8de02e	-0.069275245
172	0x3c3099a9	0.010778823
173	0xbd1e84da	-0.038700916
174	0xbd6d3ed0	-0.05792123
175	0x3ccb1fbb	0.024795404
176	0x3c5aaa3a	0.013346249
177	0x3d82e7d6	0.063918754
178	0x3c8ae858	0.016956493
179	0xbd33ad40	-0.043866396
180	0x3b6f0ccf	0.003647614
181	0xbcf5542a	-0.02994736
182	0xbd472e28	-0.048628002
183	0xbce1a817	-0.027545972
184	0x3d14af14	0.03629978
185	0xbd8b3370	-0.0679692
186	0xbb1bf823	-0.0023799024
187	0xbd91ef0f	-0.07125675
188	0xbccbbae9	-0.0248694
189	0xbc764fdf	-0.015033691
190	0x3d8fd91e	0.07023834
191	0x3d9d0855	0.07667605
192	0x3d968488	0.07349497
193	0x3d7fedeb	0.062482756
194	0x3d7de381	0.061984543
195	0x3d77abfb	0.060466748
196	0x3ac54bf9	0.0015052549
197	0xbaa7ce80	-0.0012802631
198	0x3bd90d3b	0.0066238916
199	0xbd6552bc	-0.055987105
200	0xbcb6640e	-0.022264507
201	0xbd4e7acb	-0.050410073
202	0x3c1ba71f	0.009500294
203	0xbd0de2f7	-0.03464028
204	0xbd99dc2a	-0.07512696
205	0xbcb2c969	-0.021824555
206	0x3c32a443	0.010903421
207	0xbd4f1bc7	-0.0505636
208	0x3cd3ec06	0.02586938
209	0xbd5cfa34	-0.05394955
210	0xbc56076b	-0.013063292
211	0x3a9f7c15	0.0012167717
212	0x3c74f047	0.014949865
213	0xbd19a58f	-0.037511405
214	0xbd57e92b	-0.0527126
215	0xbba76ee6	-0.0051096557
216	0x3d6ca6fd	0.05777644
217	0xbd258ef8	-0.04041955
218	0xbd3d2de0	-0.046186328
219	0x3d030575	0.031987626
220	0xbcd5eb54	-0.02611319
221	0x3ccd68a3	0.025074309
222	0xbd7573e7	-0.059924986
223	0x3d8dcc65	0.06923751
224	0xbd66047c	-0.05615662
225	0x3d43018a	0.04760889
226	0xbda28997	-0.079363994
227	0xbd5a6024	-0.053314343
228	0xbc4171c4	-0.011806909
229	0x3bfa919f	0.007646754
230	0xbc00bbf7	-0.007857314
231	0x3d25679b	0.04038201
232	0x3cc62bfe	0.024190899
233	0xbd7803cb	-0.060550492
234	0xbc763f83	-0.015029791
235	0x3cbd9685	0.023143062
236	0xbcbf42e8	-0.023347333
237	0x3d01c2e1	0.03167999
238	0xbd9a65fe	-0.07538985
239	0xbda60686	-0.08106713
240	0x3d0935bf	0.033498522
241	0xbd92ffca	-0.07177694
242	0xbd1b8a80	-0.03797388
243	0x3ca3f0ee	0.020012345
244	0xbdb029b8	-0.08601707
245	0x3d23d2b9	0.039995883
246	0xbdb17759	-0.08665342
247	0xbd8e42d4	-0.0694634
248	0x3c05978e	0.008153809
249	0x3b3955ef	0.002827998
250	0xbd2f6e4a	-0.04282979
251	0xbd8db1ed	-0.06918702
252	0xbd692582	-0.056920536
253	0xbc0979ae	-0.008390827
254	0xbc0a4359	-0.0084389085
255	0xbda29903	-0.07939341

pre.bias f4 [48]
0	0x3de8b704	0.113630325
1	0x3e2bbb91	0.1677077
2	0x3e13b4c2	0.14424422
3	0x3e2821e1	0.16419174
4	0x3d8198c0	0.06327963
5	0x3e57ce1a	0.21074715
6	0x3e2bc3a0	0.16773844
7	0xbd8b4cad	-0.06801734
8	0xbdc0c56f	-0.094126575
9	0xbd418e1b	-0.047254663
10	0xbd001184	-0.031266704
11	0xbd85f571	-0.06540955
12	0xbc62a907	-0.013834245
13	0x3ca340a5	0.019928286
14	0xbd9faad2	-0.07796253
15	0xbd0695a0	-0.032857537
16	0x3d432f73	0.047652673
17	0x3c896c63	0.016775316
18	0xbdcb9410	-0.0994035
19	0xbd88eac9	-0.06685407
20	0xbdb208ac	-0.0869306
21	0x3d2fcaa5	0.042917866
22	0x3d3c059a	0.04590378
23	0xbd966206	-0.07342915
24	0xbda4aae3	-0.080404066
25	0xbdb8da98	-0.090260684
26	0xbd95fa94	-0.073231846
27	0xbe04ce30	-0.1296928
28	0xbe2f0699	-0.1709236
29	0xbe36fe3f	-0.17870425
30	0xbe195b99	-0.14976348
31	0xbe07cef3	-0.13262539
32	0xbdd95e45	-0.106136836
33	0xbd9494cc	-0.07254943
34	0xbe18502e	-0.14874336
35	0xbe28afbd	-0.16473289
36	0xbd81e4b6	-0.06342451
37	0xbdcc2f25	-0.099699296
38	0xbe81f4a5	-0.2538196
39	0xbe23f1a3	-0.16010146
40	0xbe488271	-0.1958101
41	0xbdb038d8	-0.08604592
42	0xbe74935d	-0.2388434
43	0x3c2d70be	0.010585962
44	0xbe696262	-0.22791436
45	0xbd738972	-0.05945725
46	0xbe1bcf08	-0.15215695
47	0xbdd48cfa	-0.10378452

norm.weight f4 [48]
0	0x3f70b89a	0.9403168
1	0x3f7004d5	0.93757373
2	0x3f745221	0.9543782
3	0x3f721f4b	0.94579
4	0x3f79d578	0.9759135
5	0x3f6f1ccf	0.93403333
6	0x3f781374	0.96904683
7	0x3f75c77a	0.960075
8	0x3f6a5282	0.91532147
9	0x3f77b484	0.9675982
10	0x3f6ac941	0.9171334
11	0x3f74400b	0.9541022
12	0x3f71d89c	0.94471145
13	0x3f6b93fe	0.92022693
14	0x3f70fc48	0.9413495
15	0x3f6810bd	0.9065054
16	0x3f741a42	0.95352566
17	0x3f6bdca1	0.9213353
18	0x3f68fd87	0.9101185
19	0x3f6b3995	0.9188474
20	0x3f6b4428	0.91900873
21	0x3f73d5fc	0.9524839
22	0x3f6d79c5	0.9276393
23	0x3f6d94bb	0.9280507
24	0x3f87791e	1.0583837
25	0x3f89b840	1.0759354
26	0x3f803baf	1.0018214
27	0x3f7958ee	0.9740132
28	0x3f87478e	1.0568712
29	0x3f72670b	0.9468848
30	0x3f806ba9	1.0032855
31	0x3f7023af	0.9380445
32	0x3f7fd124	0.999285
33	0x3f8013b6	1.0006015
34	0x3f7a8127	0.9785332
35	0x3f71eda9	0.94503266
36	0x3f8ab694	1.0836968
37	0x3f835356	1.0259807
38	0x3f87c201	1.060608
39	0x3f8561de	1.0420492
40	0x3f74fa9b	0.95694894
41	0x3f85d329	1.0455066
42	0x3f7d0e46	0.98849905
43	0x3f817ea4	1.0116773
44	0x3f864797	1.0490597
45	0x3f89a9e5	1.0754973
46	0x3f857a10	1.0427876
47	0x3f8653eb	1.049436

norm.bias f4 [48]
0	0x3cc12e47	0.023581637
1	0x3d156444	0.036472574
2	0x3bf3e315	0.007442842
3	0x3cfcb4d6	0.030847948
4	0x3d305192	0.04304654
5	0xbc14dcc2	-0.009085836
6	0x3b3fadb6	0.0029247827
7	0xbc3dfc9d	-0.011595872
8	0x3ce3aa2b	0.027791103
9	0xbd15ef09	-0.036604915
10	0x3cc68161	0.024231615
11	0xbb1f3b94	-0.0024296986
12	0x3d535647	0.051595952
13	0x3d772c4d	0.060344983
14	0x3d6e23d4	0.058139637
15	0x3d78b57e	0.06071996
16	0x3c3abad8	0.011397086
17	0x3d896af1	0.067098506
18	0x3d906049	0.07049615
19	0x3d8f8ad2	0.070089
20	0x3d8e5b59	0.06951017
21	0x3ca1d6c5	0.01975573
22	0x3d9add6e	0.075617656
23	0x3d9a9a57	0.07548969
24	0x3cdf0a1c	0.0272265
25	0x3c4c4cac	0.012469452
26	0xbb19e022	-0.002347954
27	0x3c08cf53	0.008350211
28	0x3be6e836	0.0070467247
29	0xbd0b94ed	-0.034077574
30	0xbb77aaef	-0.0037791093
31	0xbb78d307	-0.003796758
32	0x3c69b92a	0.014265338
33	0xba85e59d	-0.0010215525
34	0xbc225c52	-0.009909706
35	0xbc9ffce6	-0.019529771
36	0x3d1d0ccf	0.038342293
37	0x3bb41f35	0.005496884
38	0x3c0de277	0.00865995
39	0x3c6e895d	0.014559117
40	0xbd64c605	-0.05585291
41	0x3ce9f99f	0.028561411
42	0xbd273b5a	-0.040828086
43	0x3be85a5e	0.0070908507
44	0x3b1c5c8e	0.0023858878
45	0x3ce2f093	0.027702605
46	0xbbb278b3	-0.0054465174
47	0x3c751b13	0.014960068

gru1.weight_ih_l0 f4 [72, 48]
0	0xbdb7717e	-0.08957194
1	0xbdbc61c5	-0.091983356
2	0xbd83406c	-0.06408772
3	0x3d284fa6	0.041091584
4	0xbe3bc610	-0.18337274
5	0xbd70ed0c	-0.058819816
6	0xbdb66ac1	-0.089070804
7	0xbe39bf85	-0.18139465
8	0x3dac7dd3	0.084224366
9	0xbd754e16	-0.05988892
10	0x3d8739d3	0.06602826
11	0x3d1421a4	0.036164895
12	0x3e371e72	0.17882708
13	0x3e15a12f	0.14612268
14	0x3d80d8bc	0.06291339
15	0xbe0026e2	-0.12514833
16	0x3dc6eeb8	0.09713501
17	0xbe213799	-0.15743865
18	0x3c0eeaeb	0.008723001
19	0xbdc396cf	-0.09550249
20	0x3cac751b	0.021051934
21	0xbe28b519	-0.16475333
22	0xbd9e6408	-0.07733923
23	0xbd8c2b36	-0.06844179
24	0x3e42c16d	0.19019099
25	0x3e0e5a47	0.13901626
26	0xbdb20d0d	-0.086938955
27	0xbdf92d16	-0.121668026
28	0x3e55da7f	0.20884131
29	0x3e00be41	0.12572576
30	0xbb922c66	-0.004460859
31	0xbd837d3f	-0.06420373
32	0x3e2ea625	0.17055567
33	0x3d8e5f22	0.06951739
34	0x3d4d1b34	0.05007477
35	0x3dcd85db	0.100352965
36	0x3d3d1de4	0.046171084
37	0x3dde1d3b	0.10845419
38	0xbc8983bf	-0.016786454
39	0xbe072082	-0.13195994
40	0xbd95b563	-0.073099874
41	0xbe14c173	-0.1452692
42	0xbc8ca57c	-0.017168753
43	0x3db56c95	0.08858601
44	0xbdb07422	-0.086159006
45	0x3dcc75f5	0.09983436
46	0xbdbbbf51	-0.0916735
47	0x3b86c9bf	0.0041134055
48	0x3e159407	0.14607249
49	0xbe50b6aa	-0.20382181
50	0xbe2df0ec	-0.16986436
51	0xbe271494	-0.16316444
52	0x3e34026d	0.1757905
53	0x3db55a4c	0.088551134
54	0xbe580b5c	-0.21098083
55	0xbdbd1531	-0.092325576
56	0x3d8c5dbf	0.06853818
57	0xbe24ee15	-0.16106446
58	0xbe121b08	-0.14268124
59	0xbe3830ad	-0.17987318
60	0x3e153f0f	0.14574836
61	0xbe14c335	-0.1452759
62	0xbdd58774	-0.10426226
63	0xbc6a446b	-0.014298539
64	0x3e54c270	0.20777297
65	0x3dd40e84	0.10354331
66	0xbdac8ac3	-0.08424904
67	0x3d443526	0.04790225
68	0x3e69226d	0.22767039
69	0xbe2c1d19	-0.16807975
70	0xbd1ad19e	-0.037797563
71	0x3e638793	0.22219686
72	0x3db0cb09	0.08632476
73	0xbe81cdb5	-0.25352255
74	0xbcef9d2a	-0.029249746
75	0xbe7c140d	-0.24617024
76	0xbdb8f9be	-0.090320095
77	0xbe7aa130	-0.2447555
78	0xbe50ca77	-0.20389734
79	0x3e139ca3	0.14415221
80	0xbe299ac8	-0.1656295
81	0xbe809f69	-0.2512162
82	0xbe729ef5	-0.2369345
83	0xbd55d051	-0.05220062
84	0xbd15b854	-0.036552742
85	0x3dac983f	0.08427476
86	0x3dfa8780	0.12232876
87	0x3d01d9e6	0.031701945
88	0xbe760c6d	-0.24028178
89	0xbdfb3730	-0.122663856
90	0x3d9aee75	0.07565013
91	0x3e09b3ea	0.13447538
92	0x3d5b3495	0.053516943
93	0xbe61c0c4	-0.2204619
94	0x3ce9ff4a	0.028564114
95	0x3e082577	0.13295542
96	0xbdd53db7	-0.10412162
97	0xbe2c5ac7	-0.16831504
98	0xbe0d88ee	-0.13821766
99	0xbe6d8bfe	-0.23197934
100	0xbe56c04e	-0.20971796
101	0x3dda9d9e	0.10674594
102	0xbe4cf421	-0.20015003
103	0x3e29c2eb	0.16578262
104	0xbb6ab3d3	-0.003581275
105	0x3e10ef27	0.1415373
106	0xbe1791e5	-0.14801748
107	0xbe1e39a6	-0.15451679
108	0xbe005a4c	-0.12534446
109	0xbe014789	-0.12624945
110	0xbda8e5f3	-0.08246984
111	0x3d8016b9	0.06254334
112	0xbd8f8ebd	-0.07009647
113	0x3ceabe30	0.028655142
114	0x3c16765a	0.009183491
115	0x3c8afa18	0.016964957
116	0xbe01ec35	-0.12687762
117	0xbd00d5ff	-0.031454083
118	0xbdfa2933	-0.122148894
119	0x3de8c46f	0.11365592
120	0x3bac2d5f	0.005254432
121	0x3cf230e5	0.02956433
122	0xbde37f93	-0.11108317
123	0x3e3662a6	0.17811069
124	0xbcbda8ac	-0.023151718
125	0x3e621a5c	0.22080368
126	0x3dacf328	0.08444816
127	0xbd48771e	-0.048941724
128	0xbe13a636	-0.14418873
129	0xbe0f7238	-0.14008415
130	0x3d7d58d6	0.0618523
131	0x3e632d55	0.22185262
132	0x3cae19f4	0.02125261
133	0x3e403b60	0.1877265
134	0xbdabc157	-0.08386486
135	0x3e1c330f	0.15253852
136	0x3d3d0570	0.046147764
137	0x3d52e982	0.05149222
138	0x3e425dc2	0.18981078
139	0x3d3463e6	0.044040583
140	0x3c8ab7cf	0.01693335
141	0xbdcd3126	-0.1001914
142	0x3daf774f	0.08567678
143	0x3e0c95a3	0.13728957
144	0x3d2c8781	0.042121414
145	0xbd64ba40	-0.055841684
146	0x3dd0bafa	0.10191913
147	0x3d6b49c9	0.057443414
148	0x3e2d1175	0.1690119
149	0x3d76e235	0.06027432
150	0xbd361f23	-0.044463288
151	0x3df573a5	0.11984948
152	0xbe06e28e	-0.13172361
153	0x3ce7d7d7	0.028301163
154	0xbd84f64e	-0.064922914
155	0xbc815281	-0.015786411
156	0x3c599916	0.013281127
157	0xbc9be00c	-0.019027732
158	0x3e308ce3	0.17241244
159	0x3e0d2713	0.13784437
160	0x3de2bf6d	0.11071668
161	0x3d956a22	0.07295634
162	0x3e284eef	0.16436361
163	0xbe153c4a	-0.1457378
164	0xbe045431	-0.12922741
165	0x3e1e1a67	0.15439759
166	0x3e266025	0.16247614
167	0xbe27ed65	-0.16399153
168	0xbe341530	-0.17586207
169	0xbe2fc066	-0.17163238
170	0x3d0917d6	0.033469997
171	0x3e2669ce	0.16251299
172	0x3e0b9e65	0.13634641
173	0xbe12d9be	-0.14340875
174	0xbe3188df	-0.17337368
175	0x3e21ee7f	0.15813635
176	0xbe22941b	-0.1587681
177	0xbe298cce	-0.16557619
178	0x3c5fe412	0.013665216
179	0xbe289036	-0.16461262
180	0xbe247270	-0.1605928
181	0x3ded2b7b	0.11580559
182	0x3e0704b4	0.13185388
183	0xbe1325f7	-0.14369951
184	0x3e13b7f3	0.1442564
185	0x3ddeaedc	0.108731955
186	0xbddb5185	-0.10708908
187	0xbd1c147b	-0.03810547
188	0xbe38b4e6	-0.18037757
189	0xbdb88f08	-0.09011656
190	0x3cfa28a9	0.030536966
191	0x3c932746	0.017963063
192	0x3e0fac95	0.14030679
193	0x3e460a4c	0.19339865
194	0xbda1603c	-0.078796834
195	0xbe00d628	-0.12581694
196	0xbdaccff0	-0.084380984
197	0xbda2966f	-0.07938849
198	0x3e0ca49e	0.13734671
199	0xbb368111	-0.0027847926
200	0xbe143430	-0.14473033
201	0x3d3a01d0	0.045411885
202	0xbdf93daa	-0.121699646
203	0x3da47abd	0.08031223
204	0xbd8d5067	-0.06900101
205	0xbdd182a5	-0.102299966
206	0x3dd3129d	0.103062846
207	0xbd7590e5	-0.059952635
208	0xbe287826	-0.16452083
209	0xbe5ee63e	-0.21767518
210	0xbe72ea89	-0.2372228
211	0x3dd5ef2e	0.104460105
212	0xbe5a4c59	-0.21318187
213	0x3e184be5	0.14872701
214	0xbe247c7d	-0.16063114
215	0xbe0d4c2f	-0.13798593
216	0x3d85c4cf	0.06531679
217	0x3dd151d1	0.10220683
218	0xbdef8235	-0.11694757
219	0xbcfda079	-0.030960308
220	0x3e830459	0.25589254
221	0x3e5a3460	0.21309042
222	0xbd829c65	-0.06377486
223	0x3e7182fd	0.23585124
224	0xbdd0e7fb	-0.10200497
225	0x3e606792	0.21914509
226	0x3e5218a8	0.20517218
227	0xbc064f7f	-0.008197664
228	0x3d224da3	0.03962482
229	0x3e54be71	0.20775773
230	0x3dafc265	0.08582
231	0xbdf0ba5a	-0.11754294
232	0xbd6abae0	-0.057307124
233	0x3cdf9fc9	0.027297871
234	0x3e3f4ee9	0.18682446
235	0x3e89803b	0.26855645
236	0xbccd6eca	-0.025077242
237	0xbcc2ffdf	-0.02380365
238	0x3e7c0d59	0.24614467
239	0xbdda67fc	-0.10664365
240	0xbe2c38ed	-0.1681859
241	0x3e132dfc	0.1437301
242	0xbe2ef192	-0.1708434
243	0xbe3ce0e9	-0.18445171
244	0x3d3be530	0.045872867
245	0x3d94a4be	0.072579846
246	0x39fb3668	0.00047914986
247	0xbe47fa5e	-0.19529101
248	0x3df5d4be	0.12003468
249	0xbe47ba75	-0.19504721
250	0x3cf9a5cf	0.030474572
251	0x3da657bb	0.08122202
252	0x3cb302ed	0.021851981
253	0x3e18b013	0.14910917
254	0x3dbd563e	0.09244965
255	0xbcb0daa4	-0.021588631

gru1.weight_hh_l0 f4 [72, 24]
0	0x3e663e14	0.22484618
1	0xbbbad48d	-0.0057016076
2	0xbd8899d9	-0.06669969
3	0xbe2fd016	-0.17169222
4	0x3dfd976a	0.123823956
5	0xbe0ae7a7	-0.13564931
6	0x3db715f1	0.08939732
7	0xbdca57cf	-0.098800294
8	0xbd94b0f8	-0.072603166
9	0xbe217d96	-0.15770563
10	0x3b964a36	0.0045864834
11	0x3dbab59d	0.09116671
12	0x3d071d1d	0.03298675
13	0x3e1e874f	0.15481304
14	0x3e10d5b9	0.14144029
15	0x3e38974d	0.18026467
16	0x3e442524	0.19154793
17	0xbdb8b54a	-0.09018953
18	0x3de01038	0.109405935
19	0xbd12217a	-0.035676457
20	0xbdf65e4b	-0.12029704
21	0x3de4a7c8	0.11164814
22	0xbe45181e	-0.19247481
23	0x3daad8d3	0.08342137
24	0x3d3473aa	0.04405562
25	0xbdb5382d	-0.08848605
26	0x3bd94828	0.006630916
27	0x3e244e2f	0.1604545
28	0x3bfeb9d4	0.0077736173
29	0x3d859795	0.065230526
30	0x3e1a243a	0.15052882
31	0x3e5f9579	0.21834363
32	0xbd8e65a3	-0.069529794
33	0x3c6f21d8	0.014595471
34	0xbd89170d	-0.0669385
35	0xbd887ca8	-0.06664401
36	0x3e07c738	0.1325959
37	0x3e6cebba	0.23136798
38	0x3e177840	0.14791965
39	0xbde7a5e9	-0.11310942
40	0x3d391cee	0.045193605
41	0xbcb3dab7	-0.021954877
42	0x3d5436f3	0.051810216
43	0x3deff664	0.11716917
44	0xbda31ce9	-0.079644985
45	0xbd6f1614	-0.058370665
46	0x3c8260b7	0.015915258
47	0x3d9c13d6	0.07620971
48	0x3de8712b	0.1134971
49	0x3dc151ee	0.09439455
50	0x3cbbd10a	0.022926826
51	0x3d854862	0.065079466
52	0x3e5e3bee	0.21702549
53	0xbe3c1830	-0.18368602
54	0x3db0a9dc	0.08626148
55	0xbe3a559b	-0.18196718
56	0x3daafc2c	0.08348879
57	0x3d1fd92d	0.039025474
58	0x3dec3b26	0.11534719
59	0xbe10ffb4	-0.14160043
60	0xbe2d5492	-0.16926792
61	0xbe4caa40	-0.1998682
62	0xbde1bb56	-0.110220596
63	0xbe0eac58	-0.13932931
64	0xbdaa30c9	-0.08310086
65	0xbd39c090	-0.045349658
66	0x3d6f22df	0.058382865
67	0x3e65b30e	0.22431585
68	0xbdca2a3b	-0.09871336
69	0xbe196537	-0.14980017
70	0x3e61c548	0.22047913
71	0xbd7044f7	-0.05865952
72	0x3dd28d8c	0.10280904
73	0x3e5c6eb1	0.215266
74	0xbe4486ae	-0.19192001
75	0x3d542034	0.051788524
76	0xbcce8f12	-0.025214706
77	0x3e3b6915	0.18301804
78	0xbcd4920c	-0.025948547
79	0x3d79c554	0.060979202
80	0xbc5be274	-0.01342069
81	0xbc179b0f	-0.009253277
82	0xbd88c4d1	-0.06678165
83	0x3e16f36d	0.14741297
84	0x3da26a3f	0.07930421
85	0xbe5c8f1c	-0.21538967
86	0xbddd5228	-0.10806686
87	0xbe4d2e18	-0.20037115
88	0x3e033c5b	0.12815993
89	0xbe381b63	-0.17979197
90	0xbd64550e	-0.055745177
91	0xbdec5402	-0.11539461
92	0x3e183e2e	0.1486747
93	0x3e57f55d	0.21089692
94	0x3e0f0b7f	0.13969229
95	0x3e62904b	0.22125356
96	0xbdff4236	-0.124638006
97	0x3e0b8db1	0.1362827
98	0x3dbdb641	0.09263278
99	0x3e1ad103	0.15118794
100	0xbe003c7e	-0.12523076
101	0x3dc0bd18	0.09411067
102	0x3d99e7a6	0.075148866
103	0xbdd0309f	-0.10165524
104	0x3d93100c	0.07180795
105	0xbe120f5f	-0.14263676
106	0x3df0d94a	0.117601946
107	0xbe054c66	-0.13017425
108	0x3e670365	0.22559889
109	0x3cf54fe4	0.029945321
110	0xbb1f2120	-0.0024281219
111	0x3c34f87c	0.011045571
112	0xbe690a27	-0.22757779
113	0xbdfb480d	-0.12269602
114	0x3dae47a1	0.08509756
115	0x3e2fcbc4	0.17167574
116	0xbdc3fb0c	-0.09569368
117	0xbdbea2be	-0.09308384
118	0x3dc3d6da	0.09562464
119	0x3da456ac	0.08024344
120	0x3e06dead	0.13170882
121	0x3c59cff0	0.013294205
122	0x3dd587a3	0.10426261
123	0x3aa7c85d	0.0012800802
124	0x3e0ec27e	0.1394138
125	0xbda54516	-0.08069818
126	0xbc95f774	-0.018306471
127	0x3e6d1289	0.23151602
128	0x3dda4996	0.10658567
129	0x3e28e8a8	0.16495001
130	0x3dea5b96	0.1144325
131	0x3dbac336	0.09119265
132	0xbd3c882c	-0.0460283
133	0x3e15c3e6	0.1462551
134	0x3e370b50	0.17875409
135	0x3e01c731	0.12673642
136	0xbe1437bb	-0.14474384
137	0x3e46968f	0.19393371
138	0x3defba2f	0.117054336
139	0xbdd14244	-0.10217717
140	0x3c8f0102	0.017456535
141	0xbcd8cc27	-0.026464535
142	0x3b695099	0.0035601018
143	0x3dba15ac	0.09086165
144	0xbe35a1f4	-0.17737561
145	0xbd9ef549	-0.07761628
146	0x3e69c41f	0.2282872
147	0xbe63fdd8	-0.22264802
148	0x3e2d4f8f	0.1692488
149	0x3daa5a10	0.08317959
150	0xbe0c643e	-0.13710114
151	0xbc625ef4	-0.013816584
152	0xbe031704	-0.12801749
153	0x3d8b0633	0.06788292
154	0x3e5cb6eb	0.21554153
155	0x3d21ddfa	0.039518334
156	0xbcde5e05	-0.027144441
157	0xbdebb447	-0.115089945
158	0xbcf1b709	-0.029506223
159	0xbced6e86	-0.028983366
160	0xbe3d59fa	-0.18491355
161	0x3d991047	0.07473808
162	0xbd655cdd	-0.055996764
163	0x3dd6c9bf	0.10487699
164	0x3e67aa54	0.22623569
165	0xbcbedddd	-0.023299152
166	0x3dd37508	0.10325056
167	0xbe17d090	-0.14825654
168	0x3e33c376	0.17555031
169	0xbd9fb124	-0.07797459
170	0x3d057b27	0.03258815
171	0xbde9bd56	-0.11413066
172	0x3d0f6a52	0.035013504
173	0x3e2d94df	0.16951321
174	0x3d44d6d2	0.04805643
175	0xbd53d5bd	-0.05171751
176	0x3e4e826e	0.20166942
177	0x3e13c7b0	0.14431643
178	0x3d6f73b1	0.05845994
179	0x3daefb5a	0.08544035
180	0xbe080e63	-0.13286738
181	0x3e24fb38	0.16111457
182	0x3dc53a4b	0.09630259
183	0xbe49d601	-0.19710542
184	0x3d93c5ed	0.07215486
185	0x3d481046	0.048843645
186	0x3e3d4f95	0.1848739
187	0xbc8f094f	-0.017460493
188	0xbe2f4e8a	-0.17119804
189	0xbdd9fb0e	-0.10643588
190	0xbe485629	-0.19564117
191	0x3e7d9b35	0.24766238
192	0x3d09f096	0.033676706
193	0xbc4d1f01	-0.012519599
194	0x3d35ebba	0.04441426
195	0xbe45345d	-0.19258256
196	0x3e32b9e1	0.1745372
197	0xbe097756	-0.1342443
198	0xbe5661c4	-0.20935732
199	0x3e0d1280	0.13776588
200	0x3d09b3cd	0.033618737
201	0xbdf417b7	-0.11918586
202	0x3e44c06e	0.19214031
203	0x3e741dd2	0.238395
204	0x3ce09699	0.02741556
205	0x3d1d6ced	0.038433958
206	0x3e1a0833	0.1504219
207	0xbdc71380	-0.09720516
208	0x3d42432c	0.04742734
209	0xbdf12bc8	-0.11775929
210	0x3e5867ba	0.21133319
211	0x3dc7c7bb	0.097548924
212	0x3d070fab	0.032973927
213	0xbd8f6328	-0.070013344
214	0x3e6d682b	0.23184268
215	0x3e32fcbb	0.17479222
216	0x3df6b765	0.120466985
217	0x3cd35250	0.025796086
218	0xbd04ff0c	-0.032469794
219	0x3d329b1b	0.04360495
220	0xbcb0912a	-0.021553595
221	0xbe53056d	-0.20607539
222	0xbdeec745	-0.116591014
223	0x3d91f9a4	0.07127693
224	0x3a84001c	0.0010070833
225	0xbd952c64	-0.072838575
226	0x3dcb0aac	0.09914145
227	0xbe0d7bfb	-0.13816826
228	0xbd3b352f	-0.045705017
229	0xbd4c988b	-0.049950164
230	0xbd381353	-0.044940304
231	0x3df77f2f	0.12084805
232	0x3dcee9a3	0.101031564
233	0x3e8349ae	0.2564215
234	0x3d8bc246	0.06824164
235	0x3e3d94db	0.18513815
236	0xbb64d3e3	-0.0034916333
237	0x3d683f4c	0.05670099
238	0x3de449fb	0.11146923
239	0x3dcdac17	0.10042589
240	0xbe5fb2f3	-0.21845607
241	0x3db1aa9f	0.086751215
242	0x3e10d003	0.1414185
243	0xbcc04704	-0.023471363
244	0x3e19d230	0.15021586
245	0xbe5558bd	-0.20834632
246	0xbdf27d85	-0.11840347
247	0x3d7171da	0.058946468
248	0xbceb1ac1	-0.02869928
249	0x3bd8c746	0.006615552
250	0xbe1c1074	-0.15240651
251	0xbc74a74a	-0.014932463
252	0xbdbf44c6	-0.09339289
253	0x3db8a69e	0.09016155
254	0xbe5a628c	-0.21326655
255	0xbd08a02d	-0.03335588

gru1.bias_ih_l0 f4 [72]
0	0x3e43ada8	0.19109213
1	0xbe31d156	-0.17365012
2	0xbcac9c61	-0.021070661
3	0xbd5c1058	-0.053726524
4	0x3daed7b7	0.08537238
5	0xbdd5e174	-0.104433924
6	0x3e2905a8	0.16506064
7	0x3e2c6cf3	0.16838436
8	0xbd9e8e33	-0.07741966
9	0xbda77f85	-0.08178619
10	0x3dabf00c	0.08395395
11	0xbd9412c7	-0.07230144
12	0xbcfa23a3	-0.030534571
13	0x3e033af1	0.12815453
14	0x3d907d85	0.07055191
15	0x3c69cfd5	0.014270742
16	0x3e15241e	0.14564559
17	0x3b5f185b	0.0034041617
18	0x3d014d58	0.0315679
19	0x3e2e6cdc	0.17033714
20	0x3d7ddf7a	0.061980702
21	0x3d45d63e	0.04830002
22	0xbe174478	-0.14772213
23	0x3e068925	0.13138254
24	0x3e86f172	0.26356083
25	0x3da19ead	0.07891593
26	0x3def7087	0.11691385
27	0xbe473c10	-0.19456506
28	0xbcad1778	-0.021129355
29	0xbe4e4a84	-0.20145613
30	0xbdf59a8c	-0.11992368
31	0x3db282f3	0.08716383
32	0x3dd5bb97	0.104361705
33	0xbd4c81a8	-0.049928337
34	0x3db0e4c6	0.08637385
35	0x3dc72c73	0.09725275
36	0xbe3b04b1	-0.18263508
37	0xbe860788	-0.2617762
38	0x3ddbacdd	0.107263304
39	0xbd3b49fb	-0.04572485
40	0x3dae85ad	0.085215904
41	0xbcd98fe7	-0.026557876
42	0xbce10ca5	-0.02747185
43	0x3e503c9d	0.20335622
44	0xbe6757ae	-0.22592041
45	0x3e3bcc0c	0.18339556
46	0xbe4e0a0c	-0.2012102
47	0x3e83cdcf	0.25742957
48	0x3e10d7be	0.14144799
49	0xbd86c66d	-0.065808155
50	0xbcacae98	-0.021079347
51	0xbda0e753	-0.078566216
52	0x3d6b016c	0.057374403
53	0x3c8c0e4e	0.017096665
54	0x3e0645fd	0.13112636
55	0xbe45b2da	-0.19306508
56	0x3e37e8bc	0.17959875
57	0xbd92b23d	-0.071629025
58	0x3d86e144	0.06585935
59	0x3e53bd95	0.20677789
60	0xbdbae134	-0.09124985
61	0x3dc56e82	0.09640218
62	0xbcea7118	-0.02861838
63	0x3e55c9c1	0.20877744
64	0xbd8efa00	-0.069812775
65	0x3d6090a3	0.054825436
66	0xbdf0f159	-0.117647834
67	0xbca92cb2	-0.020651195
68	0x3e3b5ebb	0.18297856
69	0xbe534638	-0.20632255
70	0x3e029575	0.12752326
71	0x3e2165a4	0.15761429

gru1.bias_hh_l0 f4 [72]
0	0xbcf03016	-0.029319804
1	0x3da54828	0.08070403
2	0xbd4ab1e8	-0.04948607
3	0xbc9cc009	-0.019134538
4	0xbdd0fd72	-0.10204591
5	0x3ce345c4	0.027743228
6	0xbd9d3d3d	-0.07677696
7	0x3dd55059	0.10415716
8	0x3e287426	0.16450557
9	0xbcbc8c22	-0.02301604
10	0xbdcfe0ad	-0.101502754
11	0x3dff0952	0.124529496
12	0x3e63407c	0.22192568
13	0x3e1584d1	0.14601447
14	0xbbea5a48	-0.0071518756
15	0xbd4d1dc8	-0.05007723
16	0x3d91a8ee	0.07112299
17	0x3ddd4b5f	0.108053915
18	0x3c4f16ef	0.012639745
19	0xbd97e6a7	-0.0741704
20	0x3e466523	0.19374518
21	0x3e0c9c8c	0.13731593
22	0xbdba931b	-0.091100894
23	0x3d05a3af	0.032626804
24	0xbdf989ef	-0.12184512
25	0xbddfdd9d	-0.10930941
26	0x3db0b277	0.086277895
27	0xbe2edacf	-0.17075656
28	0xbe36fb1b	-0.17869227
29	0xbe67b562	-0.22627786
30	0x3e68052d	0.22658224
31	0xbe6faf45	-0.23406704
32	0xbe7a8354	-0.2446416
33	0xbe46fa08	-0.19431317
34	0x3ddd03c2	0.10791732
35	0xbe28ae00	-0.16472626
36	0xbe2dbf10	-0.16967416
37	0x3d482b46	0.048869394
38	0x3d3c70e0	0.046006083
39	0xbe61b5a9	-0.22041954
40	0x3e344625	0.17604883
41	0xbd289e8d	-0.04116683
42	0xbdf2cd0c	-0.11855516
43	0x3d6effe8	0.05834952
44	0x3d1af758	0.03783354
45	0xbe5b48f6	-0.21414551
46	0xbe13743b	-0.14399807
47	0x3e758fec	0.23980683
48	0x3d342a52	0.043985672
49	0xbe0bd522	-0.13655522
50	0xbe2a0996	-0.16605219
51	0xbe3d4872	-0.18484667
52	0x3d564714	0.05231388
53	0x3e317de1	0.17333175
54	0xbc84e0a7	-0.016220404
55	0x3d93ddac	0.07220015
56	0x3d4bfb0d	0.049799968
57	0x3e19b4ee	0.15010425
58	0xbd81bca1	-0.06334806
59	0x3dd62386	0.10455994
60	0xbe3a9c51	-0.18223692
61	0x3e2c3ad2	0.16819313
62	0x3dde5501	0.10856057
63	0xbd029d09	-0.03188804
64	0xbdf4e6d9	-0.11958093
65	0x3df6e346	0.12055068
66	0x3e38ba7e	0.18039891
67	0x3d991eda	0.074765876
68	0x3df4107d	0.119172074
69	0x3dcfc48b	0.101449095
70	0xbe0dd264	-0.13849789
71	0xbe1f81e3	-0.15576892

gru2.weight_ih_l0 f4 [72, 24]
0	0xbdcc02b8	-0.09961456
1	0xbe136177	-0.14392649
2	0x3de5f548	0.11228424
3	0x3cc41c5a	0.0239393
4	0x3e3ca749	0.18423189
5	0xbd8b4e25	-0.06802014
6	0x3da64d1d	0.08120177
7	0x3c7a8ab4	0.015291858
8	0xbda6497d	-0.081194855
9	0xbd907106	-0.070528075
10	0x3e00b63c	0.12569517
11	0x3e40bc92	0.18821934
12	0x3e391eb9	0.18078126
13	0xbd6fd3fd	-0.058551777
14	0x3e391f46	0.18078336
15	0x3dc20b80	0.0947485
16	0x3d31636e	0.043307714
17	0x3d9cfd45	0.07665495
18	0x3dc877cd	0.09788475
19	0x3d430fc7	0.04762247
20	0x3e209510	0.15681863
21	0x3da5464d	0.080700494
22	0x3e51cffe	0.20489499
23	0x3e63ef4c	0.22259253
24	0xbd82e7a0	-0.06391835
25	0xbe480bc4	-0.19535738
26	0x3e40cd04	0.18828207
27	0x3cb13fd3	0.02163688
28	0x3d448312	0.04797656
29	0xbdf5e6fe	-0.12006949
30	0xbe291ac2	-0.16514114
31	0x3d6405d5	0.055669624
32	0xbd0a034e	-0.033694558
33	0x3c09f9d6	0.008421382
34	0x3e2da3a3	0.16956954
35	0x3e39b9b9	0.18137254
36	0xbe103bfc	-0.14085382
37	0xbd3687a4	-0.04456295
38	0xbe4d79c2	-0.20065978
39	0x3c5955fb	0.013265128
40	0xbe320929	-0.17386307
41	0x3e112b4a	0.1417667
42	0xbd8c22c4	-0.068425685
43	0x3d9bd4ff	0.07608985
44	0x3a7a672a	0.0009552116
45	0x3e0a863a	0.13527766
46	0xbd943de0	-0.07238364
47	0x3dbe0622	0.092785135
48	0xbe09efd1	-0.13470389
49	0xbd9f77ce	-0.07786523
50	0x3d9ee07d	0.077576615
51	0x3e071889	0.13192953
52	0xbcdf4ea9	-0.027259188
53	0xbe31e66e	-0.17373058
54	0xbdfd6083	-0.12371924
55	0xbe2bdcd3	-0.16783457
56	0xbaff10de	-0.0019459983
57	0xbdbdf745	-0.092756785
58	0x3d01ea0c	0.031717345
59	0x3e3121f6	0.17298111
60	0x3c0f052c	0.00872926
61	0x3e4c2148	0.19934571
62	0x3e13e181	0.14441492
63	0x3dceebb0	0.101035476
64	0x3cf435dd	0.02981084
65	0xbe56cb64	-0.20976025
66	0xbde0239b	-0.10944291
67	0xbe228f4a	-0.15874973
68	0x3dc5c64a	0.09656961
69	0x3d8d42bb	0.068974935
70	0xbce478d4	-0.027889647
71	0x3cddf112	0.02709249
72	0xbe4c166d	-0.1993043
73	0xbdf50cb0	-0.119653106
74	0x3b9b85b1	0.004746162
75	0xbb0b4222	-0.0021249135
76	0xbdfc381b	-0.12315389
77	0x3d139aa9	0.036036167
78	0x3cd087d5	0.025455395
79	0xbe24aeed	-0.16082354
80	0xbdb0d8a4	-0.08635071
81	0xbaac6ba0	-0.0013154633
82	0x3d1d9afc	0.038477883
83	0x3d04a88c	0.0323873
84	0xbe08830a	-0.13331237
85	0xbd2faa33	-0.042886924
86	0xbd234492	-0.039860316
87	0xbe184630	-0.14870524
88	0x3d25e2f1	0.04049963
89	0xbdf3bb82	-0.11900999
90	0xbd449860	-0.04799688
91	0x3dcc9883	0.09990027
92	0xbdafe20b	-0.08588036
93	0x3dbe0210	0.09277737
94	0xbe19685c	-0.14981216
95	0x3e1d9496	0.15388712
96	0x3d4155f6	0.04720112
97	0x3e44667a	0.19179717
98	0xbdf82e74	-0.12118235
99	0x3dac40fa	0.08410831
100	0x3c0c603e	0.008567868
101	0xbd1cdab5	-0.038294513
102	0xbe1c5cd4	-0.15269786
103	0x3dc38dfb	0.09548565
104	0x3e14bab3	0.14524345
105	0xbb8dc51c	-0.004326476
106	0x3d00be2e	0.03143137
107	0x3dd98e6d	0.10622869
108	0xbdd1467a	-0.102185205
109	0xbe7afc4c	-0.24510306
110	0x3dc3d978	0.09562963
111	0xbe0889b3	-0.13333778
112	0xbdda8d8f	-0.106715314
113	0x3df8d962	0.121508375
114	0xbe4470c3	-0.1918364
115	0x3d1c5e01	0.038175587
116	0xbddac706	-0.10682492
117	0xbd880b8f	-0.066428296
118	0x3e38fda7	0.1806551
119	0x3dacc2e7	0.08435612
120	0x3dd1249c	0.10212061
121	0x3e744b0f	0.23856758
122	0xbd453b67	-0.048152354
123	0xbdc332e7	-0.09531193
124	0xbdbce084	-0.092225105
125	0xbdd3ee1c	-0.1034815
126	0x3d316a33	0.04331417
127	0x3e233f90	0.15942216
128	0x3d9e7452	0.0773703
129	0xbe0064df	-0.1253848
130	0xbde3dcfd	-0.111261345
131	0x3ddcfcac	0.10790381
132	0x3c9bc84d	0.01901641
133	0xbd383eb0	-0.04498166
134	0x3d445320	0.047930837
135	0x3dfce9d7	0.12349289
136	0xbe022ecb	-0.12713163
137	0xbe2655a9	-0.16243614
138	0x3d2d34d4	0.04228671
139	0xbe80e865	-0.25177303
140	0xbdca83e6	-0.09888439
141	0xbd888145	-0.06665281
142	0x3d173af0	0.03692144
143	0x3e31f6c3	0.17379288
144	0xbd1ee039	-0.038788054
145	0xbe3b197c	-0.1827144
146	0x3d028952	0.03186924
147	0xbe13fdbc	-0.1445226
148	0xbdc604c0	-0.09668875
149	0xbe7df183	-0.2479916
150	0x3e1ed5ec	0.15511292
151	0x3da7dfb5	0.081969656
152	0xbd82b5d4	-0.06382337
153	0xbc449ab0	-0.011999771
154	0x3ddd16ee	0.10795389
155	0xbe136b1d	-0.14396329
156	0x3dd8ae26	0.10580091
157	0xbe5955d4	-0.21224147
158	0x3d7edd3e	0.06222271
159	0x3cc3c4d2	0.023897562
160	0xbe6ff618	-0.23433721
161	0xb9761bd5	-0.00023470756
162	0x3d63f707	0.055655506
163	0xbc8abfce	-0.016937163
164	0xbdf3209e	-0.118714556
165	0x3df816fd	0.1211376
166	0x3e20c0fe	0.1569862
167	0x3df3dd76	0.11907475
168	0xbdfbdc97	-0.122979335
169	0xbdf5b6ba	-0.11997743
170	0x3e436a39	0.1908349
171	0xbe1c840a	-0.15284744
172	0x3e598c9b	0.21245043
173	0x3e33d755	0.17562611
174	0x3d9a2fed	0.07528672
175	0x3da60858	0.0810706
176	0x3cc4ee37	0.024039371
177	0x3de55a2b	0.11198839
178	0x3ddfe8a7	0.10933047
179	0xbc783941	-0.015150369
180	0xbde799a0	-0.113085985
181	0x3d4a9984	0.04946281
182	0xbc299825	-0.0103512155
183	0xbdfe563c	-0.12418792
184	0x3e216f78	0.15765178
185	0xbd00083f	-0.031257864
186	0xbb7c9ef6	-0.0038546897
187	0xbda992db	-0.082799636
188	0xbe5b2f0f	-0.2140467
189	0xbd5d585b	-0.05403934
190	0xbe120c4c	-0.14262503
191	0x3ded63d5	0.11591307
192	0x3da9f93d	0.082994916
193	0x3dc2050d	0.094736196
194	0xbdb7a8da	-0.08967753
195	0x3e3a03f1	0.18165566
196	0xbdbdab78	-0.09261221
197	0x3cddddb2	0.027083252
198	0xbcb31426	-0.021860193
199	0xbd296225	-0.041353364
200	0x3df03172	0.11728181
201	0x3b066648	0.0020507742
202	0x3d9f328d	0.07773314
203	0xbde6265c	-0.11237785
204	0xbd708fe1	-0.058730964
205	0x3d040907	0.03223517
206	0xbe2a8f7d	-0.16656299
207	0xbdb61382	-0.088904396
208	0xbda783aa	-0.0817941
209	0xbe8b7712	-0.2723928
210	0xbe8cd631	-0.27507165
211	0xbda00df2	-0.0781516
212	0x3e63ec8b	0.22258203
213	0xbd9680ad	-0.07348762
214	0x3e362011	0.1778567
215	0xbdf2feea	-0.11865027
216	0x3d288721	0.041144494
217	0xbca805f5	-0.020510653
218	0xbd95e65a	-0.07319327
219	0xbdd2ed52	-0.102991715
220	0xbbfeb109	-0.007772569
221	0xbdb7b7b3	-0.08970585
222	0x3dfa41c5	0.12219576
223	0xbdd5a7ea	-0.10432418
224	0x3e23a125	0.1597944
225	0xbd2e56e2	-0.042563327
226	0x3e6f5fcc	0.23376387
227	0x3c14d74e	0.009084536
228	0xbc9d3945	-0.019192347
229	0x3c5a8cdc	0.013339248
230	0x3d282f81	0.04106093
231	0x3d198c5e	0.03748738
232	0x3ce5895a	0.028019596
233	0x3e1bb72a	0.1520659
234	0xbcef8df0	-0.029242486
235	0xbd21a220	-0.039461255
236	0xbe04b6a9	-0.12960304
237	0x3e2129e3	0.15738635
238	0x3daf0196	0.08545224
239	0xbdec156a	-0.11527522
240	0xbe0b8a92	-0.13627079
241	0x3dbf3b41	0.09337474
242	0xbe0f389e	-0.13986441
243	0x3d91d8bb	0.07121416
244	0xbcd4ab14	-0.025960483
245	0x3e3e6f2e	0.18597099
246	0x3e47cfe1	0.19512893
247	0x3dbe15ef	0.09281527
248	0xbdefb0af	-0.117036216
249	0xbd9bf049	-0.0761419
250	0xbddf1efd	-0.108945824
251	0xbe2aa52d	-0.16664572
252	0xbdc52b80	-0.096274376
253	0x3e5e97f2	0.2173765
254	0x3db79590	0.08964074
255	0x3c2fd32b	0.010731499

gru2.weight_hh_l0 f4 [72, 24]
0	0xbd929658	-0.07157582
1	0xbe2d00b8	-0.16894805
2	0x3c28f2ed	0.010311824
3	0x3d88423d	0.06653259
4	0x3d0d164d	0.034445096
5	0x3dc261e1	0.09491325
6	0x3e13b355	0.14423878
7	0xbe11b82b	-0.14230411
8	0x3d91f5ca	0.07126959
9	0xbe1b8c3f	-0.15190218
10	0xbe16c1c6	-0.14722356
11	0xbd775407	-0.06038287
12	0xbcca8939	-0.024723636
13	0x3dacf369	0.08444864
14	0x3e08de84	0.13366133
15	0x3dfdccbb	0.12392565
16	0xbd78621a	-0.060640432
17	0xbd4b86ef	-0.04968923
18	0xbe1260c2	-0.14294723
19	0xbcfb8980	-0.030705214
20	0xbe50f42e	-0.20405647
21	0xbdc78cca	-0.0974365
22	0x3d80f35c	0.06296417
23	0x3af307a5	0.0018541707
24	0x3e144c2d	0.14482184
25	0xbe822a24	-0.25422776
26	0x3dc7e055	0.09759585
27	0x3e230e99	0.15923537
28	0xbdaf0a4a	-0.08546884
29	0x3e26c73f	0.16286944
30	0x3e4bcc58	0.1990217
31	0xbd823668	-0.063580334
32	0xbe2d8243	-0.16944222
33	0x3db5da84	0.08879569
34	0x3d9ec2e3	0.077520154
35	0x3e3e631b	0.18592493
36	0xbd851319	-0.06497783
37	0xbcea787d	-0.028621906
38	0xbe5867c5	-0.21133335
39	0xbbab6e98	-0.0052316897
40	0x3b2dcf7f	0.0026521382
41	0x3db8dd24	0.09026554
42	0xbe7423f5	-0.23841842
43	0xbd72b66c	-0.059256002
44	0xbe32f6c3	-0.17476945
45	0xbe0dacbe	-0.13835427
46	0x3d1ec24b	0.03875951
47	0x3d8c5ede	0.06854032
48	0xbe42483c	-0.18972868
49	0xbdd80656	-0.105480835
50	0x3e429ad5	0.19004376
51	0x3e104b02	0.14091113
52	0x3e24dd83	0.16100125
53	0xbd8e1fa1	-0.069396265
54	0x3e0e57b8	0.1390065
55	0x3d42ca74	0.047556356
56	0xbdde8bf3	-0.10866537
57	0xbb9c0d8e	-0.004762358
58	0x3d9a18f6	0.07524292
59	0xbdb16eb2	-0.086636916
60	0x3dc5f745	0.096663035
61	0x3df12a45	0.117756404
62	0x3d9d759a	0.07688446
63	0x3d8d0fcf	0.06887781
64	0x3c91f2a7	0.017815901
65	0xbc862eab	-0.016379675
66	0xbc3298cd	-0.010900688
67	0x3e11a3f0	0.14222693
68	0x3dc3a5ad	0.095530845
69	0x3df5e618	0.120067775
70	0xbd9ceaa5	-0.076619424
71	0xbdcae49c	-0.09906885
72	0x3d76c8f5	0.06025024
73	0x3dd2fbc9	0.103019305
74	0x3c93b83a	0.018032182
75	0xbdd50205	-0.10400776
76	0xbd93e8ce	-0.07222138
77	0x3df2fa28	0.1186412
78	0xbe29b220	-0.16571856
79	0xbe2c8b04	-0.16849905
80	0x3d409e25	0.04702582
81	0x3e3ac387	0.1823865
82	0x3e177d24	0.14793831
83	0x3e62bcb2	0.22142294
84	0x3d56007c	0.052246556
85	0x3d9c032c	0.076177925
86	0xbe1300fc	-0.14355844
87	0xbe390078	-0.18066585
88	0x3e1324c8	0.143695
89	0xbd24b226	-0.040208958
90	0x3dd38344	0.10327771
91	0x3d9c5cad	0.07634864
92	0x3dc33ca6	0.09533052
93	0x3db672b2	0.08908595
94	0xbe090e78	-0.13384426
95	0x3c5d6e61	0.013515086
96	0xbd06ae82	-0.032881267
97	0xbd981075	-0.07425014
98	0xbd3f1c66	-0.046657942
99	0xbc4e9745	-0.012609308
100	0x3cbb076c	0.022830687
101	0x3c60257e	0.013680814
102	0x3dfb9e03	0.12285998
103	0xbd6144de	-0.054997317
104	0xbdc3dd8e	-0.095637426
105	0x3b01d69b	0.0019811753
106	0xbcb703f9	-0.022340761
107	0x3d539738	0.051657885
108	0x3dd73bfe	0.105094895
109	0x3e5609cb	0.20902173
110	0x3e00cf82	0.12579158
111	0x3e2beee5	0.1679035
112	0xbd460faa	-0.048354782
113	0xbd96f3d0	-0.07370722
114	0xbc9277e8	-0.017879441
115	0x3d28ab0d	0.04117875
116	0xbd085883	-0.033287536
117	0x3de9bf11	0.11413396
118	0xba213afb	-0.00061504514
119	0x3c876c58	0.016531155
120	0x3e4e5cfe	0.20152661
121	0xbc629f75	-0.013831963
122	0x3e3bdfbd	0.18347068
123	0x3e4faaa7	0.20279942
124	0x3e10af07	0.14129268
125	0xbe12af27	-0.14324628
126	0x3e307a5d	0.17234178
127	0xbdca8d30	-0.09890211
128	0xbd50347b	-0.0508313
129	0xbda736b6	-0.08164732
130	0xbc88f2ad	-0.01671728
131	0xbe4bacd8	-0.19890153
132	0x3ceef81a	0.029171038
133	0x3d8da6f8	0.069166124
134	0xbe1fd7f7	-0.15609728
135	0xbe9d0f3a	-0.3067568
136	0x3e25eeba	0.16204348
137	0xbde1a0c6	-0.11016993
138	0x3bf0d88e	0.007350034
139	0xbe17c74e	-0.14822122
140	0x3dd81f7f	0.105528824
141	0xbe0c3672	-0.13692644
142	0xbc8585b0	-0.016299099
143	0x3e71dd29	0.23619522
144	0x3e14bc99	0.1452507
145	0xbe7932ea	-0.24335828
146	0x3ca315a5	0.019907782
147	0xbdb481c6	-0.08813815
148	0xbdfab551	-0.122416146
149	0xbe82ca2e	-0.25544876
150	0xbdf6b9a7	-0.12047129
151	0xbe2f992f	-0.17148279
152	0xbe6f14de	-0.23347804
153	0x3e5e27ad	0.21694823
154	0x39aefc1d	0.00033375705
155	0x3d3de968	0.04636517
156	0xbc77da4d	-0.015127731
157	0xbdf8bfe7	-0.121459775
158	0xbe04b991	-0.12961413
159	0xbd863c80	-0.06554508
160	0xbdc60176	-0.096682474
161	0xbe192a5f	-0.1495757
162	0xbe4846aa	-0.19558206
163	0x3d3a663f	0.045507666
164	0xbe19ab5d	-0.15006776
165	0x3e1ba49a	0.1519951
166	0xbd1d1395	-0.038348753
167	0xbe6279c7	-0.22116767
168	0x3e180712	0.14846447
169	0x3cd67f8f	0.026183872
170	0x3d41e19d	0.047334302
171	0x3e33b1e9	0.17548336
172	0x3dec0d22	0.115259424
173	0x3d7b9a44	0.061426416
174	0x3bc9519c	0.006143762
175	0x3de3ba40	0.11119509
176	0x3cdd66e6	0.027026605
177	0xbc056f08	-0.008144148
178	0x3e0f91c9	0.14020456
179	0x3e67dc35	0.22642596
180	0xbdb2cdea	-0.08730681
181	0x3d41c99b	0.047311407
182	0xbd170eb9	-0.036879275
183	0x3d693a31	0.05694026
184	0x3d0a9215	0.03383072
185	0x3cb9ef8a	0.022697229
186	0x3cd38e9c	0.025824837
187	0xbe17a617	-0.14809452
188	0x3dafc824	0.08583096
189	0x3d0d7997	0.034539785
190	0xbdb8df93	-0.090270184
191	0xbd9cf78d	-0.07664404
192	0xbe363ee9	-0.17797436
193	0xbdc89b0d	-0.097951986
194	0xbd0e4069	-0.034729395
195	0xbe166443	-0.14686684
196	0x3dc43ae5	0.09581546
197	0x3dd5d381	0.10440732
198	0xbd19e6e9	-0.03757373
199	0x3dd9894b	0.1062189
200	0x3dbb2a89	0.09138972
201	0x3e2af0f6	0.16693482
202	0xbdb9e3aa	-0.090766266
203	0x3d06d1ef	0.032915052
204	0xbe117453	-0.1420453
205	0x3dbb1a49	0.09135873
206	0xbe181f2f	-0.14855646
207	0xbdb3bcc7	-0.08776241
208	0xbdd9798b	-0.106188856
209	0xbe1eaf54	-0.1549657
210	0x3d100ad5	0.03516658
211	0x3d0575dc	0.032583103
212	0x3e1e758d	0.1547453
213	0x3c9b95f2	0.018992398
214	0x3d9745d7	0.07386368
215	0x3da9f8a2	0.08299376
216	0xbd2ecf1c	-0.042677984
217	0xbe4fe3ba	-0.20301715
218	0xbc56804c	-0.013092112
219	0xbcf01e34	-0.029311277
220	0xbe2dd496	-0.16975626
221	0xbceb0f39	-0.028693782
222	0x3da34478	0.07972044
223	0xbd870cb0	-0.06594217
224	0xbd33cc84	-0.043896213
225	0xbddaaf26	-0.10677938
226	0x3dc68273	0.0969285
227	0x3dbf5df6	0.093440935
228	0xbd8703e6	-0.065925404
229	0x3c71035f	0.014710276
230	0xbdc5739b	-0.096411906
231	0x3e4985c2	0.19679931
232	0x3e23bc86	0.15989885
233	0x3e282aca	0.16422573
234	0xbe683325	-0.2267576
235	0x3da7c8d8	0.08192605
236	0x3d555071	0.052078668
237	0xbdb724f7	-0.08942597
238	0x3e1c61b9	0.15271653
239	0xbde16480	-0.11005497
240	0xbd8b9b42	-0.068167225
241	0xbde42029	-0.111389466
242	0x3c3436ee	0.010999424
243	0xbe64d9bc	-0.22348684
244	0x3e60153e	0.21883103
245	0x3ddfc6de	0.10926603
246	0x3e03bef8	0.12865818
247	0xbca46869	-0.020069318
248	0x3e38dcbe	0.18052956
249	0xbe008887	-0.12552081
250	0xbe359a44	-0.17734629
251	0xbdd43ce6	-0.10363178
252	0xbe3baaf1	-0.18326928
253	0xbdf5f56c	-0.12009701
254	0x3defff35	0.11718599
255	0x3d14add2	0.03629858

gru2.bias_ih_l0 f4 [72]
0	0xbdea4baf	-0.11440217
1	0x3da7019d	0.081546046
2	0xbdf9a6cd	-0.12190018
3	0x3df777e0	0.12083411
4	0x3dfd6855	0.123734154
5	0x3e0e93a9	0.13923515
6	0xbd0d05b0	-0.034429252
7	0x3e4728dd	0.19449182
8	0x3e576e5c	0.21038193
9	0xbdd0d84e	-0.10197507
10	0x3e217083	0.15765576
11	0x3e2310f9	0.15924443
12	0xbe08743e	-0.13325593
13	0x3dd84862	0.10560681
14	0x3e23a1fa	0.15979758
15	0x3db4d144	0.08828977
16	0xbe337197	-0.175238
17	0xbe06e9e5	-0.13175161
18	0xbe2beefb	-0.16790383
19	0xbcb191e3	-0.02167601
20	0x3e0116c0	0.12606335
21	0xbddf72eb	-0.10910591
22	0xbde451ce	-0.111484155
23	0xbdc0deb1	-0.09417475
24	0xbdd6329f	-0.10458874
25	0xbe6fd8a5	-0.23422487
26	0xbe13b14e	-0.14423105
27	0xbd1d687e	-0.03842973
28	0x3db8a073	0.09014978
29	0xbda2c9fc	-0.07948682
30	0x3d03a18a	0.032136478
31	0xbd6ee10e	-0.058320098
32	0xbd98004c	-0.074219316
33	0xbd2aa9b4	-0.041665748
34	0xbd6057fe	-0.054771416
35	0x3c15d16f	0.009144171
36	0xbd621f58	-0.055205673
37	0x3dfbd9e6	0.1229742
38	0xbd92b3ad	-0.07163177
39	0xbe3439b3	-0.17600136
40	0x3e02f9c2	0.12790588
41	0x3d093067	0.033493426
42	0xbe1fdbfd	-0.15611263
43	0xbe399791	-0.18124224
44	0xbdcc8557	-0.0998637
45	0x3e16ff17	0.14745747
46	0xbe80b390	-0.25136995
47	0x3e2bbdc9	0.16771616
48	0x3d8c8b8b	0.06862553
49	0xbcbda6ca	-0.02315082
50	0x3e210550	0.15724683
51	0xbda12393	-0.07868113
52	0xbe19fb41	-0.15037252
53	0xbbea455d	-0.007149382
54	0xbce94fbe	-0.028480407
55	0x3c0b50e6	0.008503174
56	0xbdafdcd2	-0.0858704
57	0xbd5c9edc	-0.053862438
58	0xbe407c85	-0.187975
59	0x3e1032cb	0.14081876
60	0xbe49d027	-0.1970831
61	0xbc2ac41b	-0.010422732
62	0x3dbfd413	0.09366622
63	0x3d8178ee	0.06321894
64	0x3cdc3b1c	0.026883654
65	0xbdf4151c	-0.11918089
66	0xbbb8e59b	-0.0056426055
67	0x3e10ceb2	0.14141348
68	0x3d3bec06	0.045879386
69	0x3df9d73d	0.121992566
70	0x3dea2c38	0.11434215
71	0xbdd82c90	-0.105553746

gru2.bias_hh_l0 f4 [72]
0	0x3d4a67d8	0.04941544
1	0xbe1d57e4	-0.15365559
2	0xbdcbed28	-0.09957343
3	0xbdcaed4e	-0.099085435
4	0xbbbead4b	-0.005818998
5	0x3d97750a	0.0739537
6	0xbd295149	-0.041337285
7	0xbe2ce109	-0.16882719
8	0x3e4483ad	0.19190855
9	0x3e246e82	0.1605778
10	0xbe462561	-0.19350196
11	0x3d971f1c	0.073789805
12	0x3d99877d	0.074965455
13	0xbe2559ab	-0.16147487
14	0x3e11ceb3	0.14239006
15	0x3e1b0390	0.15138078
16	0xbdda178e	-0.10649024
17	0x3d82fd58	0.06395978
18	0xbdc80a5a	-0.097675994
19	0xbdbe0bde	-0.09279607
20	0x3e40799b	0.18796389
21	0xbdd09734	-0.1018509
22	0xbe1525af	-0.14565156
23	0x3d0801f8	0.033205003
24	0x3d675f1d	0.05648719
25	0xbe12c233	-0.14331894
26	0x3ccb1b92	0.02479342
27	0x3d0618a6	0.03273835
28	0x3e0aaa95	0.13541634
29	0xbd9962ff	-0.07489585
30	0x3ddfe457	0.10932224
31	0xbe9510d5	-0.29114404
32	0x3e88e0b2	0.2673393
33	0xbde96fe7	-0.11398297
34	0xbd4c1965	-0.049828906
35	0x3dea9cda	0.11455698
36	0xbd14c9c0	-0.036325216
37	0x3d6eb8d3	0.05828173
38	0xbe33e9de	-0.17569682
39	0x3d3bf593	0.045888495
40	0x3de37651	0.111065514
41	0x3e1c7f32	0.15282896
42	0xbe5185e2	-0.20461228
43	0xbd98be7c	-0.07458207
44	0x3da6afb0	0.081389785
45	0x3d794fc6	0.060867094
46	0xbe84f012	-0.2596441
47	0xbd1d0163	-0.0383314
48	0xbe36a815	-0.17837556
49	0xbdd663ee	-0.10468279
50	0x3dee7718	0.11643809
51	0x3e0aa70c	0.13540286
52	0xbe0c214f	-0.13684581
53	0x3e279084	0.16363722
54	0x3d912222	0.070865884
55	0x3df8a74b	0.121412836
56	0xbd369476	-0.044575177
57	0xbde278ed	-0.11058221
58	0xbe1d083a	-0.1533517
59	0x3e179d31	0.14806058
60	0x3e1ba7aa	0.15200678
61	0x3e14200a	0.14465347
62	0xbd5368bc	-0.051613554
63	0xbdcc565c	-0.09977409
64	0xbe5301f8	-0.2060622
65	0x3dbedc25	0.09319333
66	0xbcd4dbca	-0.02598371
67	0x3e1b9ec8	0.15197289
68	0xbde7b83f	-0.11314439
69	0xbd95cf79	-0.07314963
70	0x3cf75cf1	0.030195685
71	0xbe570336	-0.20997319
