models/GRU_NoiseEst/training_checkpoints/tiny_noise_gru_epoch_021_mse_4.001322.pth (torch, 55889 bytes, 14 tensors)

pre.weight f4 [48, 12, 5]
000000 ce a3 97 3c da c1 b6 3d 02 36 9f bd fa 38 94 bd
       0.018510725 0.08923693 -0.07773973 -0.0723743
000010 93 63 aa bb 4c aa 1b 3d a7 91 d1 3a cd a8 ed 3d
       -0.0051998585 0.038004205 0.0015988842 0.11604462
000020 15 6d 78 bb 88 e9 7a 3d e0 47 cf bc 14 34 82 bc
       -0.0037906815 0.06125787 -0.025302827 -0.015893973
000030 00 bb dc bd 26 57 a0 bd a5 e8 96 bc 1b 03 01 3d
       -0.10777855 -0.07829122 -0.01842148 0.031497102
000040 1c bb 98 3d a0 0f d3 3d 83 18 8a bd f4 76 1c bc
       0.07457563 0.103057146 -0.067429565 -0.009549845
000050 08 1e 8c 3d 76 ad 00 3e c7 28 cb bb cf 47 e8 3d
       0.068416655 0.1256617 -0.0061999294 0.113418214
000060 1b 7f ab 3c a6 1b 0a 3c bd af e6 3d 6b 80 fc bd
       0.020934632 0.008429443 0.11263988 -0.12329181
000070 cb 84 a9 bd 09 b0 86 bc 96 18 68 bd 3b 10 d7 3d
       -0.082772814 -0.016441362 -0.056664072 0.105011426
000080 7d fc b8 bd c0 19 7f bd 49 a4 a0 bd 93 9e f7 bd
       -0.09032533 -0.062280416 -0.07843835 -0.120907925
000090 67 7b 99 bd ec ca df 3d 2a 36 76 3d d0 d3 a1 3d
       -0.0749424 0.10927376 0.06011025 0.07901728
0000a0 b5 9f 2c 3c b5 5b 7f bd 42 7e c6 3c cc 11 ed bd
       0.010536124 -0.062343318 0.024230126 -0.1157566
0000b0 64 be 96 bd 3f 1b 87 bd 4e 08 a7 3d 02 67 9b 3d
       -0.07360533 -0.06596994 0.08155881 0.075880066
0000c0 85 e6 62 bd 35 3e 6a 3c 38 d5 ab 3d 97 56 03 3e
       -0.05539562 0.014297058 0.083902776 0.12826
0000d0 a4 a4 52 3d 3f c1 a1 3c 71 e4 d7 3d 69 54 89 bd
       0.051426545 0.019745467 0.105416186 -0.06705553
0000e0 fa f2 03 3d d7 d8 bb bd df b7 a2 bd a3 95 1f bd
       0.032214142 -0.09172218 -0.07945227 -0.038961064
0000f0 03 17 48 3d 56 d3 19 3d 14 8a ad bd b5 37 b9 3c
       0.04885007 0.03755506 -0.08473602 0.022609571
000100 11 72 74 3d 25 f6 ba bc 51 d8 eb bb 8d f7 cb 3c
       0.059679095 -0.022822449 -0.007197418 0.024898315
000110 a9 52 86 3d dc ba eb 3d 1d 68 c7 bd 14 ea 56 bd
       0.06558735 0.1151025 -0.09736655 -0.052469328
000120 7d 06 4a 3d b1 5e ce 3d 3d b0 dd 3d 1e 14 e3 3d
       0.049322594 0.10076655 0.108246304 0.110878214
000130 41 7a ab 3c 76 1b ea bd 8b ba 13 3c 68 9e a6 bd
       0.020932319 -0.11431019 0.009016643 -0.08135682
000140 07 b2 f1 bd 21 33 eb 3d 18 0d cf 3d 92 77 01 be
       -0.11801534 0.114843614 0.10109919 -0.12643269
000150 8b d8 f2 3c c1 34 4c bc cd 18 4e bc 95 9e 4c bd
       0.029644271 -0.012463749 -0.012579155 -0.049955923
000160 d3 de 74 3d 95 c3 7e bd 37 2d 65 3d 4d cc 96 3d
       0.059782814 -0.06219824 0.055951323 0.07363186
000170 e2 09 cd 3d c3 bd 6d 3d fb 0b e9 bd fc 53 a3 bd
       0.100116506 0.0580423 -0.11379238 -0.07975003
000180 55 f2 8a 3d f5 61 fa 3c 84 f8 c0 bd 4e 34 84 bd
       0.067845024 0.030564288 -0.094224006 -0.06455289
000190 4c e8 f7 3d 93 23 b0 3d 20 d8 65 bd 47 ac fb bc
       0.12104854 0.08600535 -0.056114316 -0.030721797
0001a0 fb 6e f1 bd 36 25 89 bb 77 c6 ca bd 27 c7 cc bd
       -0.11788746 -0.004185344 -0.099011354 -0.09998923
0001b0 3f 21 d8 bb ae e5 be 3c 4f b4 5e bd 39 de 9a 3d
       -0.00659576 0.02330288 -0.054371174 0.07561917
0001c0 0a ab 9f bd f5 e2 f0 3d c1 52 bd 3d ce 8c e6 bd
       -0.07796295 0.117620386 0.092443 -0.11257325
0001d0 d4 0b 10 bd 65 69 60 3b f4 14 83 3c 7b ee ff 3c
       -0.03516753 0.0034242508 0.016001202 0.031241646
0001e0 eb e9 97 3d e9 95 ff 3c 0e 99 20 bd 0f ec ae 3d
       0.07417663 0.031199412 -0.039208464 0.08541118
0001f0 40 5c bf bd 03 fc 63 bd 71 2f 3d bc 10 1a 2b bd
       -0.09343767 -0.05566026 -0.011546955 -0.041772902
000200 70 6f bf bc 3e 14 a0 bd 1c 0d 11 bc 95 59 38 3d
       -0.023368567 -0.07816361 -0.008853223 0.045007307
000210 47 c2 89 bd 57 f1 39 3c 86 c1 f4 3d b7 7f ba 3b
       -0.067265086 0.011349044 0.11950974 0.0056914943
000220 3f 62 b0 3c 44 40 e5 3b 0a 11 37 3d b5 62 e1 3d
       0.021531222 0.0069961865 0.044693984 0.11005155
000230 7a 46 0f 3e 3a 08 cb 3d 21 89 0f 3e ae 9e 0d 3c
       0.13991728 0.099136785 0.14017154 0.008643789
000240 90 b1 b4 bd e8 c4 57 bd 31 c2 c4 3d b3 c9 00 3c
       -0.0882293 -0.05267802 0.096073516 0.007860589
000250 9e d2 61 bd dd 92 a4 bd 7e d0 e8 bd a5 b1 d0 bd
       -0.0551325 -0.080358244 -0.11367892 -0.10190133
000260 2e 00 9f bc 37 bf 9e 3d 04 0c b0 3d 26 de e9 bd
       -0.019409265 0.07751315 0.08596042 -0.114193246
000270 30 bd b9 3d e9 a2 ba bd 42 61 91 bc 1b 84 09 bd
       0.09069288 -0.09113104 -0.017746571 -0.03357325
000280 32 5e 4c bc 2b 26 5d bc 8a 1b d5 bd df d5 cb bd
       -0.01247363 -0.0134978695 -0.10405643 -0.09952902
000290 62 58 cd 39 d0 e0 5a 3c 0a 98 42 bd 26 0e 75 3d
       0.00039166497 0.013359264 -0.047508277 0.059827946
0002a0 f2 44 d6 bd c5 f7 3c 3c 61 7a fc 3d 62 5b 31 bd
       -0.10462369 0.011533682 0.123280294 -0.04330004
0002b0 52 f7 00 3e ca 50 66 3d 26 0c c9 bd d3 ea bd 3d
       0.12594345 0.05622939 -0.0981677 0.09273305
0002c0 cb e0 88 bb 88 36 3f bd 25 92 e9 3d e0 3f ad bd
       -0.004177188 -0.046682864 0.11404828 -0.08459449
0002d0 23 fa 20 bc b7 fc 4f bd a4 6b 8f 3d 9b 03 50 3c
       -0.009825262 -0.050778117 0.07002953 0.012696172
0002e0 8a cd 13 3d 82 95 fb 3c a5 a5 3b bd f6 46 24 bd
       0.03608469 0.03071094 -0.045812268 -0.040106736
0002f0 5a f0 f6 bd 41 9e 59 3d ec d8 c2 3d 0a 38 a4 3d
       -0.12057562 0.05312944 0.09514031 0.08018501
000300 ea d6 c4 bd 8e 86 22 bb 30 df cb bd ce 4b ad bd
       -0.09611304 -0.002479944 -0.09954679 -0.08461724
000310 7e 62 b8 bd 2f 4b ff 3c 39 a4 bd bd dd 03 9c bc
       -0.09003161 0.03116378 -0.092598386 -0.01904481
000320 1a a3 8b bb 1b 28 93 3d 43 41 da bd a4 66 cb bd
       -0.0042613866 0.07185384 -0.10656979 -0.099316865
000330 8f a2 b2 bd 50 45 ce 3d 93 31 16 bd dc 12 f5 3d
       -0.08722412 0.10071814 -0.03666837 0.11966488
000340 d9 d0 6a 3d e8 66 c0 3c 5f f6 25 3c f3 66 6c bc
       0.05732808 0.02348657 0.01012954 -0.014428842
000350 70 50 e0 3c a0 9e 96 bc 64 b6 df 3b 41 03 b0 3c
       0.027382106 -0.018386185 0.0068271626 0.021485927
000360 a6 d8 c3 bd 61 50 80 bd 58 54 df 3d 98 95 d2 bd
       -0.09562807 -0.06265331 0.10904759 -0.10282439
000370 a6 1a 14 bc db c8 02 3e 1b 77 40 3d 30 30 70 3b
       -0.009039557 0.12771933 0.046988588 0.0036649816
000380 67 cd eb bd f0 9f 81 3d d9 c6 be bd 88 83 18 bd
       -0.11513787 0.06329334 -0.09315271 -0.037234813
000390 ed 0b 36 bd a8 45 c4 bc 28 14 a9 3a 23 bf d8 3d
       -0.044444967 -0.023958996 0.0012899684 0.105833314
0003a0 33 ce 84 3c ac 81 eb 3d e4 dc 98 3d 5e 3f af bd
       0.016211605 0.11499342 0.074640065 -0.08557008
0003b0 d2 d2 5d 3d a3 1f c2 bd b3 e3 6f bd dc e3 f9 3c
       0.054156132 -0.094786905 -0.05856676 0.03050416
0003c0 59 76 f5 3c e4 9d ad 3d 16 c7 58 bd a2 8c 16 bc
       0.02996366 0.08477381 -0.05292424 -0.009188803
0003d0 0d d7 66 3d 88 80 03 be 55 ea b8 3d 63 4b df bd
       0.056357432 -0.12842 0.0902907 -0.10903051
0003e0 6a 19 f4 3a b3 18 b2 bc e9 9d 8f bd 72 0d 84 3c
       0.0018623297 -0.021740293 -0.07012541 0.016119692
0003f0 29 44 de 3d 2a a1 0c bd ff 3b a4 bd 74 8c 6a bd
       0.10852844 -0.034333386 -0.08019256 -0.057262853

pre.bias f4 [48]
000000 c8 1d 25 bd fe 62 ed bb 80 44 a5 3d d9 a1 1e 3d
       -0.040311605 -0.007244467 0.08069706 0.03872857
000010 a5 37 a8 3d ee 45 2d 3e 1a 99 65 bc 85 5b 9c 3d
       0.08213738 0.16921207 -0.014013553 0.076346435
000020 be f5 ef 3d 1e d5 05 be 66 82 28 3d 5c 92 bc 3d
       0.117167935 -0.13069579 0.041139983 0.09207603
000030 c6 c6 ea bb 84 49 f8 3c e2 5a ce 3c 08 6c 39 3e
       -0.007164809 0.030308492 0.02518982 0.18107617
000040 a6 d0 c5 3c 61 cf 0a bd 8a 9c 31 3d 3b da ba 3a
       0.024147343 -0.03388918 0.043362178 0.0014255712
000050 27 f5 42 3e 9b 43 0f 3d 90 e3 ba 3d 62 f9 00 3e
       0.1903883 0.034976583 0.09125435 0.12595132
000060 49 14 7d bc 75 1f 96 bd dd 02 5c 3c 8e 0e af bd
       -0.015446731 -0.07330219 0.013428417 -0.08547698
000070 e1 6f 59 bd c9 59 cd bc 63 1a 5f 3c c4 53 08 be
       -0.05308521 -0.025067227 0.013617131 -0.13313204
000080 64 37 a6 3d 3b 9d d3 bd aa 04 3b bc 93 4f 02 3e
       0.08116034 -0.10332724 -0.011414686 0.12725668
000090 fd 08 ee bd d4 5f a7 3d 3f 18 57 be df a8 36 bd
       -0.11622808 0.08172575 -0.21005343 -0.04459464
0000a0 9f 74 b6 3d d3 86 1b bd 9f 75 0b 3e b8 ac f1 bd
       0.089089625 -0.037970375 0.13619088 -0.118005216
0000b0 b2 72 a3 bd c7 8b 2f be c4 1b a0 bd 28 2b a9 3d
       -0.07980861 -0.17143165 -0.07817796 0.082601845

norm.weight f4 [48]
000000 3a c8 80 3f 0f 4a 7f 3f 33 86 7c 3f c7 fe 84 3f
       1.0061104 0.9972238 0.9864227 1.0390252
000010 c2 a4 84 3f 82 54 7d 3f 07 f2 7d 3f df b1 7a 3f
       1.036278 0.98957074 0.9919743 0.9792766
000020 35 13 82 3f d1 c3 83 3f 6b a7 82 3f 98 fd 7c 3f
       1.0162112 1.0294133 1.0207342 0.98824453
000030 e3 5c 86 3f 9d cc 83 3f f7 7f 86 3f 52 b3 85 3f
       1.0497097 1.0296818 1.0507802 1.0445349
000040 55 9d 88 3f 5b 7e 87 3f ed aa 84 3f 74 ba 7d 3f
       1.0673014 1.0585436 1.0364662 0.9911263
000050 35 d9 8f 3f 3a 8c 88 3f 5a e0 84 3f 55 77 85 3f
       1.1238161 1.0667794 1.0380967 1.0427042
000060 73 e6 80 3f 18 af 74 3f 39 12 7d 3f a0 b3 85 3f
       1.0070328 0.9557967 0.9885593 1.0445442
000070 16 34 81 3f f2 5e 87 3f 03 bc 85 3f 08 c2 75 3f
       1.009402 1.057585 1.0448002 0.95999193
000080 16 17 8d 3f 18 ea 82 3f 17 31 77 3f 72 29 84 3f
       1.102267 1.022769 0.9655928 1.0325148
000090 47 bc 82 3f b2 4a 76 3f fb 59 84 3f a1 c5 86 3f
       1.0213708 0.96207726 1.033996 1.0529062
0000a0 7c 0a 85 3f 35 33 82 3f 20 1f 84 3f cb ff 7c 3f
       1.0393825 1.0171877 1.0321999 0.9882781
0000b0 17 8d 89 3f c9 7e 86 3f 2b 32 76 3f e6 b7 7c 3f
       1.0746182 1.0507442 0.961703 0.98718107

norm.bias f4 [48]
000000 73 ec 26 3a 47 03 60 3d d8 3c 92 bc 49 bf 50 3d
       0.0006367631 0.054690626 -0.017851278 0.050963674
000010 bb c3 60 3d 9a 84 12 3a 6e db a5 3a 3c 2c e4 bc
       0.054874163 0.0005589217 0.0012653896 -0.027853124
000020 2e 32 d6 3c 9c 19 2b bd 85 7a 66 3d 88 64 10 3d
       0.026146974 -0.04177247 0.056269187 0.035252124
000030 58 4f 7b bd 66 4a 52 bd 71 3d 5e bd b5 4b 80 bd
       -0.061354965 -0.051340483 -0.054257814 -0.0626444
000040 17 57 78 3d fd d5 33 bd 90 de 54 3d 20 a6 11 bc
       0.06062993 -0.043905247 0.051970065 -0.008889705
000050 02 14 9b bd b5 5f 77 bd e4 44 2d bd 7e 23 81 3d
       -0.075721756 -0.060394008 -0.042302027 0.06305598
000060 22 5f 64 bc 2a 2d 13 bd f2 7e 8e bc e7 e6 43 3d
       -0.013938697 -0.035931744 -0.017394517 0.047827628
000070 d2 cd 64 3d 8a 1c 1e 3d e5 9a 46 3d 27 9b 0b bd
       0.055860348 0.038601436 0.048487563 -0.03408351
000080 83 ae b6 3d 58 c2 32 3d 17 f8 8a bc 35 41 94 3d
       0.08920004 0.043642372 -0.016964002 0.07239
000090 48 8f 16 3d c0 14 ce bc da 80 37 bc d0 ea 24 3d
       0.036757737 -0.025156379 -0.011200154 0.040262997
0000a0 5e 2e 44 3d 79 09 14 3d 4c 79 30 3d 38 4c 96 3a
       0.04789578 0.036141846 0.043084428 0.0011466807
0000b0 d9 94 26 3d a6 2f 29 bd c5 b5 fc bc c8 a6 11 3d
       0.040669296 -0.041305207 -0.030848393 0.035559446

gru1.weight_ih_l0 f4 [72, 48]
000000 af 7d 45 3e d3 ca 1e 3d 0e c3 11 3b 97 c3 13 be
       0.19286226 0.038767647 0.0022241506 -0.1443008
000010 00 33 31 3e 44 a9 58 bd 4e c1 c1 bd 5c c2 16 be
       0.17304611 -0.0528958 -0.09460698 -0.1472258
000020 c3 7b 2b 3e 26 b7 b0 3d 38 65 1f 3e 76 31 c3 bb
       0.1674643 0.08628683 0.15565956 -0.005956824
000030 77 b2 31 be 9a 90 99 3c 31 7a d4 bc c0 22 d8 3b
       -0.17353235 0.01874571 -0.025937172 0.0065959394
000040 4c 06 ee 3a 92 a2 02 be 1f a4 4f 3e 0c e5 a4 3d
       0.0018159836 -0.12757328 0.20277451 0.080515
000050 be 7b 38 be b3 b0 13 bd 79 9b bd bd 50 cc a4 3c
       -0.18015954 -0.036057185 -0.0925817 0.020116955
000060 ae 00 30 3e 5a 8f d7 bd d7 dd 56 3e 61 43 64 3e
       0.1718776 -0.10525389 0.20983063 0.22291328
000070 a1 d3 b4 3d e9 82 42 bc a7 38 a4 3d 3c 76 4d bd
       0.088294275 -0.011872032 0.08018618 -0.050161585
000080 ae 45 e2 3d d7 1f 2c bb f0 ec 43 3d 6e 6d 70 be
       0.110484466 -0.0026264095 0.047833383 -0.23479244
000090 ca f9 3e 3e 2c 16 de 3d 7b b3 8c 3e a0 0d 68 3d
       0.18649974 0.10844073 0.27480683 0.05665362
0000a0 06 84 c5 3d 40 06 12 3e 64 40 cc 3d 23 46 38 3e
       0.09644322 0.14260197 0.09973219 0.17995505
0000b0 d8 fc 90 bd 81 ff 4b 3d a8 1a 9c bc 1e e2 16 be
       -0.07079476 0.049804214 -0.01905568 -0.14734694
0000c0 2f b9 02 3e bc 8c b4 3c 84 d5 05 3d f1 b6 26 3e
       0.12765954 0.022039764 0.032674327 0.16280724
0000d0 ea e7 2b 3e f3 14 d8 3d 97 51 0c bd 85 e2 5c be
       0.16787687 0.10550871 -0.034257498 -0.21570785
0000e0 af f9 2d be 6b f7 1f 3d 70 d4 31 3c 82 98 be bd
       -0.16989778 0.039054316 0.010853872 -0.09306432
0000f0 cb e1 57 3d d5 20 01 3e 56 20 ba 3d aa ee b0 bd
       0.052705567 0.1261018 0.09088199 -0.086392716
000100 11 e3 78 3d ff 2b 25 be 2b a3 ec 3d 85 30 25 be
       0.060763422 -0.16130064 0.11554559 -0.1613179
000110 9e 23 a3 3d 8b 5a fa bd dc 8f e8 bd b4 86 35 be
       0.07965778 -0.12224301 -0.11355564 -0.17727166
000120 6d f7 6a 3c 20 4c 90 3d 83 5c 03 bd 5c c6 6e 3e
       0.0143412175 0.0704577 -0.032070648 0.23317856
000130 73 33 3d 3e 4b 2d f2 bd 8f ad 0c 3d 61 35 2b 3e
       0.18476658 -0.11825045 0.034345206 0.16719581
000140 55 6e 61 3e af 48 24 3d 69 3d 2e 3e 83 4d f1 3a
       0.22014745 0.04010838 0.17015614 0.0018409941
000150 76 57 82 3c 63 42 28 3e 49 c6 8a bd 97 e2 69 3e
       0.015910845 0.16431575 -0.06776101 0.22840343
000160 cb cc 63 3e dc 75 80 3b d6 30 bb 3d b1 46 98 3e
       0.22246091 0.0039203 0.09140174 0.29741433
000170 30 e8 0d 3e 1d 42 21 3e b3 2b 2f 3e 62 91 9c bd
       0.13858104 0.15747876 0.17106514 -0.07644917
000180 d5 7c 27 3d 96 82 df bd ea e1 1a 3e 1c 91 ed bd
       0.040890533 -0.10913579 0.15125242 -0.11599943
000190 86 f7 87 3c db dd 19 bd 8a 1a fa 3d c0 96 15 3c
       0.01659752 -0.037565093 0.12212093 0.00913018
0001a0 20 9f a8 3d be 98 9c bc 55 77 1e be 13 04 80 3d
       0.08233476 -0.019115802 -0.15475209 0.06250777
0001b0 18 eb c3 bd 4c 01 2b be 0b ac c6 3d 13 21 d1 bd
       -0.09566325 -0.16699713 0.09700783 -0.102113865
0001c0 41 fb bb bd 16 81 02 bd 0d ba 94 bb 37 4a b5 bd
       -0.09178782 -0.031861387 -0.0045387805 -0.08852046
0001d0 fd 79 79 bd bf 5c 0e bd d3 ba 25 3e b4 c2 54 3d
       -0.060907353 -0.03475642 0.16184549 0.051943496
0001e0 e9 ce e5 bd 26 a9 16 be b8 5c 02 bc a6 9e a7 3d
       -0.112211056 -0.14712963 -0.007956676 0.08184557
0001f0 78 31 0c 3c 6f fa f2 3d 66 68 2b 3e 3f c5 95 3d
       0.008556716 0.11864173 0.16739044 0.07313012
000200 91 70 71 3d 40 49 13 3e bd ac b0 bd 01 f4 8f 3c
       0.058945242 0.14383411 -0.08626697 0.017572405
000210 fd bb 3b 3e a6 14 00 be 58 ea 1c 3d 2a c1 9e bd
       0.1833343 -0.12507877 0.038309425 -0.07751687
000220 19 26 36 be 3a bb d8 3d c9 5f 0b 3e b6 ee cd bd
       -0.1778797 0.10582586 0.13610758 -0.10055296
000230 ee bb c1 3d 5f 83 a1 3d f6 ff b2 3d e1 53 b3 3d
       0.09459673 0.07886385 0.08740227 0.08756233
000240 4a b8 4b 3e 0e ca 2e 3e 38 08 4c be 2e 10 bb bd
       0.1989452 0.17069265 -0.1992501 -0.091339454
000250 75 ca ac 3d be 67 b8 bd a8 b4 74 3d 6d 23 93 bd
       0.08437053 -0.09004162 0.0597426 -0.07184491
000260 8e ae 6b 3c 20 50 05 3e 26 6f 88 3d 3a b7 0f 3e
       0.014384879 0.13018847 0.06661825 0.14034739
000270 36 ba 1c bd ae 1e 97 3d 0a 21 7a 3d e7 fd 70 bd
       -0.038263522 0.073788986 0.061066665 -0.05883589
000280 9f 5c 00 be 57 5b 31 3e d2 d8 89 bd 2b 7f 09 3e
       -0.12535332 0.1732 -0.06730808 0.13427417
000290 e9 01 68 3d 4a 30 e0 bc 10 ea 2f be 4f 20 cc 3c
       0.056642447 -0.027366776 -0.17179132 0.02491775
0002a0 8d 0a 32 bd 9f e5 22 3e 14 40 b5 bc 4f c7 82 3e
       -0.043467093 0.15907906 -0.022125281 0.25542685
0002b0 e3 aa 13 be c7 23 85 bb 5a ed a8 3d 2d b2 03 3e
       -0.14420657 -0.004063103 0.08248396 0.12860937
0002c0 e8 72 38 3e 10 7e 42 3d 1a 3f fc bd 2f 3d 13 3e
       0.18012583 0.047483504 -0.12316723 0.14378808
0002d0 91 dc 38 3e 19 96 08 3e 2b fc f0 bb b5 c4 0f bd
       0.1805289 0.13338508 -0.0073542795 -0.035099704
0002e0 66 40 99 bd 26 6c c8 3d 4e e6 7a 3d 27 4b 9d bc
       -0.07482986 0.09786253 0.061254792 -0.019200874
0002f0 b5 bd a0 3d 58 59 80 3d 07 62 95 3e 59 0e b4 bd
       0.07848684 0.06267041 0.2917635 -0.08791799
000300 8f 4f 37 3e 97 7f fd bd 28 9d c7 bd c6 ae 38 be
       0.17901443 -0.123778515 -0.09746772 -0.18035421
000310 0e 55 03 3e 30 a5 04 be 94 ca cc 3d c3 72 d5 bd
       0.12825415 -0.12953639 0.09999576 -0.1042228
000320 b1 4e 36 3e f3 f4 37 3d 1a 57 54 be fc 6c d3 3c
       0.17803456 0.044911336 -0.20736352 0.025808804
000330 6f 73 84 3d b2 a7 28 be c7 70 92 3d 3d 40 51 3e
       0.0646733 -0.1647022 0.07150417 0.20434661
000340 bf c2 a8 3c 82 99 31 3d 71 24 8b bd 63 2a 25 3d
       0.020600675 0.043359287 -0.0679406 0.040323626
000350 0f f9 16 bd 9e e0 70 3e d7 97 56 3e 80 70 82 3d
       -0.036858615 0.23523185 0.2095636 0.06369114
000360 f2 1a 09 be fe 8f 47 be 71 06 15 be db 65 37 3e
       -0.13389185 -0.19488522 -0.14553238 0.17909949
000370 80 63 7e be 9d ee 7f be 6d 4b 61 bd f5 bb a8 3d
       -0.24842644 -0.24993367 -0.055003572 0.08238975
000380 80 b8 82 be c7 d9 50 be d7 31 13 bd f0 d0 f5 bd
       -0.25531387 -0.20395575 -0.035936203 -0.12002742
000390 ce 8c 13 3e d4 02 a6 3b 54 cf 2a be 5e 36 56 be
       0.14409181 0.005066255 -0.16680652 -0.20919177
0003a0 7f b8 b0 3d 0a 11 84 bd df bf 0b be ac 87 79 3d
       0.0862894 -0.064485624 -0.13647412 0.060920402
0003b0 56 42 98 bd 07 fd f0 3d c3 b1 68 3d 74 5d 15 be
       -0.074345276 0.11767011 0.05681015 -0.14586431
0003c0 bd 2a 2e be bd e5 b0 3d 17 92 13 be 38 60 7c bd
       -0.17008491 0.08637569 -0.14411198 -0.0616152
0003d0 be c6 5e bc bb 9c c0 bd a6 b3 07 3e bb 3e 07 be
       -0.0135971885 -0.09404894 0.13252124 -0.13207524
0003e0 25 ad d1 3b f9 bc 8d 3d 28 9c 6c 3d e2 45 63 be
       0.0063988143 0.06920809 0.05776611 -0.22194627
0003f0 b2 eb 3a 3d ea 90 d8 3d e8 a1 d8 bd e6 13 b5 3d
       0.045634933 0.10574515 -0.10577756 0.08841686

gru1.weight_hh_l0 f4 [72, 24]
000000 8d 2e 27 be a4 56 4d be 78 86 d2 3d 59 3c 8b 3d
       -0.16326351 -0.20052582 0.10279554 0.0679862
000010 c5 8b 89 bd 48 76 4a 3e ec 2c 9f bd 74 0b 29 be
       -0.06716112 0.19771683 -0.0777224 -0.16508275
000020 2f 0b 01 bc 1f dc 1b be 76 06 06 bd e8 bc f0 bd
       -0.0078762015 -0.15220688 -0.032721005 -0.11754781
000030 3a ec 70 3e c2 e4 1c 3e 06 92 c6 bd a0 55 17 3e
       0.23527613 0.15321639 -0.096958205 0.14778757
000040 1d 72 fa 3d 99 db dd bd 65 0f 52 3c ac aa 2f bd
       0.12228797 -0.108329006 0.012821053 -0.042887375
000050 74 98 c2 3d aa e5 61 3e 86 e0 02 3e b0 c0 4d bd
       0.095017344 0.22060266 0.12780961 -0.05023259
000060 75 8c 2b 3e 42 a4 1b be 0f 0e 3e bc 0c d3 04 be
       0.16752799 -0.15199378 -0.0116000315 -0.12971133
000070 ff db 01 3e 07 cb b3 3d c5 7e 27 be 04 21 49 be
       0.12681578 0.08778959 -0.16356952 -0.196415
000080 71 8a e0 3b ff d4 e1 bd ed 9a 36 bd a1 ab 0b be
       0.006852441 -0.11026954 -0.044581342 -0.1363969
000090 70 00 a6 bd de a1 0f 3e c6 d5 5c bd a5 ea f6 3d
       -0.08105552 0.14026591 -0.053914808 0.12056474
0000a0 47 69 41 3d 27 f9 5b bd 0b 88 ec 3d 16 4b de 3d
       0.04721954 -0.053704407 0.11549386 0.10854165
0000b0 e8 51 01 3e 84 5e 48 3d 35 07 00 3e 09 e4 07 bd
       0.12628901 0.048918262 0.1250275 -0.033176456
0000c0 bf 5d 75 3d 38 b4 5c 3e c8 a4 da bd 80 e4 08 3e
       0.059903856 0.21553123 -0.10675961 0.13368416
0000d0 02 70 fa bd 15 4d 46 bc 6a ff bf bd 97 3d 1f 3e
       -0.12228395 -0.012103339 -0.09374888 0.15550838
0000e0 26 72 2f be 70 92 84 bd 7a d0 a5 3c 9e fa e3 bd
       -0.17133388 -0.06473243 0.020241011 -0.11131786
0000f0 1a ce 0e 3d b2 b1 5b 3e 97 ee 59 be 6d d3 1f be
       0.034864523 0.21454504 -0.21282421 -0.15607996
000100 62 00 36 be 92 e0 63 3e e0 7a 80 3d 5a 4d 0c be
       -0.17773584 0.22253636 0.062734365 -0.13701382
000110 b7 29 53 be 2a 09 0a 3e 51 fb 55 3e 4b 88 d4 bd
       -0.20621382 0.13480058 0.20896651 -0.10377558
000120 67 06 17 3d 86 28 81 bd 16 78 09 3e 31 07 bc bd
       0.03687134 -0.06306557 0.13424715 -0.09181059
000130 ca b5 06 3e 8b 3a 82 3e 80 c2 be 3d 18 20 e0 bc
       0.13155285 0.2543529 0.09314442 -0.027359053
000140 1e ca 5d 3d f6 36 ba 3d 21 b6 d2 bd c9 b7 c7 bd
       0.054147832 0.09092514 -0.102886446 -0.09751851
000150 b6 04 05 be dd c5 20 3e 0f 22 9e bd c6 60 24 3e
       -0.12990078 0.15700479 -0.0772134 0.16052541
000160 80 29 03 bd a4 0a 7a bd 75 18 21 3e 9d 2a 09 bd
       -0.032022 -0.061045304 0.15731986 -0.033487905
000170 b4 4c 05 be 54 8e 0e 3d f9 91 ca bd 13 44 1d be
       -0.13017541 0.034803703 -0.09891123 -0.15358
000180 87 12 c2 bd 12 e1 d3 3d 10 15 b3 3c 18 7a fc bd
       -0.0947619 0.10345663 0.02186063 -0.12327975
000190 2c 54 2f 3d 1f 51 d8 bd c7 c8 d7 bd b9 e2 e1 3d
       0.042804882 -0.105623476 -0.10536342 0.11029572
0001a0 b1 46 bf bd 1d 6e ca bc e8 e5 d3 3d 47 b4 df 3d
       -0.09339655 -0.02471071 0.103465855 0.10923057
0001b0 d7 77 7b be a4 d0 51 3e 59 21 0b 3e b3 20 38 be
       -0.24557434 0.20489746 0.1358694 -0.17981224
0001c0 50 b5 76 be d6 16 08 be 91 f8 87 bd f5 e4 f5 3c
       -0.24092603 -0.13289961 -0.06639207 0.030016402
0001d0 67 64 d6 3c 34 5b 68 3c a8 07 9b 3d 3a ec fb bd
       0.026170922 0.014181901 0.0756982 -0.12300916
0001e0 5c 97 5e 3e 9c 0a 4c 3e ed 29 0f 3e 96 fb 70 3c
       0.21737427 0.19925922 0.13980837 0.01470842
0001f0 e8 a6 16 be ee ab 1f 39 c1 d4 d8 bd 18 5c 6c 3e
       -0.14712107 0.0001522747 -0.105874546 0.23082006
000200 c0 69 57 be 3f 8d 53 3e e7 13 24 3e f3 6b 17 be
       -0.21036434 0.2065935 0.16023217 -0.14787273
000210 94 06 4a be 83 25 e1 3d b9 7a 4d be 94 c8 66 be
       -0.19729072 0.10993483 -0.20066346 -0.22537452
000220 f4 7a 1d be 40 74 37 3e c3 98 fa bd 2b a5 5d bd
       -0.15378934 0.1791544 -0.12236168 -0.054112595
000230 62 47 02 be 8b 51 f9 3d 77 86 e9 3d 13 79 15 3e
       -0.12722543 0.12173756 0.114026 0.14596967
000240 d2 10 99 bd 11 80 23 be b2 5b 34 3d e1 35 01 3e
       -0.07473911 -0.15966822 0.04403276 0.1261821
000250 b0 32 55 3e 8f 6e 24 be 50 ee 4a be f6 b5 bf 3d
       0.20820117 -0.160578 -0.19817472 0.09360878
000260 4c 1a a5 3d 8f e8 bd 3d ec de 48 bc 01 6c 82 3e
       0.08061656 0.09272873 -0.01226018 0.25473025
000270 ea 9d e6 3d af df f6 bd 97 45 2f bd c1 dd be 3d
       0.112605885 -0.12054383 -0.042790975 0.0931964
000280 6b 8f 18 3d 15 64 0d be f9 c2 b2 bd 42 c6 f3 3c
       0.03724615 -0.1380771 -0.08728594 0.029757623
000290 b5 70 14 3e d5 a3 6d 3e 1f bd 05 be 59 30 26 be
       0.1449612 0.23207028 -0.13060425 -0.1622938
0002a0 94 11 1f be 64 19 28 be 46 01 25 3e 23 ef 89 bd
       -0.1553405 -0.16415936 0.16113767 -0.06735065
0002b0 9d 58 8a bd 2b 80 4f 3e fc 73 03 3e 87 42 66 be
       -0.06755183 0.20263736 0.12837213 -0.22486316
0002c0 28 f5 0a 3d 3a 78 03 3d d9 46 8c 3d 31 51 a1 bd
       0.033925205 0.03209708 0.068494506 -0.07876814
0002d0 dc 2b e0 bd 06 93 35 be e9 9d dc 3d cc a2 82 bd
       -0.109458655 -0.17731866 0.107723065 -0.06378707
0002e0 5f e8 1f be 9e a0 32 3e 55 62 14 3e a7 90 bf bd
       -0.15615986 0.17444083 0.14490636 -0.09353762
0002f0 b8 fe 9c 3d 8c ca 3f bd 7b 40 29 be 5a c1 67 be
       0.07665771 -0.046824023 -0.16528504 -0.22632352
000300 34 74 0b 3e 77 22 44 be 17 be 53 be dc d0 27 3e
       0.13618547 -0.19153772 -0.20677982 0.16388267
000310 5a 57 c1 bd f4 14 8d bd a3 81 e2 bc 34 a9 77 be
       -0.09440489 -0.06888762 -0.027649706 -0.2418564
000320 e2 af 25 be dd f8 46 be c3 ce 1a bd 26 a6 09 bd
       -0.16180375 -0.19430871 -0.03779484 -0.033605717
000330 32 b4 09 3e 42 2c b4 3d 40 b7 81 3e ed b5 03 be
       0.13447645 0.08797504 0.2533512 -0.12862368
000340 64 f0 c1 bd e0 84 cf 3d 5e b1 90 3d 48 39 e1 bd
       -0.09469679 0.10132766 0.0706508 -0.10997254
000350 2e e8 48 3e 60 c1 d0 bd fe 9d 35 3e 04 75 41 be
       0.1961982 -0.10193133 0.1773605 -0.18892294
000360 4c ea c1 3d db 80 f7 bc 1e fb 23 be 40 17 11 3e
       0.09468517 -0.03021281 -0.16013762 0.14169025
000370 5a d5 9a bd d1 77 8f 3d 0b d8 21 be 7e 6b 7f bd
       -0.07560225 0.07005275 -0.1580507 -0.062358372
000380 6b 37 50 3b f2 3c 9b 3d 46 70 e6 3b 71 c2 35 3e
       0.0031771313 0.07579984 0.007032427 0.17749955
000390 b6 53 26 3e 6e 74 97 3a 34 14 1d 3e 84 37 89 bd
       0.1624287 0.0011555084 0.15339738 -0.06700042
0003a0 ed 36 0c be c3 29 07 be ec 0c 8a bd 80 60 48 be
       -0.13692828 -0.13199525 -0.06740746 -0.19568062
0003b0 63 ce cc 3d f2 22 d5 bb 9d f1 57 be ca 62 66 3d
       0.10000303 -0.00650441 -0.21088262 0.056246556
0003c0 fa 68 ba 3d 78 dd 0d 3e 70 18 a2 bc 8d ba bc 3c
       0.09102054 0.13854015 -0.019787043 0.023038173
0003d0 9d 5f 1b 3e 9a a9 0a be fe 7d fa bc cc 00 c6 3d
       0.15173192 -0.1354126 -0.030577656 0.09668121
0003e0 62 91 36 3e 45 11 18 bc 7f e9 b8 3c 7d 02 e1 3d
       0.17828897 -0.009281461 0.022572277 0.10986803
0003f0 8b 16 c3 3d 81 53 20 bd 2f 8c 4e 3e 39 d4 53 3e
       0.09525784 -0.039142136 0.20170663 0.20686425

gru1.bias_ih_l0 f4 [72]
000000 d4 c9 01 3d 61 6c 2f be 6b 49 33 3e 59 35 34 3e
       0.03168662 -0.17131187 0.17508475 0.17598476
000010 87 38 62 bd c4 07 d3 3d 2b 7a 13 be ea 79 eb bd
       -0.05522969 0.103042156 -0.14402072 -0.11497863
000020 a3 9b 41 3e 1c 64 48 be c5 0c 40 3c 37 24 0b be
       0.18907027 -0.19569439 0.0117217945 -0.13588034
000030 46 ce 2a be ba 66 8d 3d 4c a1 87 bd 23 99 88 3d
       -0.1668025 0.06904359 -0.06622562 0.066698335
000040 7f 48 93 bd bf ec d3 3d 31 19 3a 3d 7c a6 24 be
       -0.07191562 0.1034789 0.04543418 -0.16079134
000050 0e 68 2c 3e db 83 21 3e 21 cc ff bd 49 99 73 3d
       0.16836569 0.15772955 -0.124901064 0.059472356
000060 dd 1f f0 bd 6d 79 b2 3d 16 6d 55 be 6b ed 28 3b
       -0.117248274 0.087145664 -0.20842394 0.0025776278
000070 fd d1 ed bd cc 82 0a be d9 e5 99 3d 0c fc b5 bc
       -0.11612318 -0.13526458 0.07514543 -0.022214912
000080 69 8a 2f be f2 a2 4b 3e 48 59 57 bd 29 b1 97 3d
       -0.17142643 0.19886377 -0.05257538 0.074068375
000090 bb 5d 39 be 6c 31 86 bd 2e 70 0a 3e 9b 1a 0c 3e
       -0.18102162 -0.06552395 0.13519356 0.13682024
0000a0 15 02 13 3e 95 3b 3e 3d 2a d4 92 3e 00 e6 70 be
       0.14356263 0.04644354 0.28677493 -0.23525238
0000b0 df 45 37 be 75 25 69 bd c4 40 2a be 70 70 d3 3c
       -0.17897747 -0.056920487 -0.16626269 0.02581045
0000c0 24 e1 53 be 0a a8 27 bd c3 ed 01 bd e6 b6 2f 3e
       -0.20691353 -0.04093174 -0.031720888 0.17159614
0000d0 ab a1 05 3e c5 35 9e 3d ae 02 e4 3d 35 dc 69 bd
       0.13049953 0.077250995 0.111333236 -0.05709477
0000e0 c5 1c 51 3e ac dd 65 be 20 aa ec 3c 5a ea 60 bd
       0.20421131 -0.22447842 0.028889716 -0.054910995
0000f0 96 df 28 3e 60 f3 cc bd 8b 4b cd bd a2 bb 9e bb
       0.16491541 -0.100073576 -0.10024174 -0.004844145
000100 87 95 00 3d 79 49 cb 3d 73 e1 16 3e ff 4e 59 be
       0.0313926 0.09926123 0.1473444 -0.21221541
000110 df 81 69 bd c9 07 5d bd ec 55 5b bd 7e 79 1f 3d
       -0.05700862 -0.053962503 -0.05354874 0.038934223

gru1.bias_hh_l0 f4 [72]
000000 ed c2 d9 3c 99 99 55 3e c4 3b 05 3c c6 6e 00 3e
       0.026582206 0.20859374 0.008131925 0.12542257
000010 b8 ca a8 bd 40 75 cc 3d 2b 37 ed 3d 5b da fb 3c
       -0.082417905 0.09983301 0.11582788 0.030743768
000020 d2 4e 1c bc a1 85 c7 3d 5b 48 7e 3d 0f 76 1f be
       -0.009540277 0.097422846 0.062080722 -0.1557238
000030 39 49 19 bd 61 7d c9 bd 36 66 92 3d 39 ed 37 3e
       -0.037423346 -0.09838367 0.071484014 0.17961587
000040 b5 2c e7 bd 2a 47 d5 3d 36 78 0e be 0a 18 01 3e
       -0.11287824 0.10413964 -0.13913044 0.12606826
000050 5e d2 1c be ba 41 47 bd ab e3 ed 3c 3c 72 13 bd
       -0.15314624 -0.048646666 0.029039225 -0.035997614
000060 00 21 c1 3d 73 b0 09 be 1d 80 2e bd ee b1 12 bd
       0.094301224 -0.13446216 -0.042602647 -0.03581422
000070 3f 96 8d 3d f8 7e 64 be b6 0f f8 bd 36 f9 02 be
       0.06913423 -0.2231406 -0.121123716 -0.12790379
000080 7c 0b a7 bd 5d 35 02 3e 7a f5 55 3d 0f 9b 98 3c
       -0.08156487 0.12715669 0.052236058 0.018628625
000090 cd 94 4c be 86 b1 a2 be 2b 91 89 3e 7b 5e 99 3c
       -0.19978638 -0.31776065 0.26868567 0.01872181
0000a0 a4 9f 67 be 3f 70 0e be 96 5c 28 3e 6d e0 1b be
       -0.22619492 -0.13910006 0.16441569 -0.1522233
0000b0 0d 5f fd 3d 25 14 03 be be 43 0c be 47 72 7d 3e
       0.12371645 -0.12800653 -0.13697717 0.24750625
0000c0 c0 c0 60 be 4f 59 4b bc 53 45 4c be 06 f0 c8 bd
       -0.21948528 -0.01241143 -0.1994832 -0.09811406
0000d0 56 49 2c be b8 c5 0d 3e 74 fc 97 bd 3c fe 0b 3d
       -0.1682485 0.13844955 -0.074211985 0.034178004
0000e0 ef a8 81 3d 02 d6 c5 3c 9a 36 0c be 11 ff 18 bd
       0.0633105 0.024149898 -0.13692704 -0.037352625
0000f0 f6 92 78 bc 0e 1e 46 be 16 e6 f7 3d dc c6 14 3e
       -0.015171757 -0.19347402 0.12104432 0.14528984
000100 c7 04 2c bd b9 aa 36 be 7d cb 84 bd 7c 90 5e be
       -0.041996744 -0.17838563 -0.06484125 -0.21734804
000110 a4 d4 cf bd 92 6c 71 bc 30 41 1d bc a7 ad 25 be
       -0.1014798 -0.014735358 -0.009598061 -0.16179524

gru2.weight_ih_l0 f4 [72, 24]
000000 bb 6a 67 be 77 76 21 3d 86 03 b7 3d a3 95 a1 3d
       -0.22599308 0.039419618 0.08936219 0.07889869
000010 79 da f6 3c 2c 0b 78 bc 25 e0 d2 39 bc 8f 49 bd
       0.030133473 -0.015139382 0.00040221322 -0.04920934
000020 2e b4 eb bb d1 89 9a 3d 48 20 36 3e 50 00 5a 3e
       -0.00719311 0.07545818 0.17785752 0.21289182
000030 75 10 66 3e 49 70 3f be 18 c7 82 3e 93 bf 72 3d
       0.22467215 -0.18695177 0.2554252 0.05926473
000040 2f bd fb bd 42 89 7f 3d b8 84 17 bd ed 9b 27 be
       -0.12291943 0.06238676 -0.036991805 -0.16368075
000050 8a c6 f5 3d e9 96 51 3e d4 41 fc bc 65 1d 7d be
       0.12000759 0.20467724 -0.030793108 -0.24718244
000060 f1 bb 48 be a3 c8 af 3a 0e 05 c4 bd 26 3b 1c 3e
       -0.19602944 0.0013411235 -0.095712766 0.15256938
000070 6b b3 6a 3e 94 80 c5 bd a5 6f 81 be 1c dc 0e be
       0.22920005 -0.09643665 -0.2528049 -0.13951153
000080 4e 0f 34 3d a4 de 18 be c5 47 81 3e f7 74 db bc
       0.04395991 -0.1492868 0.25250068 -0.026789172
000090 32 cf 48 3e 43 83 bb 3b d8 54 92 3e df 5d 0c be
       0.19610289 0.0057224347 0.28580356 -0.13707684
0000a0 29 2f 73 3e 74 14 0b be 88 3e 18 ba 39 55 aa bd
       0.23748459 -0.13582021 -0.0005807658 -0.08317036
0000b0 7a 30 6a 3e dc 41 25 3e 22 fd 54 be c1 40 01 bd
       0.22870055 0.16138405 -0.20799688 -0.031555895
0000c0 5c ef 47 bd 2f 13 9f 3b 9e 9d 05 bd 6a f0 03 3d
       -0.048812255 0.004854582 -0.03262102 0.0322117
0000d0 e4 de 08 3e 98 2f 61 3e d4 b3 36 3d 96 8e 0a be
       0.13366276 0.21990812 0.04460509 -0.13530955
0000e0 24 47 9a 3d 5f 6b ed bc d9 f4 95 bd 7e 0c 84 3e
       0.075331 -0.028981863 -0.073220916 0.2579078
0000f0 ec c7 4b 3e 61 1c e9 3c 36 c8 8e 3e 9d 29 c5 3c
       0.19900483 0.028455915 0.27887124 0.024067694
000100 26 15 6a 3e cb 80 aa bd 5c 47 81 3e 1f 49 54 be
       0.2285963 -0.083253466 0.25249755 -0.20731018
000110 96 43 cb bd c7 b5 16 3e 67 d9 bd bb cb ef 8f be
       -0.09925 0.1471778 -0.0057937386 -0.28112635
000120 18 5e 5e 3d d2 7b a6 bd a1 24 6f 3c 7a cd 69 3e
       0.054288954 -0.081290856 0.014596135 0.2283229
000130 4a 1c 4a 3e 67 11 93 3d 39 18 47 3d 41 85 6d be
       0.19737354 0.071810536 0.048607085 -0.23195364
000140 3a 81 b2 3d f0 1e de 3c fe 9f 13 3e 31 ee f3 3d
       0.08716054 0.027114362 0.14416501 0.11910666
000150 16 ba 4f 3e ff 82 ba bc 90 1e f3 3d 10 ca 22 be
       0.2028583 -0.022767542 0.11871064 -0.15897393
000160 2e bf 73 bd 2a 98 5c 3d 00 fc 19 3e 36 d0 43 3d
       -0.059508495 0.053856052 0.15037537 0.047805987
000170 85 b1 17 3e 69 50 0d be 6d 53 ed 3c 62 55 ef bd
       0.14813812 -0.13800205 0.028970445 -0.11686207
000180 61 06 a3 bd 4e 0d 8f bd d5 02 f5 3d 0c 5f 7b 3e
       -0.07960201 -0.069849595 0.11963431 0.24547976
000190 4b 06 17 3e 87 45 86 bc a7 48 37 ba f5 b5 b0 3b
       0.14748494 -0.016390575 -0.0006991722 0.0053927847
0001a0 ef bb 67 3e f8 14 25 bd c2 ae 0a be dd e6 15 3e
       0.22630285 -0.0403032 -0.13543227 0.14638849
0001b0 38 c0 ad bd c3 90 d6 bc cb d6 4f 3e be 7a 0e 3e
       -0.084839284 -0.026192075 0.20296781 0.1391401
0001c0 4e 3a 80 3e 2c 44 14 3e 57 06 e3 bd c9 a8 79 bd
       0.25044483 0.1447913 -0.110851936 -0.06095198
0001d0 9e 68 0d 3e 0e a2 cc 3b 7f c0 27 be c1 18 fa 3d
       0.1380944 0.0062449044 -0.16382025 0.12211753
0001e0 b8 9c df bd 3c 50 38 be 8a 67 2c be 28 a7 ec bd
       -0.109185636 -0.17999357 -0.16836372 -0.1155532
0001f0 a3 7b db 3a de f0 01 3e 09 37 33 bc 18 ae 14 be
       0.0016745221 0.1268954 -0.010938414 -0.14519536
000200 00 5b 1b 3e 9b f6 7e bb 54 f3 ba bd 56 c2 8a bc
       0.15171432 -0.0038904313 -0.091284424 -0.01693837
000210 9b 3d ad 3d ee 26 51 bc 82 a2 a3 3d cb a8 89 3d
       0.08459016 -0.012765629 0.0798998 0.06721648
000220 d1 f2 13 be c3 dd 44 3e 3c ea 22 3e df aa 5f 3b
       -0.14448096 0.1922522 0.15909666 0.0034128947
000230 96 f9 09 3e e3 9e 90 bd 49 ad 0f bd f0 b4 bb 3d
       0.13474116 -0.07061555 -0.035077367 0.091653705
000240 9e 9e 3d be 18 dd c0 bd 40 50 4a be 05 b5 39 3d
       -0.18517539 -0.0941717 -0.19757175 0.04533865
000250 c7 9f 40 bd 4c 58 ec bc 28 8f d6 bd cc 83 d9 3d
       -0.047027376 -0.028850697 -0.10476524 0.106208414
000260 4e d8 ee 3d d6 18 7f be 9e 6f d0 bd d6 42 61 3d
       0.116623506 -0.24911818 -0.10177539 0.05499538
000270 ad c4 0a 3e 6d 6d a3 3d 5e b7 86 3e fe 17 ce bd
       0.13551588 0.07979856 0.26311773 -0.1006317
000280 e9 53 7e 3e 53 c2 b4 3d ea 2d a7 bd 67 64 62 be
       0.24836697 0.08826127 -0.08163054 -0.22108613
000290 8a ba b6 bd 45 07 12 3d ef 21 d0 bd a1 29 83 be
       -0.08922298 0.035651464 -0.10162722 -0.25617698
0002a0 98 68 d5 bd 3b d9 9f 3d 56 b3 9c bd 8e 9b d4 bd
       -0.1042034 0.07805105 -0.07651393 -0.10381232
0002b0 dc 0f b8 bd 9f e7 ff 3d b6 16 ab bb 88 19 14 be
       -0.089874 0.1249535 -0.005221213 -0.14462864
0002c0 9b 93 ed bd 01 f9 04 3d ac e9 64 bd 8d 09 e5 bd
       -0.11600419 0.03246403 -0.05588691 -0.11183462
0002d0 e5 c5 7d 3e 65 99 01 3d 31 4c 22 3d 97 79 9e 3d
       0.24782522 0.03164043 0.039623443 0.07738035
0002e0 ab 6f 61 3e b8 ba 6a be f9 f1 11 3a 17 c8 00 be
       0.22015254 -0.2292279 0.0005567368 -0.12576328
0002f0 74 a3 0d be 73 ff 5f 3e 3a 8d 7d be 5b 38 0e be
       -0.13831884 0.2187479 -0.24760905 -0.13888685
000300 75 77 78 3d c9 18 07 3e 15 a3 e4 bd 14 de 6b 3e
       0.060660798 0.13193049 -0.11163918 0.23033935
000310 ab 36 1b 3d f0 ee 05 be d9 93 7e be e9 80 16 be
       0.037893932 -0.13079429 -0.24861087 -0.14697613
000320 fc 6a 8c 3d 01 50 e1 3d d3 a1 32 bd a6 7f f6 3c
       0.06856343 0.11001588 -0.04361136 0.030090164
000330 7e 9c 5c 3e 43 a8 cf bd a2 8e 23 3e 7a 8e ec 3c
       0.21544072 -0.10139515 0.15972379 0.028876532
000340 16 2b b9 bc ba f5 3b be e4 dc 8e 3e 4e a5 2a be
       -0.022603553 -0.18355456 0.279029 -0.16664621
000350 c1 ec b9 3d db 0e e9 3d 5d 08 a4 bc 70 fc a1 bd
       0.0907836 0.113797866 -0.02002352 -0.07909477
000360 18 62 ab bd 8c af 0b be 43 9a c2 3c 05 0a c9 3b
       -0.08368319 -0.13641185 0.023755198 0.0061352276
000370 29 a3 f9 3d 17 72 17 3e 0b 4e 3a ba 60 d5 1f be
       0.121893235 0.14789616 -0.0007106966 -0.1560874
000380 ac 7f bb bd fa cf ef bd b1 f7 eb 3d e6 3b ce 3d
       -0.09155211 -0.1170959 0.11521853 0.100700185
000390 fb 31 85 3e b1 58 a8 3d 0f 50 ce bb d4 93 48 3e
       0.26014695 0.082200415 -0.006296165 0.19587642
0003a0 94 80 61 bd 70 a9 f3 bd 06 6a 44 3e 8f 93 54 be
       -0.055054262 -0.11897552 0.1918107 -0.20759414
0003b0 83 a0 97 3c 0a 2a f9 bd 84 9e 00 3d ac a3 a1 3d
       0.018509155 -0.121662214 0.031401172 0.07892546
0003c0 e5 b5 eb 3d 9a 8b 0e be 54 43 67 be 55 67 38 3e
       0.11509303 -0.13920441 -0.22584277 0.18008168
0003d0 30 08 8c bd 6a c6 bd 3b 4e e1 70 be fc 0d a1 3d
       -0.06837499 0.005791475 -0.23523447 0.078639954
0003e0 dc 6f 5d 3d e1 7a 27 bd 6f e7 b1 3d 9c 19 c9 3d
       0.054061756 -0.04088867 0.086867206 0.09819338
0003f0 a9 27 13 bc 90 95 08 3e d1 ab d8 bd 31 ad 45 3d
       -0.008981624 0.13338304 -0.105796464 0.04826087

gru2.weight_hh_l0 f4 [72, 24]
000000 3c ca 2a be 72 a4 b8 bd a4 75 ad bd 4c 36 13 be
       -0.16678709 -0.090157405 -0.08469704 -0.14376181
000010 39 7b f5 bd 36 09 e7 3d f0 c6 7b 3d 60 14 f3 3d
       -0.119863935 0.11281054 0.06146902 0.118691206
000020 12 3c a1 bc 80 e8 30 3e 79 4b c8 3d b6 ab a3 3d
       -0.019681964 0.17276192 0.0978002 0.07991736
000030 7b c2 87 be 7b 32 40 be 7f d5 6c 3d 99 c9 03 3e
       -0.26515564 -0.18769257 0.057820793 0.12869872
000040 4f 66 a0 3d b8 90 81 3c b2 39 46 be 45 9f 34 be
       0.07832014 0.015816078 -0.19357947 -0.17638882
000050 85 9a 26 bd 6b c7 c6 bc bd 0f 37 bc 4c f1 07 3e
       -0.040674705 -0.024265012 -0.011173186 0.13275641
000060 d6 75 d0 bd 5b 0b 92 3d 49 45 9b 3b 32 3b 44 be
       -0.101787254 0.07131072 0.004738484 -0.19163206
000070 0b 26 32 bd d0 5c 93 3d 03 ad 09 3c 29 0e e7 3d
       -0.04349331 0.07195437 0.008403066 0.11281998
000080 28 cb 02 3b 9a 2f 86 3e cd 72 25 3e 8e 0f bf 3d
       0.0019957516 0.26208192 0.16157074 0.09329139
000090 16 ae 04 bc 0c 50 05 be fe 4e cb 3d 24 41 ac bd
       -0.008098146 -0.13018817 0.09927176 -0.08410862
0000a0 4a 4e 63 be c0 53 66 3c 82 4f 8f 3d a8 22 0a bd
       -0.22197834 0.0140580535 0.06997587 -0.033724457
0000b0 db 47 b5 bc ab b2 54 bd 1b 7a f0 3d 16 2d 88 bd
       -0.02212899 -0.051928204 0.1174204 -0.066492245
0000c0 3a e3 d6 bd b0 38 0d be d8 46 65 3b 3e ab 58 be
       -0.10492559 -0.13791156 0.0034984853 -0.21159074
0000d0 fe ee d4 bd 01 fd 8a 3d 8e 53 33 be 63 8f 02 be
       -0.10397147 0.06786538 -0.17512342 -0.1275001
0000e0 05 91 70 3c 96 93 f3 3c 47 22 a4 bd 66 14 bc 3d
       0.014683013 0.02973346 -0.080143504 0.09183578
0000f0 11 9d 4c be 3a cc 23 3b 49 a5 ca bd f3 05 b2 bd
       -0.19981791 0.0024993555 -0.09894807 -0.08692541
000100 0d 35 d2 bd 88 74 ce bd bc 6d 8a bd 73 c8 70 be
       -0.10264025 -0.1008082 -0.067592114 -0.23513965
000110 ce dd d8 3b 73 0e 4d 3d f4 b0 88 3d dc ac fa 3d
       0.006618238 0.050062608 0.06674376 0.122400016
000120 ff ca 16 be 94 73 40 3c 57 7c 16 be f5 10 10 3e
       -0.14725874 0.011746306 -0.1469587 0.14068969
000130 66 06 86 bd a4 47 50 3e 7f 3b df 3d c6 07 59 be
       -0.06544189 0.20339829 0.1090002 -0.21194372
000140 60 9a 49 bd 06 2e 9a 3d 0c 47 0c be db 8d 07 bc
       -0.04921949 0.075283095 -0.13698977 -0.008273567
000150 a2 1e b2 bd b4 b8 88 be 53 66 2d 3d 89 a4 47 be
       -0.08697249 -0.26703417 0.042333912 -0.19496359
000160 ce 2e 70 bd 44 90 56 3e be 89 13 3e 3b 61 77 be
       -0.058638386 0.2095347 0.14408013 -0.24158184
000170 d9 ff bf 3c 93 be 55 be 59 d1 21 3e a0 28 28 3e
       0.023437427 -0.2087348 0.15802516 0.16421747
000180 2e c4 81 be 26 b9 68 be 10 8e f8 bd 87 52 c7 bd
       -0.25344986 -0.22726879 -0.12136471 -0.09732538
000190 78 ae cc 3a 05 c0 bf bd 07 d6 d3 bd a7 cc 06 be
       0.0015615961 -0.09362797 -0.10343557 -0.13164006
0001a0 29 00 83 3e e2 7b 08 be 6a 7b 1d bd a2 0d 91 bd
       0.2558606 -0.13328508 -0.038447775 -0.070826784
0001b0 6c a5 71 be 0d 5f 96 3d a5 d8 c8 bd eb f4 04 be
       -0.2359826 0.07342348 -0.09806947 -0.12984054
0001c0 fc e1 2d be 27 0b 8d 3d 1b 6d 27 be c1 ff 9b 3d
       -0.16980737 0.06886893 -0.16350214 0.076171406
0001d0 d5 df 74 be ac fa 35 be 7a e5 41 3b a8 bd fb bd
       -0.2391351 -0.17771405 0.0029586242 -0.122920334
0001e0 18 e9 4c be cc 38 95 3d 1d 8d 3c 3e 60 bd db bc
       -0.20010793 0.07286224 0.18413205 -0.0268237
0001f0 37 8c 8b bd 76 96 6b 3e da 7b e5 3d 81 6d 32 be
       -0.06813853 0.23006615 0.112052634 -0.17424585
000200 ea 72 ca bd 72 c5 24 3e 36 88 ac 3d d5 ad 3c be
       -0.09885199 0.16090944 0.08424418 -0.18425687
000210 3f da 74 3b 6a ee 2d be 8a 3e 0a be a4 22 ba bd
       0.003736153 -0.16985479 -0.1350042 -0.090886384
000220 32 26 43 3e 14 b8 fc bd ea f8 18 3e e1 f3 30 be
       0.19057539 -0.123397976 0.14938703 -0.17280532
000230 0f da 3c bb 57 59 4a 3e f5 5d 29 bd 3a 88 aa bd
       -0.0028816496 0.19760643 -0.04134937 -0.083267644
000240 c6 ee 09 be 12 34 54 be 97 b0 f8 3d 84 23 4e be
       -0.13469991 -0.20722988 0.12143057 -0.20130736
000250 ea 25 3b be ea 14 99 3e cd 2e b5 3d f8 35 28 be
       -0.18276182 0.2989877 0.08846817 -0.16426837
000260 3f 4b 89 3d a0 c3 22 bc de 44 56 3e ee a8 6f be
       0.06703805 -0.009934336 0.20924708 -0.23404285
000270 43 de 7c be 27 83 a0 3c ff 2e b5 3d 71 69 f2 bd
       -0.24694161 0.019593788 0.088468544 -0.118365176
000280 76 87 2e 3d b0 27 18 3e bb a5 4c be 55 c7 89 3d
       0.042609654 0.1485889 -0.19985096 0.06727473
000290 32 37 8b 3d 4f 01 9f bd bb 46 c0 bd 2d 7f 0d 3e
       0.06797637 -0.077639215 -0.09388491 0.13818045
0002a0 d6 a3 94 3d 13 64 89 be 91 14 02 be c4 10 b4 bd
       0.07257812 -0.26834163 -0.12703158 -0.0879226
0002b0 97 8a 75 be cf f3 90 bd 22 bf b8 3d 5f 17 b0 bc
       -0.23978649 -0.07077753 0.09020831 -0.02149552
0002c0 f4 d6 4b 3e 4f 18 cb 3d cc 89 84 3e 04 4f a6 3c
       0.19906217 0.09916746 0.2588638 0.02030135
0002d0 04 48 cf 3a 92 b8 81 3d fa 7a 2a bc 9f a2 e6 3d
       0.0015814309 0.06334032 -0.010405296 0.11261486
0002e0 6a 0b 56 bd 89 ed 88 3e 6b 14 40 be 1a aa 44 be
       -0.05225698 0.26743725 -0.18757789 -0.19205514
0002f0 e5 83 b2 3d fb 0d 31 be 00 b7 11 3e 5b f5 7c 3e
       0.08716563 -0.1729049 0.14229965 0.2470297
000300 99 75 a2 bc 5a ce 5b be 68 9b 85 bd 0a 85 33 be
       -0.019831466 -0.21465436 -0.06523782 -0.17531219
000310 99 82 4c be ef 41 29 3e f3 98 59 bd 88 70 a1 bd
       -0.19971694 0.16529058 -0.05312438 -0.07882792
000320 f6 e0 fd 3d 24 ec 2f 3e 4f b3 b0 3d c7 6d 95 3d
       0.123964235 0.17179924 0.086279504 0.07296329
000330 e2 f7 d5 bd 50 37 2f bc a9 1e 03 3e 41 b7 6e bd
       -0.104476705 -0.01069434 0.12804665 -0.058280233
000340 5c 36 8c 3d d4 16 86 3e 8a f9 ce 3d 76 81 e6 bd
       0.06846306 0.2618929 0.101061895 -0.112551615
000350 4a 83 f8 bd 23 74 df 3d 9f a1 13 ba cd b6 ae 3d
       -0.121344164 0.10910823 -0.00056316884 0.0853096
000360 d3 a2 2d be 21 82 06 be f1 5a 9b bb 0e c5 61 3d
       -0.16956644 -0.13135578 -0.0047410657 0.055119567
000370 ff ee 23 be bf 18 0d bd b7 48 04 3b ff 15 a8 bd
       -0.16009139 -0.034447428 0.0020184943 -0.082073204
000380 81 61 da 3d 47 f6 c4 bd ec 68 cf bc 78 90 ce 3c
       0.10663129 -0.09617286 -0.025318585 0.025215372
000390 2b 66 d2 3c a5 7f 8c be 41 50 90 bd 28 d7 6c bc
       0.025683483 -0.27441135 -0.07046557 -0.014455594
0003a0 43 30 75 be 8e 02 9d bc 1f f7 45 be 3a 22 61 be
       -0.23944192 -0.019166257 -0.1933255 -0.21985713
0003b0 9d 3c 2a be c8 05 a0 3d 05 47 be bd 82 20 4d 3e
       -0.16624685 0.07813603 -0.0929089 0.20031932
0003c0 56 71 81 be 04 31 0d be 8f ef 64 3b d2 f3 2b 3d
       -0.2528178 -0.13788229 0.0034932827 0.041980572
0003d0 94 52 7f be af af 19 bd c2 3d 9e be 36 be 03 be
       -0.24933845 -0.03752106 -0.30906492 -0.12865528
0003e0 67 38 22 3e c2 2a 85 3e 5e d3 83 3e 63 75 07 be
       0.15841828 0.26009184 0.25747198 -0.13228373
0003f0 e6 78 40 be d8 8b 29 bd 22 5f 67 3e 05 fc d7 3d
       -0.18796119 -0.04139313 0.22594884 0.10546116

gru2.bias_ih_l0 f4 [72]
000000 63 e7 8e 3d b1 8b 0a 3e 89 bc 31 3e 06 b9 59 bd
       0.06977727 0.1352985 0.17357077 -0.053154968
000010 05 37 b8 bc e6 27 a1 3d 12 42 b9 bc 74 54 d1 3d
       -0.022487173 0.07868938 -0.022614513 0.10221186
000020 62 84 01 3e 22 93 31 3c c6 7c f2 3b fa e6 5a 3e
       0.12648156 0.010838302 0.007400128 0.21377173
000030 2c a9 1a 3e f2 80 d4 bd 13 29 ef bd 12 6e 64 bd
       0.15103596 -0.10376157 -0.11677756 -0.055769034
000040 39 f2 7e bd f5 f4 4d 3e d8 d3 2e 3e eb 9f f1 3d
       -0.06224272 0.20112975 0.17073 0.1179808
000050 bb b6 68 3e 84 59 23 3e 47 c0 56 3e 81 c2 02 3d
       0.22725956 0.15952116 0.20971785 0.031923775
000060 e4 5b 4f bd c7 3a 12 be 2e 36 72 bd de 9f 24 be
       -0.050624743 -0.14280234 -0.0591337 -0.1607661
000070 7f bd 14 bd e0 5f 9b be a9 4b e3 bd 47 0d 8e be
       -0.03631353 -0.30346584 -0.110984154 -0.27744505
000080 bd 74 21 be 88 32 38 be 1f b4 08 be 16 f7 38 3d
       -0.15767188 -0.17988026 -0.1334996 0.045157515
000090 fe 9f ae be 7b 83 ab be 46 5a 16 be 24 9f 7f bd
       -0.3410644 -0.3349875 -0.14682874 -0.062407628
0000a0 6f bc 93 bd 52 90 b6 be d7 37 5f bc ce 09 5b be
       -0.07213675 -0.35656983 -0.013624153 -0.21390459
0000b0 8c d3 89 be dc b2 a4 3a 94 ff 7a be 10 fc 15 be
       -0.2691921 0.0012565511 -0.24511558 -0.14646935
0000c0 a9 b9 22 be 89 46 46 ba 54 9f 7b 3e de 98 3b be
       -0.15891136 -0.0007563611 0.24572498 -0.18320033
0000d0 b3 75 47 be f9 1b 2c 3e 07 f3 14 be 77 8e 31 3d
       -0.19478492 0.16807546 -0.14545833 0.043348756
0000e0 01 c3 3e 3e 2a a8 47 3e 5e e7 af 3d 11 d9 0e 3e
       0.18629076 0.19497743 0.08589052 0.13949992
0000f0 9e df d5 bd 48 d5 20 3d 96 45 25 bc 70 93 2f be
       -0.10443042 0.0392659 -0.010087391 -0.17146087
000100 6c df 08 3c bf b5 33 3e ca 8f 2d 3d 41 ad a0 3d
       0.008354049 0.175498 0.042373456 0.078455456
000110 bf ba 40 bd e2 ce 28 3d 67 0e 6c 3e b6 8d b0 bd
       -0.047053095 0.041212924 0.23052369 -0.08620779

gru2.bias_hh_l0 f4 [72]
000000 90 4d c3 3c e6 08 3d 3e a4 ef ac 3a 46 2b 50 3e
       0.023840696 0.18460426 0.0013193977 0.20329008
000010 ca bf 0d 3e 1a cc cd bd 76 85 40 3e d1 8f 10 bd
       0.13842693 -0.10048695 0.18800911 -0.035293404
000020 04 c1 2e 3e b0 1f 4f 3e 29 11 44 3e eb 4e 3f 3e
       0.17065817 0.20226932 0.19147171 0.18682449
000030 f2 44 b3 3d 36 00 a2 bd 7c 4c 70 3e 0c 25 2e bb
       0.08753385 -0.079101965 0.23466676 -0.0026572375
000040 61 42 a4 bc f6 19 ed 3b e7 3d cc bd f0 37 9d 3d
       -0.020051183 0.007235761 -0.099727444 0.07676685
000050 37 3c 0c be 58 26 ce 3d d9 35 1c be a2 eb 98 bd
       -0.13694845 0.10065907 -0.15254916 -0.074668184
000060 40 48 b4 bd 8d c5 77 be 96 51 af bc e2 ce d2 3d
       -0.08802843 -0.24196453 -0.021401208 0.10293366
000070 b7 6b 41 be c4 53 04 be 35 13 8a be d9 53 67 be
       -0.18888746 -0.12922579 -0.2696778 -0.22590579
000080 4f 0c c9 bd a8 09 85 be b7 8a 60 3d 2e 02 46 bd
       -0.09816801 -0.2598393 0.05481979 -0.048341922
000090 06 0e af bc 0d 89 d0 3c f0 0e 16 be db 07 83 3d
       -0.021368992 0.025455976 -0.14654136 0.06397983
0000a0 7b b7 bc 3c b5 aa 35 bd 7d 9e 1a bd a0 77 75 be
       0.023036709 -0.044352252 -0.037748802 -0.23971415
0000b0 0f b8 34 bd f9 09 4e be 33 66 71 3d b3 0f 77 be
       -0.044120844 -0.20120992 0.058935355 -0.24127083
0000c0 d9 0a 4f be 09 a1 ba bc f4 8b 83 bd 62 48 e5 3d
       -0.20218982 -0.022781866 -0.06423178 0.111954466
0000d0 3b e8 0c 3e 49 a6 b2 bd 3b 90 82 bd b8 dc 89 bd
       0.13760464 -0.087231226 -0.06375166 -0.06731552
0000e0 ac d3 f4 bd 53 dd de bd 76 ba 86 3e 9c 83 c6 3d
       -0.11954436 -0.10882058 0.26314133 0.09693071
0000f0 60 a1 08 be 79 13 ed bc 20 a3 ba 3c ea 91 69 bc
       -0.1334281 -0.02893995 0.022782862 -0.01425598
000100 2c 89 a9 bd ad 4b 17 3e 07 85 2c be 79 e9 0c 3e
       -0.082781166 0.14774962 -0.16847621 0.13760938
000110 0f 26 be bd f9 e2 21 3e c3 80 ca bc 96 56 d1 3c
       -0.09284603 0.1580924 -0.024719601 0.025553983
