models/GRU_NoiseEst/training_checkpoints/tiny_noise_gru_epoch_050_mse_3.072414.pth (torch, 35749 bytes, 10 tensors)

pre.weight f4 [48, 12, 3]
-0.009385075 0.06497488 -0.17067392 -0.11924331 -0.082974896 0.018168395 0.078165635 0.17428344
-0.02917469 0.11294982 -0.01104878 -0.039625727 -0.10102429 -0.077567734 -0.06940036 0.05644366
0.09793726 0.10910249 -0.054767434 -0.020266943 0.0778497 0.19982912 0.02086104 0.13843714
0.03098512 0.072558306 0.16956879 -0.094367884 -0.042955276 -0.017707761 0.0076134084 0.22055061
-0.06952072 -0.0044755335 -0.04902042 -0.12574387 -0.19818726 0.055991817 0.10987725 -0.052129224
-0.113660686 -0.10115009 -0.018534686 -0.17824544 -0.082056515 -0.05948831 0.15444537 0.1804485
-0.13184907 -0.032771513 0.09590489 0.0835446 0.0011496171 -0.045869377 0.06978566 -0.13219711
-0.013958086 -0.12674473 -0.09887365 -0.059595883 0.08393843 0.08136236 -0.07653436 0.05247601
0.08982406 -0.023765305 0.04904036 0.068715736 0.107903816 0.25782055 -0.03640845 0.01569954
0.25316185 0.24174796 0.30823854 0.31338674 0.11619064 0.0028349222 0.013625186 -0.09854499
-0.056175917 0.14367317 0.13027601 -0.08467206 0.014962044 -0.03687457 0.026438756 -0.10841993
0.027135614 -0.09606556 0.010787401 0.015936632 0.10851052 0.026947485 -0.21524334 -0.05647981
0.08763789 0.007850164 -0.07663358 -0.08215412 0.120495595 0.14752404 -0.07380689 -0.09485341
-0.14987244 -0.017875047 -0.17348023 -0.0975133 0.19258192 0.12741257 0.030997088 0.28180552
-0.012825181 0.24252681 0.12623842 -0.13392147 -0.019504864 0.028997902 0.04165367 0.05094682
0.080242895 0.023111073 -0.0940719 0.07601132 -0.17408143 -0.16756482 -0.06608891 -0.13296968
-0.14655945 -0.14485002 -0.07383476 0.00566886 -0.078091405 -0.03009247 0.08761682 0.015809191
-0.032352112 -0.06717706 0.0436713 0.042883284 0.06722908 0.099880174 0.09918155 -0.07832951
-0.05739196 -0.014517591 0.1709815 0.08435126 -0.019206269 -0.0679196 -0.1496483 -0.14214621
-0.035132788 0.105246454 0.08783409 -0.17086759 0.13650657 -0.116888314 -0.04813088 -0.023224577
-0.004363115 -0.05170594 -0.11964551 -0.13405536 -0.05886341 0.021134974 -0.08596858 0.047244746
-0.12993382 -0.02784458 0.1280423 -0.04593178 0.13024193 0.03577648 -0.13964358 0.079313695
-0.069683105 -0.07010319 0.10266297 -0.17850828 0.19362053 0.07515936 0.23094913 0.2167714
0.18882196 0.16986053 -0.022819452 -0.02034025 -0.087356366 0.095298454 0.13291785 0.14266819
-0.10237481 0.017498916 -0.09275696 -0.07495171 -0.09099672 0.051756304 -0.11147712 -0.036318537
-0.022862436 0.093572594 -0.15812473 -0.10117713 -0.08812296 0.092187256 -0.058753725 0.1507611
0.021554707 -0.0009122621 -0.016515566 -0.100271896 -0.03424681 -0.06940188 -0.06926668 -0.016747963
-0.1878301 -0.07796824 0.05714877 -0.19731018 -0.007518461 0.077296466 0.06422642 0.05242637
-0.14183275 0.0951746 -0.056344423 -0.02747452 -0.059934333 0.02449313 0.0076980013 0.11559689
0.053755477 0.13541484 0.09336652 -0.05970578 0.06756421 -0.11292395 -0.01355276 0.054041572
0.058144677 0.18313934 -0.046703633 0.0029030088 0.14248641 -0.15479776 0.13788384 -0.0657438
0.016481504 0.0014293852 -0.0055267354 0.04814297 0.31540355 0.10039786 0.03209657 0.0892013
00000000: dcc3 19bc 8d11 853d 25c5 2ebe d635 f4bd
00000010: beee a9bd e3d5 943c 4e15 a03d 5c77 323e
00000020: c2ff eebc 3c52 e73d f105 35bc 964e 22bd
00000030: d3e5 cebd d5db 9ebd c721 8ebd 7831 673d
00000040: 5593 c83d 2071 df3d d153 60bd dc06 a6bc
00000050: aa6f 9f3d 01a0 4c3e c6e4 aa3c 77c2 0d3e
00000060: 82d4 fd3c 7399 943d 71a3 2d3e f343 c1bd
00000070: dff1 2fbd de0f 91bc e679 f93b 05d8 613e
00000080: e160 8ebd 7fa7 92bb a3c9 48bd 00c3 00be
00000090: 9af1 4abe ad57 653d 5307 e13d 7485 55bd
000000a0: efc6 e8bd c727 cfbd 0ed6 97bc f985 36be
000000b0: 3f0d a8bd 04aa 73bd ed26 1e3e 7ec7 383e
000000c0: 7103 07be 6c3b 06bd c869 c43d 6e19 ab3d
000000d0: c0ae 963a 87e1 3bbd c9eb 8e3d ae5e 07be
000000e0: 75b0 64bc 5fc9 01be 457e cabd d01a 74bd
000000f0: e9e7 ab3d 4fa1 a63d 0cbe 9cbd 16f1 563d
00000100: adf5 b73d 75af c2bc 8bde 483d d6ba 8c3d
00000110: adfc dc3d 0e01 843e 0721 15bd 529c 803c
00000120: 6e9e 813e c78c 773e 71d1 9d3e 3a74 a03e
00000130: 5cf5 ed3d 1aca 393b 2c3c 5f3c f5d1 c9bd
00000140: b818 66bd 0f1f 133e 1367 053e 8c68 adbd
00000150: 5c23 753c ca09 17bd 1796 d83c 450b debd
00000160: 824b de3c 05be c4bd a4bd 303c 8a8d 823c
00000170: c33a de3d f9c0 dc3c c068 5cbe 6057 67bd
00000180: 7e7b b33d f99d 003c 11f2 9cbd 6b40 a8bd
00000190: 65c6 f63d 8b10 173e 1128 97bd 8142 c2bd
000001a0: 2978 19be b16e 92bc cda4 31be 0eb5 c7bd
000001b0: 3234 453e 7178 023e 9bed fd3c d048 903e
000001c0: b520 52bc f358 783e a544 013e b622 09be
000001d0: aac8 9fbc 028d ed3c 0a9d 2a3d 9dad 503d
000001e0: 6356 a43d 6f53 bd3c c5a8 c0bd d3ab 9b3d
000001f0: 6742 32be 1d96 2bbe 9f59 87bd 3429 08be
00000200: ae13 16be 9053 14be ae36 97bd d8c1 b93b
00000210: 63ee 9fbd 7c84 f6bc 7370 b33d 4782 813c
00000220: a683 04bd 2094 89bd ade0 323d 62a6 2f3d
00000230: 66af 893d fa8d cc3d b21f cb3d 396b a0bd
00000240: d513 6bbd 31db 6dbc c615 2f3e 5ac0 ac3d
00000250: 7756 9dbc 6e19 8bbd 673d 19be c78e 11be
00000260: 66e7 0fbd 748b d73d 5ce2 b33d eaf7 2ebe
00000270: 61c8 0b3e 2463 efbd e324 45bd 7841 bebc
00000280: 76f8 8ebb 9cc9 53bd b508 f5bd cf45 09be
00000290: c21a 71bd 4123 ad3c 4b10 b0bd b583 413d
000002a0: 5f0d 05be 511a e4bc 851d 033e f622 3cbd
000002b0: 245e 053e 5c8a 123d bafe 0ebe 386f a23d
000002c0: 04b6 8ebd 4392 8fbd f740 d23d e0ca 36be
000002d0: 7644 463e 27ed 993d ee7d 6c3e 52f9 5d3e
000002e0: 8b5a 413e ebef 2d3e dcef babc 99a0 a6bc
000002f0: e5e7 b2bd d62b c33d 9e1b 083e 9c17 123e
00000300: e2a9 d1bd e359 8f3c 5cf7 bdbd 4880 99bd
00000310: 7d5c babd 6bfe 533d 1e4e e4bd bfc2 14bd
00000320: 014a bbbc fda2 bf3d 73eb 21be f535 cfbd
00000330: cf79 b4bd accc bc3d bfa7 70bd 1e61 1a3e
00000340: 7f93 b03c e024 6fba a74b 87bc 5a5b cdbd
00000350: 6246 0cbd 9322 8ebd b0db 8dbd 0633 89bc
00000360: 8956 40be d0ad 9fbd d414 6a3d ae0b 4abe
00000370: 6c5d f6bb 9c4d 9e3d 2489 833d 09bd 563d
00000380: 9b3c 11be e7ea c23d 69c9 66bd 3f12 e1bc
00000390: b47d 75bd d1a5 c83c 843f fc3b 10be ec3d
000003a0: b42e 5c3d 30aa 0a3e f236 bf3d 0c8e 74bd
000003b0: 1b5f 8a3d ac44 e7bd 650c 5ebc b25a 5d3d
000003c0: 1d29 6e3d e188 3b3e 4f4c 3fbd 6840 3e3b
000003d0: f5e7 113e 4e83 1ebe 6c31 0d3e afa4 86bd
000003e0: 3804 873c 355a bb3a 9e19 b5bb 9031 453d
000003f0: 937c a13e 659d cd3d b177 033d 2caf b63d

pre.bias f4 [48]
0.10802793 -0.238862 -0.19522813 0.0046243705 0.10466686 0.04140515 0.07748236 -0.13072392
0.082550436 -0.18426667 0.31365052 0.29004684 -0.15978467 0.09322751 -0.07837349 0.091647014
-0.047545686 -0.13521367 -0.0010272686 -0.18816724 -0.22826314 0.08815402 -0.028492546 0.02299416
0.2643495 -0.16090119 0.058089677 -0.030461837 -0.19690531 0.008937897 0.0595244 0.3027519
-0.25926787 0.07611064 -0.18557324 -0.14745417 0.1447604 -0.0018219908 0.15771678 0.18484879
0.21796064 0.09046356 0.06517295 -0.15635005 0.11929244 0.20222734 -0.15453057 0.33039144
00000000: bf3d dd3d 3d98 74be e2e9 47be 0888 973b
00000010: 945b d63d 7298 293d 12af 9e3d 7edc 05be
00000020: 3410 a93d 67b0 3cbe cd96 a03e 0581 943e
00000030: 989e 23be 11ee be3d 4882 a0bd 6eb1 bb3d
00000040: 44bf 42bd 7475 0abe 6aa5 86ba eaae 40be
00000050: d0bd 69be 188a b43d 3369 e9bc 405e bc3c
00000060: d158 873e 48c3 24be 71ef 6d3d 1a8b f9bc
00000070: 8ca1 49be 4270 123c dbcf 733d 4c02 9b3e
00000080: c2be 84be e5df 9b3d e906 3ebe 3afe 16be
00000090: 123c 143e decf eeba 8280 213e 0049 3d3e
000000a0: 1331 5f3e f544 b93d 6579 853d 3a1a 20be
000000b0: 984f f43d af14 4f3e 433d 1ebe 1129 a93e

norm.weight f4 [48]
1.0366803 1.0588446 1.1797367 1.0836973 1.038424 1.1844296 0.99926376 1.1520835
1.1162357 0.9893598 1.1888578 1.132878 1.0383182 1.0991819 1.0945107 1.0224624
1.1969591 1.1000534 1.0594851 1.1777562 1.253246 1.3629128 1.0043591 1.1745911
1.1928984 1.1196964 1.1304686 1.2255086 1.0439963 1.0354248 1.0885489 1.2606667
1.1006087 1.1058913 1.0861025 1.0254629 1.2148253 1.1043874 1.2325528 1.0761586
1.287776 1.153446 1.201939 1.0229012 1.2117851 1.1498787 1.0029409 1.2996389
00000000: f1b1 843f 3888 873f 9d01 973f 98b6 8a3f
00000010: 14eb 843f 649b 973f c0cf 7f3f 7977 933f
00000020: d0e0 8e3f af46 7d3f 7e2c 983f 2502 913f
00000030: 9ce7 843f feb1 8c3f ed18 8c3f 0ce0 823f
00000040: f535 993f 8dce 8c3f 359d 873f b7c0 963f
00000050: 5d6a a03f ed73 ae3f d78e 803f 0059 963f
00000060: e5b0 983f 3652 8f3f 32b3 903f 77dd 9c3f
00000070: aca1 853f cd88 843f 9255 8b3f 875d a13f
00000080: bfe0 8c3f d98d 8d3f 6805 8b3f 5e42 833f
00000090: 657f 9b3f 915c 8d3f 4ac4 9d3f 91bf 893f
000000a0: d8d5 a43f 1ea4 933f 23d9 993f 6dee 823f
000000b0: c61b 9b3f 3a2f 933f 5e60 803f 915a a63f

norm.bias f4 [48]
0.0138625465 -0.09752359 -0.072371036 -0.029829284 0.05235358 0.014503907 -0.014277956 0.010442682
-0.018353635 -0.031493947 0.14314917 0.19152135 0.058516547 -0.028953815 -0.107112885 0.17512538
-0.04967922 -0.12160899 -0.060379703 -0.16819367 0.020483846 0.19954725 0.1400257 -0.16495861
0.15073043 -0.01599433 0.12890454 0.12707363 -0.08066719 0.124837145 0.17240053 0.21301702
-0.116210654 0.09515118 -0.0866613 -0.05752045 0.15700959 0.12003661 0.19754328 0.068466604
0.18679254 0.1961522 0.16054007 -0.07702022 0.16958667 0.16163255 -0.08544946 0.2428989
00000000: bc1f 633c 73ba c7bd 4437 94bd 8b5c f4bc
00000010: b570 563d cca1 6d3c 17ee 69bc c817 2b3c
00000020: 5d5a 96bc ccff 00bd b295 123e 2c1e 443e
00000030: 0caf 6f3d 8d30 edbc 005e dbbd 1154 333e
00000040: 707c 4bbd 220e f9bd b550 77bd f63a 2cbe
00000050: bdcd a73c 1d56 4c3e e662 0f3e e9ea 28be
00000060: 1459 1a3e 8b06 83bc 8dff 033e 971f 023e
00000070: d734 a5bd 9eaa ff3d c489 303e 2221 5a3e
00000080: daff edbd 9fde c23d 7b7b b1bd 909a 6bbd
00000090: 1fc7 203e c1d5 f53d c948 4a3e 3838 8c3d
000000a0: 8b46 3f3e 1fdc 483e 9e64 243e c7bc 9dbd
000000b0: 21a8 2d3e 0183 253e 2000 afbd 7dba 783e

gru.weight_ih_l0 f4 [72, 48]
-0.08527298 -0.082880154 0.18840735 0.16907509 0.18847802 0.09883067 0.017712383 0.007540061
0.105948456 -0.067918375 -0.07627327 -0.1729975 -0.08585994 0.26708513 -0.018969016 0.2482384
0.06750008 0.1184413 0.0015194662 -0.104997344 0.23011397 0.07676232 0.052778646 -0.053605422
0.22097845 -0.24097554 -0.12953243 0.15074843 -0.2542739 0.16031611 0.06838236 0.118516035
-0.304134 0.22917499 -0.34063137 -0.014092759 0.15219635 0.17016478 0.13701934 0.13681415
0.2357514 0.09095167 0.0886115 -0.38000053 0.014065643 0.06410135 -0.09062003 -0.004282192
-0.16954769 0.001258442 0.4024895 0.32004276 -0.22990978 0.4117531 -0.16762333 -0.014022389
-0.17047057 0.01824772 -0.03720663 -0.2581088 0.12829474 0.2618945 0.027604748 0.23592001
-0.119020864 -0.09160634 0.023591911 0.032224 -0.055979416 -0.17843129 0.08507016 0.06816369
0.2089615 -0.19386238 0.037548564 -0.18971874 -0.09914722 -0.037300356 0.12960355 0.1217374
0.0874054 0.08826091 -0.13610287 0.048724227 -0.096972056 0.20369413 0.23838213 0.16118757
-0.04990044 -0.09552975 0.0031627468 -0.1573043 0.11134082 0.115718514 0.079841875 -0.013900353
-0.089498185 0.06388551 0.1402821 -0.060420193 0.015466798 -0.12713179 -0.096145414 -0.06627316
0.11335716 -0.16939488 -0.089044884 -0.16709077 0.07798698 -0.1403615 -0.07781582 -0.13463159
-0.2308499 -0.12112316 0.02317607 0.17809157 0.23178938 -0.011461633 -0.16968091 -0.07511421
0.000832051 -0.107228905 0.14589755 0.20708835 0.111770086 0.16251245 0.03809552 0.053881656
0.014803403 -0.015791208 -0.07725979 -0.022033885 -0.14345427 0.21049961 0.032029256 -0.1707996
0.23226324 0.04483031 0.27361974 0.21521613 0.1415514 0.12757145 0.021604065 0.20861751
-0.09216567 -0.12282709 0.056711007 0.17008978 0.032743912 0.16231748 -0.011341739 0.08539171
-0.026279477 0.009455195 -0.17338528 -0.16879885 0.050935272 0.09837557 0.07527241 0.036645815
0.03657441 0.050600983 -0.18998682 -0.20173347 -0.13341269 0.0071154237 -0.13423885 -0.09232712
0.042476006 -0.010984727 0.111833304 0.3535936 0.1681657 -0.034195587 0.17883085 0.10528071
0.14389169 -0.0118403 -0.21433946 -0.12781231 0.21129885 0.057500843 -0.018489754 0.14818422
0.2976887 0.08372226 0.005188121 0.10948125 0.022716673 -0.04656186 -0.25043562 -0.036689676
-0.13037276 -0.1291327 -0.100138746 0.011318193 0.09929708 -0.07003488 -0.036941744 -0.00838102
0.061376084 0.16642694 -0.07385004 -0.10079447 -0.07809638 -0.054392524 -0.017034823 0.09760595
-0.004256543 -0.072447315 0.0628574 -0.2232161 0.1651813 0.19009037 -0.12779249 -0.14888455
0.14548647 -0.047047712 -0.11593469 0.1708279 -0.051234234 0.01737469 -0.0014479357 0.22126494
0.07705508 0.05853804 0.0129313655 0.083491795 0.17302287 0.0005576649 0.04314229 0.08583229
-0.027713388 0.25751898 -0.08306834 0.026144966 -0.079650536 0.1110342 0.09573386 0.07487561
-0.020408105 0.06721385 -0.12228611 -0.091434024 -0.113492586 -0.06818149 -0.054735035 -0.034221884
-0.0068628164 -0.039577004 0.20343727 -0.03691068 -0.005553915 0.18590245 -0.112376325 0.2518088
00000000: 9aa3 aebd 12bd a9bd dbed 403e 0522 2d3e
00000010: 6200 413e bc67 ca3d 8f19 913c 9e12 f73b
00000020: 81fb d83d ca18 8bbd 2935 9cbd 4226 31be
00000030: 56d7 afbd 62bf 883e e964 9bbc 3532 7e3e
00000040: 7b3d 8a3d 5a91 f23d d328 c73a d908 d7bd
00000050: ffa2 6b3e 9035 9d3d 6c2e 583d 5c91 5bbd
00000060: 2d48 623e 4bc2 76be 26a4 04be cc5d 1a3e
00000070: 3030 82be e829 243e 0d0c 8c3d 89b8 f23d
00000080: 74b7 9bbe d9ac 6a3e 3c67 aebe 51e5 66bc
00000090: 5cd9 1b3e ad3f 2e3e cc4e 0c3e 0219 0c3e
000000a0: d168 713e df44 ba3d f279 b53d 6e8f c2be
000000b0: 9573 663c 9247 833d ff96 b9bd a151 8cbb
000000c0: e99d 2dbe 4ef2 a43a 1b13 ce3e a5dc a33e
000000d0: 786d 6bbe 4dd1 d23e 73a5 2bbe 2abe 65bc
000000e0: d68f 2ebe 3e7c 953c fb65 18bd d626 84be
000000f0: b25f 033e 0917 863e 5a23 e23c 0495 713e
00000100: 36c1 f3bd 1b9c bbbd d343 c13c 50fd 033d
00000110: ac4a 65bd b1b6 36be 4439 ae3d 6899 8b3d
00000120: 01fa 553e dc83 46be 86cc 193d a145 42be
00000130: b30d cbbd 42c8 18bd cbb6 043e 7551 f93d
00000140: 9a01 b33d 23c2 b43d 8d5e 0bbe 0e93 473d
00000150: 4999 c6bd 3295 503e 721a 743e 5b0e 253e
00000160: 6764 4cbd 1aa5 c3bd 1646 4f3b 6114 21be
00000170: a806 e43d d4fd ec3d 2384 a33d 4ebe 63bc
00000180: d34a b7bd 68d6 823d 1ca6 0f3e 2a7b 77bd
00000190: 7468 7d3c d62e 02be e3e7 c4bd 39ba 87bd
000001a0: cc27 e83d da75 2dbe 2a5d b6bd d819 2bbe
000001b0: a3b7 9f3d edba 0fbe e75d 9fbd dddc 09be
000001c0: eb63 6cbe 6b0f f8bd bedb bd3c a35d 363e
000001d0: 325a 6d3e 93c9 3bbc d5c0 2dbe 7bd5 99bd
000001e0: ff1d 5a3a d49a dbbd 2b66 153e f80e 543e
000001f0: b7e7 e43d aa69 263e 0c0a 1c3d 03b3 5c3d
00000200: f989 723c 905c 81bc 613a 9ebd 6880 b4bc
00000210: ade5 12be 368d 573e 1c31 033d 17e6 2ebe
00000220: 6ad6 6d3e fd9f 373d e317 8c3e 9e61 5c3e
00000230: daf2 103e 17a2 023e 02fb b03c d49f 553e
00000240: 5bc1 bcbd c58c fbbd cd49 683d 042c 2e3e
00000250: 7b1e 063d 8e36 263e b4d2 39bc d9e1 ae3d
00000260: 0f48 d7bc f6e9 1a3c e98b 31be 9bd9 2cbe
00000270: 81a1 503d 2179 c93d 6c28 9a3d ec19 163d
00000280: 0ccf 153d fa42 4f3d e88b 42be 3893 4ebe
00000290: 569d 08be 8028 e93b e975 09be 0016 bdbd
000002a0: 52fb 2d3d 49f9 33bc dc08 e53d 380a b53e
000002b0: a133 2c3e ac10 0cbd 6f1f 373e 6a9d d73d
000002c0: 5858 133e d1fd 41bc ce7b 5bbe 3be1 02be
000002d0: ba5e 583e 0186 6b3d d377 97bc 9bbd 173e
000002e0: a76a 983e 9476 ab3d 1d01 aa3b b537 e03d
000002f0: 5118 ba3c a6b7 3ebd 1939 80be ea47 16bd
00000300: 7080 05be 5d3b 04be 8b15 cdbd f16f 393c
00000310: 445c cb3d 726e 8fbd 3a50 17bd 8c50 09bc
00000320: 7d65 7b3d d36b 2a3e b13e 97bd 556d cebd
00000330: fff0 9fbd b2ca 5ebd 9d8c 8bbc a1e5 c73d
00000340: 787a 8bbb 425f 94bd 61bb 803d c392 64be
00000350: 4925 293e 0da7 423e 09dc 02be 3175 18be
00000360: 68fa 143e 1ab5 40bd 2b6f edbd 82ed 2e3e
00000370: fdda 51bd 5e55 8e3c a9c8 bdba 4793 623e
00000380: 0ecf 9d3d 95c5 6f3d 14de 533c bffd aa3d
00000390: e82c 313e 4230 123a f8b5 303d d7c8 af3d
000003a0: 3007 e3bc 87d9 833e bc1f aabd f82d d63c
000003b0: d21f a3bd e665 e33d 1d10 c43d 6258 993d
000003c0: e62e a7bc 6aa7 893d 2471 fabd c341 bbbd
000003d0: cd6e e8bd bda2 8bbd d831 60bd 3f2c 0cbd
000003e0: 7ae1 e0bb 7f1b 22bd dc51 503e a72f 17bd
000003f0: 9efd b5bb 365d 3e3e 8f25 e6bd 15ed 803e

gru.weight_hh_l0 f4 [72, 24]
0.12536916 -0.054923188 0.041888442 0.123799495 -0.24922656 0.22071664 0.16044603 -0.2342674
0.12493382 -0.08345668 0.077047855 0.11973702 0.11010972 -0.07553035 -0.14080316 -0.0863268
-0.16812263 0.10213415 -0.23009601 -0.060914394 -0.05545332 0.08936724 0.029766923 -0.13247149
0.037136417 0.227353 -0.07719631 0.025183626 -0.05137071 -0.10507627 0.17976674 -0.23431437
-0.025567569 0.093208656 0.08739322 0.0129991025 -0.17926964 0.19234209 0.059538957 -0.36063132
0.09390256 0.22817397 0.0003391595 -0.026709497 0.19655687 0.25917497 -0.14134938 0.37474275
0.011839803 0.29685596 -0.10886695 -0.17603752 -0.0081212325 0.0073577035 0.2119141 -0.16967325
0.05723267 -0.013936741 0.26686168 0.026906952 -0.048975166 0.19078532 0.07370262 0.09936077
-0.1365494 -0.09094446 -0.07454877 -0.060820613 0.26292482 0.12975347 -0.06281944 0.04892116
0.08140404 0.270324 0.13924327 -0.14219494 -0.14845905 0.09765016 0.014868089 -0.18138164
-0.16722274 0.06831811 0.065658875 -0.08149338 -0.009483428 0.22286054 0.09382348 0.06708875
-0.1150832 0.1459165 0.069251925 0.04636769 0.11257572 0.0353705 -0.13362336 0.0061979773
0.058133923 0.09420321 -0.13348407 -0.0014348183 -0.2913089 -0.081986114 0.16658011 -0.32920244
0.26133385 0.28774983 0.024735412 0.038298614 -0.23442176 0.08762999 -0.06822307 -0.2019063
0.16374081 0.05735033 -0.12927027 -0.04519771 -0.11009549 -0.06672565 -0.066784866 0.29965088
-0.049726635 0.14800078 0.09588183 -0.16565491 -0.067766026 0.17524318 0.09653299 0.11596899
0.034511726 -0.05974716 0.29123184 0.020604303 0.047889676 0.20280051 -0.05738878 -0.21819037
-0.13666494 0.16981182 -0.025392724 0.049306598 -0.05892191 0.046968583 0.11063476 0.18101409
0.27766088 0.21598767 0.0676312 -0.242419 -0.22022112 0.19108298 0.025102636 -0.08503811
0.14716843 0.243834 0.2330419 0.23930892 -0.1119797 0.22470124 -0.2042949 -0.14090423
0.062283814 -0.0066559482 0.065452315 -0.10384922 0.18320784 0.09772389 -0.10615673 -0.01172403
0.06378563 -0.069889486 -0.046683617 0.09602423 -0.2646368 0.08140376 0.101725265 -0.2533234
0.08918723 0.14419521 0.2273407 0.09205708 0.09930591 0.072594926 -0.066456854 -0.041036014
-0.076976664 0.0016020758 -0.19772193 0.09944173 0.21435434 -0.048062332 -0.092222825 0.121021315
-0.183355 0.06522899 0.08838998 0.02695443 -0.012253279 0.12258354 0.10920106 -0.19767772
0.11065353 -0.17262456 0.16550452 0.16608028 0.019373946 -0.06476566 -0.14136492 -0.12965928
-0.023639083 -0.09480656 0.20608233 -0.07943519 0.1669699 -0.1911601 0.10177467 0.18205951
-0.08858123 0.31858578 0.069779724 -0.2133642 -0.43779793 0.09113991 0.23190798 -0.46172646
0.013812303 -0.12456824 -0.1482473 0.19887649 0.14766376 -0.038302563 -0.14330077 -0.106529675
0.19335978 -0.18079795 -0.13159911 -0.05764145 -0.050757773 0.042875852 0.09056494 0.12744845
-0.18355535 0.33185866 0.22690785 0.006694208 0.017477524 0.141214 0.21835054 -0.3340443
-0.06465794 0.021243662 0.056477185 -0.07026641 -0.26188603 -0.11223986 -0.020057917 0.18556114
00000000: c660 003e 23f7 60bd 3793 2b3d 978a fd3d
00000010: 3f35 7fbe 8b03 623e f74b 243e cbe3 6fbe
00000020: 4ddd ff3d 56eb aabd 44cb 9d3d af38 f53d
00000030: 3481 e13d a8af 9abd b42e 10be 1bcc b0bd
00000040: 5728 2cbe b62b d13d 4a9e 6bbe 5f81 79bd
00000050: 0523 63bd 2c06 b73d c3d9 f33c 9ba6 07be
00000060: 5b1c 183d 3acf 683e 1919 9ebd e44d ce3c
00000070: 186a 52bd 3a32 d7bd c614 383e 1bf0 6fbe
00000080: 1473 d1bc 2ee4 be3d 37fb b23d 30fa 543c
00000090: 7692 37be 53f5 443e 1fdf 733d aba4 b8be
000000a0: fc4f c03d 70a6 693e 38d1 b139 e0cd dabc
000000b0: 3446 493e 95b2 843e e4bd 10be 48de bf3e
000000c0: bcfb 413c 81fd 973e a3f5 debd 2e43 34be
000000d0: eb0e 05bc e418 f13b 0300 593e d3be 2dbe
000000e0: ce6c 6a3d ee56 64bc 18a2 883e f86b dc3c
000000f0: 2f9a 48bd 3a5d 433e 66f1 963d a97d cb3d
00000100: 9bd3 0bbe 1741 babd 07ad 98bd 091f 79bd
00000110: 159e 863e 18de 043e 7ba7 80bd 8e61 483d
00000120: 29b7 a63d e867 8a3e ca95 0e3e 8d9b 11be
00000130: a605 18be cffc c73d 4999 733c 1cbc 39be
00000140: 703c 2bbe 5eea 8b3d 2978 863d 00e6 a6bd
00000150: 6160 1bbc 8e35 643e 8626 c03d d465 893d
00000160: beb0 ebbd 236b 153e f4d3 8d3d 0cec 3d3d
00000170: 198e e63d a8e0 103d 90d4 08be 6718 cb3b
00000180: d61d 6e3d 9ded c03d 0cb0 08be 8310 bcba
00000190: 7126 95be 56e8 a7bd fa93 2a3e 398d a8be
000001a0: 8dcd 853e f253 933e eba1 ca3c 02df 1c3d
000001b0: 420c 70be 5a77 b33d 89b8 8bbd 86c0 4ebe
000001c0: acab 273e 2ee8 6a3d 6d5f 04be 3c21 39bd
000001d0: bf79 e1bd 75a7 88bd 81c6 88bd d76b 993e
000001e0: 28ae 4bbd 848d 173e b15d c43d 71a1 29be
000001f0: eac8 8abd f372 333e 17b3 c53d 2681 ed3d
00000200: 2b5c 0d3d 70b9 74bd 571c 953e 5bca a83c
00000210: f727 443d f0aa 4f3e 7f10 6bbd 4c6d 5fbe
00000220: e5f1 0bbe 26e3 2d3e 6704 d0bc b7f5 493d
00000230: 1a58 71bd 2162 403d 7a94 e23d c25b 393e
00000240: 9129 8e3e df2b 5d3e 3a82 8a3d b03c 78be
00000250: a581 61be 42ab 433e 0ba4 cd3c 7628 aebd
00000260: 52b3 163e 9faf 793e 89a2 6e3e 660d 753e
00000270: 9d55 e5bd 1518 663e af32 51be 3349 10be
00000280: 501d 7f3d 241a dabb dd0b 863d e6ae d4bd
00000290: d69a 3b3e 7623 c83d b368 d9bd 2516 40bc
000002a0: 0aa2 823d 3822 8fbd 5237 3fbd 5aa8 c43d
000002b0: 7a7e 87be 04b7 a63d 5655 d03d 9bb3 81be
000002c0: cba7 b63d e9a7 133e 00cc 683e 6c88 bc3d
000002d0: e660 cb3d a6ac 943d 881a 88bd 6115 28bd
000002e0: f1a5 9dbd befc d13a 9e77 4abe 1ba8 cb3d
000002f0: b47f 5b3e 02dd 44bd 52df bcbd 06da f73d
00000300: 6ac1 3bbe c796 853d ce05 b53d 89cf dc3c
00000310: fac1 48bc 140d fb3d cea4 df3d 076c 4abe
00000320: 519e e23d 7ec4 30be 047a 293e f310 2a3e
00000330: 1cb6 9e3c dca3 84bd f7c1 10be 67c5 04be
00000340: c0a6 c1bc f129 c2bd 3f07 533e ebae a2bd
00000350: 28fa 2a3e 79bf 43be 3d6f d03d cf6d 3a3e
00000360: 136a b5bd ad1d a33e ace8 8e3d 257c 5abe
00000370: 0d27 e0be 90a7 ba3d 4979 6d3e 6967 ecbe
00000380: ff4c 623c a21d ffbd 24ce 17be 47a6 4b3e
00000390: 2b35 173e 26e3 1cbd 70bd 12be 3b2c dabd
000003a0: 1b00 463e 1923 39be ebc1 06be 7119 6cbd
000003b0: 62e7 4fbd 979e 2f3d 1c7a b93d d981 023e
000003c0: eff5 3bbe 61e9 a93e 885a 683e 165b db3b
000003d0: 062d 8f3c 679a 103e 4997 5f3e db07 abbe
000003e0: 626b 84bd 3007 ae3c 9f54 673d d6e7 8fbd
000003f0: ed15 86be 03de e5bd 8050 a4bc bd03 3e3e

gru.bias_ih_l0 f4 [72]
0.18454647 0.23398072 0.18980455 -0.086653456 0.23554629 -0.011698989 -0.049609497 0.18695967
-0.15658394 0.19678366 0.265235 -0.048351794 0.20081052 -0.005206688 0.018539976 0.071915984
0.08869895 -0.04279972 0.2675333 0.16695906 -0.033600353 0.05625207 0.16381983 0.10715857
0.21837929 0.14749849 0.115195416 0.34178436 0.11502063 0.14567575 -0.008140239 0.1534548
0.12545499 0.09486805 -0.1444619 0.31531164 -0.06230875 -0.0080294255 -0.015233219 0.34001383
0.053321633 0.057570152 -0.34524447 -0.24970622 0.13471164 0.14208609 0.35312295 0.32987794
0.10837189 -0.013256318 0.2230032 0.12981926 0.0020710644 -0.10889178 0.15045415 -0.06663173
-0.07325027 0.06314419 0.10455182 0.06490252 0.12641779 0.15971754 0.055904023 -0.042044137
0.011142004 0.18568075 -0.21650587 0.1371582 0.1059533 -0.0882709 -0.19810481 0.159658
00000000: c0f9 3c3e a498 6f3e 205c 423e 5e77 b1bd
00000010: 0c33 713e 1ead 3fbc 5433 4bbd 5b72 3f3e
00000020: 8a57 20be a881 493e e2cc 873e 880c 46bd
00000030: 46a1 4d3e dd9c aabb 26e1 973c b048 933d
00000040: cca7 b53d c24e 2fbd 20fa 883e 51f7 2a3e
00000050: 86a0 09bd 9268 663d 63c0 273e f475 db3d
00000060: d29e 5f3e d809 173e 93eb eb3d 5cfe ae3e
00000070: f08f eb3d 062c 153e a35e 05bc 4123 1d3e
00000080: 4677 003e 2e4a c23d d2ed 13be 8770 a13e
00000090: 7637 7fbd da8d 03bc c094 79bc 4b16 ae3e
000000a0: c967 5a3d aece 6b3d e2c3 b0be fdb2 7fbe
000000b0: d9f1 093e 047f 113e 88cc b43e c3e5 a83e
000000c0: 15f2 dd3d 0731 59bc f35a 643e 57ef 043e
000000d0: b2ba 073b a702 dfbd a710 1a3e 3776 88bd
000000e0: 3d04 96bd be51 813d 441f d63d 9deb 843d
000000f0: aa73 013e ff8c 233e 9efb 643d 7936 2cbd
00000100: f48c 363c 1823 3e3e b7b3 5dbe 3373 0c3e
00000110: 0bfe d83d 60c7 b4bd fddb 4abe 637d 233e

gru.bias_hh_l0 f4 [72]
0.11400991 0.13385445 -0.1861912 0.024941834 0.16765739 0.18613242 0.11615688 -0.16103327
0.16575453 0.0875642 0.14491929 0.21186964 0.1862694 0.010660537 0.20681852 0.17966126
0.062162317 -0.06116014 0.20997827 -0.07607227 0.25840756 -0.16727778 0.11351327 -0.08394561
0.11136533 0.011117868 0.1897045 0.21846017 0.06741912 -0.18464966 -0.15499416 0.20363407
0.052836116 -0.040361464 -0.10300193 0.050847106 -0.04258192 -0.006842691 -0.0647726 0.40031332
0.058602255 -0.025877964 -0.08180356 0.036120262 -0.021192031 0.27195984 0.10433903 0.053969666
0.23266986 0.08239307 -0.064883195 -0.056982916 0.16007616 0.15347448 0.067024946 -0.044476833
-0.051516797 0.17250922 0.12147234 -0.032813698 -0.0652852 0.12718368 -0.080945045 -0.061828993
-0.122337826 0.11631913 -0.12954724 -0.04710419 -0.02711891 0.2050621 -0.23663352 0.0027731655
00000000: 077e e93d 2411 093e e8a8 3ebe d152 cc3c
00000010: 61ae 2b3e 7f99 3e3e a9e3 ed3d e8e5 24be
00000020: 8ebb 293e dc54 b33d b965 143e 5bf4 583e
00000030: 68bd 3e3e 88a9 2e3c 3cc8 533e 1ff9 373e
00000040: ea9d 7e3d 0e83 7abd 8b04 573e c7cb 9bbd
00000050: ff4d 843e de4a 2bbe a579 e83d adeb abbd
00000060: 8213 e43d b827 363c e541 423e 06b4 5f3e
00000070: 0913 8a3d cd14 3dbe cab6 1ebe 7385 503e
00000080: af6a 583d 1052 25bd adf2 d2bd 0e45 503d
00000090: 616a 2ebd a738 e0bb 7fa7 84bd def5 cc3e
000000a0: eb08 703d 06fe d3bc a088 a7bd d7f2 133d
000000b0: e99a adbc 523e 8b3e b4af d53d 4c0f 5d3d
000000c0: 0241 6e3e b3bd a83d 7be1 84bd eb66 69bd
000000d0: 01eb 233e 6a28 1d3e 6044 893d 572d 36bd
000000e0: 4703 53bd 42a6 303e 7dc6 f83d a867 06bd
000000f0: 3fb4 85bd 703c 023e 84c6 a5bd 6640 7dbd
00000100: 418c fabd b938 ee3d 08a8 04be 53f0 40bd
00000110: 7a28 debc cdfb 513e 0f50 72be ffbd 353b

fc.weight f4 [24, 24]
-0.22890219 -0.17021888 -0.16265814 0.09968043 0.049290895 -0.14720619 -0.09887372 0.04326616
-0.073049985 -0.11065648 -0.048806064 -0.15174432 0.3068227 -0.31084034 0.22239962 -0.0016905117
-0.08519657 -0.22252397 0.12701678 0.30499342 -0.024404462 -0.1934576 0.05470124 -0.07341961
-0.1480333 -0.075968005 -0.20634215 0.248986 0.05722498 -0.06147904 -0.1814799 0.12050521
-0.23509912 -0.12871556 -0.10980924 -0.0025438943 0.08004621 -0.06581769 0.20980895 0.12015138
0.04516194 -0.14080669 0.18476233 0.06930092 -0.101935215 -0.043957546 0.2292419 -0.08662069
-0.16567604 -0.18537341 -0.24086922 0.23976983 0.11134492 -0.19129206 -0.105012745 0.18762772
-0.15908058 -0.005166943 -0.04738062 -0.099699505 0.06537617 -0.20266181 0.30199274 0.1880085
-0.33253574 -0.15249023 0.16950122 0.18479554 -0.011074197 -0.14698586 0.1452826 -0.05482028
-0.1930212 -0.11551899 -0.26417723 0.08890144 0.057295185 -0.12044497 -0.272371 0.33010608
-0.20767115 -0.26646912 -0.14276841 -0.2198669 0.045462135 -0.013981945 0.22504586 0.21086681
-0.13107097 -0.18752666 0.15083091 0.30197865 -0.22373922 -0.10721704 0.3382949 -0.22227065
-0.048982117 -0.24228229 -0.19583684 0.2138808 0.18394178 -0.20391147 -0.19751647 0.2635711
-0.2501244 -0.30547258 -0.31116328 0.0036668517 0.17293927 -0.08220671 0.034259792 0.18289866
-0.37541962 -0.16801852 0.30763733 0.28632873 -0.23842612 -0.29322144 0.07662847 -0.30871785
-0.13897598 -0.2954636 -0.08193249 0.12474547 0.37189728 -0.21595414 -0.21180053 0.33417073
-0.04945789 -0.06256341 -0.06840085 -0.34242627 0.2785531 -0.26395786 0.3313413 0.35209662
-0.26472923 -0.10771588 0.20702694 0.2533938 -0.078076035 -0.1606003 0.17017013 -0.22370863
-0.21070653 -0.36601588 -0.16229379 0.11549728 0.3526683 -0.05924581 -0.20079449 0.405945
-0.21020132 -0.11683807 -0.15113334 -0.36991924 0.08671649 -0.25917265 0.3207088 0.21010643
-0.31110197 -0.10321353 0.37144732 0.29457706 -0.18665595 -0.15359098 0.28053913 -0.41971108
-0.36832866 -0.36217433 -0.32121977 0.30975458 0.20635664 -0.28670698 -0.1371968 0.24087417
-0.26690334 -0.34812847 -0.14711405 -0.16996329 0.11559518 -0.26274064 0.16217907 0.36430424
-0.3883403 -0.22909722 0.10806495 0.32852942 -0.1766003 -0.08846393 0.20857628 -0.25324437
-0.14752917 -0.3092657 -0.13114858 0.40338537 0.32924238 -0.12415455 -0.38048586 0.44191378
-0.33775738 -0.1445766 -0.20346375 -0.22751093 0.29201698 -0.4081961 0.4392017 0.24786608
-0.12751743 -0.22201592 0.15670283 0.34637824 -0.26195273 -0.37278986 0.29263613 -0.45506552
-0.4085936 -0.42606255 -0.2881025 0.20647974 0.2953505 -0.43414304 -0.4609111 0.29047942
-0.2684102 -0.16932218 -0.38187715 -0.1252368 0.17452776 -0.22962163 0.16159733 0.45985946
-0.38470584 -0.18294205 0.29777932 0.22010805 -0.3626017 -0.36782148 0.41606256 -0.17582086
-0.106187485 -0.32906914 -0.3207155 0.18453108 0.28393236 -0.21810712 -0.28574935 0.19619532
-0.24486178 -0.28177562 -0.4337393 -0.3182177 0.26678237 -0.43924725 0.32681602 0.34108308
00000000: 5665 6abe dc4d 2ebe db8f 26be 4125 cc3d
00000010: 40e5 493d 38bd 16be 4e7e cabd db37 313d
00000020: 3b9b 95bd dd9f e2bd dee8 47bd dd62 1bbe
00000030: dd17 9d3e 7726 9fbe babc 633e 2994 ddba
00000040: 8a7b aebd 53dd 63be b010 023e 1928 9c3e
00000050: deeb c7bc c019 46be 680e 603d 055d 96bd
00000060: 0b96 17be 1d95 9bbd 5b4b 53be 30f6 7e3e
00000070: be64 6a3d 72d1 7bbd ded5 39be 6fcb f63d
00000080: d3bd 70be 03ce 03be abe3 e0bd 77b7 26bb
00000090: 44ef a33d 6dcb 86bd 28d8 563e ed11 f63d
000000a0: bafb 383d a12f 10be 5632 3d3e a4ed 8d3d
000000b0: 69c3 d0bd d40c 34bd 63be 6a3e 3066 b1bd
000000c0: fba6 29be 87d2 3dbe 6ca6 76be 3986 753e
000000d0: ce08 e43d 11e2 43be ec10 d7bd 7b21 403e
000000e0: 05e6 22be 764f a9bb 2e12 42bd 412f ccbd
000000f0: f1e3 853d 9486 4fbe cb9e 9a3e 4d85 403e
00000100: 2042 aabe 6626 1cbe ba91 2d3e 0b3b 3d3e
00000110: 8c70 35bc 7683 16be f6c4 143e 3b8b 60bd
00000120: 59a7 45be 3895 ecbd 3d42 87be f511 b63d
00000130: 5bae 6a3d daab f6bd 3674 8bbe aa03 a93e
00000140: bfa7 54be a46e 88be e231 12be ca24 61be
00000150: 8136 3a3d 8714 65bc 6c72 663e 78ed 573e
00000160: 7837 06be fd06 40be 6b73 1a3e f29c 9a3e
00000170: e51b 65be 9c94 dbbd fd34 ad3e eb9a 63be
00000180: 79a1 48bd d918 78be 7489 48be 9203 5b3e
00000190: 3c5b 3c3e 2bce 50be c241 4abe cbf2 863e
000001a0: 4e10 80be e766 9cbe cb50 9fbe 904f 703b
000001b0: fe16 313e fe5b a8bd ff53 0c3d c949 3b3e
000001c0: 0037 c0be 0c0d 2cbe a482 9d3e ae99 923e
000001d0: fa25 74be 1f21 96be 63ef 9c3d 4410 9ebe
000001e0: b84f 0ebe 0147 97be 39cc a7bd 8e7a ff3d
000001f0: 5269 be3e 1523 5dbe 3de2 58be 6d18 ab3e
00000200: 5b94 4abd 3f21 80bd bf15 8cbd 7f52 afbe
00000210: 839e 8e3e 7c25 87be 91a5 a93e 0246 b43e
00000220: 978a 87be 259a dcbd dffe 533e d5bc 813e
00000230: 54e6 9fbd 6874 24be 1441 2e3e e013 65be
00000240: 74c3 57be 6f66 bbbe 5830 26be d789 ec3d
00000250: f090 b43e bcab 72bd 129d 4dbe 06d8 cf3e
00000260: 043f 57be cc48 efbd b3c2 1abe 0e66 bdbe
00000270: 6a98 b13d 47b2 84be f233 a43e 2426 573e
00000280: c248 9fbe 9d61 d3bd 582e be3e ced2 963e
00000290: bd22 3fbe f446 1dbe d3a2 8f3e 5fe4 d6be
000002a0: 9395 bcbe ea6e b9be eb76 a4be 2798 9e3e
000002b0: 284f 533e 42cb 92be 517d 0cbe b8a7 763e
000002c0: 8ea7 88be e53d b2be 11a5 16be db0a 2ebe
000002d0: 2abd ec3d f185 86be 4512 263e 1686 ba3e
000002e0: 8ad4 c6be 7698 6abe 2851 dd3d 0235 a83e
000002f0: b6d6 34be 942c b5bd 0595 553e 3fa9 81be
00000300: e311 17be 1358 9ebe d04b 06be 8788 ce3e
00000310: 7592 a83e be44 febd 0bcf c2be 8642 e23e
00000320: 89ee acbe e30b 14be cd58 50be a0f8 68be
00000330: 4083 953e 14ff d0be 0cdf e03e 9bd0 7d3e
00000340: ee93 02be 2458 63be b576 203e 7d58 b13e
00000350: ab1e 86be 50de bebe 67d4 953e 59fe e8be
00000360: 2e33 d1be df24 dabe 2c82 93be 6d6f 533e
00000370: 2e38 973e ff47 debe 8afc ebbe b8b9 943e
00000380: 106d 89be cb62 2dbe 6785 c3be 133e 00be
00000390: 68b7 323e ef21 6bbe c579 253e b372 eb3e
000003a0: 2af8 c4be 2955 3bbe 8876 983e 0164 613e
000003b0: eea6 b9be 1953 bcbe 2706 d53e 620a 34be
000003c0: d378 d9bd c07b a8be d234 a4be b7f5 3c3e
000003d0: 955f 913e 7957 5fbe bd4d 92be 6de7 483e
000003e0: 0cbd 7abe e544 90be 1413 debe 6eed a2be
000003f0: b397 883e 04e5 e0be 6e54 a73e 71a2 ae3e

fc.bias f4 [24]
-0.14008702 -0.09539554 -0.0131235495 -0.35090163 -0.06947063 -0.32437015 -0.04046352 -0.33616593
-0.29016134 -0.23641284 -0.20455079 -0.23397309 -0.28735784 -0.24020429 -0.4069145 -0.27994132
-0.32760918 -0.19115242 -0.5235491 -0.42787188 -0.4932468 -0.49584934 -0.5173206 -0.40377334
00000000: f972 0fbe bd5e c3bd 2804 57bc 61a9 b3be
00000010: 9e46 8ebd d813 a6be 13bd 25bd f11d acbe
00000020: 0790 94be 3516 72be c375 51be a496 6fbe
00000030: 9120 93be 1df8 75be 1957 d0be 7854 8fbe
00000040: 64bc a7be 76bd 43be 5007 06bf 0612 dbbe
00000050: d88a fcbe f7df fdbe 1f6f 04bf 61bb cebe
