models/GRU_NoiseEst/training_checkpoints/tiny_noise_gru_epoch_003_mse_0.385742.pth (torch, 69713 bytes, 14 tensors)

pre.weight f4 [48, 12, 11]
-0.090759605 0.051830653 -0.07766588 0.026558464 -0.046039775 -0.009298326 0.01899825 0.021713346
-0.07820367 -0.00060818397 0.0064012976 -0.07199664 -0.010532137 -0.01600115 0.04191369 -0.056505997
-0.059391953 -0.011031736 0.0132028125 0.05286194 -0.08371697 -0.04581841 0.048033595 0.020993218
0.031839985 -0.04532925 -0.025425421 -0.052634522 -0.030082077 0.001792829 0.002909477 -0.0046951724
0.047477916 0.057609208 0.009133804 0.06073443 -0.097575516 -0.08391473 -0.04886867 -0.001467793
-0.028997535 0.05007329 0.006540884 0.031511504 0.03329096 0.041370742 -0.0052027456 -0.029218508
-0.001139182 -0.024471726 -0.09439362 -0.07073735 -0.107734844 -0.027320502 -0.0054245736 0.0050910143
0.034002934 -0.012742746 -0.082495585 0.049501423 -0.015317893 -0.08314983 -0.077987835 0.039457772
0.06313848 0.013166988 -0.09921034 -0.10899562 0.051781483 -0.004741873 -0.06848757 0.03903818
0.032111336 0.05614472 0.06199155 -0.0038766859 -0.023124563 0.050664734 -0.011298927 -0.013262013
-0.058875598 0.0446305 -0.049543105 0.01925537 -0.06118724 -0.108439185 -0.063751265 0.009642464
-0.02558669 -0.078688495 0.0349225 -0.08282266 0.03384075 -0.015593331 0.021200985 -0.06838961
-0.09315035 0.03595997 -0.07713721 -0.058497276 -0.08118444 -0.019374406 -0.065574124 -0.109241195
-0.022721421 -0.04915534 -0.0914234 -0.03404802 -0.0069163647 -0.08835735 -0.0974602 0.055783898
-0.07331508 0.01494067 0.011953587 0.016465941 -0.013247108 -0.050117068 0.02265957 0.05640831
0.05835475 -0.0968578 0.024007568 -0.028742528 0.051801484 -0.016007144 0.009184445 -0.009450193
0.017467963 -0.09329588 -0.05317954 0.029357268 -0.03691731 -0.03236982 0.0055765067 -0.0136777675
-0.045702517 0.04508872 0.028834222 -0.005664925 0.049069453 0.029450035 -0.037736863 -0.044843003
0.053732947 0.020067561 0.060507584 -0.055060126 -0.058513824 -0.08927867 0.059472367 -0.027440308
0.030880364 -0.0045370944 -0.06948916 0.030638155 -0.010836699 0.03693531 0.048198044 -0.01589965
0.028112307 -0.04879381 0.04767225 0.023703853 -0.039948385 -0.107215725 -0.019852497 -0.01982093
-0.09338849 -0.033086333 0.054020006 -0.07733897 0.007342778 -0.039869394 -0.059860602 0.036444936
-0.012245215 0.03828313 -0.012045398 -0.07447676 -0.0248985 -0.059177794 -0.08041937 -0.05529489
0.01252919 -0.092569984 -0.0074513233 -0.10336242 -0.05948778 -0.052916717 0.03162223 0.039290573
0.03467895 0.023034452 0.025811212 0.028232988 -0.030392056 -0.012881998 -0.010001006 -0.07601803
-0.0455391 -0.074188136 -0.01380116 -0.059288625 -0.099122524 -0.042755317 -0.007202268 -0.06745147
0.026010877 -0.06254929 -0.023743348 -0.013628592 0.0012756753 -0.05331576 -0.068271816 -0.020488242
0.045368567 -0.051066216 -0.054997783 0.03443308 -0.02960811 0.020256558 -0.0702558 0.06156258
-0.06713857 0.03757382 -0.090793654 -0.06285499 -0.0187477 0.0029164075 -0.0058588795 0.039747722
0.020870578 -0.069152415 -0.022047514 0.013915944 -0.03378848 0.021296645 -0.08520531 -0.088610396
0.028898342 -0.07137053 -0.0284302 0.026845088 -0.0838115 0.04325354 -0.08620904 -0.07090289
0.0070670773 0.0026380175 -0.041372348 -0.06575696 -0.049140453 0.021626819 0.019842867 -0.054682557
00000000: 2ce0 b9bd 614c 543d 4a0f 9fbd 2391 d93c
00000010: 3494 3cbd 0258 18bc 38a2 9b3c 30e0 b13c
00000020: 3f29 a0bd 896e 1fba fac1 d13b f972 93bd
00000030: fc8e 2cbc d814 83bc b0ad 2b3d d572 67bd
00000040: fa44 73bd 74be 34bc 9c50 583c c385 583d
00000050: ce73 abbd 16ac 3bbd e0be 443d f8f9 ab3c
00000060: a56a 023d 2aab 39bd f948 d0bc 4c97 57bd
00000070: b06e f6bc 5cfd ea3a edac 3e3b f6d9 99bb
00000080: 3478 423d a2f7 6b3d f3a5 153c aac4 783d
00000090: acd5 c7bd 7cdb abbd 842a 48bd f662 c0ba
000000a0: 3d8c edbc a619 4d3d e954 d63b 3512 013d
000000b0: 1a5c 083d 5e74 293d cb7b aabb a75b efbc
000000c0: 9b50 95ba ee78 c8bc 7151 c1bd bede 90bd
000000d0: 16a4 dcbd 3fcf dfbc 9fc0 b1bb 86d2 a63b
000000e0: a946 0b3d f3c6 50bc 72f3 a8bd 01c2 4a3d
000000f0: e6f7 7abc 754a aabd 16b8 9fbd 799e 213d
00000100: bf4e 813d 5aba 573c ca2e cbbd 1839 dfbd
00000110: d218 543d b761 9bbb 3643 8cbd 80e6 1f3d
00000120: 2d87 033d 02f8 653d daea 7d3d ff0f 7ebb
00000130: b96f bdbc d385 4f3d 221f 39bc ea48 59bc
00000140: 8a27 71bd 79ce 363d b6ed 4abd 70bd 9d3c
00000150: 799f 7abd 5d15 debd 0690 82bd 6dfb 1d3c
00000160: 2e9b d1bc 6f27 a1bd e50a 0f3d ed9e a9bd
00000170: 999c 0a3d 2c7b 7fbc b0ad ad3c da0f 8cbd
00000180: 9cc5 bebd c34a 133d 1dfa 9dbd d79a 6fbd
00000190: 0744 a6bd 13b7 9ebc ba4b 86bd d9b9 dfbd
000001a0: 4622 babc 1c57 49bd 313c bbbd f075 0bbd
000001b0: aca2 e2bb b3f4 b4bd 3799 c7bd a87d 643d
000001c0: 3726 96bd b6c9 743c fad8 433c 95e3 863c
000001d0: 660a 59bc 8e47 4dbd 90a0 b93c 660c 673d
000001e0: 6405 6f3d 625d c6bd 85ab c43c 7375 ebbc
000001f0: cb2d 543d 6a21 83bc 5b7a 163c fbd4 1abc
00000200: f918 8f3c e911 bfbd cad2 59bd a77e f03c
00000210: 9b36 17bd 3796 04bd 21bb b63b b718 60bc
00000220: 9032 3bbd f3ae 383d bf35 ec3c d6a0 b9bb
00000230: 0dfd 483d 3341 f13c f891 1abd 4cad 37bd
00000240: 1417 5c3d ba64 a43c cdd6 773d ba86 61bd
00000250: 31ac 6fbd bcd7 b6bd 4c99 733d 7fca e0bc
00000260: d1f8 fc3c e8ab 94bb 5550 8ebd defc fa3c
00000270: 698c 31bc 7b49 173d 506b 453d fc3f 82bc
00000280: c84b e63c 05dc 47bd fa43 433d 952e c23c
00000290: eba0 23bd eb93 dbbd b4a1 a2bc 815f a2bc
000002a0: 7742 bfbd 8985 07bd 1544 5d3d e563 9ebd
000002b0: b09b f03b 174e 23bd 6430 75bd 4947 153d
000002c0: 27a0 48bc c5ce 1c3d 105a 45bc 4687 98bd
000002d0: f0f7 cbbc 6a64 72bd e9b2 a4bd e57c 62bd
000002e0: 3b47 4d3c 5595 bdbd 3b2a f4bb adaf d3bd
000002f0: 75a9 73bd 33bf 58bd 5086 013d 27ef 203d
00000300: 840b 0e3d bfb2 bc3c 0972 d33c de48 e73c
00000310: c3f8 f8bc 040f 53bc 42db 23bc 57af 9bbd
00000320: 3587 3abd f3ef 97bd 431e 62bc a1d8 72bd
00000330: c000 cbbd 3320 2fbd 0101 ecbb ff23 8abd
00000340: c314 d53c d819 80bd 6981 c2bc 754a 5fbc
00000350: 8f34 a73a a061 5abd 18d2 8bbd f5d6 a7bc
00000360: 64d4 393d cf2a 51bd 5b45 61bd b409 0d3d
00000370: b58c f2bc 15f1 a53c 46e2 8fbd 0b29 7c3d
00000380: f27f 89bd 02e7 193d 06f2 b9bd 1eba 80bd
00000390: c794 99bc 3321 3f3b d8fb bfbb 82ce 223d
000003a0: c6f8 aa3c c89f 8dbd fd9c b4bc b3ff 633c
000003b0: ca65 0abd 4d76 ae3c 1f80 aebd 5e79 b5bd
000003c0: 37bc ec3c b62a 92bd 73e6 e8bc 3bea db3c
000003d0: 5da5 abbd a02a 313d 5d8e b0bd 8935 91bd
000003e0: f192 e73b 97e2 2c3b 0d76 29bd 96ab 86bd
000003f0: 8047 49bd ba2a b13c 828d a23c d1fa 5fbd

pre.bias f4 [48]
0.03828427 0.06850022 0.048748672 0.1120553 0.010851348 0.11801668 0.07245676 -0.08589252
-0.07244097 -0.020026378 -0.028429985 -0.04682234 0.026941847 0.056100443 -0.052628342 -0.008164094
0.06605868 0.06813131 -0.067529835 -0.05426248 -0.073492065 0.064122796 0.0593178 -0.038390283
0.015441157 -0.013225692 0.035312705 -0.014771048 -0.07770905 -0.073822066 -0.023032276 -0.024879484
-0.019857079 0.0030919847 -0.0636654 -0.07667039 0.026960721 -0.030764975 -0.12024067 -0.052813865
-0.07658165 0.022672718 -0.12139836 0.08990702 -0.083470285 0.0378346 -0.06448619 0.0059156953
00000000: f7cf 1c3d d849 8c3d b0ac 473d 407d e53d
00000010: dac9 313c bbb2 f13d 3664 943d 6be8 afbd
00000020: ee5b 94bd 5c0e a4bc 00e6 e8bc c8c8 3fbd
00000030: 26b5 dc3c 94c9 653d d190 57bd b1c2 05bc
00000040: c649 873d 6e88 8b3d 154d 8abd 5642 5ebd
00000050: 0283 96bd d052 833d 39f7 723d 213f 1dbd
00000060: e8fc 7c3c 93b0 58bc 0ea4 103d 4402 72bc
00000070: ec25 9fbd 0630 97bd 2fae bcbc 0fd0 cbbc
00000080: 50ab a2bc e5a2 4a3b 0163 82bd 5e05 9dbd
00000090: bbdc dc3c d406 fcbc be40 f6bd 5a53 58bd
000000a0: d7d6 9cbd 23bc b93c b49f f8bd 2c21 b83d
000000b0: 78f2 aabd 74f8 1a3d 5611 84bd 73d8 c13b

norm.weight f4 [48]
0.96389735 0.96501875 0.96650594 0.96262985 0.97827476 0.9558383 0.9694664 0.97366816
0.96777266 0.98590875 0.97176385 0.98405993 0.9736568 0.96626645 0.976989 0.9595144
0.9720174 0.9554202 0.95247805 0.95508146 0.95567095 0.9698551 0.95738673 0.9545796
1.0159638 0.9896982 0.9901469 1.0029507 1.0033832 0.9896883 1.0028151 0.99641985
1.0225726 0.97523284 0.9687491 0.9551947 1.0260028 0.9833605 1.0130931 1.0289857
0.96587515 1.0395064 0.98902375 1.0245072 0.99996495 0.99981004 0.9719124 1.0437863
00000000: fac1 763f 780b 773f ef6c 773f e96e 763f
00000010: 3770 7a3f d2b1 743f f32e 783f 5142 793f
00000020: f3bf 773f 8464 7c3f 84c5 783f 5aeb 7b3f
00000030: 9241 793f 3d5d 773f f31b 7a3f bca2 753f
00000040: 22d6 783f 6b96 743f 9ad5 733f 3880 743f
00000050: daa6 743f 6d48 783f 4c17 753f 545f 743f
00000060: 1a0b 823f dc5c 7d3f 447a 7d3f b060 803f
00000070: dc6e 803f 365c 7d3f 3f5c 803f 5f15 7f3f
00000080: a9e3 823f dca8 793f f1ff 773f a487 743f
00000090: 0f54 833f 84bd 7b3f 09ad 813f ceb5 833f
000000a0: 9843 773f 8c0e 853f a930 7d3f 0d23 833f
000000b0: b4fd 7f3f 8df3 7f3f 40cf 783f ca9a 853f

norm.bias f4 [48]
-0.013550193 -0.015613695 -0.026421605 -0.01203812 0.011935517 -0.035754506 -0.028363936 -0.0052268724
0.030002926 -0.010476919 0.02177225 0.013049059 0.033676147 0.036835782 0.030809965 0.029835142
-0.0044927257 0.03593836 0.034397874 0.03559766 0.035090692 -0.0017191253 0.043115456 0.04741509
0.016096588 -0.025786325 -2.7255035e-05 0.025926186 -0.0088246185 0.0073307958 0.00583922 0.0044585387
0.032401297 -0.024266578 -0.017367184 -0.040534694 0.014722862 -0.015914796 0.0177835 0.029815044
-0.029221132 0.04080523 -0.009168757 0.02658199 0.0077814087 0.010267249 -0.026314389 0.04576946
00000000: a101 5ebc 95d0 7fbc 1f72 d8bc 893b 45bc
00000010: 308d 433c 5173 12bd 7c5b e8bc 2f46 abbb
00000020: b2c8 f53c 62a7 2bbc b85b b23c b8cb 553c
00000030: 00f0 093d 1ee1 163d 2e65 fc3c d468 f43c
00000040: b737 93bb 1a34 133d c9e4 0c3d dace 113d
00000050: 42bb 0f3d 4654 e1ba d599 303d 5336 423d
00000060: fedc 833c d83d d3bc bea1 e4b7 2763 d43c
00000070: 2295 10bc 2c37 f03b ed56 bf3b ef18 923b
00000080: 39b7 043d b4ca c6bc a045 8ebc b507 26bd
00000090: 2938 713c bf5f 82bc b4ae 913c ae3e f43c
000000a0: 2861 efbc 6323 273d 8e38 16bc 79c2 d93c
000000b0: 30fb fe3b f737 283c 4691 d7bc c278 3b3d

gru1.weight_ih_l0 f4 [72, 48]
-0.10282544 -0.10257007 -0.07262179 0.032884337 -0.1936999 -0.057492744 -0.08007657 -0.17214099
0.1459056 -0.027173745 0.11863151 0.1209809 0.19049169 0.15759023 0.09410324 -0.09939307
0.103463516 -0.13304655 0.03706086 -0.061308257 0.050831936 -0.15077098 -0.051130615 -0.044031136
0.14737706 0.07412117 -0.14235426 -0.1935704 0.16619691 0.05451603 -0.050293755 -0.116717786
0.13310604 0.031253178 0.022995554 0.046904664 0.005639419 0.052083194 -0.09739115 -0.19878516
-0.12943824 -0.2262899 -0.06866354 0.026316807 -0.118954495 0.024294289 -0.17209019 -0.027362686
0.15115555 -0.20199403 -0.1690657 -0.15642881 0.17788264 0.09099231 -0.21555963 -0.10446612
0.049118347 -0.16862005 -0.15720205 -0.19380213 0.14026296 -0.15719005 -0.120322116 -0.031124795
0.2014144 0.09337287 -0.09201016 0.03639345 0.22483756 -0.16884992 -0.046750765 0.21520452
0.10710866 -0.2231985 -0.021337993 -0.235212 -0.06768087 -0.21605384 -0.18914346 0.16139543
-0.15260799 -0.23110951 -0.20940734 -0.033110972 -0.017365027 0.10619963 0.14125784 0.05539257
-0.21675739 -0.100038536 0.09778414 0.15029044 0.08061096 -0.20738548 0.056159243 0.14955302
-0.1031237 -0.15768853 -0.14000401 -0.23252663 -0.21940134 0.120902464 -0.19341269 0.14362325
-0.014032546 0.13102394 -0.16017283 -0.12559633 -0.106502935 -0.10560378 -0.018666774 0.13035114
-0.016464325 0.10599813 0.08213961 0.10139177 -0.050370216 0.023606692 -0.045180842 0.1895572
-0.060524873 -0.06865486 -0.1729015 0.119217485 -0.09499105 0.12086414 0.0053725014 -0.1468048
-0.20945165 -0.18958826 -0.016470894 0.14960049 -0.058089036 0.11635891 -0.18690725 0.046495736
-0.02301176 -0.051059343 0.104291685 -0.023695724 -0.077144556 -0.17890207 -0.023005158 0.07031952
0.03859835 -0.06458794 0.10150513 0.058095332 0.17297931 0.059650674 -0.040237628 0.14931001
-0.10454856 0.055720698 -0.03939469 0.0072209914 0.013688312 -0.027942544 0.12805758 0.104313515
0.07285904 0.032585945 0.12295791 -0.18861857 -0.17812629 0.107969865 0.11886141 -0.20625538
-0.117219865 -0.121422864 0.07508674 0.20177832 0.19410375 -0.103772566 -0.13594557 0.20096368
-0.119940065 -0.13253589 0.06601038 -0.14892627 -0.09998357 0.17215131 0.17753915 -0.1012095
0.19729628 0.15241148 -0.04723289 0.009644488 -0.11043061 -0.043720815 0.07570345 0.075235605
0.15453161 0.2080751 -0.070056215 -0.11583822 -0.07393296 -0.06843726 0.14391011 -0.011858359
-0.16646409 0.026976725 -0.14881042 0.05497093 -0.07708542 -0.11081169 0.10092559 -0.066472135
-0.16934861 -0.21739264 -0.23410964 0.107110225 -0.20628373 0.15092751 -0.15817472 -0.13444002
0.04068374 0.08314123 -0.1362426 -0.04825418 0.23353097 0.19613902 -0.07549327 0.21580341
-0.117324285 0.19726703 0.18747339 -0.019754594 0.018928777 0.18924576 0.0675525 -0.13613388
-0.0721865 0.01243183 0.16389161 0.2474475 -0.043858524 -0.041456394 0.23309071 -0.12852392
-0.17220533 0.13875481 -0.17426135 -0.18978544 0.040140264 0.06464658 -0.0062393784 -0.19608082
0.1280196 -0.18796535 0.042026494 0.09255238 0.028810268 0.15783057 0.09603404 -0.01486489
00000000: 2596 d2bd 4210 d2bd bcba 94bd bab1 063d
00000010: 4459 46be 837d 6bbd 2fff a3bd ba45 30be
00000020: 4768 153e 799b debc 14f5 f23d d6c4 f73d
00000030: 4110 433e 555f 213e 33b9 c03d 988e cbbd
00000040: aee4 d33d 5b3d 08be 21cd 173d 5e1e 7bbd
00000050: 2635 503d b563 1abe 566e 51bd fe59 34bd
00000060: 03ea 163e d7cc 973d 51c5 11be 5237 46be
00000070: 862f 2a3e 334c 5f3d d300 4ebd bc09 efbd
00000080: f34c 083e 5503 003d 2c61 bc3c 1b1f 403d
00000090: e0ca b83b 3055 553d 0375 c7bd 568e 4bbe
000000a0: 758b 04be 8ab8 67be 789f 8cbd 5896 d73c
000000b0: 6a9e f3bd d104 c73c 6938 30be b627 e0bc
000000c0: 85c8 1a3e 86d7 4ebe 8f1f 2dbe e02e 20be
000000d0: de26 363e 2d5a ba3d aabb 5cbe 55f2 d5bd
000000e0: 5230 493d bcaa 2cbe 93f9 20be 1174 46be
000000f0: 18a1 0f3e 6ef6 20be 716b f6bd 6df9 febc
00000100: 943f 4e3e 463a bf3d d36f bcbd 4c11 153d
00000110: d13b 663e fee6 2cbe bb7d 3fbd 935e 5c3e
00000120: c95b db3d 268e 64be 04cd aebc 6adb 70be
00000130: 459c 8abd 383d 5dbe d3ae 41be d844 253e
00000140: 4545 1cbe f9a7 6cbe e16e 56be 5f9f 07bd
00000150: 1a41 8ebc 317f d93d e5a5 103e 52e3 623d
00000160: a6f5 5dbe 01e1 ccbd 0d43 c83d bde5 193e
00000170: 5c17 a53d dc5c 54be 3c07 663d 6d24 193e
00000180: 8532 d3bd 1a79 21be 365d 0fbe 761b 6ebe
00000190: bfaa 60be b69b f73d fa0d 46be f911 133e
000001a0: c4e8 65bc 242b 063e 5904 24be 539c 00be
000001b0: 361e dabd cb46 d8bd 10eb 98bc c57a 053e
000001c0: 31e0 86bc 8c15 d93d d038 a83d 7da6 cf3d
000001d0: 0051 4ebd d262 c13c 8c0f 39bd 481b 423e
000001e0: eee8 77bd eb9a 8cbd 170d 31be 4c28 f43d
000001f0: ab8a c2bd 9e87 f73d cf0b b03b ff53 16be
00000200: 7e7a 56be 6d23 42be f8ed 86bc df30 193e
00000210: c5ee 6dbd 954d ee3d 9d64 3fbe 5072 3e3d
00000220: 2983 bcbc 9a23 51bd e196 d53d 891d c2bc
00000230: f7fd 9dbd 1b32 37be 5075 bcbc ae03 903d
00000240: 4e19 1e3d af46 84bd ece1 cf3d 5ff5 6d3d
00000250: 7d21 313e 4454 743d 36d0 24bd b9e4 183e
00000260: 8e1d d6bd 633b 643d 545c 21bd 119e ec3b
00000270: f144 603c c3e7 e4bc 8721 033e 53a2 d53d
00000280: 1f37 953d d778 053d 5bd1 fb3d 3a25 41be
00000290: bd66 36be 4e1f dd3d 9c6d f33d 9c34 53be
000002a0: f810 f0bd 8dac f8bd 14c7 993d fa9e 4e3e
000002b0: 22c3 463e b686 d4bd 5135 0bbe 6cc9 4d3e
000002c0: 23a3 f5bd 7db7 07be 7330 873d 2180 18be
000002d0: 30c4 ccbd 6f48 303e d3cc 353e ed46 cfbd
000002e0: 0908 4a3e c111 1c3e 4677 41bd ea03 1e3c
000002f0: 7229 e2bd 9914 33bd 690a 9b3d 2015 9a3d
00000300: 893d 1e3e a411 553e a279 8fbd 973c edbd
00000310: 2a6a 97bd d628 8cbd 2c5d 133e 9049 42bc
00000320: 9075 2abe 4bfe dc3c c261 18be 3329 613d
00000330: f6de 9dbd 3df1 e2bd 13b2 ce3d 8b22 88bd
00000340: b969 2dbe 2d9c 5ebe 70ba 6fbe 9b5c db3d
00000350: 0b3c 53be be8c 1a3e 8ef8 21be a5aa 09be
00000360: fea3 263d f345 aa3d 2e83 0bbe 2da6 45bd
00000370: be22 6f3e abd8 483e 379c 9abd 92fb 5c3e
00000380: b747 f0bd 5e00 4a3e 06f9 3f3e 63d4 a1bc
00000390: 8610 9b3c a4c9 413e f758 8a3d ae66 0bbe
000003a0: 84d6 93bd e0ae 4b3c 34d3 273e e162 7d3e
000003b0: ffa4 33bd 2ece 29bd 55af 6e3e c69b 03be
000003c0: 9856 30be be15 0e3e 9171 32be 1d57 42be
000003d0: 1e6a 243d 6d65 843d b373 ccbb 69c9 48be
000003e0: 9217 033e fd79 40be f923 2c3d 1a8c bd3d
000003f0: 8303 ec3c 569e 213e 7fad c43d de8b 73bc

gru1.weight_hh_l0 f4 [72, 24]
0.1552653 0.017618774 -0.07602759 -0.14772622 0.08995332 -0.10490565 0.103586614 -0.06718654
-0.057709306 -0.16785198 -0.030594023 0.06669647 0.019061036 0.17461056 0.11542151 0.1372098
0.219537 -0.13971376 0.046536002 -0.07270735 -0.05673417 0.11533712 -0.22121452 0.13063444
0.038432833 -0.06877791 0.019282093 0.14374866 0.016339071 0.05591474 0.15134181 0.20708449
-0.08149143 -0.00020365935 -0.056991503 -0.058293555 0.1459863 0.21791193 0.14059481 -0.103726834
0.037256286 -0.020582074 0.050944526 0.099396765 -0.10850765 -0.046286233 0.027293667 0.06965738
0.07275415 0.12872802 -0.052298047 0.13759774 0.14440018 -0.1111806 0.13085535 -0.104522645
0.13745812 0.0117425835 0.041798867 -0.21258122 -0.22696555 -0.13489266 -0.08643027 -0.21538661
-0.012041452 -0.12828659 -0.028349208 0.17865644 -0.0022225291 -0.19166313 0.14721525 0.03754516
0.12094412 0.1848981 -0.16778217 0.01582096 0.0206683 0.1370749 -0.043417897 0.012993272
-0.033222836 0.00059746974 -0.020969678 0.19063023 0.10507843 -0.2413408 -0.12767848 -0.1475077
0.09260563 -0.12354792 -0.00899216 -0.07901449 0.0977308 0.21644484 0.18226565 0.13155177
-0.13803022 0.14591536 0.10047944 0.13608298 -0.1306542 0.08195072 0.07686776 -0.10719812
0.06201139 -0.14650777 0.112141035 -0.13101088 0.23755214 0.019036163 -0.014439377 0.0067209494
-0.2252017 -0.12690486 0.069423094 0.15248564 -0.07715111 -0.08442363 0.10271456 0.08008936
0.13414644 0.023166575 0.10665095 0.0023906443 0.14406982 -0.07829144 -0.017833227 0.22767898
0.1075608 0.16025148 0.11794942 0.09367439 -0.049998447 0.1442866 0.18689513 0.13293204
-0.1468058 0.19207856 0.123803444 -0.10247422 0.012607249 -0.026421562 0.003765078 0.09113738
-0.16192701 -0.095448256 0.20910256 -0.20616153 0.16487715 0.096105136 -0.14721525 -0.0004745096
-0.1142477 0.07328073 0.21128169 0.035158794 -0.03984677 -0.10145138 -0.028850956 -0.036344055
-0.17868365 0.078018025 -0.049613275 0.123963274 0.21558273 -0.038565345 0.094292544 -0.14389215
0.17444728 -0.12072677 0.035378333 -0.12437209 0.05132896 0.1484904 0.03871629 -0.06640393
0.1862295 0.15275551 0.07003945 0.095025495 -0.11456148 0.1500964 0.09093783 -0.17787677
0.061323557 0.08586896 0.1871288 -0.019740645 -0.17339818 -0.10209389 -0.16748263 0.21164893
0.011207579 0.0051027816 0.06443814 -0.21866874 0.14847818 -0.14378288 -0.1929024 0.15527964
0.018966625 -0.13603374 0.17237324 0.21975218 0.048103105 0.011557576 0.13132182 -0.129859
0.06699864 -0.14881167 0.17441714 0.06294951 0.05225293 -0.032602426 0.21823688 0.20164599
0.10254965 0.038548745 -0.080574654 0.08050155 -0.057494674 -0.16665457 -0.07856488 0.108596705
0.005120143 -0.0892141 0.063335836 -0.17275709 -0.055232164 -0.031830378 -0.029150419 0.08314792
0.1366921 0.19487044 0.029439773 0.1630586 0.04192202 0.053330064 0.06828139 0.1566381
-0.19672255 0.039137945 0.13128316 -0.011030781 0.17196752 -0.21969645 -0.13108644 0.04741514
-0.023399418 0.026087757 -0.12738581 -0.003755681 -0.10106269 0.09706771 -0.2036368 -0.0035401818
00000000: defd 1e3e 3f55 903c 5ab4 9bbd 8b45 17be
00000010: 7239 b83d c6d8 d6bd 3825 d43d 1999 89bd
00000020: 9860 6cbd 64e1 2bbe 51a0 fabc 2998 883d
00000030: e425 9c3c 1ccd 323e 1d62 ec3d ba80 0c3e
00000040: 4fce 603e 2011 0fbe 899c 3e3d 97e7 94bd
00000050: 1762 68bd de35 ec3d 0f86 62be 09c5 053e
00000060: bf6b 1d3d 6fdb 8cbd 7bf5 9d3c d932 133e
00000070: 84d9 853c db06 653d 59f9 1a3e f50d 543e
00000080: fbe4 a6bd 648d 55b9 ec6f 69bd 39c5 6ebd
00000090: 6f7d 153e 4e24 5f3e 16f8 0f3e bc6e d4bd
000000a0: 0c9a 183d bd9b a8bc 35ab 503d 8890 cb3d
000000b0: 4239 debd a296 3dbd f896 df3c 87a8 8e3d
000000c0: 2100 953d 47d1 033e 7a36 56bd 6ce6 0c3e
000000d0: a4dd 133e a8b2 e3bd f2fe 053e f80f d6bd
000000e0: d2c1 0c3e f763 403c 4a35 2b3d e4ae 59be
000000f0: a869 68be 4d21 0abe 5a02 b1bd 4f8e 5cbe
00000100: 8349 45bc 8f5d 03be 993c e8bc b7f1 363e
00000110: daa7 11bb 5743 44be 98bf 163e f4c8 193d
00000120: 8db1 f73d ed55 3d3e 17cf 2bbe f59a 813c
00000130: 9150 a93c 5d5d 0c3e f7d6 31bd bce1 543c
00000140: ab14 08bd 849f 1c3a 9ac8 abbc 9234 433e
00000150: 5c33 d73d 0b22 77be 26be 02be 420c 17be
00000160: 05a8 bd3d b106 fdbd da53 13bc 59d2 a1bd
00000170: 1627 c83d b7a3 5d3e d9a3 3a3e 82b5 063e
00000180: cb57 0dbe d66a 153e 2ac8 cd3d 5659 0b3e
00000190: 37ca 05be c7d5 a73d d86c 9d3d b08a dbbd
000001a0: a8ff 7d3d 2206 16be 33aa e53d b727 06be
000001b0: de40 733e baf1 9b3c 2393 6cbc 693b dc3b
000001c0: 469b 66be 59f3 01be b22d 8e3d 3225 1c3e
000001d0: 6701 9ebd 4ce6 acbd 035c d23d e405 a43d
000001e0: af5d 093e d4c7 bd3c d06b da3d 5bac 1c3b
000001f0: 0a87 133e 4357 a0bd fd16 92bc ae24 693e
00000200: d648 dc3d f718 243e 778f f13d 5cd8 bf3d
00000210: 2ccb 4cbd debf 133e 7061 3f3e 561f 083e
00000220: 4254 16be 3eb0 443e a98c fd3d 01de d1bd
00000230: a38e 4e3c 0872 d8bc 87bf 763b 3ca6 ba3d
00000240: 32d0 25be 607a c3bd fb1e 563e 021c 53be
00000250: 8ed5 283e c5d2 c43d 98bf 16be 9ac7 f8b9
00000260: b3fa e9bd 3514 963d 3a5a 583e ab02 103d
00000270: 5e36 23bd bec5 cfbd d758 ecbc 81dd 14bd
00000280: d9f8 36be eac7 9f3d 4a37 4bbd 75e0 fd3d
00000290: b8c1 5c3e b2f6 1dbd 731c c13d 7758 13be
000002a0: 4fa2 323e 993f f7bd dfe8 103d cbb6 febd
000002b0: 513e 523d de0d 183e f994 1e3d c9fe 87bd
000002c0: f2b2 3e3e f16b 1c3e d870 8f3d ba9c c23d
000002d0: 369f eabd dfb2 193e 9d3d ba3d 5425 36be
000002e0: 692e 7b3d 11dc af3d b19e 3f3e 22b7 a1bc
000002f0: 4b8f 31be 9a16 d1bd 9180 2bbe 7fba 583e
00000300: fe9f 373c 3c35 a73b 25f8 833d b3ea 5fbe
00000310: aa0a 183e d23b 13be 3588 45be a001 1f3e
00000320: e55f 9b3c 6e4c 0bbe 9c82 303e b706 613e
00000330: c307 453d fd5b 3d3c 3a79 063e c2f9 04be
00000340: 9536 893d 1662 18be 689a 323e aceb 803d
00000350: 2b07 563d 1f8a 05bd 7d79 5f3e 497c 4e3e
00000360: 8d05 d23d 4ae5 1d3d 5304 a5bd ffdd a43d
00000370: 897f 6bbd 7fa7 2abe a0e6 a0bd f367 de3d
00000380: dfc6 a73b e2b5 b6bd 38b6 813d 3ce7 30be
00000390: 1f3b 62bd 9260 02bd dccc eebc 7549 aa3d
000003a0: 04f9 0b3e 1e8c 473e ae2b f13c d5f8 263e
000003b0: 6db6 2b3d a070 5a3d 1dd7 8b3d bd65 203e
000003c0: a371 49be 1c4f 203d 186f 063e 73ba 34bc
000003d0: 4118 303e 1bf8 60be 863b 06be 6136 423d
000003e0: 23b0 bfbc feb5 d53c 6d71 02be df21 76bb
000003f0: f5f9 cebd 6fcb c63d 2a86 50be 6502 68bb

gru1.bias_ih_l0 f4 [72]
0.15786836 -0.17288463 -0.09012535 -0.011281575 0.0743642 -0.10130025 0.16641861 0.17986923
-0.11190653 -0.11860149 0.11258544 -0.11642672 -0.0640105 0.10342409 0.060837884 0.017941358
0.16024245 -0.022471912 0.005645556 0.13978422 0.042728454 0.035459988 -0.1463554 0.13401666
0.22080004 0.06691769 0.13223666 -0.20609273 -0.004909092 -0.13722044 -0.11011498 0.15900116
0.12617469 0.023334622 0.18186727 0.124772795 -0.12203511 -0.19301926 0.08518005 -0.02976628
-0.017501634 -0.052208696 -0.0022455945 0.21603654 -0.1892847 0.18459608 -0.12662955 0.16073868
0.111040495 -0.04135942 0.0076096645 -0.110982254 0.059739523 0.013315338 0.14301687 -0.20032209
0.14054747 -0.10033985 0.061761416 0.22846618 -0.068759486 0.07242376 -0.040846504 0.21346265
-0.083078556 0.038092528 -0.13641201 -0.045529265 0.17899235 -0.171123 0.1408529 0.16585399
00000000: 3ea8 213e ab08 31be a493 b8bd 5bd6 38bc
00000010: 424c 983d 8176 cfbd a469 2a3e a42f 383e
00000020: 402f e5bd 57e5 f2bd 3293 e63d 2271 eebd
00000030: f017 83bd 02d0 d33d 2531 793d c1f9 923c
00000040: 9916 243e 0417 b8bc 5bfe b83b 9823 0f3e
00000050: 0804 2f3d 7e3e 113d 31de 15be aa3b 093e
00000060: 6819 623e 240c 893d 0c69 073e f909 53be
00000070: 73dc a0bb 8483 0cbe f683 e1bd 33d1 223e
00000080: f033 013e 4028 bf3c 6a3b 3a3e e188 ff3d
00000090: 8bed f9bd d7a6 45be e172 ae3d 6ad8 f3bc
000000a0: 965f 8fbc c9d8 55bd d32a 13bb af38 5d3e
000000b0: d9d3 41be c106 3d3e 2dab 01be ae98 243e
000000c0: 3369 e33d 7f68 29bd 7e5a f93b aa4a e3bd
000000d0: 6eb1 743d 9328 5a3c 0473 123e 3c21 4dbe
000000e0: adeb 0f3e fb7e cdbd 8af9 7c3d 0af3 693e
000000f0: c6d1 8cbd e952 943d aa4e 27bd f495 5a3e
00000100: 1725 aabd e906 1c3d 97af 0bbe e57c 3abd
00000110: c549 373e de3a 2fbe be3b 103e a1d5 293e

gru1.bias_hh_l0 f4 [72]
-0.06254355 0.08146942 -0.1185407 0.023310406 -0.1130541 0.030876901 -0.07541893 0.11564193
0.13001864 -0.059831377 -0.07287127 0.08040421 0.1884497 0.12128416 -0.01686595 -0.04640664
0.08571978 0.082177795 -0.013282595 -0.10472319 0.17449296 0.12447585 -0.08973428 0.035260964
-0.16460584 -0.1213076 0.10160066 -0.18228424 -0.16247194 -0.16204222 0.23639101 -0.1622297
-0.22282873 -0.12105016 0.20341071 -0.13720618 -0.10907417 0.11762637 0.023922829 -0.20446095
0.0733313 -0.066817604 -0.093328916 0.07102982 0.0744693 -0.21294495 -0.069417424 0.14311597
0.0126798 -0.09894936 -0.13619883 -0.20995884 0.05049826 0.1602983 -0.0012323682 0.05833493
0.009128102 0.115116835 -0.065549366 0.1283593 -0.15416771 0.14632355 0.09910309 -0.02709484
-0.13166249 0.072895594 0.16071066 0.033061493 0.1254382 0.13595973 -0.12531963 -0.15030152
00000000: d516 80bd 70d9 a63d 77c5 f2bd 77f5 be3c
00000010: e888 e7bd 8ef1 fc3c 3d75 9abd add5 ec3d
00000020: 9b23 053e bf11 75bd 883d 95bd f6aa a43d
00000030: f5f8 403e d463 f83d 762a 8abc e414 3ebd
00000040: da8d af3d d54c a83d 3e9f 59bc 1d79 d6bd
00000050: 48ae 323e 32ed fe3d 9bc6 b7bd cd6d 103d
00000060: 6f8e 28be 1e70 f8bd 0214 d03d b8a8 3abe
00000070: 0b5f 26be 65ee 25be 7c10 723e 8b1f 26be
00000080: 372d 64be 25e9 f7bd e64a 503e c77f 0cbe
00000090: 4762 dfbd 18e6 f03d cff9 c33c 365e 51be
000000a0: b82e 963d abd7 88bd 3b23 bfbd 1578 913d
000000b0: 5c83 983d 3e0e 5abe b92a 8ebd fe8c 123e
000000c0: f0be 4f3c f6a5 cabd b577 0bbe 73ff 56be
000000d0: 43d7 4e3d 3d25 243e 6a87 a1ba 9cf0 6e3d
000000e0: 098e 153c 60c2 eb3d bf3e 86bd 9f70 033e
000000f0: 24de 1dbe d7d5 153e 90f6 ca3d fff5 ddbc
00000100: 88d2 06be 494a 953d 5691 243e 7d6b 073d
00000110: df72 003e 0739 0b3e ca53 00be a4e8 19be

gru2.weight_ih_l0 f4 [72, 24]
-0.08127909 -0.15331052 0.123331904 0.009748659 0.20541331 -0.083070405 0.07232109 -0.0066162096
-0.08975374 -0.06374448 0.14922486 0.21064445 0.19251314 -0.07260312 0.18373734 0.120854355
0.028849622 0.10543921 0.13087796 0.07673731 0.114847876 0.077838115 0.22016877 0.18922752
-0.07230436 -0.18699305 0.18410267 0.022460544 0.03979924 -0.11003492 -0.16668284 0.060878787
-0.031718712 0.007358167 0.16139987 0.17584214 -0.14457005 -0.03865468 -0.20412564 0.010262718
-0.16980226 0.13928078 -0.07654731 0.06410315 0.042966597 0.13066714 -0.07729994 0.099591285
-0.11742687 -0.06946059 0.092464246 0.10370364 -0.012685483 -0.19380791 -0.13472469 -0.19805613
-0.01884551 -0.113805704 0.054157216 0.1926227 0.030448891 0.17554656 0.14528775 0.120324075
0.021094024 -0.17932488 -0.088863365 -0.17152254 0.033071633 0.07912975 -0.010774855 -0.0052930685
-0.18497796 -0.13353123 0.016130261 -0.020448038 -0.09921879 0.014152182 0.016530486 -0.19153012
-0.10103747 0.012520375 0.06819765 0.059572928 -0.11144615 -0.059192903 -0.042621817 -0.116808824
0.022311833 -0.082815684 -0.00196678 0.123289175 -0.15278016 0.0953685 -0.12726453 0.10760421
0.06044083 0.19090453 -0.11976458 0.07782697 0.015964335 -0.04938749 -0.157277 0.08308531
0.13906159 -0.00048408733 0.038783226 0.11147438 -0.095988534 -0.25207412 0.111619785 -0.11904721
-0.11145335 0.13918169 -0.16914786 0.05362076 -0.12003318 -0.07062441 0.19017878 0.0683321
0.14016946 0.1870643 -0.06406545 -0.077144966 -0.05295966 -0.11351518 0.027884878 0.14112371
0.090146646 -0.104568385 -0.059531268 0.13550667 0.00622619 -0.030025408 0.056633465 0.1796797
-0.15503909 -0.12410544 0.09132103 -0.18718843 -0.15600435 -0.09346192 0.06815991 0.112831295
-0.046006143 -0.16288774 0.03246092 -0.1413965 -0.11390518 -0.22887969 0.15327017 0.0957905
-0.056646623 -0.015458939 0.08685213 -0.15798102 0.0992495 -0.2050216 0.06666285 0.004494699
-0.22199507 -0.01895974 0.043815576 -0.03708869 -0.069328606 0.11990352 0.14191395 0.14700048
-0.12690946 -0.12072529 0.1907535 -0.16128741 0.20806475 0.17232543 0.07168374 0.08809221
0.010350022 0.09719673 0.097160675 -0.019788248 -0.102682576 0.04422358 -0.013777748 -0.13247646
0.16653623 -0.02375749 -0.02498147 -0.099166445 -0.16346523 -0.054470822 -0.14316884 0.11321043
0.0905492 0.10290357 -0.07309654 0.16632372 -0.07513712 0.010221913 -0.03128249 -0.067704044
0.103057384 0.008807644 0.100318834 -0.0929005 -0.04242257 0.016022196 -0.16334754 -0.06055265
-0.09937593 -0.23930296 -0.247516 -0.061657112 0.1838763 -0.0690344 0.19427916 -0.14591575
-0.005330082 0.07800826 -0.073720105 -0.09390192 -0.08150863 -0.018707918 0.13930666 -0.039170798
0.19023149 -0.100110464 0.15284964 -0.05230333 -0.049305305 0.0441942 0.041340023 -0.040299002
0.08760733 0.052349165 -0.12064432 -0.14053312 -0.014981506 0.16133882 0.014817148 -0.014923299
-0.1549776 0.11313042 -0.11327248 0.034323204 -0.010891302 0.1616186 0.19609164 0.06886087
-0.14215232 -0.08876159 -0.09487587 -0.1457431 -0.06420507 0.18832736 0.06401297 0.026658509
00000000: a775 a6bd 6ffd 1cbe 7095 fc3d d7b8 1f3c
00000010: de57 523e d120 aabd 141d 943d cacc d8bb
00000020: cfd0 b7bd 778c 82bd 67ce 183e 2eb3 573e
00000030: 2a22 453e f2b0 94bd a425 3c3e 7d82 f73d
00000040: 0b56 ec3c 83f0 d73d df04 063e 7328 9d3d
00000050: 5d35 eb3d 9769 9f3d ec73 613e dcc4 413e
00000060: 4f14 94bd 1b7b 3fbe 6985 3c3e 2dff b73c
00000070: 8704 233d fd59 e1bd e8ae 2abe 095c 793d
00000080: 7beb 01bd c71c f13b 0246 253e f60f 343e
00000090: 2c0a 14be 5f54 1ebd 5006 51be f624 283c
000000a0: a5e0 2dbe 9f9f 0e3e d6c4 9cbd 8348 833d
000000b0: befd 2f3d 9bcd 053e 6e4f 9ebd 84f6 cb3d
000000c0: 807d f0bd 5b41 8ebd e55d bd3d 9362 d43d
000000d0: c6d6 4fbc 9575 46be 45f5 09be 3acf 4abe
000000e0: e661 9abc f712 e9bd f5d3 5d3d e33e 453e
000000f0: f46f f93c 7ac2 333e 50c6 143e 786c f63d
00000100: 60cd ac3c f1a0 37be fffd b5bd 9ba3 2fbe
00000110: 1f76 073d c70e a23d 0489 30bc 7a71 adbb
00000120: dd6a 3dbe 69bc 08be 9c23 843c a582 a7bc
00000130: 3933 cbbd 8ede 673c f16a 873c 7920 44be
00000140: bcec cebd 4222 4d3c 36ab 8b3d be02 743d
00000150: e13d e4bd 4274 72bd 3794 2ebd 7739 efbd
00000160: 4ec7 b63c 459b a9bd 18e5 00bb 097f fc3d
00000170: 6772 1cbe 8f50 c33d a251 02be 995f dc3d
00000180: ce90 773d 7a7c 433e 2247 f5bd bf63 9f3d
00000190: a3c7 823c 894a 4abd 390d 21be a228 aa3d
000001a0: 2966 0e3e 1acd fdb9 29db 1e3d ae4c e43d
000001b0: a395 c4bd dc0f 81be ea98 e43d 06cf f3bd
000001c0: a741 e4bd a585 0e3e 1935 2dbe 71a1 5b3d
000001d0: f5d3 f5bd 88a3 90bd 3abe 423e b3f1 8b3d
000001e0: 9588 0f3e c98d 3f3e bf34 83bd 2efe 9dbd
000001f0: 3aec 58bd a67a e8bd d46e e43c bc82 103e
00000200: ce9e b83d f327 d6bd 0fd7 73bd 43c2 0a3e
00000210: 1105 cc3b d8f7 f5bc 7ef8 673d f5fd 373e
00000220: 91c2 1ebe fe2a febd 8506 bb3d 53ae 3fbe
00000230: 9bbf 1fbe f768 bfbd 6c97 8b3d 1814 e73d
00000240: f070 3cbd 0bcc 26be bef5 043d 3eca 10be
00000250: 1e47 e9bd 705f 6abe dbf2 1c3e cf2d c43d
00000260: 4a06 68bd 7d47 7dbc 88df b13d c7c5 21be
00000270: 5243 cb3d 2ff1 51be 8886 883d 4548 933b
00000280: ad52 63be 7551 9bbc f677 333d 4fea 17bd
00000290: 28fc 8dbd fa8f f53d e451 113e 4b87 163e
000002a0: 8ef4 01be d23e f7bd e354 433e 8728 25be
000002b0: ed0e 553e 1476 303e edce 923d b069 b43d
000002c0: 2493 293c 140f c73d 2dfc c63d f71a a2bc
000002d0: 3e4b d2bd c923 353d 10bc 61bc e9a7 07be
000002e0: 7988 2a3e 119f c2bc f1a5 ccbc c717 cbbd
000002f0: 6e63 27be cc1c 5fbd da9a 12be dfda e73d
00000300: dc71 b93d 1bbf d23d a4b3 95bd c450 2a3e
00000310: 7ee1 99bd d079 273c 1122 00bd 6ba8 8abd
00000320: c00f d33d f04d 103c f673 cd3d 9e42 bebd
00000330: 4ac3 2dbd fb40 833c 9444 27be 0e06 78bd
00000340: 9c85 cbbd d60b 75be d674 7dbe 2b8c 7cbd
00000350: 124a 3c3e e861 8dbd 1ef1 463e f06a 15be
00000360: f8a7 aebb cbc2 9f3d 91fa 96bd a64f c0bd
00000370: ffed a6bd 5941 99bc 68a6 0e3e 8f71 20bd
00000380: 0bcc 423e b706 cdbd 9e84 1c3e 043c 56bd
00000390: 5cf4 49bd fa04 353d 2854 293d 9110 25bd
000003a0: 796b b33d 146c 563d 5f14 f7bd eae7 0fbe
000003b0: fe74 75bc 0136 253e a0c3 723c da80 74bc
000003c0: 73b2 1ebe ecb0 e73d 67fb e7bd 7d96 0c3d
000003d0: 6e71 32bc 597f 253e 3fcc 483e ee06 8d3d
000003e0: 6190 11be a3c8 b5bd 484e c2bd ae3d 15be
000003f0: f37d 83bd e3d8 403e 3b19 833d f262 da3c

gru2.weight_hh_l0 f4 [72, 24]
-0.090146385 -0.19675782 -0.0012117769 0.0820715 0.010343607 0.056175955 0.16337335 -0.16705051
0.042150777 -0.12004006 -0.11226585 -0.037937418 -0.047527753 0.11875616 0.12982498 0.16745272
-0.0676864 -0.019597292 -0.17814098 -0.022522455 -0.20276561 -0.07420584 0.0893288 -0.0206416
0.14074214 -0.24939357 0.09173496 0.1643592 -0.08217772 0.18221031 0.19345576 -0.055516228
-0.16550468 0.07698369 0.08288952 0.18525508 -0.06405519 -0.032254938 -0.21866117 -0.028501464
0.000645346 0.08251755 -0.22480698 -0.07251671 -0.19528618 -0.14527117 0.032254968 0.073867805
-0.21803874 -0.13073021 0.16210735 0.16854148 0.13832326 -0.10540477 0.16253449 0.019887995
-0.13698961 0.027401652 0.12791897 -0.06601146 0.07572066 0.15029554 0.049196206 0.10568762
0.002577361 0.010730047 -0.04197205 0.09416766 0.064420916 0.11991737 -0.055849582 -0.11778293
0.03559373 0.06965676 -0.0009793304 -0.08176995 -0.098145165 0.062262215 -0.13899952 -0.20207888
0.011805975 0.22366431 0.1944483 0.24709189 0.02648304 0.1161552 -0.15708424 -0.12019975
0.1296578 -0.0055109323 0.061050173 0.0754624 0.08144379 0.10303563 -0.10291461 -0.012926583
-0.038893864 -0.08911793 -0.05416921 -0.0074500022 0.011129631 -0.008771579 0.1371741 -0.07125971
-0.109943986 0.023763765 0.0074200905 0.060256712 0.090235166 0.22545664 0.122478314 0.1924567
-0.055077568 -0.05891737 -0.03509377 0.039691996 -0.03366074 0.12228471 0.011904771 0.005399879
0.22043325 -0.046027828 0.20659061 0.17709443 0.12701595 -0.19321209 0.18529253 -0.12492188
-0.07880157 -0.04011418 -0.027137471 -0.1871734 0.01770204 0.08163561 -0.119229935 -0.20557933
0.17411588 -0.07313693 -0.04695735 -0.092847064 0.14776944 -0.076708935 0.038757462 0.1930503
0.14431684 -0.22715965 0.018237665 -0.08602063 -0.11166005 -0.20494545 -0.13694148 -0.15105122
-0.21801887 0.18619996 -0.010636443 0.035904665 -0.0020126435 -0.13771228 -0.13588953 -0.10902185
-0.090470955 -0.16693547 -0.16972955 0.029773528 -0.17055432 0.14157094 -0.055645306 -0.20518231
0.1427834 0.024483409 0.03135241 0.18241872 0.109504096 0.08138772 0.012320791 0.11341402
0.023000315 -0.010512384 0.16384897 0.2293915 -0.098340414 0.0514159 -0.05176473 0.041398905
0.01639872 0.025584616 0.028124934 -0.175985 0.068506196 0.007537505 -0.09274278 -0.07505046
-0.19891381 -0.12190124 -0.053577047 -0.12798882 0.073661014 0.05943247 -0.018115427 0.08338422
0.06694596 0.19124839 -0.059667483 0.05217237 -0.16357201 0.11700091 -0.16346158 -0.050673507
-0.12084015 -0.1320538 0.009429146 0.027496157 0.14501461 0.036985368 0.09647134 0.06309615
-0.03771974 -0.13525106 -0.018023087 -0.026511554 -0.11486174 0.10937527 0.009324303 0.017684385
0.019620169 -0.2028956 0.048893265 0.046749912 -0.009723135 -0.047338285 -0.12861682 0.08513085
0.1857779 0.09449748 -0.13858247 -0.008384645 0.008141058 -0.1751437 0.07535539 -0.03593001
-0.10440989 -0.14124547 -0.02628475 -0.18615621 0.19327356 0.11571848 0.15934479 -0.04927005
0.14922313 -0.09318112 -0.13239521 -0.072898604 -0.21505813 -0.08373049 0.085195646 0.059662297
00000000: ab9e b8bd e27a 49be 7cd4 9eba 1a15 a83d
00000010: 3b78 293c c218 663d 584b 273e 4a0f 2bbe
00000020: 4ba6 2c3d 90d7 f5bd a3eb e5bd 4464 1bbd
00000030: 76ac 42bd 6e36 f33d d7f0 043e ba78 2b3e
00000040: 2b9f 8abd 808a a0bc 976a 36be 0381 b8bc
00000050: caa1 4fbe 3bf9 97bd 05f2 b63d 9318 a9bc
00000060: b51e 103e 0761 7fbe 8adf bb3d c74d 283e
00000070: cb4c a8bd 5795 3a3e 4419 463e fc64 63bd
00000080: 0f7a 29be a0a9 9d3d fbc1 a93d 82b3 3d3e
00000090: 5e2f 83bd c11d 04bd b7e8 5fbe e77b e9bc
000000a0: 702c 293a f6fe a83d cd33 66be a483 94bd
000000b0: 1af9 47be f7c1 14be c91d 043d 0148 973d
000000c0: 8c45 5fbe 24de 05be 78ff 253e 2396 2c3e
000000d0: 9da4 0d3e 75de d7bd 716f 263e 26ec a23c
000000e0: 0147 0cbe 6e79 e03c 31fd 023e 0431 87bd
000000f0: 6f13 9b3d 13e7 193e f681 493d c072 d83d
00000100: f1e8 283b 14cd 2f3c e2ea 2bbd f9da c03d
00000110: 1def 833d 3d97 f53d 88c2 64bd 2d38 f1bd
00000120: bbca 113d 34a8 8e3d e05c 80ba 0177 a7bd
00000130: 5500 c9bd aa06 7f3d e455 0ebe c4ed 4ebe
00000140: d96d 413c 4208 653e 751d 473e a805 7d3e
00000150: f6f2 d83c c7e2 ed3d b1da 20be 492b f6bd
00000160: 04c5 043e 0d95 b4bb bf0f 7a3d 088c 9a3d
00000170: 00cc a63d 5804 d33d e5c4 d2bd 05ca 53bc
00000180: 2c4f 1fbd 7683 b6bd 89e0 5dbd 261f f4bb
00000190: 0e59 363c abb6 0fbc 5e77 0c3e 9cf0 91bd
000001a0: 502a e1bd 3aac c23c 3b24 f33b becf 763d
000001b0: 37cd b83d 1bde 663e e9d5 fa3d 5f13 453e
000001c0: 0499 61bd 5753 71bd 7cbe 0fbd 1394 223d
000001d0: d8df 09bd 6870 fa3d 3b0c 433c 78f1 b03b
000001e0: 41b9 613e ad87 3cbd 7d8c 533e 3e58 353e
000001f0: 7810 023e 64d9 45be 53bd 3d3e 0bd7 ffbd
00000200: b862 a1bd c44e 24bd 674f debc 62aa 3fbe
00000210: de03 913c 9230 a73d d32e f4bd 6383 52be
00000220: 6f4b 323e d1c8 95bd 5a56 40bd 9a26 bebd
00000230: df50 173e 9319 9dbd 25c0 1e3d faae 453e
00000240: cbc7 133e 8a9c 68be 2867 953c 962b b0bd
00000250: 06ae e4bd 38dd 51be 633a 0cbe 2cad 1abe
00000260: 5740 5fbe 34ab 3e3e 7a44 2ebc c510 133d
00000270: 8ee6 03bb 7304 0dbe a026 0bbe d946 dfbd
00000280: d648 b9bd 22f1 2abe 95cd 2dbe 9de7 f33c
00000290: cba5 2ebe f9f7 103e 55ec 63bd 501b 52be
000002a0: d035 123e 6e91 c83c 626b 003d f9cb 3a3e
000002b0: af43 e03d 9bae a63d 25dd 493c 9c45 e83d
000002c0: 286b bc3c 223c 2cbc 06c8 273e 9be5 6a3e
000002d0: b366 c9bd 7b99 523d 4107 54bd e691 293d
000002e0: 9c56 863c d496 d13c 4366 e63c 6935 34be
000002f0: fa4c 8c3d 2dfd f63b edef bdbd 0eb4 99bd
00000300: 10b0 4bbe 5ba7 f9bd 9b73 5bbd 800f 03be
00000310: 96db 963d 766f 733d ce66 94bc 59c5 aa3d
00000320: f71a 893d 9ed6 433e e465 74bd b2b2 553d
00000330: 6c7f 27be 2c9e ef3d 7962 27be 068f 4fbd
00000340: 0a7b f7bd 1d39 07be b47c 1a3c 9f3f e13c
00000350: b67e 143e f87d 173d c492 c53d 8e38 813d
00000360: 0480 1abd 417f 0abe 27a5 93bc c22e d9bc
00000370: a23c ebbd 2400 e03d f6c4 183c d8de 903c
00000380: 7aba a03c ddc3 4fbe 4e44 483d d67c 3f3d
00000390: c94d 1fbc cae5 41bd 21b4 03be 1559 ae3d
000003a0: 903c 3e3e e587 c13d 90e8 0dbe c05f 09bc
000003b0: 1262 053c df58 33be ed53 9a3d 592b 13bd
000003c0: dad4 d5bd a7a2 10be 1e53 d7bc bc9f 3ebe
000003d0: 81e9 453e cffd ec3d 482b 233e 64cf 49bd
000003e0: f3cd 183e bed5 bebd 9c92 07be dd4b 95bd
000003f0: 3338 5cbe e47a abbd 0e7b ae3d 7460 743d

gru2.bias_ih_l0 f4 [72]
-0.09623863 0.073730454 -0.11686337 0.14086042 0.12745693 0.18482485 -0.051539697 0.18536185
0.22482203 -0.17554507 0.15830311 0.16075893 -0.14112999 0.106960095 0.16889305 0.10813665
-0.17466258 -0.13187453 -0.16424789 -0.009007048 0.12583725 -0.106134504 -0.130061 -0.12943141
-0.045801677 -0.1594297 -0.075346 0.015040926 0.12363897 -0.111755006 0.08815906 0.09568888
-0.11199605 0.04402604 -0.05114865 0.0475801 -0.024451997 0.08650226 -0.08757351 -0.124609314
0.14124928 0.06415508 -0.031786904 -0.14568678 -0.08417822 0.10965587 -0.15136293 0.07524767
0.05257569 -0.015707308 0.14007427 -0.06161752 -0.16458292 0.031530753 -0.036877643 0.0129087
-0.09319561 -0.0753976 -0.17594562 0.15293986 -0.19905546 -0.009071609 0.07128225 0.0340904
0.02572834 -0.10634174 0.009445429 0.13427632 0.035226904 0.1131574 0.11821418 -0.085218824
00000000: c218 c5bd feff 963d 1056 efbd b73d 103e
00000010: 1284 023e ba42 3d3e 4a1b 53bd 7fcf 3d3e
00000020: bf37 663e 16c2 33be 361a 223e fd9d 243e
00000030: 6184 10be e50d db3d 4df2 2c3e bf76 dd3d
00000040: bfda 32be 1e0a 07be 9930 28be 4c92 13bc
00000050: 7bdb 003e 0c5d d9bd b62e 05be ab89 04be
00000060: 8a9a 3bbd 8a41 23be 014f 9abd 376e 763c
00000070: 6e36 fd3d cfdf e4bd bd8c b43d 88f8 c33d
00000080: 2f5e e5bd a654 343d 3f81 51bd 5ae3 423d
00000090: 8e4f c8bc 1928 b13d be59 b3bd 2b33 ffbd
000000a0: a7a3 103e bd63 833d fc32 02bd ea2e 15be
000000b0: a165 acbd 4293 e03d e2fe 1abe 731b 9a3d
000000c0: 9b59 573d 9dac 80bc a16f 0f3e a762 7cbd
000000d0: 6d88 28be 6426 013d 030d 17bd 037f 533c
000000e0: 57dd bebd 0f6a 9abd 172b 34be 449c 1c3e
000000f0: 32d5 4bbe 16a1 14bc 6efc 913d 60a2 0b3d
00000100: 3dc4 d23c b3c9 d9bd 00c1 1a3c bb7f 093e
00000110: 164a 103d 11bf e73d 471a f23d 3587 aebd

gru2.bias_hh_l0 f4 [72]
0.06757904 -0.16147126 -0.0945366 -0.0790591 -0.00209629 0.11954349 -0.058447737 -0.17795713
0.20634864 0.08700771 -0.19285461 0.07530436 0.067091405 -0.16012166 0.15148552 0.17122754
-0.10591483 0.06383671 -0.09401998 -0.08012715 0.18773794 -0.09887945 -0.16422838 -0.0020516757
0.1152742 -0.06852383 0.09367843 0.086209 0.16890554 -0.107164055 0.16534483 -0.13713503
0.22956266 -0.028291166 -0.04620612 0.1529929 -0.0055715116 0.021809792 -0.19163863 0.0972805
0.124408916 0.18349053 -0.080286615 -0.039026566 0.09707528 0.023065498 -0.15963714 -0.1307999
-0.19395521 -0.095117144 0.097911276 0.15641405 -0.16110896 0.19891596 0.058667555 0.12541427
-0.051258 -0.13191696 -0.14088598 0.16198228 0.15004678 0.14604653 -0.07215938 -0.13452739
-0.20753266 0.10488542 -0.007659731 0.14122577 -0.114178404 -0.08388972 0.031159282 -0.19292425
00000000: e166 8a3d b958 25be 689c c1bd bde9 a1bd
00000010: e961 09bb 38d3 f43d e566 6fbd 653a 36be
00000020: 0f4d 533e 1931 b23d ae7b 45be 2c39 9a3d
00000030: 3867 893d eff6 23be 051f 1b3e 4656 2f3e
00000040: e0e9 d8bd d2bc 823d 8c8d c0bd b419 a4bd
00000050: 603e 403e 4f81 cabd 7c2b 28be 6875 06bb
00000060: e114 ec3d 3956 8cbd 7ada bf3d 588e b03d
00000070: 93f5 2c3e d478 dbbd 2850 293e 206d 0cbe
00000080: 7912 6b3e e0c2 e7bc a142 3dbd 2caa 1c3e
00000090: 3a91 b6bb 73aa b23c eb3c 44be 003b c73d
000000a0: 1aca fe3d f1e4 3b3e 4f6d a4bd 52da 1fbd
000000b0: 68cf c63d dbf3 bc3c eb77 23be 69f0 05be
000000c0: 329c 46be c7cc c2bd b585 c83d 012b 203e
000000d0: bff9 24be a0b0 4b3e 644d 703d 996c 003e
000000e0: e9f3 51bd 3d15 07be 6a44 10be afde 253e
000000f0: dda5 193e 398d 153e 4cc8 93bd 8cc1 09be
00000100: 7183 54be 2bce d63d 7bfe fabb 7d9d 103e
00000110: 5ed6 e9bd 60ce abbd c041 ff3c ef8d 45be

fc.weight f4 [24, 24]
0.027437175 0.030507144 0.19035335 -0.16624343 0.17163394 -0.06563352 0.128902 0.15714756
0.18451364 0.057824124 -0.020637719 -0.02155589 -0.163753 -0.19973928 0.15843518 0.07669172
-0.08553609 0.029675873 0.010248414 -0.037187524 0.08016161 -0.117249995 0.0072391946 -0.033714205
0.15653606 0.17662898 -0.10273617 -0.12336503 -0.024829295 -0.07113079 0.010517539 0.22718067
-0.033457957 -0.027615644 -0.052901246 -0.12402909 0.13413097 -0.11705149 -0.123899385 0.08364583
-0.07191202 -0.07793173 -0.106971174 -0.11432977 0.20859563 0.19718504 -0.20385002 -0.11514778
-0.109262355 -0.07482342 -0.055032723 -0.07294683 0.22520189 -0.08235738 -0.08021527 -0.1390765
-0.011555594 0.13113512 0.019877305 0.046994198 0.12743536 0.08767895 0.16537264 0.014653262
0.10515096 -0.0021303296 0.19683008 0.13355903 -0.04577063 -0.06643736 0.011438963 -0.14576381
0.039237924 -0.15391895 0.18475209 -0.120017745 0.13131641 -0.1014439 -0.0676058 -0.15382087
0.1346817 -0.049730387 0.07194434 -0.20811704 0.14466363 0.08618679 0.12060253 0.109937936
0.13341601 -0.030651374 -0.050013643 -0.02009696 0.015456023 0.12635076 -0.024015386 0.15688239
-0.15415715 0.12749448 0.04308447 -0.13131624 -0.08845445 0.01476546 -0.16803704 -0.16908814
-0.055192113 -0.100856066 0.08102418 0.19447769 -0.16196144 0.15481216 0.18339306 0.121551916
-0.04072941 -0.10742358 0.14286745 0.18260555 0.12073758 -0.026801521 -0.13768971 -0.009278698
0.10057645 -0.14026743 0.06574006 -0.22141452 0.22589953 0.046147417 -0.23625351 -0.16670464
0.045975227 -0.050312407 -0.15920404 -0.19354142 0.18396111 -0.20921728 0.23624703 -0.009174388
-0.075023435 -0.15678297 -0.12575907 0.2444058 -0.040637884 -0.081409395 -0.034111787 0.08056668
0.20850438 0.0638835 0.054877434 0.13154581 -0.08369155 0.03384193 0.13212472 -0.16827519
0.16358002 -0.052111205 0.0026382075 -0.22513244 0.0835101 -0.096073665 0.010392178 -0.117715135
0.08941184 -0.17300464 -0.11175946 0.087541245 -0.13364293 -0.16490528 -0.043932445 0.0032424857
0.15215094 -0.03736253 -0.13164125 -0.16404338 -0.15022804 -0.14206113 0.15491015 0.005505467
-0.1343799 0.055797 -0.12982473 0.1665376 0.17291655 -0.006494218 -0.0021072756 0.1769983
0.08276174 0.15043372 0.09900709 -0.016796447 -0.0457608 0.00491629 -0.17783754 -0.18556552
-0.074269265 0.12858026 -0.038859393 0.24100839 0.10222635 0.1785807 0.08230829 0.09545303
0.08166557 -0.14958902 -0.027853586 0.13690111 -0.03908599 0.14172237 -0.1067242 -0.008799111
0.06763089 -0.17510739 -0.04537916 -0.19573028 0.17388879 -0.18323615 0.14325954 -0.19747551
-0.10202328 0.16177009 -0.13454482 -0.06843623 0.05370948 0.11381902 -0.10846376 -0.07802341
0.12833023 0.0604812 0.18075877 0.08651112 -0.068050146 -0.0017314297 0.09452553 0.19284476
0.067973375 -0.1337239 0.07818248 0.02703891 -0.072289065 0.044040676 -0.08466275 0.028238185
0.0337985 -0.15718816 -0.21958898 0.09904092 0.10975717 0.15600511 -0.1684364 -0.10811596
0.057642277 0.018838705 0.10985314 0.013276364 0.052332338 -0.12399605 -0.106353216 -0.09930598
00000000: edc3 e03c 1eea f93c fdeb 423e b83b 2abe
00000010: cfc0 2f3e de6a 86bd e3fe 033e 4aeb 203e
00000020: 25f1 3c3e fdd8 6c3d 6f10 a9bc fa95 b0bc
00000030: deae 27be 7488 4cbe d53c 223e 8c10 9d3d
00000040: 8c2d afbd d11a f33c f7e8 273c f251 18bd
00000050: c52b a43d c420 f0bd c436 ed3b e817 0abd
00000060: fd4a 203e 3ade 343e 5767 d2bd cea6 fcbd
00000070: ce66 cbbc 05ad 91bd c251 2c3c 0da2 683e
00000080: 360b 09bd 343a e2bc faae 58bd f702 febd
00000090: a159 093e b1b8 efbd f6be fdbd 814e ab3d
000000a0: 9c46 93bd ac9a 9fbd b413 dbbd ba25 eabd
000000b0: 189a 553e e0ea 493e 0fbe 50be 99d2 ebbd
000000c0: f1c4 dfbd 053d 99bd fe69 61bd 2665 95bd
000000d0: 539b 663e fcaa a8bd e747 a4bd 126a 0ebe
000000e0: ad53 3dbc 4948 063e bbd5 a23c fd7c 403d
000000f0: 6a7e 023e 0591 b33d 7257 293e 3c14 703c
00000100: 6359 d73d 009d 0bbb d38d 493e b3c3 083e
00000110: fc79 3bbd 5010 88bd 7d6a 3b3c 1c43 15be
00000120: f2b7 203d ee9c 1dbe a72f 3d3e ddcb f5bd
00000130: cf77 063e d2c1 cfbd e974 8abd 3883 1dbe
00000140: 00ea 093e 17b2 4bbd 8e57 933d a21c 55be
00000150: b422 143e b382 b03d 76fe f63d 2427 e13d
00000160: 359e 083e 9718 fbbc 1bdb 4cbd 61a2 a4bc
00000170: 423b 7d3c 1862 013e eabb c4bc c7a5 203e
00000180: 5fdb 1dbe ea8d 023e 5779 303d c477 06be
00000190: 9b27 b5bd d4ea 713c e711 2cbe 7125 2dbe
000001a0: 2011 62bd a08d cebd 01f0 a53d 2925 473e
000001b0: 38d9 25be 1487 1e3e 64cb 3b3e 36f0 f83d
000001c0: e2d3 26bd e500 dcbd d84b 123e f3fc 3a3e
000001d0: 4445 f73d dd8e dbbc 88fe 0cbe ae05 18bc
000001e0: 07fb cd3d 44a2 0fbe b9a2 863d 7dba 62be
000001f0: 3552 673e 1305 3d3d 71ec 71be 9fb4 2abe
00000200: 8550 3c3d 6214 4ebd 6206 23be b92f 46be
00000210: 4d60 3c3e 0e3d 56be beea 713e 2c50 16bc
00000220: e3a5 99bd b78b 20be fcc6 00be 8445 7a3e
00000230: e973 26bd f8b9 a6bd cdb8 0bbd 2500 a53d
00000240: 2c82 553e 5ad5 823d 29c7 603d f2b3 063e
00000250: 7a66 abbd d69d 0a3d b44b 073e 5550 2cbe
00000260: 8581 273e 8f72 55bd c7e5 2c3b 1e89 66be
00000270: 5807 ab3d 45c2 c4bd f443 2a3c a214 f1bd
00000280: 8e1d b73d 2128 31be 25e2 e4bd d348 b33d
00000290: b1d9 08be eedc 28be 82f2 33bd e27f 543b
000002a0: 75cd 1b3e 7409 19bd f7cc 06be fdfa 27be
000002b0: 61d5 19be 7978 11be c4a0 1e3e 3467 b43b
000002c0: e29a 09be 658b 643d c6f0 04be d588 2a3e
000002d0: 0911 313e 73cd d4bb 381a 0abb 0b3f 353e
000002e0: fd7e a93d 4c0b 1a3e 3bc4 ca3d b498 89bc
000002f0: ad6f 3bbd d418 a13b 0b1b 36be e304 3ebe
00000300: 7c1a 98bd 8baa 033e 072b 1fbd e7ca 763e
00000310: 0c5c d13d dcdd 363e 4091 a83d e17c c33d
00000320: 4740 a73d dd2d 19be 342d e4bc ce2f 0c3e
00000330: a218 20bd ab1f 113e 3892 dabd 252a 10bc
00000340: 1082 8a3d 5a4f 33be 80df 39bd 856d 48be
00000350: e70f 323e 42a2 3bbe a1b2 123e 0537 4abe
00000360: 95f1 d0bd 0fa7 253e 1ec6 09be 4b28 8cbd
00000370: 79fe 5b3d f219 e93d 3f22 debd bdca 9fbd
00000380: 0069 033e 23bb 773d d418 393e be2c b13d
00000390: e05d 8bbd 24f1 e2ba 9a96 c13d 1979 453e
000003a0: a035 8b3d ebee 08be 231e a03d b480 dd3c
000003b0: 4a0c 94bd ff63 343d aa63 adbd c453 e73c
000003c0: 4c70 0a3d eff5 20be efdb 60be f7d5 ca3d
000003d0: 5ec8 e03d cebf 1f3e 977a 2cbe e76b ddbd
000003e0: 4f1a 6c3d a153 9a3c affa e03d 1b85 593c
000003f0: 6f5a 563d a4f1 fdbd b7cf d9bd ef60 cbbd

fc.bias f4 [24]
-0.10845955 0.039643984 -0.16556582 -0.083328515 -0.17345399 -0.010601212 -0.1585431 -0.1535862
0.20452185 0.17051 -0.1385258 -0.153385 0.23628443 0.022876661 0.1491538 -0.13916653
-0.10715745 0.17426012 0.22730576 -0.09045834 0.003956929 -0.14614733 -0.07421792 -0.019462375
00000000: 0a20 debd bb61 223d 168a 29be 24a8 aabd
00000010: ec9d 31be b5b0 2dbc 1f59 22be b345 1dbe
00000020: 2d6e 513e 2c9a 2e3e b5d9 0dbe f510 1dbe
00000030: 8cf4 713e d667 bb3c c6bb 183e ac81 0ebe
00000040: 5d75 dbbd 3f71 323e d7c2 683e 3942 b9bd
00000050: 20a9 813b a5a7 15be 91ff 97bd 8f6f 9fbc
